models/prototyping6/tcn_fold_1/best.pth (torch, 224151 bytes, 130 tensors)

tcn.d_reduce.weight f4 [32, 1, 1]
0	0x3f43b60b	0.7644965
1	0xbf0e441a	-0.55572665
2	0x3f3666d2	0.7125064
3	0x3e1e277b	0.15444748
4	0x3f4dfc7e	0.804634
5	0x3f02d316	0.5110334
6	0xbf34c4dc	-0.70612884
7	0x3f0578e5	0.52137595
8	0xbf3d3189	-0.7390371
9	0x3f7f84f1	0.9981223
10	0xbe9a440d	-0.30130044
11	0x3f11aba4	0.5690253
12	0x3f82577d	1.0182949
13	0x3e9c821a	0.3056801
14	0x3eac7f3e	0.33690828
15	0xbf587418	-0.84552145
16	0x3ee54be3	0.4478446
17	0x3e2086c4	0.15676409
18	0x3f6f6614	0.93515134
19	0xbc953cc9	-0.018217461
20	0x3f277682	0.65415204
21	0x3f3e8af5	0.7443078
22	0x3f581431	0.8440581
23	0x3e8431a3	0.2581912
24	0x3ee02d65	0.43784633
25	0x3f26dd87	0.65181774
26	0xbf27dccf	-0.655713
27	0xbf7b30f8	-0.98121595
28	0xbe77cbc2	-0.24198821
29	0xbeee1a6c	-0.46504533
30	0xbf644c3f	-0.8917884
31	0xbf81aa0c	-1.0130019

tcn.d_reduce.bias f4 [32]
0	0x3f192681	0.5982438
1	0xbf3343c1	-0.7002526
2	0x3f0035b9	0.50081974
3	0xbf306384	-0.6890185
4	0x3dcae268	0.09906465
5	0x3f540ec8	0.82835054
6	0x3ec189f1	0.37800553
7	0x3f226fac	0.6345165
8	0xbf5575e5	-0.8338302
9	0xbf4fcf17	-0.8117537
10	0xbef4882f	-0.4776015
11	0x3d30fde1	0.043210868
12	0x3da351ce	0.079745874
13	0x3df04a1a	0.11732884
14	0x3d349c4f	0.04409438
15	0xbe894e5a	-0.2681759
16	0x3f2e2052	0.68018067
17	0xbf0cec94	-0.5504849
18	0x3f589706	0.84605443
19	0xbf3775d2	-0.71664155
20	0xbf197b18	-0.5995345
21	0xbf5472cb	-0.8298766
22	0xbf24d0fe	-0.64381397
23	0x3f157ad4	0.58390546
24	0x3ecf5d3d	0.40500823
25	0x3def5d38	0.11687702
26	0xbea317aa	-0.31853992
27	0x3df6376d	0.120222904
28	0x3f6ca188	0.9243398
29	0xbe771045	-0.241273
30	0x3e980162	0.29688555
31	0xbe243ce3	-0.16038851

tcn.network.0.conv1.bias f4 [32]
0	0xbd7a7c9e	-0.061154
1	0xbe030519	-0.12794913
2	0xbd589cfc	-0.052884087
3	0x3d889892	0.066697255
4	0xbe282fd9	-0.16424502
5	0xbd2be203	-0.04196359
6	0x3d65d781	0.056113724
7	0x3d061024	0.032730237
8	0x3d843ccf	0.06456911
9	0x3bca489d	0.006173207
10	0xbc9634bd	-0.018335694
11	0xbe28bc07	-0.16477977
12	0x3d17c6f9	0.03705499
13	0xbbc10db3	-0.0058915257
14	0xbdede6dd	-0.11616299
15	0xbe084d46	-0.13310727
16	0x3d0014cc	0.031269833
17	0xbdfc4136	-0.123171255
18	0xbdea9a4e	-0.114552125
19	0x3cd73438	0.026270017
20	0xbd924ad0	-0.071431756
21	0xbe0467a6	-0.12930164
22	0xbe0f77c5	-0.14010532
23	0xbe139941	-0.1441393
24	0xbc5bf24d	-0.013424468
25	0xbe02779c	-0.1274094
26	0xbe359fdb	-0.17736761
27	0xbdbd0525	-0.09229497
28	0x3d539577	0.051656213
29	0xbdb9b890	-0.09068406
30	0xbd6ff040	-0.05857873
31	0xbd3afc61	-0.045650844

tcn.network.0.conv1.weight_g f4 [32, 1, 1]
0	0x3eeedfa9	0.46655014
1	0x3f07102a	0.5275904
2	0x3f09a985	0.5377429
3	0x3f1b4342	0.606495
4	0x3f0706b6	0.52744615
5	0x3f002179	0.50051075
6	0x3f13d6e5	0.5774978
7	0x3f091f17	0.53563064
8	0x3f0ef742	0.55846035
9	0x3f05a178	0.52199507
10	0x3f088604	0.5332949
11	0x3f178b3a	0.5919682
12	0x3ef93d2e	0.4867949
13	0x3f1051de	0.5637492
14	0x3f01cdf4	0.50704885
15	0x3f1c0c57	0.6095633
16	0x3f178b75	0.5919717
17	0x3f023c67	0.50873417
18	0x3f035208	0.51297045
19	0x3f020dd5	0.50802356
20	0x3f1dee27	0.61691517
21	0x3f1acf42	0.604725
22	0x3f0f8a78	0.5607066
23	0x3f06b1db	0.52615136
24	0x3f0578ab	0.5213725
25	0x3f27a0e4	0.65479875
26	0x3f14713f	0.579853
27	0x3f1917b7	0.5980181
28	0x3ee58785	0.44829956
29	0x3f116385	0.5679248
30	0x3f05a8fc	0.52210975
31	0x3f08a6da	0.53379595

tcn.network.0.conv1.weight_v f4 [32, 32, 2]
0	0x3d2f69a5	0.04282536
1	0xbc6bb538	-0.014386468
2	0x3db7532b	0.0895141
3	0x3d301add	0.04299437
4	0x3c00039a	0.007813359
5	0x3c1f1b71	0.009711132
6	0x3d3148b3	0.043282222
7	0x3a924977	0.001116081
8	0xbbcfcb0f	-0.006341345
9	0xbdbafbf3	-0.09130087
10	0x3daa1843	0.08305409
11	0x3be58bfb	0.0070052124
12	0x3d1232b8	0.0356929
13	0x3d72c7a1	0.059272412
14	0xbb96449d	-0.004585816
15	0xbdfbf677	-0.12302869
16	0xbd45d3f2	-0.04829783
17	0xbdcbc215	-0.099491276
18	0x3bbd3aa7	0.005774814
19	0x3cb0f543	0.021601325
20	0x3d94688c	0.07246503
21	0x3d816b66	0.06319313
22	0x3de08b35	0.10964052
23	0xbb6d071d	-0.003616757
24	0x3d660e7f	0.05616617
25	0xbdac226e	-0.084050044
26	0x3cc1be72	0.023650382
27	0x3d7553e4	0.059894457
28	0x3d93bdd2	0.0721394
29	0x3d44ef11	0.048079554
30	0x3e05d8fb	0.13071053
31	0xbdd8ca3b	-0.105854474
32	0xbd9b59b9	-0.075854726
33	0x3dfec7e4	0.1244047
34	0x3de0396c	0.10948452
35	0xbc60a4ea	-0.013711194
36	0xbd4b9344	-0.04970099
37	0xbd6fe800	-0.05857086
38	0x3d0aba3e	0.03386902
39	0x3c42fcfd	0.011901137
40	0x3e07e51d	0.13270994
41	0xbcfd9e8f	-0.030959396
42	0x3c84f495	0.016229907
43	0xbcb82c31	-0.02248201
44	0x3dd9a07f	0.10626315
45	0x3d1fb232	0.0389883
46	0xbd7a3061	-0.061081294
47	0xbd5cd9bf	-0.053918596
48	0xbdde1fdc	-0.108459204
49	0xbe0608d6	-0.13089308
50	0xbdd0e5d3	-0.102000855
51	0xbba2e460	-0.004971072
52	0xbd9b25f0	-0.075755954
53	0x3c0938ba	0.008375341
54	0xbd740bbf	-0.059581514
55	0x3d2af9b7	0.041742053
56	0xbd34e926	-0.04416766
57	0xbd8a7b6c	-0.06761822
58	0xbd475cd0	-0.048672497
59	0x3d4ffc26	0.050777577
60	0xbce69a86	-0.028149854
61	0xbd18e92d	-0.03733175
62	0xbd1135f6	-0.03545185
63	0x3d6ff02a	0.058578648
64	0xbd259695	-0.04042681
65	0x3da18718	0.07887095
66	0xbc9042c5	-0.017609963
67	0x3daafba6	0.083487794
68	0x3d73973c	0.0594704
69	0x3dbabbfe	0.09117888
70	0x3daabd18	0.08336848
71	0x3e0817e9	0.13290371
72	0xbb90d130	-0.0044194683
73	0xbd2c602d	-0.042083908
74	0x3d9c549b	0.07633325
75	0xbd36bd9a	-0.044614412
76	0xbc8a023e	-0.016846772
77	0xbd358033	-0.044311713
78	0x3d31d9e4	0.043420687
79	0x3d55a320	0.05215752
80	0xbd864457	-0.065560035
81	0x3b294782	0.0025829975
82	0xbc654a8a	-0.013994822
83	0x3bff8746	0.0077981083
84	0x3d8b94f6	0.068155214
85	0x3da60bd1	0.081077226
86	0x3bcc9a5e	0.006243988
87	0xbc80c6bf	-0.01571977
88	0x3dae5e14	0.08514038
89	0xbd26759e	-0.040639512
90	0xbd28a299	-0.04117069
91	0xbd937dba	-0.07201715
92	0x3da24e58	0.07925099
93	0x3dc666b3	0.09687557
94	0x3dcbe48e	0.09955703
95	0x3c619323	0.01376799
96	0xbd29592b	-0.041344803
97	0x3a6ce807	0.00090372603
98	0xbdb9c883	-0.09071448
99	0xbcfa4f3d	-0.030555362
100	0xbe12d0a6	-0.14337406
101	0x3d499cd4	0.04922183
102	0x3d549e6d	0.0519089
103	0xbcc1b01f	-0.023643551
104	0x3dafa47f	0.08576297
105	0xbda0424b	-0.078251444
106	0x3db221bb	0.0869784
107	0x3db18e56	0.086697266
108	0xbc0758ac	-0.008260887
109	0xbd8057d9	-0.062667556
110	0x3d9601c2	0.07324554
111	0xbbb2e902	-0.0054599056
112	0x3db90177	0.090334825
113	0xbdeafeb5	-0.11474363
114	0x3dc9bd2a	0.09850533
115	0x3dabb8c5	0.08384851
116	0xbd805e40	-0.06267977
117	0x3e007900	0.12546158
118	0x3e0f04a8	0.1396662
119	0x3df0191d	0.1172354
120	0xbd8c79fc	-0.06859204
121	0xbd9d9e67	-0.076962285
122	0x3d02a556	0.031895958
123	0xbd7d11cb	-0.061784547
124	0xbc2e154a	-0.010625193
125	0x3c3858b5	0.011251618
126	0xbc133535	-0.0089848535
127	0xbcbb20a7	-0.022842718
128	0x3d4fad89	0.050702605
129	0x3d552add	0.05204283
130	0x3cbffb33	0.02343521
131	0x3bb686f2	0.005570286
132	0x3dccb37e	0.09995173
133	0x3dcceb56	0.10005824
134	0x3dc65713	0.09684577
135	0x3dcf4f91	0.10122598
136	0xbdf4c85f	-0.1195228
137	0xba6a796d	-0.00089444855
138	0xbd12a393	-0.035800528
139	0xbd9e8601	-0.07740403
140	0x3e04f790	0.12985063
141	0xbda8306e	-0.08212362
142	0xbda645a1	-0.081187494
143	0x3af25ce5	0.001849082
144	0x3d288784	0.041144863
145	0xbcdecbba	-0.027196754
146	0x3d2e9959	0.042626712
147	0x3d44cb08	0.04804519
148	0xbd170e9f	-0.036879178
149	0xbcde79a5	-0.027157614
150	0x3db47f71	0.0881337
151	0xbd09177d	-0.033469666
152	0x3d68d827	0.056846764
153	0xbda67551	-0.08127845
154	0x3ce2527c	0.027627222
155	0xbd5f0ba9	-0.05445448
156	0xbdfed133	-0.12442245
157	0xbcd7ad56	-0.02632777
158	0x3d4c9fdd	0.049957145
159	0x3d54ba35	0.051935393
160	0xbc13e164	-0.009025905
161	0xbd53f041	-0.051742796
162	0x3cf58a89	0.029973285
163	0x3af25510	0.0018488485
164	0xbda91b1b	-0.08257123
165	0xbd895773	-0.06706133
166	0xbcb5500a	-0.022132892
167	0x3d38356d	0.044972826
168	0xbd954346	-0.07288222
169	0x3d740066	0.059570692
170	0xbdf10642	-0.11768772
171	0x3de1036b	0.1098698
172	0x3da9bcb6	0.08287947
173	0xbd4eab07	-0.050456073
174	0x3d1543fc	0.036441788
175	0xbc888497	-0.016664786
176	0x3d6d1195	0.057878096
177	0xbddbe7e1	-0.10737587
178	0xbc833ae9	-0.016019301
179	0xbdc7e952	-0.09761299
180	0x3e040dad	0.12895842
181	0xbdcac245	-0.09900335
182	0xbd96162f	-0.0732845
183	0x3e10722d	0.14106055
184	0x3cebfd8c	0.028807424
185	0xbcf07f2e	-0.029357519
186	0x3d8e9e68	0.06963807
187	0xbd4fad8b	-0.050702613
188	0xbdda589a	-0.10661431
189	0xbd409058	-0.047012657
190	0xbda7ff39	-0.08202977
191	0xbda40c4c	-0.08010158
192	0xbdb2cfcf	-0.087310426
193	0x3d1a54fa	0.037678696
194	0x3df00857	0.11720341
195	0x3dff8491	0.12476457
196	0xbb21aef8	-0.002467094
197	0x3e08ca9c	0.1335854
198	0x3e0831ee	0.13300297
199	0x3dd9c777	0.10633748
200	0xbd90ffdc	-0.07080051
201	0x3c10cbd3	0.008837658
202	0xbd712139	-0.058869574
203	0xbd27bca8	-0.0409514
204	0xbdb7200f	-0.089416616
205	0xbc6e2f7a	-0.0145376865
206	0xbdf52a2b	-0.119709335
207	0xbdf0bbc7	-0.11754566
208	0x3c8fa74f	0.017535834
209	0xbdb56b23	-0.08858325
210	0x3d498b45	0.049205083
211	0x3e1c1893	0.1524375
212	0xbdc97d39	-0.098383375
213	0xbd70a412	-0.05875022
214	0xbd48a876	-0.048988782
215	0xbd9de81e	-0.077102885
216	0xbce4f448	-0.027948514
217	0xbdcb9371	-0.099402316
218	0xbdd65cc1	-0.1046691
219	0xbdaf6fef	-0.085662715
220	0x3e1439e4	0.14475209
221	0xbdbd86a9	-0.092542
222	0x3d8a96fa	0.06767078
223	0xbdf39d65	-0.11895255
224	0x3d9e3bfb	0.07726284
225	0xbdf10c4c	-0.117699236
226	0xbc3dbbba	-0.011580402
227	0x3ca50a21	0.020146431
228	0xbc960070	-0.018310755
229	0x3d887379	0.0666265
230	0xbc2897d1	-0.010290102
231	0x3c22ba40	0.009932101
232	0xbd9fb50b	-0.07798203
233	0xbda2f69b	-0.079571925
234	0x3ca86eda	0.02056067
235	0x3cbd9f93	0.02314738
236	0x3e149d5c	0.14513153
237	0xbd89989a	-0.067185596
238	0xbdb24ad1	-0.08705676
239	0x3d939d5d	0.07207749
240	0xbc43c6c7	-0.011949248
241	0xbdb10be5	-0.08644847
242	0xbd381ec3	-0.04495121
243	0xbd734783	-0.05939437
244	0xbdcf7e2a	-0.10131486
245	0xbdf84851	-0.12123168
246	0x3d830f44	0.06399396
247	0x3dd8e6c9	0.10590894
248	0x3da72a24	0.081623346
249	0xbe2597b7	-0.16171156
250	0xbd502159	-0.050813053
251	0xbda2ac36	-0.07943003
252	0xbd205f46	-0.03915336
253	0xbd978838	-0.073990285
254	0x3defc7b5	0.11708013
255	0xbd8f1c7d	-0.069878556

tcn.network.0.conv2.bias f4 [32]
0	0xbd0b7973	-0.03405137
1	0xbd4c08dc	-0.049813136
2	0xbd9e932b	-0.07742914
3	0xbc01d45f	-0.007924168
4	0x3d8b3438	0.06797069
5	0x3b636e0b	0.0034703042
6	0xbdde1361	-0.1084354
7	0xbdc19099	-0.09451408
8	0xbda84639	-0.08216519
9	0x3d107a99	0.03527317
10	0xbc40726d	-0.011746031
11	0x3d967269	0.07346041
12	0xbd99c4d7	-0.07508247
13	0x3c347f4a	0.011016676
14	0xbd399826	-0.045311116
15	0xbca92cdc	-0.020651273
16	0x3db4894b	0.08815249
17	0xbe0667b1	-0.13125493
18	0xbd0c0ad3	-0.03419001
19	0x3c31df81	0.01085651
20	0xbdc4505d	-0.095856406
21	0xbe47288f	-0.19449066
22	0xbd952309	-0.07282073
23	0xbd927c42	-0.071526065
24	0x3d99c877	0.07508939
25	0xbd4e0976	-0.05030199
26	0xbe775945	-0.24155147
27	0xbdaa1d42	-0.08306362
28	0xbd4af1e2	-0.049547084
29	0xbd430817	-0.047615137
30	0xbc31a1be	-0.010841785
31	0xbdab7200	-0.08371353

tcn.network.0.conv2.weight_g f4 [32, 1, 1]
0	0x3f0597a6	0.5218452
1	0x3f0ed196	0.5578855
2	0x3f0a1246	0.53934133
3	0x3f0158ef	0.50526327
4	0x3f152b5b	0.5826928
5	0x3f0dde13	0.55416983
6	0x3f0e90e2	0.55689824
7	0x3f093be8	0.53607035
8	0x3f176815	0.5914319
9	0x3f002207	0.5005192
10	0x3f1b12f3	0.6057579
11	0x3f124be8	0.57147074
12	0x3f00b074	0.50269246
13	0x3f05b1c5	0.5222438
14	0x3f11b5d3	0.56918067
15	0x3f0940fe	0.53614795
16	0x3f133290	0.5749903
17	0x3f222b25	0.63347083
18	0x3f07d4e5	0.53059226
19	0x3efcd252	0.49379212
20	0x3f0f5896	0.55994546
21	0x3f2f35af	0.6844129
22	0x3f02ee8c	0.51145244
23	0x3f09d13a	0.5383488
24	0x3f077da8	0.5292611
25	0x3f0d5c27	0.5521874
26	0x3f0bf6f3	0.5467369
27	0x3f02d5f0	0.5110769
28	0x3f04d4a0	0.5188694
29	0x3f0a4389	0.540093
30	0x3f1affa3	0.6054632
31	0x3f146096	0.5795988

tcn.network.0.conv2.weight_v f4 [32, 32, 2]
0	0xbdbeb018	-0.09310931
1	0x3d1d2885	0.03836872
2	0x3e1a3bc8	0.15061867
3	0x3e259b33	0.16172485
4	0x3e154ef5	0.14580901
5	0xbe18bd22	-0.14915898
6	0x3cff5494	0.03116826
7	0xbc661083	-0.014042023
8	0x3dc38a54	0.09547868
9	0xbd2eb862	-0.04265631
10	0x3ba02856	0.004887621
11	0xbdf8828b	-0.12134274
12	0x3d24d7ca	0.040244855
13	0x3c69dc52	0.01427372
14	0x3dfb8c0c	0.12282571
15	0xbdd73bc6	-0.10509448
16	0xbd528dcf	-0.05140477
17	0x3dc9991d	0.09843657
18	0x3e5790ae	0.21051285
19	0xbd14c909	-0.036324535
20	0xbdd7c7cd	-0.10536156
21	0x3d2a1e9f	0.04153311
22	0x3e20a569	0.15688099
23	0x3d481798	0.048850626
24	0xbe0959bd	-0.13413139
25	0x3e250136	0.16113743
26	0xbdaa64f9	-0.0832004
27	0x3c920796	0.017825883
28	0x3c3b61d5	0.011436899
29	0x3bc681a7	0.006057936
30	0x3ce342b2	0.027741764
31	0x3e0a578a	0.13509956
32	0xbd894a0c	-0.067035764
33	0x3df107a9	0.11769039
34	0x3dce02a9	0.10059101
35	0xbd28ba5c	-0.04119335
36	0xbc2bb17e	-0.010479329
37	0x3d007deb	0.031370085
38	0x3df390fd	0.11892889
39	0x3d8bc16b	0.06824001
40	0x3d65be51	0.056089703
41	0x3d1445e1	0.036199454
42	0x3e2a07d9	0.16604556
43	0xbe0b6cf4	-0.13615781
44	0x3e235f28	0.15954268
45	0xbd899e82	-0.06719686
46	0x3dc7af69	0.09750254
47	0x3da1a54f	0.07892858
48	0x3d47313c	0.048630938
49	0xbd24144e	-0.040058427
50	0x3d8cb9fe	0.06871413
51	0x3e4964b3	0.1966732
52	0xbc387a5b	-0.011259641
53	0x3df42ceb	0.1192263
54	0xbdd923f9	-0.10602564
55	0x36d9ab45	6.4870424e-06
56	0x3ccacb24	0.024755068
57	0xbd400e24	-0.046888486
58	0xbe0f8c09	-0.14018263
59	0x3db13087	0.08651834
60	0xbde8eaa8	-0.11372882
61	0x3dc5d64b	0.09660014
62	0x3d854c82	0.06508733
63	0xbbf19e02	-0.0073735723
64	0xbd514b61	-0.051097278
65	0xbd76538d	-0.060138274
66	0x37aa5b9a	2.0308235e-05
67	0xbbc42ae0	-0.0059865564
68	0x360c135e	2.0872899e-06
69	0x3d71873b	0.058966856
70	0xbd8a7c3c	-0.06761977
71	0x3daaea22	0.083454385
72	0x388eba0c	6.8057416e-05
73	0x3a5fe4a8	0.00085408473
74	0xbd7ba341	-0.061434988
75	0xbcc20282	-0.023682836
76	0xbd3bd286	-0.045855068
77	0x3801fa48	3.098909e-05
78	0x3c5d995b	0.013525332
79	0x3d770685	0.060308952
80	0xbb05896c	-0.00203761
81	0xbd48c5de	-0.049016826
82	0x3df7a24e	0.12091504
83	0x3d583329	0.052783165
84	0x3c163f5b	0.009170379
85	0xbd5f4c4d	-0.054516125
86	0x3c4a8e1f	0.012362986
87	0x3ea9cf21	0.3316584
88	0x3d790c17	0.060802545
89	0x3c5bf8a9	0.013425984
90	0x35d5ec86	1.5938574e-06
91	0xb5e44f94	-1.7010484e-06
92	0x3db06fa9	0.086150475
93	0x3e723ab9	0.23655213
94	0xbdc47011	-0.095916875
95	0x3731be01	1.0594261e-05
96	0xbd5df8a4	-0.0541922
97	0xbce332e1	-0.027734222
98	0x3e2004eb	0.15626876
99	0x3d8dc1bd	0.06921718
100	0x3da12b97	0.07869642
101	0x3d786deb	0.0606517
102	0x398336e9	0.00025027178
103	0xb98be13b	-0.00026679956
104	0xb78b0813	-1.6573851e-05
105	0xb3b7fed9	-8.567958e-08
106	0x3dc07d27	0.09398871
107	0xbc389f44	-0.011268441
108	0x3db07153	0.08615365
109	0x3e363845	0.17794903
110	0x3e08eb9b	0.13371126
111	0x3e771121	0.24127628
112	0xbda11d84	-0.07866958
113	0xbc8d46f8	-0.017245755
114	0x3cae39d1	0.021267803
115	0x3c236b60	0.009974331
116	0x3e1463db	0.14491217
117	0x3d1c35c5	0.038137216
118	0xbd5cdff8	-0.05392453
119	0xb4bb0fc9	-3.484295e-07
120	0xbdbbee00	-0.09176254
121	0xbc290f33	-0.010318565
122	0x3c83bcd0	0.016081244
123	0xbd83d1d0	-0.06436503
124	0xbb510fbf	-0.0031900255
125	0x39a29fa5	0.00031017992
126	0xbbcade14	-0.0061910246
127	0x3a13ad27	0.00056334067
128	0xbe3e4453	-0.18580751
129	0xbdbca7a8	-0.092116654
130	0x3df91943	0.121630214
131	0xbdc82b98	-0.0977394
132	0x3bb87cd2	0.005630114
133	0xbe043604	-0.1291123
134	0xbdbb4d64	-0.091456205
135	0xbd0c5438	-0.034260005
136	0x3e005930	0.12534022
137	0xbd87c9be	-0.06630276
138	0xbdb3acbd	-0.087731816
139	0xbe3a4437	-0.18190084
140	0x3de60b1e	0.11232589
141	0x3b19aafd	0.0023447864
142	0x3e3a1411	0.18171717
143	0xbd7b7da3	-0.061399113
144	0x3d079c37	0.033107962
145	0x3d862f85	0.065520324
146	0x3e229c8d	0.15880032
147	0x3e045f03	0.12926869
148	0x3d23fa10	0.0400334
149	0xbcaf4a69	-0.021397786
150	0xbe3814a6	-0.17976627
151	0x3dbd8750	0.092543244
152	0xbe104e65	-0.14092405
153	0x3c2244b9	0.00990408
154	0x3da843e4	0.08216074
155	0x3d8b7e33	0.0681118
156	0xbe187edd	-0.14892145
157	0xbe316dfa	-0.17327109
158	0xbbe01e9a	-0.0068395855
159	0x3d1257f6	0.035728417
160	0xbd162ff3	-0.03666682
161	0x3db5a894	0.08870044
162	0x3e0933b4	0.1339863
163	0x3e2758f4	0.16342527
164	0x3d42eead	0.0475909
165	0x3bab6724	0.005230801
166	0xbc1c3aa7	-0.009535468
167	0xbe0f740d	-0.14009114
168	0xbd2652d9	-0.040606353
169	0x3ccdd053	0.02512375
170	0xbe3620d9	-0.17785968
171	0xbc2a7ea7	-0.010406173
172	0xbe1dea35	-0.15421374
173	0x3e07289c	0.13199085
174	0xbe1ace48	-0.15117753
175	0x3d9b8398	0.07593459
176	0x3d8139cd	0.06309853
177	0xbddff593	-0.109355114
178	0x3e277c09	0.1635591
179	0xbdda69de	-0.10664724
180	0xbe17d0ea	-0.14825788
181	0xbd586546	-0.052830957
182	0xbe1e682b	-0.15469424
183	0x3de12342	0.10993053
184	0x3b03893d	0.0020070814
185	0x3d3b5aa4	0.04574074
186	0x3ddaad44	0.10677579
187	0x3d374ddb	0.044751983
188	0xbdc3b311	-0.095556386
189	0xbe1fa604	-0.15590674
190	0x3b2adfc3	0.0026073314
191	0x3d26b7ad	0.04070251
192	0xbdd34c7e	-0.10317324
193	0x3dede6de	0.116163
194	0x3e24ab5b	0.16080992
195	0x3e171fb5	0.14758189
196	0xbe31366c	-0.17305917
197	0xbd9364fb	-0.07196995
198	0x3d82eab2	0.06392421
199	0x3d936710	0.07197392
200	0xbdeba501	-0.11506081
201	0xbe069dbe	-0.13146111
202	0x3dbec234	0.09314385
203	0x3d825bd6	0.063651726
204	0xbe400b5c	-0.18754333
205	0xbde5ec08	-0.1122666
206	0x3e31ad34	0.17351228
207	0x39d8d657	0.00041358426
208	0xbe01c5a6	-0.12673053
209	0x3e01cf80	0.12676811
210	0x3d65f2ce	0.05613976
211	0xbda67a50	-0.08128798
212	0xbd5271b4	-0.051377967
213	0xbd34f6f8	-0.04418084
214	0xbd12a69b	-0.03580342
215	0xbcd896ad	-0.026439035
216	0xbddc47c9	-0.107558794
217	0x3e35027b	0.17676727
218	0x3e126fd8	0.14300478
219	0xbd844420	-0.06458306
220	0x3d481995	0.048852522
221	0xbd2032ca	-0.039110936
222	0xbd3a63f0	-0.045505464
223	0xbe28a282	-0.16468242
224	0xbb03bf61	-0.0020103084
225	0xbdcfdeab	-0.101498924
226	0x3d8d46f5	0.068982996
227	0xbe43a219	-0.19104804
228	0x3d967424	0.07346371
229	0xbb9d70ef	-0.0048047225
230	0x3e241486	0.16023454
231	0xbbdcb5a7	-0.006735522
232	0x3ddca102	0.10772897
233	0x3e39e9da	0.18155614
234	0xbda3f59f	-0.08005833
235	0x3d6299d8	0.055322498
236	0x3e08e705	0.13369377
237	0xbd3ee154	-0.04660161
238	0x3de6f3d6	0.11276977
239	0x3cbb1585	0.02283741
240	0xbd2b5560	-0.041829467
241	0xbe4f2980	-0.20230675
242	0xbe1a0783	-0.15041928
243	0x3e03bb60	0.12864447
244	0x3d8274ad	0.063699104
245	0xbd36271a	-0.044470884
246	0xbdabf9b9	-0.0839724
247	0xbde2dc2d	-0.110771514
248	0x3d09f024	0.03367628
249	0xbd194c1e	-0.037426107
250	0xbe577a2b	-0.21042697
251	0xbdb5a979	-0.08870215
252	0xbcf30bc4	-0.029668696
253	0x3e1ae3fc	0.15126032
254	0xbe0cea6b	-0.13761298
255	0xbddd1193	-0.10794368

tcn.network.0.net.0.bias f4 [32]
0	0xbd7a7c9e	-0.061154
1	0xbe030519	-0.12794913
2	0xbd589cfc	-0.052884087
3	0x3d889892	0.066697255
4	0xbe282fd9	-0.16424502
5	0xbd2be203	-0.04196359
6	0x3d65d781	0.056113724
7	0x3d061024	0.032730237
8	0x3d843ccf	0.06456911
9	0x3bca489d	0.006173207
10	0xbc9634bd	-0.018335694
11	0xbe28bc07	-0.16477977
12	0x3d17c6f9	0.03705499
13	0xbbc10db3	-0.0058915257
14	0xbdede6dd	-0.11616299
15	0xbe084d46	-0.13310727
16	0x3d0014cc	0.031269833
17	0xbdfc4136	-0.123171255
18	0xbdea9a4e	-0.114552125
19	0x3cd73438	0.026270017
20	0xbd924ad0	-0.071431756
21	0xbe0467a6	-0.12930164
22	0xbe0f77c5	-0.14010532
23	0xbe139941	-0.1441393
24	0xbc5bf24d	-0.013424468
25	0xbe02779c	-0.1274094
26	0xbe359fdb	-0.17736761
27	0xbdbd0525	-0.09229497
28	0x3d539577	0.051656213
29	0xbdb9b890	-0.09068406
30	0xbd6ff040	-0.05857873
31	0xbd3afc61	-0.045650844

tcn.network.0.net.0.weight_g f4 [32, 1, 1]
0	0x3eeedfa9	0.46655014
1	0x3f07102a	0.5275904
2	0x3f09a985	0.5377429
3	0x3f1b4342	0.606495
4	0x3f0706b6	0.52744615
5	0x3f002179	0.50051075
6	0x3f13d6e5	0.5774978
7	0x3f091f17	0.53563064
8	0x3f0ef742	0.55846035
9	0x3f05a178	0.52199507
10	0x3f088604	0.5332949
11	0x3f178b3a	0.5919682
12	0x3ef93d2e	0.4867949
13	0x3f1051de	0.5637492
14	0x3f01cdf4	0.50704885
15	0x3f1c0c57	0.6095633
16	0x3f178b75	0.5919717
17	0x3f023c67	0.50873417
18	0x3f035208	0.51297045
19	0x3f020dd5	0.50802356
20	0x3f1dee27	0.61691517
21	0x3f1acf42	0.604725
22	0x3f0f8a78	0.5607066
23	0x3f06b1db	0.52615136
24	0x3f0578ab	0.5213725
25	0x3f27a0e4	0.65479875
26	0x3f14713f	0.579853
27	0x3f1917b7	0.5980181
28	0x3ee58785	0.44829956
29	0x3f116385	0.5679248
30	0x3f05a8fc	0.52210975
31	0x3f08a6da	0.53379595

tcn.network.0.net.0.weight_v f4 [32, 32, 2]
0	0x3d2f69a5	0.04282536
1	0xbc6bb538	-0.014386468
2	0x3db7532b	0.0895141
3	0x3d301add	0.04299437
4	0x3c00039a	0.007813359
5	0x3c1f1b71	0.009711132
6	0x3d3148b3	0.043282222
7	0x3a924977	0.001116081
8	0xbbcfcb0f	-0.006341345
9	0xbdbafbf3	-0.09130087
10	0x3daa1843	0.08305409
11	0x3be58bfb	0.0070052124
12	0x3d1232b8	0.0356929
13	0x3d72c7a1	0.059272412
14	0xbb96449d	-0.004585816
15	0xbdfbf677	-0.12302869
16	0xbd45d3f2	-0.04829783
17	0xbdcbc215	-0.099491276
18	0x3bbd3aa7	0.005774814
19	0x3cb0f543	0.021601325
20	0x3d94688c	0.07246503
21	0x3d816b66	0.06319313
22	0x3de08b35	0.10964052
23	0xbb6d071d	-0.003616757
24	0x3d660e7f	0.05616617
25	0xbdac226e	-0.084050044
26	0x3cc1be72	0.023650382
27	0x3d7553e4	0.059894457
28	0x3d93bdd2	0.0721394
29	0x3d44ef11	0.048079554
30	0x3e05d8fb	0.13071053
31	0xbdd8ca3b	-0.105854474
32	0xbd9b59b9	-0.075854726
33	0x3dfec7e4	0.1244047
34	0x3de0396c	0.10948452
35	0xbc60a4ea	-0.013711194
36	0xbd4b9344	-0.04970099
37	0xbd6fe800	-0.05857086
38	0x3d0aba3e	0.03386902
39	0x3c42fcfd	0.011901137
40	0x3e07e51d	0.13270994
41	0xbcfd9e8f	-0.030959396
42	0x3c84f495	0.016229907
43	0xbcb82c31	-0.02248201
44	0x3dd9a07f	0.10626315
45	0x3d1fb232	0.0389883
46	0xbd7a3061	-0.061081294
47	0xbd5cd9bf	-0.053918596
48	0xbdde1fdc	-0.108459204
49	0xbe0608d6	-0.13089308
50	0xbdd0e5d3	-0.102000855
51	0xbba2e460	-0.004971072
52	0xbd9b25f0	-0.075755954
53	0x3c0938ba	0.008375341
54	0xbd740bbf	-0.059581514
55	0x3d2af9b7	0.041742053
56	0xbd34e926	-0.04416766
57	0xbd8a7b6c	-0.06761822
58	0xbd475cd0	-0.048672497
59	0x3d4ffc26	0.050777577
60	0xbce69a86	-0.028149854
61	0xbd18e92d	-0.03733175
62	0xbd1135f6	-0.03545185
63	0x3d6ff02a	0.058578648
64	0xbd259695	-0.04042681
65	0x3da18718	0.07887095
66	0xbc9042c5	-0.017609963
67	0x3daafba6	0.083487794
68	0x3d73973c	0.0594704
69	0x3dbabbfe	0.09117888
70	0x3daabd18	0.08336848
71	0x3e0817e9	0.13290371
72	0xbb90d130	-0.0044194683
73	0xbd2c602d	-0.042083908
74	0x3d9c549b	0.07633325
75	0xbd36bd9a	-0.044614412
76	0xbc8a023e	-0.016846772
77	0xbd358033	-0.044311713
78	0x3d31d9e4	0.043420687
79	0x3d55a320	0.05215752
80	0xbd864457	-0.065560035
81	0x3b294782	0.0025829975
82	0xbc654a8a	-0.013994822
83	0x3bff8746	0.0077981083
84	0x3d8b94f6	0.068155214
85	0x3da60bd1	0.081077226
86	0x3bcc9a5e	0.006243988
87	0xbc80c6bf	-0.01571977
88	0x3dae5e14	0.08514038
89	0xbd26759e	-0.040639512
90	0xbd28a299	-0.04117069
91	0xbd937dba	-0.07201715
92	0x3da24e58	0.07925099
93	0x3dc666b3	0.09687557
94	0x3dcbe48e	0.09955703
95	0x3c619323	0.01376799
96	0xbd29592b	-0.041344803
97	0x3a6ce807	0.00090372603
98	0xbdb9c883	-0.09071448
99	0xbcfa4f3d	-0.030555362
100	0xbe12d0a6	-0.14337406
101	0x3d499cd4	0.04922183
102	0x3d549e6d	0.0519089
103	0xbcc1b01f	-0.023643551
104	0x3dafa47f	0.08576297
105	0xbda0424b	-0.078251444
106	0x3db221bb	0.0869784
107	0x3db18e56	0.086697266
108	0xbc0758ac	-0.008260887
109	0xbd8057d9	-0.062667556
110	0x3d9601c2	0.07324554
111	0xbbb2e902	-0.0054599056
112	0x3db90177	0.090334825
113	0xbdeafeb5	-0.11474363
114	0x3dc9bd2a	0.09850533
115	0x3dabb8c5	0.08384851
116	0xbd805e40	-0.06267977
117	0x3e007900	0.12546158
118	0x3e0f04a8	0.1396662
119	0x3df0191d	0.1172354
120	0xbd8c79fc	-0.06859204
121	0xbd9d9e67	-0.076962285
122	0x3d02a556	0.031895958
123	0xbd7d11cb	-0.061784547
124	0xbc2e154a	-0.010625193
125	0x3c3858b5	0.011251618
126	0xbc133535	-0.0089848535
127	0xbcbb20a7	-0.022842718
128	0x3d4fad89	0.050702605
129	0x3d552add	0.05204283
130	0x3cbffb33	0.02343521
131	0x3bb686f2	0.005570286
132	0x3dccb37e	0.09995173
133	0x3dcceb56	0.10005824
134	0x3dc65713	0.09684577
135	0x3dcf4f91	0.10122598
136	0xbdf4c85f	-0.1195228
137	0xba6a796d	-0.00089444855
138	0xbd12a393	-0.035800528
139	0xbd9e8601	-0.07740403
140	0x3e04f790	0.12985063
141	0xbda8306e	-0.08212362
142	0xbda645a1	-0.081187494
143	0x3af25ce5	0.001849082
144	0x3d288784	0.041144863
145	0xbcdecbba	-0.027196754
146	0x3d2e9959	0.042626712
147	0x3d44cb08	0.04804519
148	0xbd170e9f	-0.036879178
149	0xbcde79a5	-0.027157614
150	0x3db47f71	0.0881337
151	0xbd09177d	-0.033469666
152	0x3d68d827	0.056846764
153	0xbda67551	-0.08127845
154	0x3ce2527c	0.027627222
155	0xbd5f0ba9	-0.05445448
156	0xbdfed133	-0.12442245
157	0xbcd7ad56	-0.02632777
158	0x3d4c9fdd	0.049957145
159	0x3d54ba35	0.051935393
160	0xbc13e164	-0.009025905
161	0xbd53f041	-0.051742796
162	0x3cf58a89	0.029973285
163	0x3af25510	0.0018488485
164	0xbda91b1b	-0.08257123
165	0xbd895773	-0.06706133
166	0xbcb5500a	-0.022132892
167	0x3d38356d	0.044972826
168	0xbd954346	-0.07288222
169	0x3d740066	0.059570692
170	0xbdf10642	-0.11768772
171	0x3de1036b	0.1098698
172	0x3da9bcb6	0.08287947
173	0xbd4eab07	-0.050456073
174	0x3d1543fc	0.036441788
175	0xbc888497	-0.016664786
176	0x3d6d1195	0.057878096
177	0xbddbe7e1	-0.10737587
178	0xbc833ae9	-0.016019301
179	0xbdc7e952	-0.09761299
180	0x3e040dad	0.12895842
181	0xbdcac245	-0.09900335
182	0xbd96162f	-0.0732845
183	0x3e10722d	0.14106055
184	0x3cebfd8c	0.028807424
185	0xbcf07f2e	-0.029357519
186	0x3d8e9e68	0.06963807
187	0xbd4fad8b	-0.050702613
188	0xbdda589a	-0.10661431
189	0xbd409058	-0.047012657
190	0xbda7ff39	-0.08202977
191	0xbda40c4c	-0.08010158
192	0xbdb2cfcf	-0.087310426
193	0x3d1a54fa	0.037678696
194	0x3df00857	0.11720341
195	0x3dff8491	0.12476457
196	0xbb21aef8	-0.002467094
197	0x3e08ca9c	0.1335854
198	0x3e0831ee	0.13300297
199	0x3dd9c777	0.10633748
200	0xbd90ffdc	-0.07080051
201	0x3c10cbd3	0.008837658
202	0xbd712139	-0.058869574
203	0xbd27bca8	-0.0409514
204	0xbdb7200f	-0.089416616
205	0xbc6e2f7a	-0.0145376865
206	0xbdf52a2b	-0.119709335
207	0xbdf0bbc7	-0.11754566
208	0x3c8fa74f	0.017535834
209	0xbdb56b23	-0.08858325
210	0x3d498b45	0.049205083
211	0x3e1c1893	0.1524375
212	0xbdc97d39	-0.098383375
213	0xbd70a412	-0.05875022
214	0xbd48a876	-0.048988782
215	0xbd9de81e	-0.077102885
216	0xbce4f448	-0.027948514
217	0xbdcb9371	-0.099402316
218	0xbdd65cc1	-0.1046691
219	0xbdaf6fef	-0.085662715
220	0x3e1439e4	0.14475209
221	0xbdbd86a9	-0.092542
222	0x3d8a96fa	0.06767078
223	0xbdf39d65	-0.11895255
224	0x3d9e3bfb	0.07726284
225	0xbdf10c4c	-0.117699236
226	0xbc3dbbba	-0.011580402
227	0x3ca50a21	0.020146431
228	0xbc960070	-0.018310755
229	0x3d887379	0.0666265
230	0xbc2897d1	-0.010290102
231	0x3c22ba40	0.009932101
232	0xbd9fb50b	-0.07798203
233	0xbda2f69b	-0.079571925
234	0x3ca86eda	0.02056067
235	0x3cbd9f93	0.02314738
236	0x3e149d5c	0.14513153
237	0xbd89989a	-0.067185596
238	0xbdb24ad1	-0.08705676
239	0x3d939d5d	0.07207749
240	0xbc43c6c7	-0.011949248
241	0xbdb10be5	-0.08644847
242	0xbd381ec3	-0.04495121
243	0xbd734783	-0.05939437
244	0xbdcf7e2a	-0.10131486
245	0xbdf84851	-0.12123168
246	0x3d830f44	0.06399396
247	0x3dd8e6c9	0.10590894
248	0x3da72a24	0.081623346
249	0xbe2597b7	-0.16171156
250	0xbd502159	-0.050813053
251	0xbda2ac36	-0.07943003
252	0xbd205f46	-0.03915336
253	0xbd978838	-0.073990285
254	0x3defc7b5	0.11708013
255	0xbd8f1c7d	-0.069878556

tcn.network.0.net.4.bias f4 [32]
0	0xbd0b7973	-0.03405137
1	0xbd4c08dc	-0.049813136
2	0xbd9e932b	-0.07742914
3	0xbc01d45f	-0.007924168
4	0x3d8b3438	0.06797069
5	0x3b636e0b	0.0034703042
6	0xbdde1361	-0.1084354
7	0xbdc19099	-0.09451408
8	0xbda84639	-0.08216519
9	0x3d107a99	0.03527317
10	0xbc40726d	-0.011746031
11	0x3d967269	0.07346041
12	0xbd99c4d7	-0.07508247
13	0x3c347f4a	0.011016676
14	0xbd399826	-0.045311116
15	0xbca92cdc	-0.020651273
16	0x3db4894b	0.08815249
17	0xbe0667b1	-0.13125493
18	0xbd0c0ad3	-0.03419001
19	0x3c31df81	0.01085651
20	0xbdc4505d	-0.095856406
21	0xbe47288f	-0.19449066
22	0xbd952309	-0.07282073
23	0xbd927c42	-0.071526065
24	0x3d99c877	0.07508939
25	0xbd4e0976	-0.05030199
26	0xbe775945	-0.24155147
27	0xbdaa1d42	-0.08306362
28	0xbd4af1e2	-0.049547084
29	0xbd430817	-0.047615137
30	0xbc31a1be	-0.010841785
31	0xbdab7200	-0.08371353

tcn.network.0.net.4.weight_g f4 [32, 1, 1]
0	0x3f0597a6	0.5218452
1	0x3f0ed196	0.5578855
2	0x3f0a1246	0.53934133
3	0x3f0158ef	0.50526327
4	0x3f152b5b	0.5826928
5	0x3f0dde13	0.55416983
6	0x3f0e90e2	0.55689824
7	0x3f093be8	0.53607035
8	0x3f176815	0.5914319
9	0x3f002207	0.5005192
10	0x3f1b12f3	0.6057579
11	0x3f124be8	0.57147074
12	0x3f00b074	0.50269246
13	0x3f05b1c5	0.5222438
14	0x3f11b5d3	0.56918067
15	0x3f0940fe	0.53614795
16	0x3f133290	0.5749903
17	0x3f222b25	0.63347083
18	0x3f07d4e5	0.53059226
19	0x3efcd252	0.49379212
20	0x3f0f5896	0.55994546
21	0x3f2f35af	0.6844129
22	0x3f02ee8c	0.51145244
23	0x3f09d13a	0.5383488
24	0x3f077da8	0.5292611
25	0x3f0d5c27	0.5521874
26	0x3f0bf6f3	0.5467369
27	0x3f02d5f0	0.5110769
28	0x3f04d4a0	0.5188694
29	0x3f0a4389	0.540093
30	0x3f1affa3	0.6054632
31	0x3f146096	0.5795988

tcn.network.0.net.4.weight_v f4 [32, 32, 2]
0	0xbdbeb018	-0.09310931
1	0x3d1d2885	0.03836872
2	0x3e1a3bc8	0.15061867
3	0x3e259b33	0.16172485
4	0x3e154ef5	0.14580901
5	0xbe18bd22	-0.14915898
6	0x3cff5494	0.03116826
7	0xbc661083	-0.014042023
8	0x3dc38a54	0.09547868
9	0xbd2eb862	-0.04265631
10	0x3ba02856	0.004887621
11	0xbdf8828b	-0.12134274
12	0x3d24d7ca	0.040244855
13	0x3c69dc52	0.01427372
14	0x3dfb8c0c	0.12282571
15	0xbdd73bc6	-0.10509448
16	0xbd528dcf	-0.05140477
17	0x3dc9991d	0.09843657
18	0x3e5790ae	0.21051285
19	0xbd14c909	-0.036324535
20	0xbdd7c7cd	-0.10536156
21	0x3d2a1e9f	0.04153311
22	0x3e20a569	0.15688099
23	0x3d481798	0.048850626
24	0xbe0959bd	-0.13413139
25	0x3e250136	0.16113743
26	0xbdaa64f9	-0.0832004
27	0x3c920796	0.017825883
28	0x3c3b61d5	0.011436899
29	0x3bc681a7	0.006057936
30	0x3ce342b2	0.027741764
31	0x3e0a578a	0.13509956
32	0xbd894a0c	-0.067035764
33	0x3df107a9	0.11769039
34	0x3dce02a9	0.10059101
35	0xbd28ba5c	-0.04119335
36	0xbc2bb17e	-0.010479329
37	0x3d007deb	0.031370085
38	0x3df390fd	0.11892889
39	0x3d8bc16b	0.06824001
40	0x3d65be51	0.056089703
41	0x3d1445e1	0.036199454
42	0x3e2a07d9	0.16604556
43	0xbe0b6cf4	-0.13615781
44	0x3e235f28	0.15954268
45	0xbd899e82	-0.06719686
46	0x3dc7af69	0.09750254
47	0x3da1a54f	0.07892858
48	0x3d47313c	0.048630938
49	0xbd24144e	-0.040058427
50	0x3d8cb9fe	0.06871413
51	0x3e4964b3	0.1966732
52	0xbc387a5b	-0.011259641
53	0x3df42ceb	0.1192263
54	0xbdd923f9	-0.10602564
55	0x36d9ab45	6.4870424e-06
56	0x3ccacb24	0.024755068
57	0xbd400e24	-0.046888486
58	0xbe0f8c09	-0.14018263
59	0x3db13087	0.08651834
60	0xbde8eaa8	-0.11372882
61	0x3dc5d64b	0.09660014
62	0x3d854c82	0.06508733
63	0xbbf19e02	-0.0073735723
64	0xbd514b61	-0.051097278
65	0xbd76538d	-0.060138274
66	0x37aa5b9a	2.0308235e-05
67	0xbbc42ae0	-0.0059865564
68	0x360c135e	2.0872899e-06
69	0x3d71873b	0.058966856
70	0xbd8a7c3c	-0.06761977
71	0x3daaea22	0.083454385
72	0x388eba0c	6.8057416e-05
73	0x3a5fe4a8	0.00085408473
74	0xbd7ba341	-0.061434988
75	0xbcc20282	-0.023682836
76	0xbd3bd286	-0.045855068
77	0x3801fa48	3.098909e-05
78	0x3c5d995b	0.013525332
79	0x3d770685	0.060308952
80	0xbb05896c	-0.00203761
81	0xbd48c5de	-0.049016826
82	0x3df7a24e	0.12091504
83	0x3d583329	0.052783165
84	0x3c163f5b	0.009170379
85	0xbd5f4c4d	-0.054516125
86	0x3c4a8e1f	0.012362986
87	0x3ea9cf21	0.3316584
88	0x3d790c17	0.060802545
89	0x3c5bf8a9	0.013425984
90	0x35d5ec86	1.5938574e-06
91	0xb5e44f94	-1.7010484e-06
92	0x3db06fa9	0.086150475
93	0x3e723ab9	0.23655213
94	0xbdc47011	-0.095916875
95	0x3731be01	1.0594261e-05
96	0xbd5df8a4	-0.0541922
97	0xbce332e1	-0.027734222
98	0x3e2004eb	0.15626876
99	0x3d8dc1bd	0.06921718
100	0x3da12b97	0.07869642
101	0x3d786deb	0.0606517
102	0x398336e9	0.00025027178
103	0xb98be13b	-0.00026679956
104	0xb78b0813	-1.6573851e-05
105	0xb3b7fed9	-8.567958e-08
106	0x3dc07d27	0.09398871
107	0xbc389f44	-0.011268441
108	0x3db07153	0.08615365
109	0x3e363845	0.17794903
110	0x3e08eb9b	0.13371126
111	0x3e771121	0.24127628
112	0xbda11d84	-0.07866958
113	0xbc8d46f8	-0.017245755
114	0x3cae39d1	0.021267803
115	0x3c236b60	0.009974331
116	0x3e1463db	0.14491217
117	0x3d1c35c5	0.038137216
118	0xbd5cdff8	-0.05392453
119	0xb4bb0fc9	-3.484295e-07
120	0xbdbbee00	-0.09176254
121	0xbc290f33	-0.010318565
122	0x3c83bcd0	0.016081244
123	0xbd83d1d0	-0.06436503
124	0xbb510fbf	-0.0031900255
125	0x39a29fa5	0.00031017992
126	0xbbcade14	-0.0061910246
127	0x3a13ad27	0.00056334067
128	0xbe3e4453	-0.18580751
129	0xbdbca7a8	-0.092116654
130	0x3df91943	0.121630214
131	0xbdc82b98	-0.0977394
132	0x3bb87cd2	0.005630114
133	0xbe043604	-0.1291123
134	0xbdbb4d64	-0.091456205
135	0xbd0c5438	-0.034260005
136	0x3e005930	0.12534022
137	0xbd87c9be	-0.06630276
138	0xbdb3acbd	-0.087731816
139	0xbe3a4437	-0.18190084
140	0x3de60b1e	0.11232589
141	0x3b19aafd	0.0023447864
142	0x3e3a1411	0.18171717
143	0xbd7b7da3	-0.061399113
144	0x3d079c37	0.033107962
145	0x3d862f85	0.065520324
146	0x3e229c8d	0.15880032
147	0x3e045f03	0.12926869
148	0x3d23fa10	0.0400334
149	0xbcaf4a69	-0.021397786
150	0xbe3814a6	-0.17976627
151	0x3dbd8750	0.092543244
152	0xbe104e65	-0.14092405
153	0x3c2244b9	0.00990408
154	0x3da843e4	0.08216074
155	0x3d8b7e33	0.0681118
156	0xbe187edd	-0.14892145
157	0xbe316dfa	-0.17327109
158	0xbbe01e9a	-0.0068395855
159	0x3d1257f6	0.035728417
160	0xbd162ff3	-0.03666682
161	0x3db5a894	0.08870044
162	0x3e0933b4	0.1339863
163	0x3e2758f4	0.16342527
164	0x3d42eead	0.0475909
165	0x3bab6724	0.005230801
166	0xbc1c3aa7	-0.009535468
167	0xbe0f740d	-0.14009114
168	0xbd2652d9	-0.040606353
169	0x3ccdd053	0.02512375
170	0xbe3620d9	-0.17785968
171	0xbc2a7ea7	-0.010406173
172	0xbe1dea35	-0.15421374
173	0x3e07289c	0.13199085
174	0xbe1ace48	-0.15117753
175	0x3d9b8398	0.07593459
176	0x3d8139cd	0.06309853
177	0xbddff593	-0.109355114
178	0x3e277c09	0.1635591
179	0xbdda69de	-0.10664724
180	0xbe17d0ea	-0.14825788
181	0xbd586546	-0.052830957
182	0xbe1e682b	-0.15469424
183	0x3de12342	0.10993053
184	0x3b03893d	0.0020070814
185	0x3d3b5aa4	0.04574074
186	0x3ddaad44	0.10677579
187	0x3d374ddb	0.044751983
188	0xbdc3b311	-0.095556386
189	0xbe1fa604	-0.15590674
190	0x3b2adfc3	0.0026073314
191	0x3d26b7ad	0.04070251
192	0xbdd34c7e	-0.10317324
193	0x3dede6de	0.116163
194	0x3e24ab5b	0.16080992
195	0x3e171fb5	0.14758189
196	0xbe31366c	-0.17305917
197	0xbd9364fb	-0.07196995
198	0x3d82eab2	0.06392421
199	0x3d936710	0.07197392
200	0xbdeba501	-0.11506081
201	0xbe069dbe	-0.13146111
202	0x3dbec234	0.09314385
203	0x3d825bd6	0.063651726
204	0xbe400b5c	-0.18754333
205	0xbde5ec08	-0.1122666
206	0x3e31ad34	0.17351228
207	0x39d8d657	0.00041358426
208	0xbe01c5a6	-0.12673053
209	0x3e01cf80	0.12676811
210	0x3d65f2ce	0.05613976
211	0xbda67a50	-0.08128798
212	0xbd5271b4	-0.051377967
213	0xbd34f6f8	-0.04418084
214	0xbd12a69b	-0.03580342
215	0xbcd896ad	-0.026439035
216	0xbddc47c9	-0.107558794
217	0x3e35027b	0.17676727
218	0x3e126fd8	0.14300478
219	0xbd844420	-0.06458306
220	0x3d481995	0.048852522
221	0xbd2032ca	-0.039110936
222	0xbd3a63f0	-0.045505464
223	0xbe28a282	-0.16468242
224	0xbb03bf61	-0.0020103084
225	0xbdcfdeab	-0.101498924
226	0x3d8d46f5	0.068982996
227	0xbe43a219	-0.19104804
228	0x3d967424	0.07346371
229	0xbb9d70ef	-0.0048047225
230	0x3e241486	0.16023454
231	0xbbdcb5a7	-0.006735522
232	0x3ddca102	0.10772897
233	0x3e39e9da	0.18155614
234	0xbda3f59f	-0.08005833
235	0x3d6299d8	0.055322498
236	0x3e08e705	0.13369377
237	0xbd3ee154	-0.04660161
238	0x3de6f3d6	0.11276977
239	0x3cbb1585	0.02283741
240	0xbd2b5560	-0.041829467
241	0xbe4f2980	-0.20230675
242	0xbe1a0783	-0.15041928
243	0x3e03bb60	0.12864447
244	0x3d8274ad	0.063699104
245	0xbd36271a	-0.044470884
246	0xbdabf9b9	-0.0839724
247	0xbde2dc2d	-0.110771514
248	0x3d09f024	0.03367628
249	0xbd194c1e	-0.037426107
250	0xbe577a2b	-0.21042697
251	0xbdb5a979	-0.08870215
252	0xbcf30bc4	-0.029668696
253	0x3e1ae3fc	0.15126032
254	0xbe0cea6b	-0.13761298
255	0xbddd1193	-0.10794368

tcn.network.0.downsample.weight f4 [32, 32, 1]
0	0xbd03dc5f	-0.032192584
1	0xbd9e2398	-0.07721633
2	0x3c7e26f1	0.015512214
3	0xbe529560	-0.20564795
4	0xbea6c7e1	-0.3257437
5	0x3c7cc466	0.015427684
6	0x3dcebc53	0.10094514
7	0x3d83b1cf	0.06430399
8	0x3e58b0c5	0.21161182
9	0xbe7b4bcd	-0.24540634
10	0x3e090177	0.13379465
11	0xbc0f4584	-0.008744601
12	0xbcc48120	-0.023987353
13	0xbe831e88	-0.2560923
14	0xbe8781ed	-0.26466313
15	0x3e54a1e7	0.20764886
16	0xba6c90b6	-0.0009024249
17	0x3baeb634	0.005331779
18	0xbd55295f	-0.052041408
19	0x3e07c2e7	0.13257943
20	0xbe167619	-0.14693488
21	0xbdb80acf	-0.089864366
22	0xbb75eb98	-0.0037524458
23	0xbe000c8b	-0.12504785
24	0xbe81b98a	-0.25336868
25	0xbe49da94	-0.19712287
26	0x3e5cfe83	0.21581464
27	0x3e324250	0.17408109
28	0xbc8246a0	-0.015902817
29	0x3e9615d9	0.29313543
30	0x3e5301b5	0.2060612
31	0x3da732c9	0.081639834
32	0xbe0191ac	-0.12653226
33	0x3e153653	0.14571504
34	0x3db8cd8f	0.09023582
35	0xbcd29a5c	-0.02570837
36	0x3d7de1e6	0.06198301
37	0xbcd84839	-0.026401626
38	0xbdbee1a6	-0.09320383
39	0x3d2118be	0.039330237
40	0x3e69ab0d	0.22819157
41	0x3d386e00	0.04502678
42	0xbcfaefdb	-0.03063195
43	0xbe61d8e1	-0.22055389
44	0xbe432505	-0.1905709
45	0xbe7448c0	-0.23855877
46	0xbe1fd863	-0.15609889
47	0x3d960531	0.07325209
48	0xbe2f8ab7	-0.1714276
49	0xbc96d95b	-0.01841419
50	0x3ce8771b	0.028377106
51	0x3e410edd	0.18853326
52	0xbd837f14	-0.064207226
53	0x3e171aec	0.14756364
54	0xbd953bfe	-0.07286833
55	0xbde1b489	-0.110207625
56	0xbe03c574	-0.12868291
57	0x3da86aa7	0.08223467
58	0x3db8f633	0.09031334
59	0x3e22c063	0.15893702
60	0xbe1ff916	-0.15622362
61	0xbcd74112	-0.026276145
62	0xbdef8247	-0.1169477
63	0xbc33102a	-0.010929147
64	0xbd756d40	-0.059918642
65	0x3c353c83	0.01106179
66	0x3e2ef96e	0.17087337
67	0xbdb2a47d	-0.0872278
68	0x3da2e20f	0.079532735
69	0xbd9a920f	-0.0754739
70	0xbe6d9226	-0.23200282
71	0x3d30799d	0.04308473
72	0xbe1052ea	-0.14094129
73	0x3d5c5b1b	0.053797822
74	0x3d8edaba	0.069753125
75	0xbdb63204	-0.088962585
76	0x3d800560	0.06251025
77	0x3e5039da	0.20334569
78	0x3e6dec85	0.23234756
79	0xbd80e745	-0.06294111
80	0xbdaf19fa	-0.085498765
81	0x3e16607b	0.14685242
82	0xbcf8df6b	-0.030379971
83	0x3e0684fb	0.13136666
84	0x3cf63e42	0.030058984
85	0xbd73f601	-0.05956078
86	0xbcbee65c	-0.023303203
87	0x3d60a97a	0.054849125
88	0x3e1fbfee	0.15600559
89	0x3dded8a0	0.10881162
90	0xbd07a057	-0.033111896
91	0xbe8a799d	-0.2704591
92	0xbe44241a	-0.19154397
93	0x3cc45421	0.023965897
94	0x3a95f481	0.0011440666
95	0xbe2dab8d	-0.16959973
96	0xbcf45629	-0.02982624
97	0x3cb371fd	0.02190494
98	0xbd3a42ae	-0.045473747
99	0xbbecf9fb	-0.0072319484
100	0xbe87ecd1	-0.26547864
101	0xbc83d0c5	-0.01609076
102	0x3e464026	0.19360408
103	0xbde8a743	-0.11360028
104	0x3dcf9daf	0.10137498
105	0xbcc8ec51	-0.024526747
106	0x3e2053d6	0.15656981
107	0xbe4ad6a9	-0.19808449
108	0xbe2d49f2	-0.16922739
109	0xb805197d	-3.173341e-05
110	0xbe61e74b	-0.22060888
111	0x3eb2ff3a	0.34960347
112	0xbe068e58	-0.13140237
113	0xbd87bf07	-0.066282324
114	0xbe4b97ab	-0.19882075
115	0xbcf64b01	-0.030065062
116	0xbe10bfaa	-0.14135614
117	0x3d22f502	0.03978444
118	0xbcb7c0c7	-0.02243079
119	0xbd89b941	-0.067247875
120	0xbe39e2a6	-0.18152866
121	0xbe1ba21c	-0.15198559
122	0x3e13655e	0.14394137
123	0x3e483564	0.19551617
124	0x3d1b217a	0.037873723
125	0x3dea3039	0.11434979
126	0x3d481563	0.04884852
127	0x3d064ea8	0.032789856
128	0x3d987c0a	0.074455336
129	0xbe1fa98c	-0.15592021
130	0x3e6fae62	0.23406366
131	0xbd97b8b2	-0.07408275
132	0x3c1bb418	0.009503387
133	0xbd5e5728	-0.054282337
134	0xbd87f3d3	-0.06638303
135	0x3d4e5883	0.05037738
136	0x3c5c9e9e	0.013465552
137	0xbc37f426	-0.011227643
138	0xbdb8059c	-0.08985445
139	0x3d3ee648	0.046606332
140	0x3e7ae6b1	0.24502064
141	0x3d8709a5	0.065936364
142	0x3ddc009f	0.10742306
143	0xbe8599b4	-0.2609383
144	0xbd3b5ddc	-0.04574381
145	0xbd8764d9	-0.06611032
146	0x3e50f8c6	0.204074
147	0xbd80f4ad	-0.06296668
148	0xbce1b241	-0.027550818
149	0xbdcb0c92	-0.09914507
150	0xbdcc4170	-0.09973419
151	0xbdb05548	-0.08610016
152	0x3e7dda99	0.2479042
153	0x3dce56d9	0.100751586
154	0x3ccf94bb	0.025339475
155	0xbdbdca11	-0.09267057
156	0x3e237018	0.15960729
157	0xbd86735e	-0.06564973
158	0xbd920298	-0.07129401
159	0xbe34fdf3	-0.17674999
160	0xbe70a072	-0.23498705
161	0x3e0749be	0.13211724
162	0xbcf1620b	-0.029465696
163	0x3e19cba7	0.15019093
164	0xbd2a44b3	-0.041569423
165	0xbd78c20e	-0.06073194
166	0x3e6a3a9b	0.22873919
167	0x3db7a099	0.089661784
168	0x3dc382da	0.09546442
169	0xbe2cb457	-0.16865669
170	0x3e4e400a	0.20141616
171	0xbe5750fd	-0.21026988
172	0xbe37643d	-0.17909332
173	0xbe28d8b5	-0.16488917
174	0xbea07e57	-0.3134639
175	0x3e7fd47d	0.24983402
176	0xbddcacff	-0.10775184
177	0x3dd1e802	0.1024933
178	0xbd896301	-0.067083366
179	0xbe1f86d5	-0.15578778
180	0xbe32681b	-0.17422526
181	0x3da2f335	0.07956544
182	0x3d54cc7a	0.051952817
183	0x3deb9bb2	0.11504306
184	0xbe7d323b	-0.24726193
185	0xbdd1eb51	-0.10249961
186	0x3e4f0e16	0.20220217
187	0x3e2cb855	0.16867192
188	0x3d96935c	0.07352325
189	0xbd211661	-0.039327983
190	0xbda8a1f0	-0.08234012
191	0x3e10c2b4	0.14136773
192	0xbe922acb	-0.28548273
193	0x3e789e31	0.24279095
194	0xbe277792	-0.16354206
195	0x3d39758c	0.045278117
196	0x3c84a040	0.016189694
197	0x39ad1ce3	0.00033018654
198	0xbc0cc78a	-0.008592496
199	0xbe0ceeee	-0.1376302
200	0x3e478940	0.1948595
201	0xbdd2ca22	-0.1029246
202	0xbd0c2df0	-0.034223497
203	0xbe821d7b	-0.25413117
204	0xbd0a77b7	-0.033805575
205	0xbe3f82e6	-0.18702278
206	0xbe93aeda	-0.2884434
207	0x3d400273	0.046877336
208	0xbe0e0af7	-0.1387137
209	0x3c67a1a3	0.014137658
210	0xbe031dc0	-0.12804317
211	0x3e2db830	0.16964793
212	0xbe17b092	-0.1481345
213	0xbc03e9eb	-0.008051376
214	0x3c429716	0.011876842
215	0x3dddd768	0.10832101
216	0xbde3c636	-0.1112179
217	0xbe8b7314	-0.27236235
218	0x3e7109db	0.23538916
219	0x3e08fdba	0.13378039
220	0xbd11fa70	-0.035639226
221	0x3dd32c7f	0.10311221
222	0x3dc3b285	0.09555534
223	0x3d8d4eeb	0.06899818
224	0x3e179780	0.14803886
225	0x3c62fde8	0.013854481
226	0x3cd6956f	0.026194302
227	0xbe50f31b	-0.20405237
228	0x3e532c4f	0.20622371
229	0x3e09fbec	0.13475007
230	0x3e5ffb99	0.2187332
231	0xbd89b4fd	-0.06723974
232	0xbda3fc2f	-0.080070846
233	0x3d58fc3d	0.05297493
234	0xbd0f88cc	-0.03504257
235	0x3df04336	0.117315695
236	0xbd58b6af	-0.052908596
237	0x3e322654	0.17397434
238	0xbdc2250e	-0.09479724
239	0x3d4d51b7	0.050126757
240	0x3dfa4775	0.122206606
241	0xbcec7f2f	-0.02886924
242	0x3df4aa77	0.11946576
243	0x3dcfbf20	0.10143876
244	0xbccd8415	-0.025087396
245	0xbe21f6ea	-0.15816846
246	0x3db2bf24	0.087278634
247	0x3cfd8544	0.030947335
248	0xbbc2459d	-0.0059287087
249	0xbe14684c	-0.14492911
250	0xbe115ed5	-0.14196332
251	0xbb3d4db0	-0.0028885417
252	0x3d94103c	0.07229659
253	0x3d74d0c6	0.059769414
254	0xbe09cb6c	-0.13456506
255	0xbbcfc2e0	-0.0063403696

tcn.network.0.downsample.bias f4 [32]
0	0xbdf6c995	-0.120501675
1	0x3d9afc10	0.07567608
2	0x3e186998	0.14884031
3	0xbe0b874d	-0.13625832
4	0x3d7cee34	0.061750606
5	0xbbc27394	-0.005934188
6	0xbd01d71f	-0.031699296
7	0x3d535183	0.051591408
8	0x3e51416c	0.20435113
9	0xbdfd56ae	-0.123700485
10	0x3e3dcf48	0.18536103
11	0xbddafeb2	-0.106931105
12	0x3e4a2a07	0.19742595
13	0x3e5d489e	0.21609733
14	0x3d53402a	0.051574863
15	0x3dde637b	0.10858818
16	0x3e3c34ac	0.18379468
17	0xbdd87bcb	-0.10570487
18	0x3cbcc077	0.023040993
19	0x3d5f605a	0.054535247
20	0xbde781de	-0.11304067
21	0xbd90b5df	-0.07065939
22	0xbe2c2638	-0.16811454
23	0xbe101c28	-0.14073241
24	0xbe06bc29	-0.13157715
25	0xbdcdc8c2	-0.10048057
26	0xbe0e8f37	-0.1392182
27	0x3d133100	0.035935402
28	0x3e3cf13e	0.18451402
29	0x3d9fb7de	0.07798742
30	0xbcba7ae2	-0.022763673
31	0x3e3619b8	0.17783248

tcn.network.1.conv1.bias f4 [32]
0	0xbd95bd8f	-0.07311546
1	0x3cca7c04	0.024717338
2	0x3d40430a	0.046938933
3	0xbdf29a29	-0.1184581
4	0xbc25c5a2	-0.01011792
5	0xbe10bd7e	-0.14134786
6	0x3d9abf00	0.075559616
7	0x3d67f3ac	0.056628868
8	0xbdb08bd2	-0.086204186
9	0x3deaddcf	0.11468088
10	0x3d823b53	0.063589714
11	0xbddae5db	-0.10688373
12	0x3da95bfe	0.08269499
13	0xbdaed722	-0.08537127
14	0xbdde02c2	-0.1084037
15	0x3dc2f677	0.09519666
16	0xbd8e828b	-0.06958493
17	0x3dd0031f	0.10156845
18	0x3df8091f	0.12111115
19	0xbd2872c7	-0.041125085
20	0xbe12dd41	-0.14342214
21	0xbacabb81	-0.0015467257
22	0x3e100020	0.14062548
23	0x3cde5f51	0.02714506
24	0x3d0284bc	0.031864867
25	0xbe3f0b21	-0.18656589
26	0xbd402536	-0.046910487
27	0x3d8bf3a7	0.06833582
28	0x3d289450	0.041157067
29	0xbdf4cb56	-0.11952846
30	0x3dbbfb16	0.0917875
31	0xbd80dad2	-0.06291737

tcn.network.1.conv1.weight_g f4 [32, 1, 1]
0	0x3f33327b	0.699989
1	0x3f4d355b	0.8015954
2	0x3f1125c7	0.5669827
3	0x3f208b52	0.62712586
4	0x3f0baa49	0.5455671
5	0x3eeea53c	0.4661044
6	0x3f23531c	0.6379869
7	0x3f080c61	0.5314389
8	0x3f0c0aeb	0.5470416
9	0x3f214cbb	0.63007706
10	0x3ef4f2c3	0.47841462
11	0x3f112d00	0.5670929
12	0x3f413e36	0.7548555
13	0x3f029e04	0.5102236
14	0x3f0a53ba	0.54034007
15	0x3f10e332	0.5659667
16	0x3f49c27d	0.7881239
17	0x3f1bdaae	0.60880554
18	0x3f468c70	0.7755804
19	0x3f372399	0.7153869
20	0x3f054250	0.5205431
21	0x3f0b6a08	0.54458666
22	0x3f2f9678	0.6858897
23	0x3f101490	0.56281376
24	0x3f179aea	0.59220755
25	0x3f0a755e	0.5408534
26	0x3f2f3b6a	0.68450034
27	0x3f1e2070	0.61768246
28	0x3f1b5fde	0.60693157
29	0x3f131c5d	0.57465154
30	0x3f185b9b	0.5951478
31	0x3f3a1fb2	0.72704613
