models/prototyping6/tcn_fold_1/best.pth (torch, 224151 bytes, 130 tensors)

tcn.d_reduce.weight f4 [32, 1, 1]
00000000: 8b86 24bf 6ce4 213f a79d 83bf 70e8 df3e
00000010: ea9e 2cbf dd91 c7be 225a a5be 91b7 c23e
00000020: 8940 0c3d 9168 003e 00e9 d93e f17a 513e
00000030: aee4 423f 4b21 99be fb1b 383f d021 483f
00000040: a86b 41bf b6c6 04be 07be 973e 69a5 4abf
00000050: f2ea 513f a9f7 323f 77aa 2c3f 072d 443f
00000060: b78d f8bd 1e7a 4e3f 2196 e73e 27f7 4fbf
00000070: 7601 773f d5aa dfbe 40a4 7d3f 4e64 9e3d
-0.64267796 0.6323917 -1.0282487 0.43732023 -0.67429984 -0.38978472 -0.32295328 0.38030675
0.034241233 0.12539889 0.42560577 0.20457055 0.7613019 -0.29908213 0.71917695 0.78176594
-0.75554895 -0.12966427 0.29637167 -0.79158646 0.81999123 0.6990915 0.6744761 0.76631206
-0.12136405 0.80655086 0.45231727 -0.812365 0.96486604 -0.43685022 0.9907875 0.07733975

tcn.d_reduce.bias f4 [32]
00000000: 6bb6 323e 2839 23bf a5d0 7b3e 5065 023e
00000010: b14c 923e 0160 5e3d c8ba 0cbe e332 75bf
00000020: f4ec 3a3f 115f 643f 7916 ffbd edeb b13e
00000030: 4e92 0e3f bda4 c9be 6957 2c3e 088d 6a3f
00000040: 1c1e 193f d890 aa3e 53a6 003f eb27 bfbe
00000050: e25f 04bf 354e 603f a60f 2e3f 4f9d 233f
00000060: e1eb 43be ca72 dd3e 1447 3cbf 84d7 3b3f
00000070: 689f f23d cb84 843e 0d11 b1be 869d 703e
0.174524 -0.6375909 0.2459131 0.1273396 0.28574136 0.054290775 -0.13743126 -0.9578077
0.7301781 0.8920756 -0.12455458 0.3475031 0.55691993 -0.39383498 0.1683022 0.91621447
0.5981157 0.33313632 0.5025379 -0.37335142 -0.51708806 0.87619334 0.6799263 0.6391191
-0.1913295 0.4325164 -0.73545957 0.73375726 0.118468106 0.25882563 -0.3458332 0.2349759

tcn.network.0.conv1.bias f4 [32]
00000000: d5f3 fcbd 1fe4 d8bd 1ad6 17be b2f8 86bd
00000010: 48c4 1f3d e293 be3d 2de7 9bbd 1cde a33d
00000020: 7443 b6bd 2684 413d 6732 41be 54ee 9f3d
00000030: 09ab 0cbc d3df 7fbc ad3b b33d e899 2e3d
00000040: c96b c73c 1780 76bd ad13 3e3d 480b ccbc
00000050: 9dfc b9bd ae6e 883d a8b6 c43d 97bf 3e3d
00000060: a5bc 34bd 0c4f 17be 2b4f c73d 9755 ae3d
00000070: d43b 1ebe 0a88 fc3d 79e7 1c3d 1121 0fbd
-0.12351195 -0.10590386 -0.14827767 -0.065904036 0.039005548 0.0930555 -0.07612453 0.080013484
-0.088995844 0.047245167 -0.18866883 0.07809129 -0.0085857 -0.015617329 0.087516166 0.042627245
0.024343388 -0.06018075 0.046405483 -0.024907723 -0.09081385 0.066617355 0.096051514 0.046569433
-0.044125218 -0.14776248 0.09731897 0.08512419 -0.1545251 0.12330635 0.038306687 -0.034943644

tcn.network.0.conv1.weight_g f4 [32, 1, 1]
00000000: 69f2 123f fd84 213f 0d06 1d3f e8e7 0b3f
00000010: 61b7 1f3f d927 183f bc11 0a3f 84f6 003f
00000020: 31b1 173f d7a4 1a3f cfb6 353f 685e 053f
00000030: 06b2 003f 9ea5 f93e bf69 033f d880 103f
00000040: 298f 113f b576 113f bfe4 f83e 7102 f93e
00000050: ffe2 133f 6c61 063f 7add 053f 7416 213f
00000060: 345d 233f d1b4 013f bada 133f d6d4 083f
00000070: f7e6 fc3e d8ba 0f3f 1373 113f d303 2b3f
0.5740114 0.6309355 0.6133736 0.54650736 0.6238919 0.594358 0.5393331 0.50376153
0.5925475 0.60407776 0.7098207 0.5209718 0.5027164 0.48759168 0.5133323 0.564466
0.5685907 0.5682176 0.4861202 0.48634675 0.57768244 0.52492404 0.5229107 0.62924886
0.6381409 0.5066653 0.57755625 0.5344976 0.49394962 0.56144476 0.56816214 0.6680271

tcn.network.0.conv1.weight_v f4 [32, 32, 2]
00000000: 841d e1bd 3c6e b9bd 4465 4d3d d60a 1cbc
00000010: a294 413d 5345 ddbd 9c26 013e 0617 153e
00000020: 8e15 d83d a64f 133e 4b64 c6bd cdee e7bc
00000030: 9300 48be bed2 4cbe 4679 50bb 264d 603d
00000040: 66c0 86bd 49d7 0ebd 08bd ac3d ef34 023e
00000050: c9b3 10be cef9 8fbc 0223 11be b01d e73d
00000060: df7d 9e3d 667b 02be c58e a83d 2b02 4d3d
00000070: 7562 0dbe 9684 203e 605b 863d 4ea3 b9bd
00000080: ec28 f63d 44f5 073d 86aa c7bd 3e27 a63c
00000090: 95fa 9bbd 753b e4bd 6161 1e3c aff0 6dbd
000000a0: fc2c 1abd beac d7bd b208 a63c 356c d7bc
000000b0: ecbb 033e c3e6 19bc 3b19 753d 8c6d 1dbb
000000c0: e628 ce3d ec1c f83d c5fb 1c3e effe 1b3e
000000d0: 5df6 08bd eb17 303d 6b95 babd 3a0f d83d
000000e0: 9f95 7bbd 97bb da3d 5c4f 173e 3d8b 0f3e
000000f0: a8e3 2d3d d3e6 05be 3865 823d 81d8 ccbc
00000100: 96d1 853c 9426 3fbe 5cdd 043b 9596 cc3c
00000110: 86bb 50be c583 28be f2c0 67bc 81f3 ea3d
00000120: 3fd1 9fbb f2bd 27be d499 84be 1dc8 5dbe
00000130: a7ad bd3d 89df c13b 839c 293e 59ef a03d
00000140: 9242 4ebd 5e21 1cbe 993f 1bbd f5e5 be3d
00000150: 4a64 67bb bbff 433e 69f3 2e3c bc3d e03d
00000160: 9af7 fa3d 9778 d63d f98b 4ebd 62bd 873d
00000170: 8938 c3bd f4fb f2bd a83a 013e 94e3 a93d
00000180: 8d0e c2bd 2a6d 30bd 9452 533d 5bf1 17be
00000190: 7bfa 99bd 8680 ce3d d1f3 a73c f57e f1bc
000001a0: 8854 f13c 7f75 993d fdea 34bd 403e 5cbd
000001b0: f3c9 2d3d 9c03 e0bd e20b 79bc 4536 e4bd
000001c0: 790a 3c3c 901f ec3d ba88 c3bd a270 57bc
000001d0: 326a 2a3e 24f8 3d3d 63bd 41be ca1d 223d
000001e0: a5a4 47bd e4aa 43bd 939f dcbd 32a7 1cbd
000001f0: d130 c33b bd76 b73d 8938 543c 8fb0 f03d
00000200: 56b9 eabd e300 c13d bded f6ba fadb d63d
00000210: c2ba 0dbc f3d2 ad3d fa28 97bd 7611 1abe
00000220: 25c8 40bd dcd4 b73d 3b30 8c3d 992a f83d
00000230: 7608 bf3d c65e 82bc 4946 853d 4c19 4b3c
00000240: 7fde a0bd fa39 9fbc 5038 a3bd 16fa 1ebe
00000250: 6b10 f6bb 2232 893c 135f f3bd 23b6 45be
00000260: e96e babd 0022 8bbd 6cc5 353e 6be1 433e
00000270: 41ab 2b3d b1a1 dabb a798 c5bd 14fb 6fbd
00000280: 9186 1bbe 5fab 363d 41de 25be 7df5 9dbd
00000290: ca17 1cbe 0b4a 43be c51f 1abd 9a6a 743d
000002a0: f2e7 b03c 56e6 2cbd b89a 2ebe 1257 55be
000002b0: 1803 ab3c d681 6abe a020 0cbd b8c6 b0bc
000002c0: d635 883d 044e c83d d7fb 9538 d07d 21be
000002d0: 36cf 3e3d aa6d 42bc e490 613d 263e 45bd
000002e0: 90ac 683c 9716 3fbe d55d 723d fdde 7bbd
000002f0: b1e1 ec3d 9ab5 09bd 4897 49bd 1b7c 88bc
00000300: 8165 f5bc ee75 babd 0d9e 793c 5ed1 0cbe
00000310: 6046 94bd a8b3 0ebc 126a 57bd 36e4 093d
00000320: f9ab 40bd 0ecf d2bd a5a7 2cbb a718 41bd
00000330: 7517 223e ad55 05bd 3a55 80bd 563d 7a3d
00000340: 7e86 e13d 83fd 8a3d 1f5a 03be 7cdc a7bd
00000350: 6ff1 b23c 8c06 003e 7743 bb3c 5121 bdbd
00000360: a2ac 09be 364c 863d 76c5 b2bb b1dd 0abd
00000370: 784e b0bd 9d11 89bd c6f4 913d 339c 6fbd
00000380: 7297 92bd 813f 973c e4ad babd 96a8 bfbd
00000390: 17bf 02be f4e4 da3d 789b bb3b 66df d43d
000003a0: 872c c1bd f9be fabc 4752 2ebe 007d 45bd
000003b0: afc2 9b3d 5271 8cbd 3c1c 8b3d 6c1a 98bd
000003c0: 6c98 01be b5d7 34bb cde3 ffbd fa0e 803d
000003d0: b32f 1bbe 2176 c33d a41a ac3c d992 efbb
000003e0: 0eb3 5e3c 3e7f 97bd 06c0 c43c 709d e0bc
000003f0: 3623 ccbc e8a2 c33c f9bc f9bd fec6 c23d
-0.10991958 -0.09054229 0.050145403 -0.009524068 0.047260888 -0.10804238 0.12612385 0.14559564
0.10550986 0.14385852 -0.09687098 -0.028312111 -0.19531469 -0.20002267 -0.0031810566 0.054761074
-0.06579666 -0.03487328 0.08434492 0.12715505 -0.14131083 -0.01757517 -0.1417351 0.11284959
0.07738852 -0.12742385 0.08230356 0.050050896 -0.1380709 0.15675578 0.06560397 -0.09064351
0.12019524 0.033192888 -0.09749322 0.020282384 -0.07616154 -0.11144153 0.009666772 -0.058090862
-0.037640557 -0.10530995 0.020267818 -0.026296714 0.12864655 -0.009393397 0.059838515 -0.0024021594
0.100663945 0.121148914 0.15330417 0.15233968 -0.033438075 0.04299156 -0.091105305 0.10549779
-0.061421987 0.10680311 0.14776367 0.14017959 0.042453438 -0.13076334 0.06366962 -0.02500558
0.01633529 -0.1866706 0.0020273542 0.024974147 -0.20384035 -0.16456516 -0.014145123 0.11472226
-0.004877239 -0.16381052 -0.25898612 -0.21658368 0.09261637 0.00591654 0.1656361 0.07858152
-0.050356455 -0.15247104 -0.03790245 0.093212046 -0.003530758 0.19140522 0.010678151 0.10949275
0.122542575 0.104722194 -0.050426457 0.06627919 -0.095322676 -0.118644625 0.12620032 0.0829536
-0.094754316 -0.043072857 0.051592425 -0.14838164 -0.075184785 0.10083108 0.020502003 -0.029479483
0.029459253 0.07493114 -0.044169415 -0.053770304 0.042428922 -0.109381884 -0.015200587 -0.111431636
0.011477106 0.115294576 -0.09547563 -0.013149412 0.16642073 0.046379223 -0.18919902 0.03957919
-0.048741 -0.047770396 -0.10772624 -0.038245387 0.005956747 0.089581944 0.012952932 0.11752426
-0.11461131 0.09423997 -0.0018839162 0.10491176 -0.008650484 0.08487501 -0.073808625 -0.15045723
-0.047065873 0.089761466 0.06845137 0.121175 0.09327786 -0.015914332 0.065075465 0.012396168
-0.07854938 -0.019436825 -0.07969725 -0.15525088 -0.0075092814 0.016747538 -0.11883368 -0.19307761
-0.09103186 -0.06793594 0.17751092 0.19128959 0.041911367 -0.006672107 -0.09648257 -0.058589056
-0.15188052 0.044597026 -0.16198064 -0.07712839 -0.1524345 -0.19071214 -0.037627954 0.059671976
0.021594975 -0.042211853 -0.17051208 -0.20833996 0.020875499 -0.22901091 -0.0342108 -0.021579131
0.066508934 0.09780505 7.1517825e-05 -0.1577065 0.04658433 -0.011866966 0.05506982 -0.048154972
0.014201298 -0.18660961 0.059171516 -0.061491955 0.11566485 -0.033620454 -0.04921654 -0.01666074
-0.029955627 -0.091045246 0.015235436 -0.13751742 -0.072399855 -0.008709826 -0.05259139 0.033664905
-0.047039006 -0.10293399 -0.002634504 -0.04714265 0.1582926 -0.03255241 -0.06266256 0.06109365
0.110119805 0.06786635 -0.12827347 -0.08196351 0.02184364 0.12502497 0.022859318 -0.0923487
-0.1344476 0.06557505 -0.005455668 -0.033902828 -0.08608717 -0.066928126 0.07126765 -0.058498573
-0.07157792 0.018462898 -0.09115198 -0.09358327 -0.12768207 0.106882006 0.0057253204 0.10394172
-0.09432321 -0.030608641 -0.17023574 -0.048214912 0.07605492 -0.06857552 0.06792495 -0.074269146
-0.126558 -0.0027594392 -0.124946214 0.062528566 -0.15154915 0.09544016 0.021008797 -0.007311207
0.013592495 -0.073973164 0.024017345 -0.027418822 -0.024919134 0.02388139 -0.12194247 0.09510611

tcn.network.0.conv2.bias f4 [32]
00000000: 639e 2cbd cf6c a33d e3c4 28bd 91a8 eb3d
00000010: 4f3f a3bd 4447 0d3d e1c6 1fbd a84e 433c
00000020: a00c 59bd f467 8d3d be4a 0fbe e828 523c
00000030: 893d 873c c332 1bbe 28ba ba3d 1dea 4b3e
00000040: db79 abbd e99b 503c 945b b33b 99ba e1bd
00000050: 1960 95bd c754 40be b7ca 8d3d 67c6 5c3d
00000060: 76ce 8a3d 16db 39bd 2a44 893d 29c8 ca3c
00000070: 49c7 573d fd20 8a3c 005d 0f3d 82e9 2c3d
-0.042143237 0.07979738 -0.04120339 0.11506761 -0.079710595 0.034491792 -0.039008025 0.011920609
-0.052990556 0.06904593 -0.13993356 0.012827136 0.016508834 -0.15156083 0.09117538 0.19913526
-0.083728515 0.012732484 0.0054735634 -0.11021919 -0.0729372 -0.1878234 0.069234304 0.05390015
0.067776605 -0.045374952 0.067024544 0.024753647 0.052680288 0.016861433 0.0350008 0.042214878

tcn.network.0.conv2.weight_g f4 [32, 1, 1]
00000000: 6595 003f 74e3 fa3e e521 193f 2b6e 113f
00000010: d6e5 123f 5a19 073f eff7 033f e054 193f
00000020: c4da 0e3f 5e6e 103f 3577 183f d9ed 0a3f
00000030: 2fe1 403f e246 ff3e 08c6 0b3f e0c0 fe3e
00000040: 671f 0e3f f633 013f 4e74 073f dd2d 0a3f
00000050: 7937 0e3f e91b 283f 2144 093f 3249 123f
00000060: 986f 073f d4d4 1b3f 029d 1a3f c4a6 183f
00000070: 0bd7 0b3f 5635 1c3f a89e 143f ded4 063f
0.5022796 0.49001658 0.59817344 0.5680873 0.5738195 0.5277306 0.5155019 0.59895134
0.5580256 0.56418407 0.59556895 0.54269177 0.753436 0.49858767 0.54599047 0.49756527
0.55516666 0.5046991 0.5291184 0.5397623 0.55553395 0.6566759 0.5361958 0.5714294
0.52904654 0.60871625 0.60395825 0.59629464 0.54625005 0.61018884 0.5805459 0.5266856

tcn.network.0.conv2.weight_v f4 [32, 32, 2]
00000000: 252c 193c 2537 c3ba da5e 843b c01a d83d
00000010: c0c7 dfbd 99fa 983d f9e4 cdbd 92da f53d
00000020: 28a4 083e 6f7e 46bd d235 183e 37ff 9abd
00000030: 1f2a dcbb ec32 f9bb c44d 81bd 76f7 92bd
00000040: 70e6 3ebd acdf e43d 6d4d aebd 29f5 21be
00000050: d1f2 983d 1e3b 02be c816 cebc c05c 9ebd
00000060: c0db 003e fe3d 11be 4f9d 973a 9cc5 25bd
00000070: eddf b7bd 9dcc f1bc 4391 a9bd 67d8 9ebd
00000080: ffdc 083d dfb5 143e 6b3e f23d 14f6 213e
00000090: 144d a23d 7ee4 783c 441d 0dbd fbd3 dd3c
000000a0: c836 c2b9 bfa9 b43d a111 393c 7cd0 00be
000000b0: b475 dcbd 30a6 1f3e 8c2e 24bd 5d7d 07b9
000000c0: d391 483d 49d0 d63d 7176 1cbd a27e 323e
000000d0: 1550 b8bd 02ba 96bd 28c5 a93d 1f99 263e
000000e0: 56e2 9fbd f24c 8bbd 553f 88bc 817f c7bd
000000f0: 4d72 f93d d3ca 18b6 2bd2 4a3d 88e8 9b3d
00000100: 1445 d93b 0cd0 d5bd 0d20 7fbd 9a3a 573d
00000110: f5ee 1fbe 4168 433e 8a7a 3e3e 86b2 12be
00000120: cc87 da3d 1af1 11be 9cd8 3b3e e526 05be
00000130: 3be3 ab3d 01ff 7bbd 66e3 ecbd ca4f 2cbd
00000140: d792 db3d b1c0 643d 69f4 fb3c 40b3 a0bc
00000150: 5909 0fbe be4b c2bd 78ff 853d cfd3 ab3d
00000160: 7e92 263e 2ec8 f03d 529c b8bd 3791 bc3d
00000170: cd7d 933d 2a01 563d 1b47 d1bd 9dc4 e53d
00000180: efe1 a9bc 58a5 4ebd f51f 663d 49a8 a83d
00000190: 11c5 2f3d 0c68 303d 8555 113d 9269 a23d
000001a0: 2f3a 2d3d 76e2 26be dc35 19be b5e0 33bc
000001b0: 5816 123e 987f d33d 25ac f13d ac81 e7bd
000001c0: e1e7 57be 6c80 493e 4601 dfbd eb22 f53c
000001d0: 82ff 3b3e 26de 373e cdd5 16be b738 913c
000001e0: 8d6e 033e 7ce5 453e 94d1 53bc 8982 be3c
000001f0: 108e 2cbe dfb9 00be d96a ba3d 43ca 2e3e
00000200: acae afbd 5bec 2dbb fcc6 8d3c 9264 8ebd
00000210: fa24 9ebd 1fbc 053e c36a 12bd 62c9 01be
00000220: 0277 67bd 7f9e 9a3c a748 d7bb dab1 28bb
00000230: a349 92bd 0d55 833d d3b9 263c 75e7 8f3c
00000240: 719e 62bd 1fc4 893d b632 ecbd 37e0 723d
00000250: 23fd bcbd 7688 ae3d 7264 16bc f188 cc3d
00000260: f920 b4bd 660d a93d 0a41 673d 65cd 68bd
00000270: 4f4c 30be ef3e a9bd dc19 aa3d c5ad babc
00000280: a8f9 aabd 046a 7fbd e3da bd3d 6d04 eb3c
00000290: a492 b33c 9ef8 eebd de24 36bc 7f16 753d
000002a0: 0f88 fdbd c6c9 d8bd d5c6 003d 038f c83d
000002b0: 06b4 06be 3f24 26bd dbb2 06be ede7 b7bd
000002c0: 73ea f53d 2748 023e 0310 dbbd f1ec e5bd
000002d0: 2376 edbd 6133 30bd df79 a03d f292 b83d
000002e0: 424c c1bc e1d7 f03d 6c7c 09be 164d 573b
000002f0: 3d8d 12bd 0cbe 1d3c 66f3 6bbd f9d3 fb3d
00000300: 06a5 f13b eb92 c8bc 4021 d13b 47f5 6c3d
00000310: a490 143d 572d 333d b3b1 033e dfeb 873b
00000320: 3816 bd3d 59ac 6d3d 6b99 9b3b 4661 b7bd
00000330: bac5 943c 6cf4 0c3d 694a 983c fea5 bcbd
00000340: 0a4c 853c 43e7 b53d 48cb 82bc 09a3 4ebe
00000350: 0039 6abd c532 a3bd 0f7a 4c3c 3d9c 573b
00000360: 8cf1 d43d 317e 6cbd 1882 813d 9034 d4bc
00000370: c2b5 7f3d 2a60 ecbc 2a6e 2dbe 7bbe aebd
00000380: 5a32 69be 80bd 1ebe 56cf d23d 9a4c 563d
00000390: 889d 8d3d 059d 85bd 4281 9ebb a452 233d
000003a0: 4553 253d ba5f e23d 83aa b83d 0f7a 8fbd
000003b0: c193 a03d 4ac9 a5bd 2ada 94bd 3855 37bd
000003c0: c312 d03d 0c60 6abd 36d1 773d 080e 503d
000003d0: 3ba9 85bd f7af fbbc d3df a93d 8833 bdbd
000003e0: e237 2bbd 70ee 79bd a555 08be 5cbe 6a3d
000003f0: 2258 79bd b9d9 0e3d 0c0d c63c 6cc7 873d
0.009348904 -0.0014893754 0.0040396275 0.10551977 -0.10926771 0.07469673 -0.10053439 0.120045796
0.1334387 -0.04846042 0.14864281 -0.075682096 -0.0067188884 -0.0076049473 -0.06313661 -0.07176106
-0.04660648 0.111754745 -0.085108615 -0.15816177 0.074681886 -0.12717864 -0.025157347 -0.077325344
0.12583828 -0.14183804 0.0011567267 -0.040471658 -0.08978257 -0.029516513 -0.082796596 -0.07756119
0.033413883 0.14522503 0.118283115 0.15816528 0.07924858 0.0151911955 -0.034451738 0.02707862
-0.0003704338 0.08821439 0.011295707 -0.1257953 -0.107646376 0.15590739 -0.040083453 -0.00012921305
0.048967194 0.10488946 -0.038198892 0.17431119 -0.089996494 -0.07359697 0.08289558 0.16269349
-0.07806842 -0.068017855 -0.016631762 -0.09741116 0.12180004 -2.2767824e-06 0.049516838 0.07612711
0.006630549 -0.104400724 -0.062286425 0.05254612 -0.15618499 0.19082738 0.18601432 -0.14325914
0.106704324 -0.14252129 0.18344349 -0.13003118 0.0839295 -0.061522488 -0.1156681 -0.04206828
0.10721367 0.055847827 0.030756192 -0.019616723 -0.1396841 -0.09487103 0.065428674 0.08390009
0.1626682 0.11756931 -0.09014191 0.09207385 0.07201729 0.052247204 -0.102186404 0.11219142
-0.020737616 -0.050450653 0.05618282 0.08235223 0.042912547 0.043067977 0.03548195 0.07930292
0.042291816 -0.16297325 -0.14961952 -0.010978867 0.14266336 0.10327071 0.11800412 -0.1130403
-0.21084549 0.19677895 -0.10888915 0.029923877 0.18359187 0.17955837 -0.14729996 0.017727239
0.1283514 0.19325823 -0.012928385 0.023255603 -0.16851068 -0.12570904 0.09102411 0.17069344
-0.08578238 -0.0026538584 0.017306797 -0.06952776 -0.077218965 0.13060044 -0.035746347 -0.12674478
-0.05650998 0.018874405 -0.00656994 -0.0025740773 -0.07142951 0.064127065 0.01017614 0.017566422
-0.055326883 0.0672686 -0.1153311 0.05929586 -0.092279695 0.085221216 -0.0091792215 0.09987057
-0.087953515 0.08254509 0.05645851 -0.056836504 -0.1721661 -0.08263957 0.083057135 -0.022787938
-0.083483994 -0.062356964 0.09270265 0.028688634 0.02192051 -0.11668514 -0.011117188 0.059835907
-0.12379467 -0.1058536 0.03143962 0.09792902 -0.13154611 -0.04056191 -0.13154165 -0.08979783
0.12007608 0.12722836 -0.10696413 -0.112268336 -0.115947984 -0.04301775 0.07835745 0.090124026
-0.023595933 0.11759926 -0.1342637 0.0032852343 -0.035779227 0.00962783 -0.05760517 0.1229629
0.0073744087 -0.024484118 0.0063821375 0.057851102 0.036270753 0.04374441 0.12860756 0.004147991
0.092327535 0.05802569 0.0047485135 -0.089541 0.01816069 0.034412786 0.018590169 -0.09211348
0.01627161 0.08882 -0.015966073 -0.2017938 -0.057183266 -0.07968668 0.012480273 0.0032899522
0.10397634 -0.057737533 0.063236415 -0.02590397 0.062429197 -0.028854448 -0.16936556 -0.08532425
-0.22773114 -0.15501976 0.102934524 0.052319147 0.06914812 -0.0652409 -0.004837186 0.039873734
0.040362615 0.11053415 0.090168975 -0.07005703 0.07840682 -0.080950335 -0.07268174 -0.044759005
0.101598285 -0.057220504 0.060502253 0.05079463 -0.06526419 -0.030723555 0.08294644 -0.092383444
-0.04180134 -0.061018407 -0.13313921 0.057310447 -0.060875066 0.034875605 0.024176143 0.066298336

tcn.network.0.net.0.bias f4 [32]
00000000: d5f3 fcbd 1fe4 d8bd 1ad6 17be b2f8 86bd
00000010: 48c4 1f3d e293 be3d 2de7 9bbd 1cde a33d
00000020: 7443 b6bd 2684 413d 6732 41be 54ee 9f3d
00000030: 09ab 0cbc d3df 7fbc ad3b b33d e899 2e3d
00000040: c96b c73c 1780 76bd ad13 3e3d 480b ccbc
00000050: 9dfc b9bd ae6e 883d a8b6 c43d 97bf 3e3d
00000060: a5bc 34bd 0c4f 17be 2b4f c73d 9755 ae3d
00000070: d43b 1ebe 0a88 fc3d 79e7 1c3d 1121 0fbd
-0.12351195 -0.10590386 -0.14827767 -0.065904036 0.039005548 0.0930555 -0.07612453 0.080013484
-0.088995844 0.047245167 -0.18866883 0.07809129 -0.0085857 -0.015617329 0.087516166 0.042627245
0.024343388 -0.06018075 0.046405483 -0.024907723 -0.09081385 0.066617355 0.096051514 0.046569433
-0.044125218 -0.14776248 0.09731897 0.08512419 -0.1545251 0.12330635 0.038306687 -0.034943644

tcn.network.0.net.0.weight_g f4 [32, 1, 1]
00000000: 69f2 123f fd84 213f 0d06 1d3f e8e7 0b3f
00000010: 61b7 1f3f d927 183f bc11 0a3f 84f6 003f
00000020: 31b1 173f d7a4 1a3f cfb6 353f 685e 053f
00000030: 06b2 003f 9ea5 f93e bf69 033f d880 103f
00000040: 298f 113f b576 113f bfe4 f83e 7102 f93e
00000050: ffe2 133f 6c61 063f 7add 053f 7416 213f
00000060: 345d 233f d1b4 013f bada 133f d6d4 083f
00000070: f7e6 fc3e d8ba 0f3f 1373 113f d303 2b3f
0.5740114 0.6309355 0.6133736 0.54650736 0.6238919 0.594358 0.5393331 0.50376153
0.5925475 0.60407776 0.7098207 0.5209718 0.5027164 0.48759168 0.5133323 0.564466
0.5685907 0.5682176 0.4861202 0.48634675 0.57768244 0.52492404 0.5229107 0.62924886
0.6381409 0.5066653 0.57755625 0.5344976 0.49394962 0.56144476 0.56816214 0.6680271

tcn.network.0.net.0.weight_v f4 [32, 32, 2]
00000000: 841d e1bd 3c6e b9bd 4465 4d3d d60a 1cbc
00000010: a294 413d 5345 ddbd 9c26 013e 0617 153e
00000020: 8e15 d83d a64f 133e 4b64 c6bd cdee e7bc
00000030: 9300 48be bed2 4cbe 4679 50bb 264d 603d
00000040: 66c0 86bd 49d7 0ebd 08bd ac3d ef34 023e
00000050: c9b3 10be cef9 8fbc 0223 11be b01d e73d
00000060: df7d 9e3d 667b 02be c58e a83d 2b02 4d3d
00000070: 7562 0dbe 9684 203e 605b 863d 4ea3 b9bd
00000080: ec28 f63d 44f5 073d 86aa c7bd 3e27 a63c
00000090: 95fa 9bbd 753b e4bd 6161 1e3c aff0 6dbd
000000a0: fc2c 1abd beac d7bd b208 a63c 356c d7bc
000000b0: ecbb 033e c3e6 19bc 3b19 753d 8c6d 1dbb
000000c0: e628 ce3d ec1c f83d c5fb 1c3e effe 1b3e
000000d0: 5df6 08bd eb17 303d 6b95 babd 3a0f d83d
000000e0: 9f95 7bbd 97bb da3d 5c4f 173e 3d8b 0f3e
000000f0: a8e3 2d3d d3e6 05be 3865 823d 81d8 ccbc
00000100: 96d1 853c 9426 3fbe 5cdd 043b 9596 cc3c
00000110: 86bb 50be c583 28be f2c0 67bc 81f3 ea3d
00000120: 3fd1 9fbb f2bd 27be d499 84be 1dc8 5dbe
00000130: a7ad bd3d 89df c13b 839c 293e 59ef a03d
00000140: 9242 4ebd 5e21 1cbe 993f 1bbd f5e5 be3d
00000150: 4a64 67bb bbff 433e 69f3 2e3c bc3d e03d
00000160: 9af7 fa3d 9778 d63d f98b 4ebd 62bd 873d
00000170: 8938 c3bd f4fb f2bd a83a 013e 94e3 a93d
00000180: 8d0e c2bd 2a6d 30bd 9452 533d 5bf1 17be
00000190: 7bfa 99bd 8680 ce3d d1f3 a73c f57e f1bc
000001a0: 8854 f13c 7f75 993d fdea 34bd 403e 5cbd
000001b0: f3c9 2d3d 9c03 e0bd e20b 79bc 4536 e4bd
000001c0: 790a 3c3c 901f ec3d ba88 c3bd a270 57bc
000001d0: 326a 2a3e 24f8 3d3d 63bd 41be ca1d 223d
000001e0: a5a4 47bd e4aa 43bd 939f dcbd 32a7 1cbd
000001f0: d130 c33b bd76 b73d 8938 543c 8fb0 f03d
00000200: 56b9 eabd e300 c13d bded f6ba fadb d63d
00000210: c2ba 0dbc f3d2 ad3d fa28 97bd 7611 1abe
00000220: 25c8 40bd dcd4 b73d 3b30 8c3d 992a f83d
00000230: 7608 bf3d c65e 82bc 4946 853d 4c19 4b3c
00000240: 7fde a0bd fa39 9fbc 5038 a3bd 16fa 1ebe
00000250: 6b10 f6bb 2232 893c 135f f3bd 23b6 45be
00000260: e96e babd 0022 8bbd 6cc5 353e 6be1 433e
00000270: 41ab 2b3d b1a1 dabb a798 c5bd 14fb 6fbd
00000280: 9186 1bbe 5fab 363d 41de 25be 7df5 9dbd
00000290: ca17 1cbe 0b4a 43be c51f 1abd 9a6a 743d
000002a0: f2e7 b03c 56e6 2cbd b89a 2ebe 1257 55be
000002b0: 1803 ab3c d681 6abe a020 0cbd b8c6 b0bc
000002c0: d635 883d 044e c83d d7fb 9538 d07d 21be
000002d0: 36cf 3e3d aa6d 42bc e490 613d 263e 45bd
000002e0: 90ac 683c 9716 3fbe d55d 723d fdde 7bbd
000002f0: b1e1 ec3d 9ab5 09bd 4897 49bd 1b7c 88bc
00000300: 8165 f5bc ee75 babd 0d9e 793c 5ed1 0cbe
00000310: 6046 94bd a8b3 0ebc 126a 57bd 36e4 093d
00000320: f9ab 40bd 0ecf d2bd a5a7 2cbb a718 41bd
00000330: 7517 223e ad55 05bd 3a55 80bd 563d 7a3d
00000340: 7e86 e13d 83fd 8a3d 1f5a 03be 7cdc a7bd
00000350: 6ff1 b23c 8c06 003e 7743 bb3c 5121 bdbd
00000360: a2ac 09be 364c 863d 76c5 b2bb b1dd 0abd
00000370: 784e b0bd 9d11 89bd c6f4 913d 339c 6fbd
00000380: 7297 92bd 813f 973c e4ad babd 96a8 bfbd
00000390: 17bf 02be f4e4 da3d 789b bb3b 66df d43d
000003a0: 872c c1bd f9be fabc 4752 2ebe 007d 45bd
000003b0: afc2 9b3d 5271 8cbd 3c1c 8b3d 6c1a 98bd
000003c0: 6c98 01be b5d7 34bb cde3 ffbd fa0e 803d
000003d0: b32f 1bbe 2176 c33d a41a ac3c d992 efbb
000003e0: 0eb3 5e3c 3e7f 97bd 06c0 c43c 709d e0bc
000003f0: 3623 ccbc e8a2 c33c f9bc f9bd fec6 c23d
-0.10991958 -0.09054229 0.050145403 -0.009524068 0.047260888 -0.10804238 0.12612385 0.14559564
0.10550986 0.14385852 -0.09687098 -0.028312111 -0.19531469 -0.20002267 -0.0031810566 0.054761074
-0.06579666 -0.03487328 0.08434492 0.12715505 -0.14131083 -0.01757517 -0.1417351 0.11284959
0.07738852 -0.12742385 0.08230356 0.050050896 -0.1380709 0.15675578 0.06560397 -0.09064351
0.12019524 0.033192888 -0.09749322 0.020282384 -0.07616154 -0.11144153 0.009666772 -0.058090862
-0.037640557 -0.10530995 0.020267818 -0.026296714 0.12864655 -0.009393397 0.059838515 -0.0024021594
0.100663945 0.121148914 0.15330417 0.15233968 -0.033438075 0.04299156 -0.091105305 0.10549779
-0.061421987 0.10680311 0.14776367 0.14017959 0.042453438 -0.13076334 0.06366962 -0.02500558
0.01633529 -0.1866706 0.0020273542 0.024974147 -0.20384035 -0.16456516 -0.014145123 0.11472226
-0.004877239 -0.16381052 -0.25898612 -0.21658368 0.09261637 0.00591654 0.1656361 0.07858152
-0.050356455 -0.15247104 -0.03790245 0.093212046 -0.003530758 0.19140522 0.010678151 0.10949275
0.122542575 0.104722194 -0.050426457 0.06627919 -0.095322676 -0.118644625 0.12620032 0.0829536
-0.094754316 -0.043072857 0.051592425 -0.14838164 -0.075184785 0.10083108 0.020502003 -0.029479483
0.029459253 0.07493114 -0.044169415 -0.053770304 0.042428922 -0.109381884 -0.015200587 -0.111431636
0.011477106 0.115294576 -0.09547563 -0.013149412 0.16642073 0.046379223 -0.18919902 0.03957919
-0.048741 -0.047770396 -0.10772624 -0.038245387 0.005956747 0.089581944 0.012952932 0.11752426
-0.11461131 0.09423997 -0.0018839162 0.10491176 -0.008650484 0.08487501 -0.073808625 -0.15045723
-0.047065873 0.089761466 0.06845137 0.121175 0.09327786 -0.015914332 0.065075465 0.012396168
-0.07854938 -0.019436825 -0.07969725 -0.15525088 -0.0075092814 0.016747538 -0.11883368 -0.19307761
-0.09103186 -0.06793594 0.17751092 0.19128959 0.041911367 -0.006672107 -0.09648257 -0.058589056
-0.15188052 0.044597026 -0.16198064 -0.07712839 -0.1524345 -0.19071214 -0.037627954 0.059671976
0.021594975 -0.042211853 -0.17051208 -0.20833996 0.020875499 -0.22901091 -0.0342108 -0.021579131
0.066508934 0.09780505 7.1517825e-05 -0.1577065 0.04658433 -0.011866966 0.05506982 -0.048154972
0.014201298 -0.18660961 0.059171516 -0.061491955 0.11566485 -0.033620454 -0.04921654 -0.01666074
-0.029955627 -0.091045246 0.015235436 -0.13751742 -0.072399855 -0.008709826 -0.05259139 0.033664905
-0.047039006 -0.10293399 -0.002634504 -0.04714265 0.1582926 -0.03255241 -0.06266256 0.06109365
0.110119805 0.06786635 -0.12827347 -0.08196351 0.02184364 0.12502497 0.022859318 -0.0923487
-0.1344476 0.06557505 -0.005455668 -0.033902828 -0.08608717 -0.066928126 0.07126765 -0.058498573
-0.07157792 0.018462898 -0.09115198 -0.09358327 -0.12768207 0.106882006 0.0057253204 0.10394172
-0.09432321 -0.030608641 -0.17023574 -0.048214912 0.07605492 -0.06857552 0.06792495 -0.074269146
-0.126558 -0.0027594392 -0.124946214 0.062528566 -0.15154915 0.09544016 0.021008797 -0.007311207
0.013592495 -0.073973164 0.024017345 -0.027418822 -0.024919134 0.02388139 -0.12194247 0.09510611

tcn.network.0.net.4.bias f4 [32]
00000000: 639e 2cbd cf6c a33d e3c4 28bd 91a8 eb3d
00000010: 4f3f a3bd 4447 0d3d e1c6 1fbd a84e 433c
00000020: a00c 59bd f467 8d3d be4a 0fbe e828 523c
00000030: 893d 873c c332 1bbe 28ba ba3d 1dea 4b3e
00000040: db79 abbd e99b 503c 945b b33b 99ba e1bd
00000050: 1960 95bd c754 40be b7ca 8d3d 67c6 5c3d
00000060: 76ce 8a3d 16db 39bd 2a44 893d 29c8 ca3c
00000070: 49c7 573d fd20 8a3c 005d 0f3d 82e9 2c3d
-0.042143237 0.07979738 -0.04120339 0.11506761 -0.079710595 0.034491792 -0.039008025 0.011920609
-0.052990556 0.06904593 -0.13993356 0.012827136 0.016508834 -0.15156083 0.09117538 0.19913526
-0.083728515 0.012732484 0.0054735634 -0.11021919 -0.0729372 -0.1878234 0.069234304 0.05390015
0.067776605 -0.045374952 0.067024544 0.024753647 0.052680288 0.016861433 0.0350008 0.042214878

tcn.network.0.net.4.weight_g f4 [32, 1, 1]
00000000: 6595 003f 74e3 fa3e e521 193f 2b6e 113f
00000010: d6e5 123f 5a19 073f eff7 033f e054 193f
00000020: c4da 0e3f 5e6e 103f 3577 183f d9ed 0a3f
00000030: 2fe1 403f e246 ff3e 08c6 0b3f e0c0 fe3e
00000040: 671f 0e3f f633 013f 4e74 073f dd2d 0a3f
00000050: 7937 0e3f e91b 283f 2144 093f 3249 123f
00000060: 986f 073f d4d4 1b3f 029d 1a3f c4a6 183f
00000070: 0bd7 0b3f 5635 1c3f a89e 143f ded4 063f
0.5022796 0.49001658 0.59817344 0.5680873 0.5738195 0.5277306 0.5155019 0.59895134
0.5580256 0.56418407 0.59556895 0.54269177 0.753436 0.49858767 0.54599047 0.49756527
0.55516666 0.5046991 0.5291184 0.5397623 0.55553395 0.6566759 0.5361958 0.5714294
0.52904654 0.60871625 0.60395825 0.59629464 0.54625005 0.61018884 0.5805459 0.5266856

tcn.network.0.net.4.weight_v f4 [32, 32, 2]
00000000: 252c 193c 2537 c3ba da5e 843b c01a d83d
00000010: c0c7 dfbd 99fa 983d f9e4 cdbd 92da f53d
00000020: 28a4 083e 6f7e 46bd d235 183e 37ff 9abd
00000030: 1f2a dcbb ec32 f9bb c44d 81bd 76f7 92bd
00000040: 70e6 3ebd acdf e43d 6d4d aebd 29f5 21be
00000050: d1f2 983d 1e3b 02be c816 cebc c05c 9ebd
00000060: c0db 003e fe3d 11be 4f9d 973a 9cc5 25bd
00000070: eddf b7bd 9dcc f1bc 4391 a9bd 67d8 9ebd
00000080: ffdc 083d dfb5 143e 6b3e f23d 14f6 213e
00000090: 144d a23d 7ee4 783c 441d 0dbd fbd3 dd3c
000000a0: c836 c2b9 bfa9 b43d a111 393c 7cd0 00be
000000b0: b475 dcbd 30a6 1f3e 8c2e 24bd 5d7d 07b9
000000c0: d391 483d 49d0 d63d 7176 1cbd a27e 323e
000000d0: 1550 b8bd 02ba 96bd 28c5 a93d 1f99 263e
000000e0: 56e2 9fbd f24c 8bbd 553f 88bc 817f c7bd
000000f0: 4d72 f93d d3ca 18b6 2bd2 4a3d 88e8 9b3d
00000100: 1445 d93b 0cd0 d5bd 0d20 7fbd 9a3a 573d
00000110: f5ee 1fbe 4168 433e 8a7a 3e3e 86b2 12be
00000120: cc87 da3d 1af1 11be 9cd8 3b3e e526 05be
00000130: 3be3 ab3d 01ff 7bbd 66e3 ecbd ca4f 2cbd
00000140: d792 db3d b1c0 643d 69f4 fb3c 40b3 a0bc
00000150: 5909 0fbe be4b c2bd 78ff 853d cfd3 ab3d
00000160: 7e92 263e 2ec8 f03d 529c b8bd 3791 bc3d
00000170: cd7d 933d 2a01 563d 1b47 d1bd 9dc4 e53d
00000180: efe1 a9bc 58a5 4ebd f51f 663d 49a8 a83d
00000190: 11c5 2f3d 0c68 303d 8555 113d 9269 a23d
000001a0: 2f3a 2d3d 76e2 26be dc35 19be b5e0 33bc
000001b0: 5816 123e 987f d33d 25ac f13d ac81 e7bd
000001c0: e1e7 57be 6c80 493e 4601 dfbd eb22 f53c
000001d0: 82ff 3b3e 26de 373e cdd5 16be b738 913c
000001e0: 8d6e 033e 7ce5 453e 94d1 53bc 8982 be3c
000001f0: 108e 2cbe dfb9 00be d96a ba3d 43ca 2e3e
00000200: acae afbd 5bec 2dbb fcc6 8d3c 9264 8ebd
00000210: fa24 9ebd 1fbc 053e c36a 12bd 62c9 01be
00000220: 0277 67bd 7f9e 9a3c a748 d7bb dab1 28bb
00000230: a349 92bd 0d55 833d d3b9 263c 75e7 8f3c
00000240: 719e 62bd 1fc4 893d b632 ecbd 37e0 723d
00000250: 23fd bcbd 7688 ae3d 7264 16bc f188 cc3d
00000260: f920 b4bd 660d a93d 0a41 673d 65cd 68bd
00000270: 4f4c 30be ef3e a9bd dc19 aa3d c5ad babc
00000280: a8f9 aabd 046a 7fbd e3da bd3d 6d04 eb3c
00000290: a492 b33c 9ef8 eebd de24 36bc 7f16 753d
000002a0: 0f88 fdbd c6c9 d8bd d5c6 003d 038f c83d
000002b0: 06b4 06be 3f24 26bd dbb2 06be ede7 b7bd
000002c0: 73ea f53d 2748 023e 0310 dbbd f1ec e5bd
000002d0: 2376 edbd 6133 30bd df79 a03d f292 b83d
000002e0: 424c c1bc e1d7 f03d 6c7c 09be 164d 573b
000002f0: 3d8d 12bd 0cbe 1d3c 66f3 6bbd f9d3 fb3d
00000300: 06a5 f13b eb92 c8bc 4021 d13b 47f5 6c3d
00000310: a490 143d 572d 333d b3b1 033e dfeb 873b
00000320: 3816 bd3d 59ac 6d3d 6b99 9b3b 4661 b7bd
00000330: bac5 943c 6cf4 0c3d 694a 983c fea5 bcbd
00000340: 0a4c 853c 43e7 b53d 48cb 82bc 09a3 4ebe
00000350: 0039 6abd c532 a3bd 0f7a 4c3c 3d9c 573b
00000360: 8cf1 d43d 317e 6cbd 1882 813d 9034 d4bc
00000370: c2b5 7f3d 2a60 ecbc 2a6e 2dbe 7bbe aebd
00000380: 5a32 69be 80bd 1ebe 56cf d23d 9a4c 563d
00000390: 889d 8d3d 059d 85bd 4281 9ebb a452 233d
000003a0: 4553 253d ba5f e23d 83aa b83d 0f7a 8fbd
000003b0: c193 a03d 4ac9 a5bd 2ada 94bd 3855 37bd
000003c0: c312 d03d 0c60 6abd 36d1 773d 080e 503d
000003d0: 3ba9 85bd f7af fbbc d3df a93d 8833 bdbd
000003e0: e237 2bbd 70ee 79bd a555 08be 5cbe 6a3d
000003f0: 2258 79bd b9d9 0e3d 0c0d c63c 6cc7 873d
0.009348904 -0.0014893754 0.0040396275 0.10551977 -0.10926771 0.07469673 -0.10053439 0.120045796
0.1334387 -0.04846042 0.14864281 -0.075682096 -0.0067188884 -0.0076049473 -0.06313661 -0.07176106
-0.04660648 0.111754745 -0.085108615 -0.15816177 0.074681886 -0.12717864 -0.025157347 -0.077325344
0.12583828 -0.14183804 0.0011567267 -0.040471658 -0.08978257 -0.029516513 -0.082796596 -0.07756119
0.033413883 0.14522503 0.118283115 0.15816528 0.07924858 0.0151911955 -0.034451738 0.02707862
-0.0003704338 0.08821439 0.011295707 -0.1257953 -0.107646376 0.15590739 -0.040083453 -0.00012921305
0.048967194 0.10488946 -0.038198892 0.17431119 -0.089996494 -0.07359697 0.08289558 0.16269349
-0.07806842 -0.068017855 -0.016631762 -0.09741116 0.12180004 -2.2767824e-06 0.049516838 0.07612711
0.006630549 -0.104400724 -0.062286425 0.05254612 -0.15618499 0.19082738 0.18601432 -0.14325914
0.106704324 -0.14252129 0.18344349 -0.13003118 0.0839295 -0.061522488 -0.1156681 -0.04206828
0.10721367 0.055847827 0.030756192 -0.019616723 -0.1396841 -0.09487103 0.065428674 0.08390009
0.1626682 0.11756931 -0.09014191 0.09207385 0.07201729 0.052247204 -0.102186404 0.11219142
-0.020737616 -0.050450653 0.05618282 0.08235223 0.042912547 0.043067977 0.03548195 0.07930292
0.042291816 -0.16297325 -0.14961952 -0.010978867 0.14266336 0.10327071 0.11800412 -0.1130403
-0.21084549 0.19677895 -0.10888915 0.029923877 0.18359187 0.17955837 -0.14729996 0.017727239
0.1283514 0.19325823 -0.012928385 0.023255603 -0.16851068 -0.12570904 0.09102411 0.17069344
-0.08578238 -0.0026538584 0.017306797 -0.06952776 -0.077218965 0.13060044 -0.035746347 -0.12674478
-0.05650998 0.018874405 -0.00656994 -0.0025740773 -0.07142951 0.064127065 0.01017614 0.017566422
-0.055326883 0.0672686 -0.1153311 0.05929586 -0.092279695 0.085221216 -0.0091792215 0.09987057
-0.087953515 0.08254509 0.05645851 -0.056836504 -0.1721661 -0.08263957 0.083057135 -0.022787938
-0.083483994 -0.062356964 0.09270265 0.028688634 0.02192051 -0.11668514 -0.011117188 0.059835907
-0.12379467 -0.1058536 0.03143962 0.09792902 -0.13154611 -0.04056191 -0.13154165 -0.08979783
0.12007608 0.12722836 -0.10696413 -0.112268336 -0.115947984 -0.04301775 0.07835745 0.090124026
-0.023595933 0.11759926 -0.1342637 0.0032852343 -0.035779227 0.00962783 -0.05760517 0.1229629
0.0073744087 -0.024484118 0.0063821375 0.057851102 0.036270753 0.04374441 0.12860756 0.004147991
0.092327535 0.05802569 0.0047485135 -0.089541 0.01816069 0.034412786 0.018590169 -0.09211348
0.01627161 0.08882 -0.015966073 -0.2017938 -0.057183266 -0.07968668 0.012480273 0.0032899522
0.10397634 -0.057737533 0.063236415 -0.02590397 0.062429197 -0.028854448 -0.16936556 -0.08532425
-0.22773114 -0.15501976 0.102934524 0.052319147 0.06914812 -0.0652409 -0.004837186 0.039873734
0.040362615 0.11053415 0.090168975 -0.07005703 0.07840682 -0.080950335 -0.07268174 -0.044759005
0.101598285 -0.057220504 0.060502253 0.05079463 -0.06526419 -0.030723555 0.08294644 -0.092383444
-0.04180134 -0.061018407 -0.13313921 0.057310447 -0.060875066 0.034875605 0.024176143 0.066298336

tcn.network.0.downsample.weight f4 [32, 32, 1]
00000000: 1e1f 3ebe efef a03e c037 8abe ec87 00bc
00000010: 6ea4 27be 3151 acbe c00d 5dbe 4db6 6e3e
00000020: d5fe 80be 84b3 dfbd fd5e 903d e017 f73d
00000030: 1b55 eebc 4eb1 9dbd 8de4 753e 0b94 d0bd
00000040: cf1b 05be ceb1 78be 587c aa3d 9872 67be
00000050: f9bb 593e 5976 d3bc 6167 2f3d 829c c3bd
00000060: 204e 893c e44a dfbc 7730 ab3d 4c51 8ebe
00000070: 6f21 7c3e bcd9 9ebd 4d60 913e 75f2 eebd
00000080: 6170 6dbe ec1e cebd e0e8 35be 4897 5a3c
00000090: 7786 7fbd ab63 dcbd 2cb1 26be 56b5 0a3e
000000a0: 8d78 cc3d d97f d23d 7888 543e e248 3d3e
000000b0: 35ab d83c 145b 55bc 0c09 7a3e f7ce 833e
000000c0: 89a2 fabd e077 e7bd 048c 0e3e 1943 73be
000000d0: de21 633e 458a 3b3e 826b 953d a60a f8bc
000000e0: 2bd3 c23d be8c 143e 2117 3a3e 6c5e 6cbe
000000f0: e616 a93e efc8 48be f3fe 393e 2824 b8bd
00000100: 3ccf 99bd 794b bcbd 8f93 8c3d 3b25 a5bd
00000110: 2cec c9bc 5189 dabc c0ba 1abd 1505 4f3e
00000120: 8813 82bd 6a30 a3bd 689f 21bc d68a 933d
00000130: 6516 50bd 7cca bfbd a0d9 82bd 27ca b2bc
00000140: e053 55be a93a 3cbd e8d1 42be c259 3a3c
00000150: a574 c83d 4a95 df3c 566d d53c 6d88 25be
00000160: 8c40 39bb 3070 ff3a c684 283e c995 29be
00000170: 79bd e4bc 12ce 20be 5a56 03bd 3f78 7c3d
00000180: f738 203e 52d1 15be d929 7ebd ba67 aabd
00000190: 3d35 acbd 5702 21bd e0a7 2bbe a987 803d
000001a0: cb13 143e a97f 273e 8edd 433d 19d4 b83a
000001b0: 9644 433e 6014 7b3d 7032 4d3e 2ef2 1cbd
000001c0: 6a70 f5bd 72c5 6d3c a8b0 23bd 9883 6ebe
000001d0: 069d 9cbd 5488 643e 26ed a1bd 2676 a43c
000001e0: 6a03 0bbd bc20 403e 7283 8a3d 5f6c 923d
000001f0: 608d 883e 467f d5bc fe2b 1f3e 72cb a9bd
00000200: cc9e 8e3e 6d4e 4b3c 33c8 c93d bf30 18bc
00000210: 943a 92bb d890 893e 5ccf 3f3c ed5a b63c
00000220: 34b0 3d3e 3eb5 e43d 4e34 86be 3f4b f23a
00000230: 2d49 a5be 65dc b03d 7dac d8bc ab77 80be
00000240: e9e8 8dba 5744 5f3e 9d5e 033e 2a9c a53e
00000250: bd0f 6cbd 4385 cbbc 5563 4cbe bb02 f9bd
00000260: b70d ee3d b649 32be 4441 ab3d bf0b a83b
00000270: 5e50 16be 7c98 fe3d 319e 4cbe 685b e53c
00000280: 0cfc 393e 47a7 193d e28f fdbd b273 0d3e
00000290: e11b be3d db21 493e 7e76 09be 91e2 613d
000002a0: 47dd 283e 0b54 efbd cc3f 35be f0ca 0cbb
000002b0: 84ab d63d 2aa1 f6bb fe6e ffbd 6f99 273e
000002c0: 1b72 82bd 284a 263e 5708 063e 6c19 debd
000002d0: 1621 f1bd 87d8 733c cc55 62bd bd5a 173e
000002e0: f11d 0a3e 3d8a e23d 4e17 f0bb 142d f03c
000002f0: 4e92 e8bd 092f ba3c 30e4 a33c 2e35 b63b
00000300: 139e c83d 6540 95bd 94bb 43be 581f a33e
00000310: 1fd5 0d3d 6942 c7bc e02b 1dbe b567 56be
00000320: f1e9 583e a84d 593e 80de c1bd b556 013e
00000330: aa0b 893e dfe0 9abd c85a 573e 2bfb 763e
00000340: 0e47 eebc d159 323d fa26 f03b d25a 20be
00000350: c029 923d 6e10 263e 300e 853e 0d37 2d3e
00000360: 783b 82bc 9988 8d3e 3110 843d 838c bc3d
00000370: e1c9 9c3e a920 8c3d e2bc f23c aef8 b5bd
00000380: f1e6 7dbe 678f 3d3d 5f03 11be b134 8c3e
00000390: 812b 82bd 75f4 b2bc 83c2 93be ba36 d63d
000003a0: f2c3 db3d cd0c 353e 265a 783e e59b 0a3e
000003b0: dc98 8c3d 9146 3cbe b829 bd3d ba32 8ebd
000003c0: 2b55 50be d802 9b3d 0040 a8bd 897c 40be
000003d0: 6c01 743e 6907 223e c514 f43d baaa 143d
000003e0: d65d 11be b4b4 f43d c23a 13be a5db 71bd
000003f0: c9e3 a73e b51a 42be 81dd 1e3e 9519 0abd
-0.18566558 0.31433055 -0.2699566 -0.007844906 -0.16371319 -0.33655694 -0.21587276 0.2331173
-0.2519442 -0.10922912 0.070493676 0.12065101 -0.029093316 -0.07699834 0.24012966 -0.10184487
-0.1299889 -0.24286577 0.08324498 -0.22602308 0.21263112 -0.025813268 0.0428232 -0.09551336
0.016760886 -0.02725739 0.08358853 -0.277964 0.24622129 -0.07756373 0.28393784 -0.11667339
-0.231874 -0.10064492 -0.17764616 0.013341732 -0.062384095 -0.10761198 -0.16278523 0.13545737
0.09983931 0.10278291 0.20755184 0.18484834 0.026448825 -0.013022203 0.24417514 0.2574384
-0.12238032 -0.11302161 0.13920599 -0.23756064 0.22180888 0.18314464 0.07295896 -0.030278515
0.09512933 0.14506814 0.18172885 -0.23082894 0.33025283 -0.196079 0.18163662 -0.08991271
-0.0751023 -0.09194083 0.06864082 -0.08063742 -0.024648748 -0.026676806 -0.037775755 0.20216782
-0.063513815 -0.079682186 -0.009864666 0.07204215 -0.050802607 -0.09364793 -0.06389165 -0.02182491
-0.20832777 -0.04595438 -0.19025385 0.011373939 0.09787873 0.027292866 0.026053112 -0.16165324
-0.0028267233 0.001948839 0.16456899 -0.16561045 -0.027922379 -0.1570361 -0.032064773 0.061638113
0.1564673 -0.1463063 -0.062051628 -0.083205655 -0.08408592 -0.039308872 -0.16763258 0.06275875
0.14460675 0.16357292 0.047818713 0.0014101296 0.19069132 0.061298728 0.20038772 -0.038316898
-0.11984332 0.014512407 -0.039963394 -0.23292387 -0.07647137 0.2231763 -0.079065606 0.020075869
-0.033938803 0.18762487 0.067633525 0.071495764 0.2667036 -0.026061665 0.15544125 -0.08290757
0.27855527 0.012408835 0.09852638 -0.009288966 -0.0044625495 0.2686832 0.011707153 0.022260154
0.18524247 0.11167382 -0.2621178 0.001848556 -0.3228239 0.08635787 -0.026449436 -0.250913
-0.0010826859 0.21803413 0.12829061 0.32345706 -0.057632197 -0.024843818 -0.19959767 -0.12158724
0.1162371 -0.17410931 0.08362058 0.0051283534 -0.14679095 0.12431428 -0.1998222 0.027997687
0.18162555 0.037513044 -0.12380959 0.13813666 0.09282661 0.19641821 -0.13424107 0.05514771
0.1649066 -0.11685952 -0.17700118 -0.0021483265 0.10481933 -0.0075265365 -0.12472342 0.16367124
-0.0636942 0.16239226 0.13089119 -0.108446926 -0.11773889 0.014883167 -0.055257604 0.14780708
0.13487984 0.11061523 -0.007326997 0.02931837 -0.113560304 0.022727506 0.02000627 0.0055605387
0.09795775 -0.07287673 -0.19114524 0.3185985 0.034627076 -0.024323659 -0.15348768 -0.20937999
0.21182992 0.2122103 -0.09466267 0.12630732 0.2676671 -0.07562422 0.21030724 0.2411925
-0.029086616 0.043542687 0.007328865 -0.15659645 0.071368694 0.16217205 0.25987387 0.16915531
-0.015897498 0.27643278 0.06448401 0.09206488 0.3062277 0.06842167 0.029631082 -0.088853225
-0.24795128 0.046279337 -0.14161442 0.2738395 -0.06355954 -0.021845082 -0.28859338 0.10459657
0.10730733 0.17680664 0.24253139 0.13536032 0.06865093 -0.18386294 0.09236473 -0.06943269
-0.20344989 0.07568902 -0.08215332 -0.18797506 0.23828667 0.15823139 0.11918024 0.03629563
-0.14195952 0.11948529 -0.14377883 -0.05904736 0.32790974 -0.189555 0.15514185 -0.033715803

tcn.network.0.downsample.bias f4 [32]
00000000: 59a7 773d aa74 133b de86 84bd e4b1 89bd
00000010: 812e 14be f99b 81bd 5ee2 1c3d 2cfd d43c
00000020: 3564 523c c11a a0bd d65f 36be 3a9f 9cbd
00000030: 021b 30be f97a 203e 09d4 ebbc bda0 763d
00000040: b532 d23c ae5a 0c3e e561 debb 912b 31be
00000050: 6830 3dbe 92df 47be b32e ec3c 7520 a7bd
00000060: fdc8 e8bd 83c4 e83d a4bb 193e 774d b83d
00000070: ad95 8b3d a002 5abd 2f9c fdbc e3ad 5c3d
0.06046233 0.0022499957 -0.064710364 -0.06723383 -0.14470865 -0.063285775 0.038301818 0.025999628
0.012841274 -0.07817603 -0.17809996 -0.076475576 -0.17197803 0.1567191 -0.02878763 0.060211886
0.025658945 0.13706467 -0.0067865723 -0.17301776 -0.18475497 -0.19518879 0.028830862 -0.081604876
-0.113664605 0.11365607 0.15012985 0.0899915 0.06815658 -0.05322516 -0.030958263 0.05387677

tcn.network.1.conv1.bias f4 [32]
00000000: dd7f b73d 4d13 f9bd 1e43 443d 6def 9b3d
00000010: 4cd6 66bc ca65 18be 64cb 9f3d f3b7 76bc
00000020: 0dfd f0bd 4298 c63d f59b d43d e03f 673d
00000030: 2901 adbe c395 6cbd 1862 0cbe 9d54 6e3d
00000040: 7fbf 09bd 2b07 d6bc ff06 443d b80e a13d
00000050: 1340 64be 164b c6bd d3d5 873d f516 8bbc
00000060: 462b 633d 110c c43c b1c2 5e3d 2351 34be
00000070: 6125 51bd 802a db3d 6582 0f3d 84da 303b
0.08959935 -0.121618845 0.04791557 0.07614026 -0.014089178 -0.1488258 0.078024656 -0.015058505
-0.117670156 0.096970096 0.10381309 0.0564574 -0.33789948 -0.05776001 -0.13709295 0.058186162
-0.03362989 -0.026126465 0.047858234 0.078641355 -0.22290067 -0.0968229 0.066325806 -0.01697872
0.05546119 0.023931535 0.05438489 -0.17609076 -0.051061038 0.107014656 0.035036463 0.0026985714

tcn.network.1.conv1.weight_g f4 [32, 1, 1]
00000000: e550 003f 6ecd 083f 2995 133f 6ffa 0b3f
00000010: 03eb 2b3f 1efe f93e c18e 423f 0f77 163f
00000020: 43fb 313f a92b 1c3f a667 153f 675b 2d3f
00000030: cc8f 203f f773 1a3f f2dc 0e3f dcf6 0c3f
00000040: b5b6 0b3f 2993 4a3f b3ed 0e3f 1fd4 213f
00000050: d694 1d3f bd99 173f b2d6 ec3e e336 113f
00000060: 3a65 263f fef5 113f 5d5c 2c3f d42b 2e3f
00000070: 2b31 193f 47ac 233f 380d 0b3f 46ad 083f
0.50123435 0.5343846 0.57649475 0.54679006 0.67155474 0.4882669 0.75999075 0.5877542
0.6952402 0.6100412 0.5836128 0.67717594 0.62719417 0.603332 0.55805886 0.5506418
0.54575664 0.791308 0.5583145 0.63214296 0.6155523 0.5921896 0.4625755 0.56724375
0.6499821 0.5701598 0.67328435 0.68035626 0.5984065 0.6393475 0.54317045 0.53389394

tcn.network.1.conv1.weight_v f4 [32, 32, 2]
00000000: 10ca f0bb 4df9 9b3d c585 053e 7e57 b03d
00000010: 0ec2 283e f37d 0fbe 3558 84bd c29e 183e
00000020: 214f ee3d d8a5 fc3d d7c2 9e3c d119 253d
00000030: 6b3f 92bd 4762 1abd cea4 0abc 04f7 503d
00000040: 1aa7 043e 9ebe 05be b2aa 0bbe 987d a9bd
00000050: c9a6 453e 0526 9e3d a00e b43d caf3 d53d
00000060: 0345 3f3e 38fa 063e 287f f5bd cb02 493c
00000070: 0bb1 813d 585f 4e3d 3988 723d 1c6e 08bc
00000080: 1dfb 17be 104e 093e f8e8 5e3d 1826 82bd
00000090: fe4e cabd 8d0c a23d 7532 a53d cae7 f43d
000000a0: 85a1 1d3e c051 d1bd 5311 1d3e 650e 7cbd
000000b0: 77ea 1d3d 3c64 cebd 956a b53d 4e4a 9dbd
000000c0: 34c6 9f3d 136f f63d dd89 17be 4b74 263d
000000d0: d438 343d 6735 0dbe 26f5 08be 907c ebbd
000000e0: 4106 39bd 562b fc3c 9f45 d4bd a24f 8f3d
000000f0: d73a fcbd c6a3 b73d a9cc 393e b4c3 84bc
00000100: 9f98 2a3d 29dc fdbb eef3 2a3d 86b5 dcbd
00000110: 5bc1 84bd 4fac 78bd 9992 c33c 9807 a13d
00000120: 7894 77bd bceb e33d 73db 963d 0731 52bd
00000130: ee2b 143d 748c ffbb bc44 e6bd 8cea f2bd
00000140: 4e02 4bbd 082d 1db9 4b85 b1bd 2750 b33c
00000150: cfce dbbc 0948 0ebe e7ca 863d f8f9 df3c
00000160: 3bb6 64bd 340d 0e3b 2e10 243d 372b 02be
00000170: 75cd 0abd 6557 c5bd 0ae5 85bc 3556 e5bd
00000180: 5816 80bd 85a9 123d b2ce f0bd 1b0c bdbd
00000190: 13e6 1fbd cacb e8bd f3f7 e93d e2d9 7bbd
000001a0: 091d 8e3c 9470 24bc 4fbc 07be 740e f63d
000001b0: 5ec9 323d b7c7 4d3c 6aa3 63bc e16e f33d
000001c0: d759 06be ccd4 883d 32bf 9b3d 503f 14bc
000001d0: e7b3 dbbd 03ba b4bc 53c6 9ebb 64cd cabd
000001e0: 83aa 5c3d fa42 16be f1b8 2fbd 5dc8 adbd
000001f0: 4cf3 b9bd 5d09 5f3d 092c f6bd b937 4dbd
00000200: 66ad eabc e80a 6ebd cec9 a53d c3ed 12bc
00000210: 104f cc3b 1255 253b fd79 0ebd e977 14be
00000220: 7bf2 e0bc ea3f 78bc 0f6a 1b3d a63b 533d
00000230: c06f 273e 7dbc a1bd 45c4 943d 8c3e efbd
00000240: 3258 bcbb 5246 323d e5dd 153c c9f5 05be
00000250: 2387 9ebd 3240 603d 416e b03d 81aa 0e3d
00000260: b489 803d cd6e 85bd ff8b 29be 1530 b8bd
00000270: c384 6e3e 6082 c7bc dbfb b63d 12d8 b9bd
00000280: bac8 2f3c 9d48 64bd 347e be3d 08eb e6bd
00000290: 778c 33bd cdb7 ccbd 5dc2 a5bc c448 643d
000002a0: e72b 8dbd 691e 8bbd 0ce8 8636 03f7 4a3c
000002b0: 6498 77bd e22a 5a3d 289c 2fbd 2a4f 8ebb
000002c0: 332f c03c 6815 dcbc fde1 0938 94ac 2bbd
000002d0: 2ef1 3d3c e921 3f3c 910e 87bd 283d 93bd
000002e0: fa15 91bd ac89 91bd 45fa bdbd c27c 893b
000002f0: c0df 62be 07a1 8e3d 79e0 aa3e 88a9 d63d
00000300: 85c5 1cbc be48 103e 9ddb d6bd 8a08 ad3d
00000310: a338 02bd 245d 1e3e 795e c7bd 6259 c23d
00000320: d2df cc3d ae9f b93d 0d13 503c bde7 21bc
00000330: 6cf5 e73c a7d5 eabb 12ef 19be 10d8 263e
00000340: 3368 48bd 8822 df3d 9b04 38bd a6d7 d4bd
00000350: 44d9 a5bd f779 043c 8670 7a3b 3f47 01be
00000360: 2dc3 fbbc 3f16 d2bc 16b0 ae3d 6f86 f0bd
00000370: f98f 5dbd 859e b5bd 6330 29be 754e 383c
00000380: 36d9 a63d a73b db3d b8a0 4cbc 2ad4 98bd
00000390: 1039 debb 8320 5dbc 6af2 d93d 5beb 023e
000003a0: af74 f23d d911 0dbe d19e 02be 93d6 413e
000003b0: 03b8 cabb 8873 15be ab5e 0abe f2d2 0a3e
000003c0: ac3b d03d ba25 c1bb 6370 833d 2925 d13c
000003d0: ee8c 743c 55e4 07be 967e 18be 5c70 073e
000003e0: b6fb bb3c 8710 ee3c 52a0 013d 4cef c13d
000003f0: acfa 3f3d 95bb 80bd 8a58 9abb 752f 6d3e
-0.0073483065 0.0761591 0.1303931 0.08610438 0.16480276 -0.1401289 -0.06462137 0.14904311
0.116361864 0.1233632 0.019380016 0.040307824 -0.07141002 -0.03769138 -0.008462144 0.051016822
0.12954369 -0.13060996 -0.13639334 -0.08275908 0.19301905 0.077220954 0.08791852 0.1044689
0.1867867 0.13181388 -0.11987144 0.012268732 0.063325964 0.050383896 0.059211943 -0.008327033
-0.14841886 0.13408685 0.054421395 -0.06354922 -0.09878348 0.0791255 0.080662645 0.11958273
0.15393646 -0.10220671 0.1533864 -0.061537165 0.03855368 -0.10077712 0.088582195 -0.07680188
0.07801476 0.120329045 -0.14798684 0.04063825 0.043999508 -0.13789903 -0.13374767 -0.11498368
-0.04517198 0.030782383 -0.10364842 0.06997611 -0.1231591 0.08966784 0.18144478 -0.0162066
0.041649457 -0.0077471924 0.041736536 -0.1077681 -0.06482192 -0.0607112 0.023873614 0.078627765
-0.060444325 0.11128947 0.07366075 -0.051316287 0.036174707 -0.0077987257 -0.11243579 -0.118611425
-0.049562745 -0.00014989462 -0.08668002 0.021888806 -0.026832012 -0.13894667 0.06581669 0.027340874
-0.05583785 0.002167535 0.040054493 -0.12711798 -0.033887345 -0.0963581 -0.016344566 -0.11198083
-0.06254262 0.035806198 -0.11758174 -0.092308246 -0.039037775 -0.11366995 0.11424246 -0.061487086
0.01734783 -0.010036606 -0.13255428 0.120144755 0.04364907 0.012559823 -0.013893941 0.11886383
-0.13120209 0.06681213 0.07604827 -0.009048298 -0.10727673 -0.022061354 -0.0048454194 -0.099024564
0.05387355 -0.14673987 -0.042900983 -0.08485482 -0.09079608 0.05445229 -0.12020118 -0.05010197
-0.028647136 -0.05811587 0.08095132 -0.00896782 0.006235011 0.0025227708 -0.034784306 -0.14498867
-0.027459374 -0.015151957 0.037942942 0.051570557 0.16351223 -0.078972794 0.07263998 -0.11681852
-0.0057478184 0.043524094 0.009147142 -0.13082041 -0.07740619 0.05474872 0.08614779 0.034830574
0.06276265 -0.06515274 -0.1655731 -0.08993546 0.23292832 -0.02435416 0.08934756 -0.09074415
0.010729009 -0.055733312 0.09301415 -0.112752974 -0.04383513 -0.09995995 -0.020234281 0.055733457
-0.06893139 -0.0679291 4.020525e-06 0.012387994 -0.060448065 0.053263552 -0.04287353 -0.004342933
0.023460006 -0.026865676 3.2873813e-05 -0.04191263 0.011593146 0.0116658 -0.06594575 -0.07189399
-0.0708427 -0.07106337 -0.09276251 0.0041957805 -0.22155666 0.06964307 0.33374384 0.10481554
-0.009568577 0.14090249 -0.10491107 0.08448894 -0.031792294 0.15465218 -0.09734816 0.09489705
0.10003628 0.090636596 0.012699855 -0.009881911 0.028315268 -0.0071665826 -0.15032604 0.16293359
-0.048927497 0.10895258 -0.044926267 -0.10392694 -0.08098081 0.008085719 0.0038214042 -0.12624834
-0.030732716 -0.025645373 0.085296795 -0.11744391 -0.05409238 -0.08868126 -0.16522364 0.011249174
0.081468984 0.10704737 -0.01248949 -0.07462342 -0.0067817047 -0.013496521 0.1064194 0.12785093
0.11838662 -0.1377634 -0.12755896 0.1892951 -0.0061864867 -0.14594853 -0.13512675 0.13557032
0.101676315 -0.00589439 0.064179204 0.025530415 0.014926178 -0.13270696 -0.14892039 0.13226455
0.022947174 0.029060615 0.031647034 0.094694704 0.04686992 -0.062857784 -0.0047102617 0.23162635

tcn.network.1.conv2.bias f4 [32]
00000000: b4e9 863c a158 a73c a234 eabd 420c 2ebe
00000010: 44f0 8c3b c2aa 1cbd dad2 003d 814f d4bd
00000020: f32d ff3c d997 373d b555 7c3d 7240 cc3d
00000030: 5c05 c83c 2174 4a3d 4616 21bd 74ca 2b3b
00000040: 78d2 b4bb 6c40 d0bd 51dd 2ebd 2f97 a13c
00000050: 78c3 353e 3153 2bbe 25c0 713b cc0c c43c
00000060: 28b0 8d3d 1d70 87bd a7d5 2fbe 06e7 9dbe
00000070: 8349 833d 5b31 803d c577 d9bc e0f6 c8bc
0.01646886 0.020428004 -0.1143582 -0.16996863 0.004301103 -0.038248785 0.031451084 -0.10366727
0.03114984 0.044822548 0.061605174 0.099732295 0.024416618 0.049427155 -0.039327882 0.00262132
-0.005518254 -0.101685375 -0.042691533 0.01972541 0.17750347 -0.16730954 0.0036888209 0.023931883
0.06918365 -0.06613181 -0.17171346 -0.3084032 0.064105056 0.06259414 -0.026546368 -0.024531782

tcn.network.1.conv2.weight_g f4 [32, 1, 1]
00000000: 6761 103f c8d3 143f 7e07 123f e6ea 153f
00000010: 4b38 4d3f 2fe4 3b3f d58a 163f bb67 fc3e
00000020: 4e63 063f d0a2 363f 8f55 2f3f 67bd 1a3f
00000030: 95da 0d3f 6e4e 023f 00f7 293f f602 083f
00000040: 3217 163f bea2 093f 4c0e 133f c2a8 073f
00000050: 9337 1e3f 5d51 f43e d4c8 0b3f 56db 0a3f
00000060: b57c 463f e755 0e3f aa7d fa3e 5997 223f
00000070: d192 0f3f 46a2 0b3f 8d44 233f 3ce1 253f
0.56398624 0.5813565 0.5704268 0.5856155 0.8016402 0.73395056 0.5880559 0.4929789
0.52495277 0.7134218 0.6848993 0.60445255 0.55411655 0.50900924 0.6639252 0.5312952
0.58629143 0.5376395 0.5744369 0.5299188 0.6180355 0.47718325 0.54603314 0.5424093
0.7753404 0.55599827 0.48924 0.6351219 0.560834 0.54544485 0.63776475 0.64796805
