models/prototyping6/tcn_fold_6/best.pth (torch, 224151 bytes, 130 tensors)

tcn.d_reduce.weight f4 [32, 1, 1]
-0.54148805 0.6078739 -0.6339366 -0.5089374 -0.6703891 -1.0853361 0.31627354 -0.64899427
-0.2214214 0.0702857 -0.011690073 0.06971685 -0.3881046 0.97997415 -0.7332265 -0.082281
-0.23208188 1.0972614 -0.38051873 1.0287641 -0.90957683 0.28265694 0.87780297 0.22528413
-0.15755685 0.9521366 -0.1820891 -0.114166275 -1.136025 -0.5382691 0.35466143 -0.8042748
00000000: f69e 0abf a09d 1b3f ab49 22bf b949 02bf
00000010: 9f9e 2bbf 4bec 8abf 9bee a13e 7d24 26bf
00000020: 4bbc 62be f3f1 8f3d b887 3fbc b5c7 8e3d
00000030: a5b5 c6be 96df 7a3f bbb4 3bbf f182 a8bd
00000040: dfa6 6dbe 1073 8c3f 5ad3 c2be 8bae 833f
00000050: 07da 68bf 69b8 903e b2b7 603f e2b0 663e
00000060: 9556 21be 39bf 733f 9175 3abe 02d0 e9bd
00000070: 4469 91bf 01cc 09bf 2f96 b53e f4e4 4dbf

tcn.d_reduce.bias f4 [32]
-0.55488724 0.1094325 -0.45329967 -0.23339704 0.62268806 -0.5789297 -0.31223828 0.41464895
-0.4794836 -0.92603475 -0.57333046 -0.8237704 -0.54346293 0.93823236 0.31116447 -0.5953218
-0.42884687 0.1299302 0.8520289 0.8461945 0.69768286 -0.1082423 0.99954045 0.74927276
-0.48707908 0.44019333 -0.37319908 0.4392707 -0.93731314 -0.04503025 0.34985608 0.8023973
00000000: 170d 0ebf 261e e03d e516 e8be a2ff 6ebe
00000010: 7c68 1f3f bd34 14bf b2dd 9fbe de4c d43e
00000020: e07e f5be 9d10 6dbf c9c5 12bf 9ee2 52bf
00000030: 6320 0bbf ff2f 703f f350 9f3e 0267 18bf
00000040: d191 dbbe 6c0c 053e 911e 5a3f 34a0 583f
00000050: 589b 323f 24ae ddbd e2e1 7f3f 57d0 3f3f
00000060: 6e62 f9be 0561 e13e f313 bfbe 17e8 e03e
00000070: c1f3 6fbf a471 38bd 5620 b33e e969 4d3f

tcn.network.0.conv1.bias f4 [32]
-0.049255814 0.016583394 0.047126703 -0.012436737 0.03934259 0.080631405 -0.047995158 -0.026130244
-0.06315013 -0.11691653 0.04546383 -0.16103502 -0.063466035 -0.13250713 -0.04738677 0.05343484
-0.12552562 -0.08495607 -0.06812592 -0.000832524 -0.005752698 -0.13050637 -0.12492614 0.011441449
-0.10536469 -0.072555155 0.033851273 -0.10063445 -0.058156755 -0.030228194 0.05965993 -0.07068467
00000000: 77c0 49bd e6d9 873c ee07 413d 75c3 4bbc
00000010: b225 213d 1422 a53d 9296 44bd 180f d6bc
00000020: db54 81bd ef71 efbd 4838 3a3d 5de6 24be
00000030: 7bfa 81bd f3af 07be a118 42bd 7ede 5a3d
00000040: ca89 00be 73fd adbd 9a85 8bbd bd3d 5aba
00000050: 2181 bcbb 76a3 05be 47d9 ffbd ea74 3b3c
00000060: 71c9 d7bd cc97 94bd a2a7 0a3d 6f19 cebd
00000070: c735 6ebd 1ea1 f7bc f95d 743d 20c3 90bd

tcn.network.0.conv1.weight_g f4 [32, 1, 1]
0.5475974 0.6122104 0.54698324 0.5859203 0.5456399 0.5586077 0.51702774 0.4914992
0.5207362 0.622276 0.4992316 0.5870766 0.573178 0.52817476 0.56267005 0.61671257
0.5799488 0.48323688 0.5535019 0.50179803 0.518672 0.5375119 0.5063396 0.65092677
0.561587 0.53926516 0.5177883 0.64281696 0.5047281 0.5403347 0.4953227 0.5806021
00000000: 582f 0c3f d2b9 1c3f 1807 0c3f dffe 153f
00000010: 0eaf 0b3f ea00 0f3f ee5b 043f c8a5 fb3e
00000020: f84e 053f 7b4d 1f3f 499b ff3e a74a 163f
00000030: cbbb 123f 7636 073f 250b 103f e0e0 1d3f
00000040: 8677 143f d36a f73e 4db2 0d3f d675 003f
00000050: b0c7 043f 619a 093f 799f 013f 23a3 263f
00000060: 2ac4 0f3f 480d 0a3f c68d 043f a78f 243f
00000070: dc35 013f 6053 0a3f f09a fd3e 57a2 143f

tcn.network.0.conv1.weight_v f4 [32, 32, 2]
-0.0035150042 -0.058379445 0.07195735 -0.020194229 0.009393956 -0.027149504 -0.064321876 0.13938299
0.018913172 -0.01913057 -0.0680092 -0.054497402 0.08624216 -0.09117286 0.034512866 -0.10344775
0.07352607 -0.072436355 -0.093771204 0.12726942 0.09659166 0.021043103 -0.0014987683 -0.0069414107
0.038988788 0.020815311 -0.066684924 0.0026692003 0.13488367 0.055578973 -0.05688344 -0.06868625
-0.016272917 -0.03583155 0.07313117 -0.13774084 -0.07703016 -0.060486685 0.05376938 0.0063987095
-0.023663867 -0.1239839 0.04709115 -0.07331535 0.065826744 0.062130973 0.040994875 -0.035942897
0.03785944 -0.08557358 -0.10241187 -0.086532846 0.0908071 0.026009515 0.07423131 -0.046605244
0.008001783 0.10484715 0.13126743 0.11904468 -0.0024672248 -0.06258948 -0.09136048 -0.12010996
0.11680397 -0.051413283 0.058210507 -0.07743902 0.10548522 -0.07205834 0.10525791 0.06846094
0.04611252 -0.07033035 -0.08459621 -0.06181985 0.15002708 -0.047797263 -0.050525483 0.04334408
-0.059935547 -0.06088505 0.17806168 0.16751169 -0.028272836 0.12241912 0.15288088 0.004274883
-0.030093579 0.13851628 -0.144429 -0.09928571 0.026272578 0.018310416 0.11437075 -0.055762943
-0.023656659 0.118746564 0.044441357 0.046745658 0.071137324 -0.039829127 0.043193072 -0.09817791
0.0031721848 -0.12843423 0.033936683 0.006651742 -0.03877664 0.046269193 0.0077899606 -0.10250491
-0.06223411 0.030266823 0.042279363 0.04560563 0.1661289 0.07352108 -0.021990996 -0.15320559
-0.048862077 0.073034614 0.06674972 -0.11561945 0.04006737 -0.08021242 -0.110711925 -0.15049918
-0.034306727 -0.047319666 0.090158336 0.07463108 0.12063261 0.0419255 -0.103321925 0.07986411
-0.052245885 0.020457476 0.04127936 -0.019612303 0.09466593 0.13318725 -0.04612968 0.042491775
0.067032695 0.05640562 0.036985755 0.12965105 0.07581625 -0.07510364 -0.051864617 0.07599413
-0.04709486 0.07089748 -0.055244796 0.10031748 0.10917146 -0.045436516 -0.014946856 0.08861354
0.022039868 -0.08854086 0.078691885 -0.07216712 0.032653864 0.0070196106 0.05006602 -0.110746495
-0.11153208 0.032091245 0.026990563 -0.040309533 -0.021685125 -0.07580526 -0.05625581 -0.0004674516
0.13343386 0.114453614 0.032180853 -0.0516169 0.05315443 0.10677593 -0.02597168 -0.12612501
-0.09189117 0.034748565 0.004199252 0.02294606 0.03821981 -0.094448164 0.06446161 -0.10593879
-0.036215115 0.044249922 -0.011909177 -0.06575314 -0.10160222 0.09519201 -0.035248555 -0.025633594
-0.002731493 -0.11902233 0.06967822 0.04407599 0.015359 -0.019407026 0.028972985 -0.06603072
0.13263759 0.085014485 -0.065776706 0.1662108 0.043599054 -0.030726518 -0.035108745 0.13648099
0.11479607 0.12302887 0.09990713 0.05256759 -0.05478216 0.026518289 0.1370936 0.16416724
-0.06697163 0.15808317 0.16988464 0.032420952 -0.030903151 0.05306634 -0.014732295 0.061867703
0.0022327018 -0.034372598 0.08460764 0.03664826 0.012737992 -0.062079255 -0.12498028 -0.07339213
-0.001147366 -0.029474521 -0.07489424 0.079441726 0.09882198 0.113423154 -0.08911091 -0.039920125
0.034944132 0.13742694 -0.15343662 -0.09778066 -0.1413135 0.07070786 -0.015702479 0.08534395
00000000: fc5b 66bb 491f 6fbd 605e 933d 5e6e a5bc
00000010: 1be9 193c a368 debc 30bb 83bd 6aba 0e3e
00000020: ccef 9a3c b7b7 9cbc 6848 8bbd ab38 5fbd
00000030: bb9f b03d d6b8 babd 5d5d 0d3d 6adc d3bd
00000040: d694 963d 8359 94bd 1e0b c0bd ea52 023e
00000050: d9d1 c53d 9662 ac3c 5272 c4ba c674 e3bb
00000060: b5b2 1f3d df84 aa3c 1b92 88bd c0ed 2e3b
00000070: f21e 0a3e c7a6 633d 9cfe 68bd 60ab 8cbd
00000080: c84e 85bc 1ac4 12bd cbc5 953d ef0b 0dbe
00000090: fdc1 9dbd e3c0 77bd 483d 5c3d 44ac d13b
000000a0: bada c1bc 45eb fdbd a6e2 403d 5c26 96bd
000000b0: 2cd0 863d 0c7d 7e3d 3eea 273d dc38 13bd
000000c0: 8012 1b3d 3341 afbd 51bd d1bd 2238 b1bd
000000d0: 13f9 b93d e811 d53c 9606 983d 24e5 3ebd
000000e0: e919 033c 1aba d63d f86a 063e b2cd f33d
000000f0: 2ab1 21bb ea2e 80bd 341b bbbd 36fc f5bd
00000100: eb36 ef3d bc96 52bd 246e 6e3d 5998 9ebd
00000110: a308 d83d 5393 93bd 7691 d73d 4035 8c3d
00000120: 7be0 3c3d 5c09 90bd c740 adbd d036 7dbd
00000130: b3a0 193e 10c7 43bd cff3 4ebd 9089 313d
00000140: fa7e 75bd 9a62 79bd cd55 363e 2f88 2b3e
00000150: 6f9c e7bc e0b6 fa3d ce8c 1c3e 5114 8c3b
00000160: cf86 f6bc 36d7 0d3e 32e5 13be 4e56 cbbd
00000170: 9739 d73c baff 953c 363b ea3d af67 64bd
00000180: 9ccb c1bc 6631 f33d 2408 363d 6078 3f3d
00000190: 72b0 913d de23 23bd 38eb 303d 8011 c9bd
000001a0: 6ee4 4f3b 4384 03be 3101 0b3d dbf6 d93b
000001b0: 41d4 1ebd c484 3d3d ed42 ff3b 18ee d1bd
000001c0: 32e9 7ebd 21f2 f73c 202d 2d3d f8cc 3a3d
000001d0: b21d 2a3e 3892 963d 7626 b4bc ede1 1cbe
000001e0: 9a23 48bd 2c93 953d 14b4 883d e4c9 ecbd
000001f0: af1d 243d 6946 a4bd efbc e2bd 751c 1abe
00000200: 3685 0cbd 44d2 41bd efa4 b83d 2ed8 983d
00000210: 3b0e f73d 13ba 2b3d 729a d3bd cb8f a33d
00000220: c8ff 55bd 7096 a73c 8c14 293d fba9 a0bc
00000230: 36e0 c13d 3d62 083e 7af2 3cbd db0b 2e3d
00000240: 7048 893d 9409 673d 607e 173d 3fc3 043e
00000250: 8d45 9b3d f0cf 99bd fe6f 54bd cfa2 9b3d
00000260: 8ae6 40bd b332 913d 5e48 62bd 4073 cd3d
00000270: 4995 df3d a41b 3abd a8e3 74bc 047b b53d
00000280: f48c b43c e954 b5bd 3629 a13d 5bcc 93bd
00000290: 0fc0 053d c304 e63b 0712 4d3d 0fcf e2bd
000002a0: ee6a e4bd 1c72 033d 501b dd3c 9c1b 25bd
000002b0: 01a5 b1bc ca3f 9bbd 7e6c 66bd 4b14 f5b9
000002c0: e3a2 083e a866 ea3d 12d0 033d 3e6c 53bd
000002d0: 76b8 593d 57ad da3d 90c2 d4bc ea26 01be
000002e0: 7031 bcbd 8354 0e3d e199 893b 60f9 bb3c
000002f0: 608c 1c3d 0a6e c1bd 7304 843d 70f6 d8bd
00000300: 4d56 14bd 683f 353d b51e 43bc 95a9 86bd
00000310: d314 d0bd 07f4 c23d ca60 10bd 8bfd d1bc
00000320: d902 33bb fbc1 f3bd 74b3 8e3d 0689 343d
00000330: 51a4 7b3c 7cfb 9ebc c158 ed3c 1d3b 87bd
00000340: 26d2 073e 131c ae3d f0b5 86bd 2a33 2a3e
00000350: ec94 323d 2eb6 fbbc 30ce 0fbd acc1 0b3e
00000360: 341a eb3d 8ff6 fb3d 1c9c cc3d 1d51 573d
00000370: 4263 60bd e23c d93c 4462 0c3e 751b 283e
00000380: 6c28 89bd 8ee0 213e 3df6 2d3e d5cb 043d
00000390: 9b28 fdbc 175c 593d b95f 71bc fd68 7d3d
000003a0: 8552 123b 48ca 0cbd c546 ad3d 7c1c 163d
000003b0: 03b3 503c d146 7ebd a9f5 ffbd 9d4e 96bd
000003c0: 3763 96ba 8d74 f1bc 2762 99bd 58b2 a23d
000003d0: 2e63 ca3d 664a e83d c87f b6bd 4983 23bd
000003e0: 9421 0f3d a6b9 0c3e 7d1e 1dbe 3a41 c8bd
000003f0: 7cb4 10be 48cf 903d 7ca2 80bc cfc8 ae3d

tcn.network.0.conv2.bias f4 [32]
-0.04411343 0.034066897 -0.04115642 -0.08172852 0.046021674 -0.013616406 -0.03090589 0.049536977
0.018801607 -0.14774144 0.09782133 -0.072172254 0.029872762 -0.014142109 0.055221573 -0.007782114
-0.1589895 0.065972574 -0.074678436 -0.077997744 0.0038444714 -0.00045646346 -0.013198628 -0.0256315
-0.00601263 -0.01563081 -0.04061542 -0.14696842 0.022581913 -0.017758105 0.0017572507 -0.00887969
00000000: 49b0 34bd bb89 0b3d a293 28bd 4861 a7bd
00000010: 3981 3c3d 5917 5fbc 592e fdbc 49e7 4a3d
00000020: d405 9a3c 8849 17be 8d56 c83d 0ccf 93bd
00000030: b9b7 f43c 4eb4 67bc 0430 623d 1b01 ffbb
00000040: 25ce 22be a11c 873d 02f1 98bd 48bd 9fbd
00000050: 87f3 7b3b 7d51 efb9 0f3f 58bc 27f9 d1bc
00000060: 9905 c5bb 2f0c 80bc 5b5c 26bd e47e 16be
00000070: b4fd b83c 7279 91bc 8d53 e63a 1f7c 11bc

tcn.network.0.conv2.weight_g f4 [32, 1, 1]
0.5198382 0.50730383 0.4970099 0.643827 0.5216014 0.57112557 0.5476673 0.5733337
0.52589077 0.6217414 0.5465319 0.57062733 0.49767646 0.64960796 0.57996637 0.51984656
0.57714677 0.6189482 0.5552676 0.44418943 0.47765738 0.7325017 0.5011301 0.55716145
0.5021275 0.6123561 0.5365822 0.5807311 0.54094636 0.45628926 0.5447242 0.48724726
00000000: 1e14 053f aade 013f 1578 fe3e d9d1 243f
00000010: ab87 053f 4935 123f ed33 0c3f ffc5 123f
00000020: c7a0 063f 722a 1f3f 84e9 0b3f a214 123f
00000030: 73cf fe3e b54c 263f ad78 143f aa14 053f
00000040: e4bf 133f 6473 1e3f 0426 0e3f cc6c e33e
00000050: 828f f43e 3b85 3b3f 104a 003f 22a2 0e3f
00000060: 6e8b 003f 5fc3 1c3f 735d 093f cbaa 143f
00000070: 767b 0a3f bf9e e93e 0c73 0b3f 7978 f93e

tcn.network.0.conv2.weight_v f4 [32, 32, 2]
-0.04854334 -0.017373914 0.006512051 0.09553993 -0.13901113 -0.1401235 -0.010384304 0.07492698
0.023176163 -0.07979983 0.13301802 0.006231766 0.04393353 -0.11251684 -0.05398033 -0.10828066
-0.12652746 -0.018215537 -0.15444386 0.07317335 0.058009263 -0.03973561 -0.053387925 -0.1149483
-0.06020083 0.13063516 0.12154066 -0.01058727 0.075415894 -0.08595506 0.069123685 0.07285308
0.037385806 -0.0015788093 0.05590147 -0.082081586 -0.08908307 0.014121716 0.09220074 -0.0943555
0.048279155 0.04990093 0.116276294 -0.022864683 -0.13335216 0.057051655 0.09830337 0.09848897
-0.11412346 -0.021883907 0.15972896 0.071841314 0.06257013 -0.07645005 -0.08683742 0.11255275
-0.031499535 -0.07125314 0.017171519 0.09111615 -0.017925994 -0.06820006 -0.12395931 -0.087269984
0.014537275 -0.06508197 -0.014244613 0.09566466 0.07161438 0.068236515 -0.12124805 0.07080595
-0.025549026 -0.054306727 -0.09326204 -0.073383115 -0.15173905 0.09988678 -0.06140765 0.11232536
0.11638633 -0.03103232 -0.17924385 0.0025575461 -0.05220338 -0.00039809308 0.06914705 0.027250778
0.08357524 0.076566465 -0.017244317 0.025961578 -0.058517702 0.021808429 0.10426763 0.08691003
0.10103034 0.059696406 0.1389012 0.14770561 0.11458583 0.043800473 0.027209515 0.17979792
-0.012013806 0.051804457 0.013311672 0.050606363 0.10764435 -0.14189674 0.14084418 -0.05497589
-0.041135672 0.0053548506 -0.042155743 -0.07709209 0.050271768 -0.15487683 -0.075471714 0.24365902
-0.010117582 0.10356259 -0.02887361 -0.08893155 0.17084962 -0.021336347 -0.05389411 -0.08557036
-0.11079269 -0.028945418 0.03392083 0.0033267636 0.016726747 -0.101446435 0.040112585 -0.12256291
0.008709893 0.011777527 -0.12383438 -0.11321994 0.05982628 -0.09767107 0.016821047 -0.1419475
-0.16940686 -0.06868948 0.0029267222 -0.09058394 0.038404085 -0.028355613 -0.070071295 0.054400116
-0.15779626 -0.12938257 -0.015829386 0.062570974 0.007407274 0.11414023 0.034823164 -0.024130985
0.10234875 -0.043234974 -0.0007746733 0.060285736 -0.14079389 0.07341146 0.01557726 -0.0121454615
-0.11884516 -0.09871742 -0.050796676 -0.045265235 0.11135466 -0.091557436 -0.026228447 -0.06116074
-0.082972415 -0.11053712 0.021540487 -0.011159644 0.114622094 -0.00847627 -0.036838982 -0.10205006
-0.097298406 -0.17241399 -0.039437894 0.023700295 0.06623385 -0.12158647 -0.111669146 -0.1384683
-0.007999638 -0.061070044 -1.0334391e-08 -4.520205e-09 0.0013473193 -0.0032880334 1.7045533e-05 2.8084012e-06
0.16537234 0.024672862 0.0069184327 0.019922458 -0.06244125 -0.018408459 0.006711289 0.04169031
-0.03177147 0.006987199 0.015068988 0.010402247 0.03279802 0.09355833 0.10485353 0.08687359
2.1586193e-09 -0.020170487 0.13573097 0.09033671 0.00042682662 0.030481277 0.1758018 0.18794097
0.2525016 0.08504775 0.15123431 0.047767214 0.03701241 0.073956005 0.0423227 -0.008783081
0.20407704 0.07634236 0.10632957 -0.01771804 -0.050505813 -0.04519238 -8.586204e-08 3.525095e-06
0.21088424 0.015749214 0.03643715 0.11859396 9.273678e-06 -0.056835096 -0.007404822 0.01710114
-0.039338794 -0.0068029775 0.031787403 0.061863452 0.05339434 0.17958853 1.6107118e-09 0.001443223
00000000: 62d5 46bd bd53 8ebc 0b63 d53b 70aa c33d
00000010: ef58 0ebe 897c 0fbe ee22 2abc 5173 993d
00000020: f0db bd3c 186e a3bd e035 083e d833 cc3b
00000030: a5f3 333d 3b6f e6bd 7a1a 5dbd 40c2 ddbd
00000040: 6a90 01be c038 95bc 8826 1ebe e9db 953d
00000050: 1f9b 6d3d cfc1 22bd 4cad 5abd 046a ebbd
00000060: 2595 76bd 39c5 053e 4fea f83d 3b76 2dbc
00000070: a673 9a3d 3509 b0bd b890 8d3d ff33 953d
00000080: dc21 193d 0df0 ceba f1f8 643d 641a a8bd
00000090: 2f71 b6bd c55e 673c bed3 bc3d 753d c1bd
000000a0: 5dc0 453d eb64 4c3d 4422 ee3d b74e bbbc
000000b0: 788d 08be ffae 693d 4753 c93d 96b4 c93d
000000c0: 90b9 e9bd e145 b3bc fd8f 233e 8a21 933d
000000d0: c524 803d d891 9cbd d1d7 b1bd 0e82 e63d
000000e0: a805 01bd 2bed 91bd 49ab 8c3c 1b9b ba3d
000000f0: 89d9 92bc 79ac 8bbd 61de fdbd 9bba b2bd
00000100: c02d 6e3c b249 85bd 3d62 69bc d5eb c33d
00000110: 8faa 923d 96bf 8b3d e650 f8bd b602 913d
00000120: 314c d1bc bb70 5ebd 2b00 bfbd e349 96bd
00000130: 7b61 1bbe 7191 cc3d 9786 7bbd d70a e63d
00000140: f55b ee3d 7e37 febc b38b 37be 819c 273b
00000150: 36d3 55bd 26b7 d0b9 f89c 8d3d 063d df3c
00000160: 7f29 ab3d e1ce 9c3d f443 8dbc 60ad d43c
00000170: 42b0 6fbd 97a7 b23c 448a d53d e3fd b13d
00000180: ffe8 ce3d 3884 743d 1e3c 0e3e 2440 173e
00000190: faab ea3d 2068 333d 7de6 de3c f21c 383e
000001a0: 8ed5 44bc e930 543d 3319 5a3c 9e48 4f3d
000001b0: a474 dc3d 614d 11be 7539 103e 662e 61bd
000001c0: e17d 28bd be77 af3b 80ab 2cbd 75e2 9dbd
000001d0: c5e9 4d3d 0898 1ebe ea90 9abd c081 793e
000001e0: 37c4 25bc a018 d43d 5988 ecbc bf21 b6bd
000001f0: 34f3 2e3e 90c9 aebc 12c0 5cbd 833f afbd
00000200: 47e7 e2bd f11e edbc 91f0 0a3d d505 5a3b
00000210: 8806 893c 26c3 cfbd 184d 243d 4302 fbbd
00000220: f0b3 0e3c 87f6 403c e19c fdbd dbdf e7bd
00000230: 670c 753d c507 c8bd 4bcc 893c af5a 11be
00000240: fe78 2dbe 12ad 8cbd 40ce 3f3b 1384 b9bd
00000250: 9a4d 1d3d 084a e8bc 8a81 8fbd a8d2 5e3d
00000260: 5895 21be dd7c 04be a1ac 81bc 3625 803d
00000270: b8b8 f23b 5ac2 e93d bca2 0e3d 58ae c5bc
00000280: 399c d13d 2817 31bd 7213 4bba 2dee 763d
00000290: 462c 10be bf58 963d c437 7f3c c2fd 46bc
000002a0: 1765 f3bd 5c2c cabd 2d10 50bd 0a68 39bd
000002b0: e90d e43d 7782 bbbd 0add d6bc af83 7abd
000002c0: 71ed a9bd 4961 e2bd ad75 b03c f1d6 36bc
000002d0: fdbe ea3d 0ee0 0abc 79e4 16bd 9fff d0bd
000002e0: 6344 c7bd 4b8d 30be a189 21bd 1f27 c23c
000002f0: 9da5 873d 5402 f9bd cbb2 e4bd a2ca 0dbe
00000300: ea10 03bc 9524 7abd 228b 31b2 2550 9bb1
00000310: 8998 b03a 0c7c 57bb 01fd 8e37 f777 3c36
00000320: 5e57 293e be1e ca3c 05b4 e23b 6c34 a33c
00000330: 65c2 7fbd 56cd 96bc 5fea db3b 75c3 2a3d
00000340: cd22 02bd e0f4 e43b ebe3 763c 306e 2a3c
00000350: 3757 063d 829b bf3d 73bd d63d c8ea b13d
00000360: d556 1431 943c a5bc 0ffd 0a3e 7402 b93d
00000370: b3c7 df39 dfb3 f93c 6305 343e 9973 403e
00000380: e447 813e 842d ae3d 2bdd 1a3e 8ea7 433d
00000390: 539a 173d 3f76 973d 915a 2d3d e9e6 0fbc
000003a0: 92f9 503e 6259 9c3d 51c3 d93d 6c25 91bc
000003b0: 2fdf 4ebd a51b 39bd 2863 b8b3 ac90 6c36
000003c0: 0af2 573e 7f04 813c 1f3f 153d 64e1 f23d
000003d0: 2596 1b37 ebcb 68bd 26a4 f2bb b117 8c3c
000003e0: b721 21bd 83eb debb 8233 023d 8864 7d3d
000003f0: 06b4 5a3d 0ee6 373e e25f dd30 872a bd3a

tcn.network.0.net.0.bias f4 [32]
-0.049255814 0.016583394 0.047126703 -0.012436737 0.03934259 0.080631405 -0.047995158 -0.026130244
-0.06315013 -0.11691653 0.04546383 -0.16103502 -0.063466035 -0.13250713 -0.04738677 0.05343484
-0.12552562 -0.08495607 -0.06812592 -0.000832524 -0.005752698 -0.13050637 -0.12492614 0.011441449
-0.10536469 -0.072555155 0.033851273 -0.10063445 -0.058156755 -0.030228194 0.05965993 -0.07068467
00000000: 77c0 49bd e6d9 873c ee07 413d 75c3 4bbc
00000010: b225 213d 1422 a53d 9296 44bd 180f d6bc
00000020: db54 81bd ef71 efbd 4838 3a3d 5de6 24be
00000030: 7bfa 81bd f3af 07be a118 42bd 7ede 5a3d
00000040: ca89 00be 73fd adbd 9a85 8bbd bd3d 5aba
00000050: 2181 bcbb 76a3 05be 47d9 ffbd ea74 3b3c
00000060: 71c9 d7bd cc97 94bd a2a7 0a3d 6f19 cebd
00000070: c735 6ebd 1ea1 f7bc f95d 743d 20c3 90bd

tcn.network.0.net.0.weight_g f4 [32, 1, 1]
0.5475974 0.6122104 0.54698324 0.5859203 0.5456399 0.5586077 0.51702774 0.4914992
0.5207362 0.622276 0.4992316 0.5870766 0.573178 0.52817476 0.56267005 0.61671257
0.5799488 0.48323688 0.5535019 0.50179803 0.518672 0.5375119 0.5063396 0.65092677
0.561587 0.53926516 0.5177883 0.64281696 0.5047281 0.5403347 0.4953227 0.5806021
00000000: 582f 0c3f d2b9 1c3f 1807 0c3f dffe 153f
00000010: 0eaf 0b3f ea00 0f3f ee5b 043f c8a5 fb3e
00000020: f84e 053f 7b4d 1f3f 499b ff3e a74a 163f
00000030: cbbb 123f 7636 073f 250b 103f e0e0 1d3f
00000040: 8677 143f d36a f73e 4db2 0d3f d675 003f
00000050: b0c7 043f 619a 093f 799f 013f 23a3 263f
00000060: 2ac4 0f3f 480d 0a3f c68d 043f a78f 243f
00000070: dc35 013f 6053 0a3f f09a fd3e 57a2 143f

tcn.network.0.net.0.weight_v f4 [32, 32, 2]
-0.0035150042 -0.058379445 0.07195735 -0.020194229 0.009393956 -0.027149504 -0.064321876 0.13938299
0.018913172 -0.01913057 -0.0680092 -0.054497402 0.08624216 -0.09117286 0.034512866 -0.10344775
0.07352607 -0.072436355 -0.093771204 0.12726942 0.09659166 0.021043103 -0.0014987683 -0.0069414107
0.038988788 0.020815311 -0.066684924 0.0026692003 0.13488367 0.055578973 -0.05688344 -0.06868625
-0.016272917 -0.03583155 0.07313117 -0.13774084 -0.07703016 -0.060486685 0.05376938 0.0063987095
-0.023663867 -0.1239839 0.04709115 -0.07331535 0.065826744 0.062130973 0.040994875 -0.035942897
0.03785944 -0.08557358 -0.10241187 -0.086532846 0.0908071 0.026009515 0.07423131 -0.046605244
0.008001783 0.10484715 0.13126743 0.11904468 -0.0024672248 -0.06258948 -0.09136048 -0.12010996
0.11680397 -0.051413283 0.058210507 -0.07743902 0.10548522 -0.07205834 0.10525791 0.06846094
0.04611252 -0.07033035 -0.08459621 -0.06181985 0.15002708 -0.047797263 -0.050525483 0.04334408
-0.059935547 -0.06088505 0.17806168 0.16751169 -0.028272836 0.12241912 0.15288088 0.004274883
-0.030093579 0.13851628 -0.144429 -0.09928571 0.026272578 0.018310416 0.11437075 -0.055762943
-0.023656659 0.118746564 0.044441357 0.046745658 0.071137324 -0.039829127 0.043193072 -0.09817791
0.0031721848 -0.12843423 0.033936683 0.006651742 -0.03877664 0.046269193 0.0077899606 -0.10250491
-0.06223411 0.030266823 0.042279363 0.04560563 0.1661289 0.07352108 -0.021990996 -0.15320559
-0.048862077 0.073034614 0.06674972 -0.11561945 0.04006737 -0.08021242 -0.110711925 -0.15049918
-0.034306727 -0.047319666 0.090158336 0.07463108 0.12063261 0.0419255 -0.103321925 0.07986411
-0.052245885 0.020457476 0.04127936 -0.019612303 0.09466593 0.13318725 -0.04612968 0.042491775
0.067032695 0.05640562 0.036985755 0.12965105 0.07581625 -0.07510364 -0.051864617 0.07599413
-0.04709486 0.07089748 -0.055244796 0.10031748 0.10917146 -0.045436516 -0.014946856 0.08861354
0.022039868 -0.08854086 0.078691885 -0.07216712 0.032653864 0.0070196106 0.05006602 -0.110746495
-0.11153208 0.032091245 0.026990563 -0.040309533 -0.021685125 -0.07580526 -0.05625581 -0.0004674516
0.13343386 0.114453614 0.032180853 -0.0516169 0.05315443 0.10677593 -0.02597168 -0.12612501
-0.09189117 0.034748565 0.004199252 0.02294606 0.03821981 -0.094448164 0.06446161 -0.10593879
-0.036215115 0.044249922 -0.011909177 -0.06575314 -0.10160222 0.09519201 -0.035248555 -0.025633594
-0.002731493 -0.11902233 0.06967822 0.04407599 0.015359 -0.019407026 0.028972985 -0.06603072
0.13263759 0.085014485 -0.065776706 0.1662108 0.043599054 -0.030726518 -0.035108745 0.13648099
0.11479607 0.12302887 0.09990713 0.05256759 -0.05478216 0.026518289 0.1370936 0.16416724
-0.06697163 0.15808317 0.16988464 0.032420952 -0.030903151 0.05306634 -0.014732295 0.061867703
0.0022327018 -0.034372598 0.08460764 0.03664826 0.012737992 -0.062079255 -0.12498028 -0.07339213
-0.001147366 -0.029474521 -0.07489424 0.079441726 0.09882198 0.113423154 -0.08911091 -0.039920125
0.034944132 0.13742694 -0.15343662 -0.09778066 -0.1413135 0.07070786 -0.015702479 0.08534395
00000000: fc5b 66bb 491f 6fbd 605e 933d 5e6e a5bc
00000010: 1be9 193c a368 debc 30bb 83bd 6aba 0e3e
00000020: ccef 9a3c b7b7 9cbc 6848 8bbd ab38 5fbd
00000030: bb9f b03d d6b8 babd 5d5d 0d3d 6adc d3bd
00000040: d694 963d 8359 94bd 1e0b c0bd ea52 023e
00000050: d9d1 c53d 9662 ac3c 5272 c4ba c674 e3bb
00000060: b5b2 1f3d df84 aa3c 1b92 88bd c0ed 2e3b
00000070: f21e 0a3e c7a6 633d 9cfe 68bd 60ab 8cbd
00000080: c84e 85bc 1ac4 12bd cbc5 953d ef0b 0dbe
00000090: fdc1 9dbd e3c0 77bd 483d 5c3d 44ac d13b
000000a0: bada c1bc 45eb fdbd a6e2 403d 5c26 96bd
000000b0: 2cd0 863d 0c7d 7e3d 3eea 273d dc38 13bd
000000c0: 8012 1b3d 3341 afbd 51bd d1bd 2238 b1bd
000000d0: 13f9 b93d e811 d53c 9606 983d 24e5 3ebd
000000e0: e919 033c 1aba d63d f86a 063e b2cd f33d
000000f0: 2ab1 21bb ea2e 80bd 341b bbbd 36fc f5bd
00000100: eb36 ef3d bc96 52bd 246e 6e3d 5998 9ebd
00000110: a308 d83d 5393 93bd 7691 d73d 4035 8c3d
00000120: 7be0 3c3d 5c09 90bd c740 adbd d036 7dbd
00000130: b3a0 193e 10c7 43bd cff3 4ebd 9089 313d
00000140: fa7e 75bd 9a62 79bd cd55 363e 2f88 2b3e
00000150: 6f9c e7bc e0b6 fa3d ce8c 1c3e 5114 8c3b
00000160: cf86 f6bc 36d7 0d3e 32e5 13be 4e56 cbbd
00000170: 9739 d73c baff 953c 363b ea3d af67 64bd
00000180: 9ccb c1bc 6631 f33d 2408 363d 6078 3f3d
00000190: 72b0 913d de23 23bd 38eb 303d 8011 c9bd
000001a0: 6ee4 4f3b 4384 03be 3101 0b3d dbf6 d93b
000001b0: 41d4 1ebd c484 3d3d ed42 ff3b 18ee d1bd
000001c0: 32e9 7ebd 21f2 f73c 202d 2d3d f8cc 3a3d
000001d0: b21d 2a3e 3892 963d 7626 b4bc ede1 1cbe
000001e0: 9a23 48bd 2c93 953d 14b4 883d e4c9 ecbd
000001f0: af1d 243d 6946 a4bd efbc e2bd 751c 1abe
00000200: 3685 0cbd 44d2 41bd efa4 b83d 2ed8 983d
00000210: 3b0e f73d 13ba 2b3d 729a d3bd cb8f a33d
00000220: c8ff 55bd 7096 a73c 8c14 293d fba9 a0bc
00000230: 36e0 c13d 3d62 083e 7af2 3cbd db0b 2e3d
00000240: 7048 893d 9409 673d 607e 173d 3fc3 043e
00000250: 8d45 9b3d f0cf 99bd fe6f 54bd cfa2 9b3d
00000260: 8ae6 40bd b332 913d 5e48 62bd 4073 cd3d
00000270: 4995 df3d a41b 3abd a8e3 74bc 047b b53d
00000280: f48c b43c e954 b5bd 3629 a13d 5bcc 93bd
00000290: 0fc0 053d c304 e63b 0712 4d3d 0fcf e2bd
000002a0: ee6a e4bd 1c72 033d 501b dd3c 9c1b 25bd
000002b0: 01a5 b1bc ca3f 9bbd 7e6c 66bd 4b14 f5b9
000002c0: e3a2 083e a866 ea3d 12d0 033d 3e6c 53bd
000002d0: 76b8 593d 57ad da3d 90c2 d4bc ea26 01be
000002e0: 7031 bcbd 8354 0e3d e199 893b 60f9 bb3c
000002f0: 608c 1c3d 0a6e c1bd 7304 843d 70f6 d8bd
00000300: 4d56 14bd 683f 353d b51e 43bc 95a9 86bd
00000310: d314 d0bd 07f4 c23d ca60 10bd 8bfd d1bc
00000320: d902 33bb fbc1 f3bd 74b3 8e3d 0689 343d
00000330: 51a4 7b3c 7cfb 9ebc c158 ed3c 1d3b 87bd
00000340: 26d2 073e 131c ae3d f0b5 86bd 2a33 2a3e
00000350: ec94 323d 2eb6 fbbc 30ce 0fbd acc1 0b3e
00000360: 341a eb3d 8ff6 fb3d 1c9c cc3d 1d51 573d
00000370: 4263 60bd e23c d93c 4462 0c3e 751b 283e
00000380: 6c28 89bd 8ee0 213e 3df6 2d3e d5cb 043d
00000390: 9b28 fdbc 175c 593d b95f 71bc fd68 7d3d
000003a0: 8552 123b 48ca 0cbd c546 ad3d 7c1c 163d
000003b0: 03b3 503c d146 7ebd a9f5 ffbd 9d4e 96bd
000003c0: 3763 96ba 8d74 f1bc 2762 99bd 58b2 a23d
000003d0: 2e63 ca3d 664a e83d c87f b6bd 4983 23bd
000003e0: 9421 0f3d a6b9 0c3e 7d1e 1dbe 3a41 c8bd
000003f0: 7cb4 10be 48cf 903d 7ca2 80bc cfc8 ae3d

tcn.network.0.net.4.bias f4 [32]
-0.04411343 0.034066897 -0.04115642 -0.08172852 0.046021674 -0.013616406 -0.03090589 0.049536977
0.018801607 -0.14774144 0.09782133 -0.072172254 0.029872762 -0.014142109 0.055221573 -0.007782114
-0.1589895 0.065972574 -0.074678436 -0.077997744 0.0038444714 -0.00045646346 -0.013198628 -0.0256315
-0.00601263 -0.01563081 -0.04061542 -0.14696842 0.022581913 -0.017758105 0.0017572507 -0.00887969
00000000: 49b0 34bd bb89 0b3d a293 28bd 4861 a7bd
00000010: 3981 3c3d 5917 5fbc 592e fdbc 49e7 4a3d
00000020: d405 9a3c 8849 17be 8d56 c83d 0ccf 93bd
00000030: b9b7 f43c 4eb4 67bc 0430 623d 1b01 ffbb
00000040: 25ce 22be a11c 873d 02f1 98bd 48bd 9fbd
00000050: 87f3 7b3b 7d51 efb9 0f3f 58bc 27f9 d1bc
00000060: 9905 c5bb 2f0c 80bc 5b5c 26bd e47e 16be
00000070: b4fd b83c 7279 91bc 8d53 e63a 1f7c 11bc

tcn.network.0.net.4.weight_g f4 [32, 1, 1]
0.5198382 0.50730383 0.4970099 0.643827 0.5216014 0.57112557 0.5476673 0.5733337
0.52589077 0.6217414 0.5465319 0.57062733 0.49767646 0.64960796 0.57996637 0.51984656
0.57714677 0.6189482 0.5552676 0.44418943 0.47765738 0.7325017 0.5011301 0.55716145
0.5021275 0.6123561 0.5365822 0.5807311 0.54094636 0.45628926 0.5447242 0.48724726
00000000: 1e14 053f aade 013f 1578 fe3e d9d1 243f
00000010: ab87 053f 4935 123f ed33 0c3f ffc5 123f
00000020: c7a0 063f 722a 1f3f 84e9 0b3f a214 123f
00000030: 73cf fe3e b54c 263f ad78 143f aa14 053f
00000040: e4bf 133f 6473 1e3f 0426 0e3f cc6c e33e
00000050: 828f f43e 3b85 3b3f 104a 003f 22a2 0e3f
00000060: 6e8b 003f 5fc3 1c3f 735d 093f cbaa 143f
00000070: 767b 0a3f bf9e e93e 0c73 0b3f 7978 f93e

tcn.network.0.net.4.weight_v f4 [32, 32, 2]
-0.04854334 -0.017373914 0.006512051 0.09553993 -0.13901113 -0.1401235 -0.010384304 0.07492698
0.023176163 -0.07979983 0.13301802 0.006231766 0.04393353 -0.11251684 -0.05398033 -0.10828066
-0.12652746 -0.018215537 -0.15444386 0.07317335 0.058009263 -0.03973561 -0.053387925 -0.1149483
-0.06020083 0.13063516 0.12154066 -0.01058727 0.075415894 -0.08595506 0.069123685 0.07285308
0.037385806 -0.0015788093 0.05590147 -0.082081586 -0.08908307 0.014121716 0.09220074 -0.0943555
0.048279155 0.04990093 0.116276294 -0.022864683 -0.13335216 0.057051655 0.09830337 0.09848897
-0.11412346 -0.021883907 0.15972896 0.071841314 0.06257013 -0.07645005 -0.08683742 0.11255275
-0.031499535 -0.07125314 0.017171519 0.09111615 -0.017925994 -0.06820006 -0.12395931 -0.087269984
0.014537275 -0.06508197 -0.014244613 0.09566466 0.07161438 0.068236515 -0.12124805 0.07080595
-0.025549026 -0.054306727 -0.09326204 -0.073383115 -0.15173905 0.09988678 -0.06140765 0.11232536
0.11638633 -0.03103232 -0.17924385 0.0025575461 -0.05220338 -0.00039809308 0.06914705 0.027250778
0.08357524 0.076566465 -0.017244317 0.025961578 -0.058517702 0.021808429 0.10426763 0.08691003
0.10103034 0.059696406 0.1389012 0.14770561 0.11458583 0.043800473 0.027209515 0.17979792
-0.012013806 0.051804457 0.013311672 0.050606363 0.10764435 -0.14189674 0.14084418 -0.05497589
-0.041135672 0.0053548506 -0.042155743 -0.07709209 0.050271768 -0.15487683 -0.075471714 0.24365902
-0.010117582 0.10356259 -0.02887361 -0.08893155 0.17084962 -0.021336347 -0.05389411 -0.08557036
-0.11079269 -0.028945418 0.03392083 0.0033267636 0.016726747 -0.101446435 0.040112585 -0.12256291
0.008709893 0.011777527 -0.12383438 -0.11321994 0.05982628 -0.09767107 0.016821047 -0.1419475
-0.16940686 -0.06868948 0.0029267222 -0.09058394 0.038404085 -0.028355613 -0.070071295 0.054400116
-0.15779626 -0.12938257 -0.015829386 0.062570974 0.007407274 0.11414023 0.034823164 -0.024130985
0.10234875 -0.043234974 -0.0007746733 0.060285736 -0.14079389 0.07341146 0.01557726 -0.0121454615
-0.11884516 -0.09871742 -0.050796676 -0.045265235 0.11135466 -0.091557436 -0.026228447 -0.06116074
-0.082972415 -0.11053712 0.021540487 -0.011159644 0.114622094 -0.00847627 -0.036838982 -0.10205006
-0.097298406 -0.17241399 -0.039437894 0.023700295 0.06623385 -0.12158647 -0.111669146 -0.1384683
-0.007999638 -0.061070044 -1.0334391e-08 -4.520205e-09 0.0013473193 -0.0032880334 1.7045533e-05 2.8084012e-06
0.16537234 0.024672862 0.0069184327 0.019922458 -0.06244125 -0.018408459 0.006711289 0.04169031
-0.03177147 0.006987199 0.015068988 0.010402247 0.03279802 0.09355833 0.10485353 0.08687359
2.1586193e-09 -0.020170487 0.13573097 0.09033671 0.00042682662 0.030481277 0.1758018 0.18794097
0.2525016 0.08504775 0.15123431 0.047767214 0.03701241 0.073956005 0.0423227 -0.008783081
0.20407704 0.07634236 0.10632957 -0.01771804 -0.050505813 -0.04519238 -8.586204e-08 3.525095e-06
0.21088424 0.015749214 0.03643715 0.11859396 9.273678e-06 -0.056835096 -0.007404822 0.01710114
-0.039338794 -0.0068029775 0.031787403 0.061863452 0.05339434 0.17958853 1.6107118e-09 0.001443223
00000000: 62d5 46bd bd53 8ebc 0b63 d53b 70aa c33d
00000010: ef58 0ebe 897c 0fbe ee22 2abc 5173 993d
00000020: f0db bd3c 186e a3bd e035 083e d833 cc3b
00000030: a5f3 333d 3b6f e6bd 7a1a 5dbd 40c2 ddbd
00000040: 6a90 01be c038 95bc 8826 1ebe e9db 953d
00000050: 1f9b 6d3d cfc1 22bd 4cad 5abd 046a ebbd
00000060: 2595 76bd 39c5 053e 4fea f83d 3b76 2dbc
00000070: a673 9a3d 3509 b0bd b890 8d3d ff33 953d
00000080: dc21 193d 0df0 ceba f1f8 643d 641a a8bd
00000090: 2f71 b6bd c55e 673c bed3 bc3d 753d c1bd
000000a0: 5dc0 453d eb64 4c3d 4422 ee3d b74e bbbc
000000b0: 788d 08be ffae 693d 4753 c93d 96b4 c93d
000000c0: 90b9 e9bd e145 b3bc fd8f 233e 8a21 933d
000000d0: c524 803d d891 9cbd d1d7 b1bd 0e82 e63d
000000e0: a805 01bd 2bed 91bd 49ab 8c3c 1b9b ba3d
000000f0: 89d9 92bc 79ac 8bbd 61de fdbd 9bba b2bd
00000100: c02d 6e3c b249 85bd 3d62 69bc d5eb c33d
00000110: 8faa 923d 96bf 8b3d e650 f8bd b602 913d
00000120: 314c d1bc bb70 5ebd 2b00 bfbd e349 96bd
00000130: 7b61 1bbe 7191 cc3d 9786 7bbd d70a e63d
00000140: f55b ee3d 7e37 febc b38b 37be 819c 273b
00000150: 36d3 55bd 26b7 d0b9 f89c 8d3d 063d df3c
00000160: 7f29 ab3d e1ce 9c3d f443 8dbc 60ad d43c
00000170: 42b0 6fbd 97a7 b23c 448a d53d e3fd b13d
00000180: ffe8 ce3d 3884 743d 1e3c 0e3e 2440 173e
00000190: faab ea3d 2068 333d 7de6 de3c f21c 383e
000001a0: 8ed5 44bc e930 543d 3319 5a3c 9e48 4f3d
000001b0: a474 dc3d 614d 11be 7539 103e 662e 61bd
000001c0: e17d 28bd be77 af3b 80ab 2cbd 75e2 9dbd
000001d0: c5e9 4d3d 0898 1ebe ea90 9abd c081 793e
000001e0: 37c4 25bc a018 d43d 5988 ecbc bf21 b6bd
000001f0: 34f3 2e3e 90c9 aebc 12c0 5cbd 833f afbd
00000200: 47e7 e2bd f11e edbc 91f0 0a3d d505 5a3b
00000210: 8806 893c 26c3 cfbd 184d 243d 4302 fbbd
00000220: f0b3 0e3c 87f6 403c e19c fdbd dbdf e7bd
00000230: 670c 753d c507 c8bd 4bcc 893c af5a 11be
00000240: fe78 2dbe 12ad 8cbd 40ce 3f3b 1384 b9bd
00000250: 9a4d 1d3d 084a e8bc 8a81 8fbd a8d2 5e3d
00000260: 5895 21be dd7c 04be a1ac 81bc 3625 803d
00000270: b8b8 f23b 5ac2 e93d bca2 0e3d 58ae c5bc
00000280: 399c d13d 2817 31bd 7213 4bba 2dee 763d
00000290: 462c 10be bf58 963d c437 7f3c c2fd 46bc
000002a0: 1765 f3bd 5c2c cabd 2d10 50bd 0a68 39bd
000002b0: e90d e43d 7782 bbbd 0add d6bc af83 7abd
000002c0: 71ed a9bd 4961 e2bd ad75 b03c f1d6 36bc
000002d0: fdbe ea3d 0ee0 0abc 79e4 16bd 9fff d0bd
000002e0: 6344 c7bd 4b8d 30be a189 21bd 1f27 c23c
000002f0: 9da5 873d 5402 f9bd cbb2 e4bd a2ca 0dbe
00000300: ea10 03bc 9524 7abd 228b 31b2 2550 9bb1
00000310: 8998 b03a 0c7c 57bb 01fd 8e37 f777 3c36
00000320: 5e57 293e be1e ca3c 05b4 e23b 6c34 a33c
00000330: 65c2 7fbd 56cd 96bc 5fea db3b 75c3 2a3d
00000340: cd22 02bd e0f4 e43b ebe3 763c 306e 2a3c
00000350: 3757 063d 829b bf3d 73bd d63d c8ea b13d
00000360: d556 1431 943c a5bc 0ffd 0a3e 7402 b93d
00000370: b3c7 df39 dfb3 f93c 6305 343e 9973 403e
00000380: e447 813e 842d ae3d 2bdd 1a3e 8ea7 433d
00000390: 539a 173d 3f76 973d 915a 2d3d e9e6 0fbc
000003a0: 92f9 503e 6259 9c3d 51c3 d93d 6c25 91bc
000003b0: 2fdf 4ebd a51b 39bd 2863 b8b3 ac90 6c36
000003c0: 0af2 573e 7f04 813c 1f3f 153d 64e1 f23d
000003d0: 2596 1b37 ebcb 68bd 26a4 f2bb b117 8c3c
000003e0: b721 21bd 83eb debb 8233 023d 8864 7d3d
000003f0: 06b4 5a3d 0ee6 373e e25f dd30 872a bd3a

tcn.network.0.downsample.weight f4 [32, 32, 1]
-0.015325299 -0.001259861 -0.004162538 -0.24933155 -0.07985508 -0.2022962 0.060874574 0.061633408
-0.02786519 -0.08529045 -0.14456499 0.14546044 -0.18179396 0.18385755 -0.17504784 -0.13273057
-0.017835807 0.15269843 -0.1738297 -0.057488594 -0.2072905 -0.04518585 -0.046447806 -0.038927477
0.06600979 0.10029685 -0.18033944 -0.139336 -0.20251286 -0.09413583 0.16792828 -0.12537085
-0.009120331 -0.023545384 -0.05305227 0.01653852 0.121633835 0.12059599 0.1401439 0.10146352
-0.040641945 0.013852084 -0.111942254 0.13806956 -0.12620355 0.117713675 0.032443002 0.11791117
0.11870191 -0.16324411 -0.023455814 -0.17928942 0.098569825 0.16461965 0.037405435 0.110742904
-0.067967616 0.035748277 0.08424089 0.056988027 -0.020192202 0.007925122 0.11321648 -0.07649036
-0.12674244 0.18466946 -0.04663004 -0.17434566 0.15281448 -0.23445816 -0.09412139 -0.17173153
0.11930855 -0.1798137 -0.16058703 0.14152783 -0.13652593 0.0103129065 0.085911654 0.03016124
0.030937606 0.26955393 0.17631166 0.07668252 -0.14025602 -0.038554166 0.14598756 -0.056514878
-0.10164412 -0.04383269 -0.16911785 -0.14210893 -0.21673794 -0.008799044 0.17730452 0.16010663
0.18150651 -0.12229283 0.07874869 0.09439463 -0.06989881 0.095189296 0.04288679 -0.2042438
0.20970954 -0.10288554 0.074802555 -0.11379173 0.054221664 -0.18608043 -0.119634494 0.116076306
0.020956613 -0.052088223 -0.17435157 0.07542251 -0.17475547 0.18395294 -0.18434727 -0.022382805
-0.014181378 -0.12334682 0.12625098 -0.19076927 0.07216706 0.09233629 0.03816554 -0.15044726
0.18040778 -0.1389358 0.16549388 0.050418094 0.103386685 0.037727136 -0.0949288 -0.12611434
0.10860338 0.15565345 0.059233658 -0.05429823 -0.06210933 0.16333535 0.010530243 -0.10109476
-0.051087394 0.14266917 0.13750687 -0.06581426 -0.16188559 0.048406236 0.09057873 -0.08397498
0.15713623 -0.07101744 -0.054325797 0.004977746 -0.064805284 0.05706772 -0.16608821 -0.1969563
-0.12448247 0.04641702 -0.06261344 -0.098062135 -0.0043197563 -0.1161926 -0.14083916 0.123160034
0.15925387 -0.062417466 0.038189355 0.050022043 -0.09830951 0.03267317 -0.1648045 0.08082545
-0.12785847 0.085108966 -0.16435814 0.03550607 0.01675663 -0.10387356 0.089117475 0.06628252
0.11777804 0.13541397 -0.0949485 -0.14448199 0.044631917 -0.082513675 0.07230051 -0.18588747
0.047313668 0.18484476 -0.19601294 -0.18319382 -0.16695972 0.04152375 0.04763189 -0.1915551
-0.18697634 0.016586969 0.1126886 0.09596331 -0.21011993 -0.09060143 0.011438348 0.042225096
0.027769212 0.100154236 -0.0059189745 0.1647027 0.09400641 0.13884398 0.16741732 0.108179115
-0.068976544 0.19522902 0.011790541 0.041236043 -0.22256424 -0.22740914 0.20816106 0.10637184
-0.0387245 0.25323734 0.10311261 -0.12504716 -0.26510698 0.037522554 0.24887984 -0.20846957
0.21694723 0.20323472 0.17871998 0.105755135 -0.10624489 0.03321409 -0.015272432 0.077294864
0.15388295 0.02269619 -0.030285953 0.1612985 -0.15057234 0.2799381 -0.11405111 -0.20534866
-0.040234663 0.20526607 0.011442917 -0.24413815 -0.12680846 -0.24440455 0.14748557 -0.13543697
00000000: f716 7bbc ec21 a5ba e665 88bb c550 7fbe
00000010: 0f8b a3bd bc26 4fbe 9e57 793d 5073 7c3d
00000020: 8a45 e4bc c2ac aebd d808 14be 95f3 143e
00000030: 3228 3abe 2745 3c3e be3f 33be 86ea 07be
00000040: 661c 92bc fa5c 1c3e 6a00 32be 2979 6bbd
00000050: f643 54be cc14 39bd 0e40 3ebd 6b72 1fbd
00000060: 2430 873d 6f68 cd3d e7aa 38be 19ae 0ebe
00000070: 885f 4fbe 49ca c0bd 64f5 2b3e 3761 00be
00000080: 716d 15bc 40e2 c0bc 564d 59bd ca7b 873c
00000090: 291b f93d 08fb f63d e281 0f3e 1bcc cf3d
000000a0: 2b78 26bd daf3 623c fb41 e5bd 1b62 0d3e
000000b0: 813b 01be de13 f13d f4e2 043d 697b f13d
000000c0: fd19 f33d 7729 27be 6826 c0bc a597 37be
000000d0: fade c93d 0e92 283e 7136 193d 2dcd e23d
000000e0: 9b32 8bbd c96c 123d 7d86 ac3d 476c 693d
000000f0: 1e6a a5bc 5fd8 013c 0bde e73d faa6 9cbd
00000100: c5c8 01be fe19 3d3e 24ff 3ebd ab87 32be
00000110: 667b 1c3e cd15 70be b7c2 c0bd 64da 2fbe
00000120: 0b58 f43d 1521 38be ed70 24be acec 103e
00000130: 74cd 0bbe 77f7 283c 73f2 af3d b414 f73c
00000140: dd70 fd3c f902 8a3e 0b8b 343e ba0b 9d3d
00000150: 469f 0fbe f9ea 1dbd c37d 153e 257c 67bd
00000160: cb2a d0bd e889 33bd 3b2d 2dbe 0185 11be
00000170: 8df0 5dbe de29 10bc 518f 353e fef2 233e
00000180: d8dc 393e aa74 fabd fe46 a13d f951 c13d
00000190: 1b27 8fbd 9bf2 c23d 0faa 2f3d 4925 51be
000001a0: 19be 563e a7b5 d2bd 1532 993d a30b e9bd
000001b0: 8917 5e3d de8b 3ebe ee02 f5bd 6ab9 ed3d
000001c0: 34ad ab3c 765a 55bd 3889 32be 1e77 9a3d
000001d0: 19f3 32be 295e 3c3e 88c5 3cbe 255c b7bc
000001e0: 0359 68bc 429d fcbd f047 013e 0559 43be
000001f0: 53cc 933d cf1a bd3d 7853 1c3d d90e 1abe
00000200: d1bc 383e 3045 0ebe 3a77 293e 3483 4e3d
00000210: 66bc d33d c587 1a3d 086a c2bd 1e24 01be
00000220: 736b de3d 9e63 1f3e fe9e 723d d267 5ebd
00000230: 5a66 7ebd 6241 273e 0a87 2c3c c50a cfbd
00000240: 0441 51bd de17 123e 9ace 0c3e a0c9 86bd
00000250: 56c5 25be 9e45 463d 5781 b93d 13fb abbd
00000260: 52e8 203e 9771 91bd ba84 5ebd 5c1c a33b
00000270: a2b8 84bd d7bf 693d 0713 2abe eaae 49be
00000280: aaf0 febd c61f 3e3d 7a3b 80bd cdd4 c8bd
00000290: be8c 8dbb 63f6 edbd 2438 10be 543b fc3d
000002a0: 7213 233e 75a9 7fbd 716c 1c3d eae3 4c3d
000002b0: 7f56 c9bd 4dd4 053d 83c2 28be d087 a53d
000002c0: 55ed 02be 9c4d ae3d 804d 28be d06e 113d
000002d0: 3345 893c a9bb d4bd 3983 b63d 21bf 873d
000002e0: 9d35 f13d f6a9 0a3e 5c74 c2bd 16f3 13be
000002f0: f5cf 363d eefc a8bd 4a12 943d 4959 3ebe
00000300: facb 413d f247 3d3e 9eb7 48be 2997 3bbe
00000310: 7df7 2abe cf14 2a3d a819 433d 0527 44be
00000320: ba76 3fbe 65e1 873c 48c9 e63d 6988 c43d
00000330: ae29 57be 3e8d b9bd e967 3b3c 39f4 2c3d
00000340: 427c e33c aa1d cd3d f5f3 c1bb d3a7 283e
00000350: 6f86 c03d 1e2d 0e3e 726f 2b3e 038d dd3d
00000360: 9343 8dbd 1eea 473e 1d2d 413c 20e7 283d
00000370: e1e7 63be f1dd 68be 2c28 553e 7bd9 d93d
00000380: 959d 1ebd 53a8 813e b42c d33d 5d0c 00be
00000390: 1abc 87be 40b1 193d 5bda 7e3e 0c79 55be
000003a0: 6a27 5e3e c31c 503e 5f02 373e 2696 d83d
000003b0: ec96 d9bd 7f0b 083d 3939 7abc c54c 9e3d
000003c0: 7e93 1d3e 5ced b93c 3f1a f8bc 6f2b 253e
000003d0: a32f 1abe 0c54 8f3e a193 e9bd eb46 52be
000003e0: 1acd 24bd 4531 523e 137b 3b3c 5aff 79be
000003f0: 14da 01be 3045 7abe 7506 173e fdaf 0abe

tcn.network.0.downsample.bias f4 [32]
0.07955742 -0.16787402 0.15105845 -0.08946987 -0.16075175 -0.08360643 -0.040101267 -0.2431431
0.0943575 -0.16361353 0.012371251 0.061582997 0.2111119 -0.16621587 0.1722822 -0.025633054
0.010251837 0.11750499 -0.08355232 0.031603936 0.117088206 -0.09623504 0.046072815 -0.15662664
-0.02503194 -0.052054014 -0.24735838 -0.01973203 -0.056036703 -0.09317663 0.019709473 0.19346932
00000000: 00ef a23d 2be7 2bbe 11af 1a3e fb3b b7bd
00000010: 1b9c 24be d939 abbd 3a41 24bd 81fa 78be
00000020: 813e c13d 4e8a 27be cab0 4a3c 743e 7c3d
00000030: b82d 583e 7e34 2abe bf6a 303e 69fc d1bc
00000040: 52f7 273c 75a6 f03d 7b1d abbd 2173 013d
00000050: f1cb ef3d e016 c5bd d9b6 3c3d bc62 20be
00000060: c80f cdbc 9736 55bd 844b 7dbe 11a5 a1bc
00000070: be86 65bd 64d3 bebd c375 a13c d21c 463e

tcn.network.1.conv1.bias f4 [32]
0.03269573 -0.08906893 -0.05986709 0.043266498 -0.067756765 0.07682275 -0.00431211 0.056895725
-0.06839329 -0.063812055 -0.014386384 -0.024365492 0.0064229183 -0.010335397 0.05231999 0.0030940087
-0.04850481 -0.057808556 -0.14774023 0.069158524 -0.100749604 -0.06615323 -0.22593151 0.10124795
0.08717418 -0.07681513 0.029155055 0.034488924 0.049082987 0.037068218 0.009873816 -0.031357802
00000000: f5eb 053d c569 b6bd 3237 75bd 3638 313d
00000010: 0fc4 8abd 3f55 9d3d 9a4c 8dbb 7e0b 693d
00000020: c811 8cbd e5af 82bd deb4 6bbc 249a c7bc
00000030: 5877 d23b cc55 29bc 7c4d 563d dac4 4a3b
00000040: fbac 46bd aac8 6cbd 3749 17be fca2 8d3d
00000050: cf55 cebd 587b 87bd 975a 67be 165b cf3d
00000060: 6088 b23d 4051 9dbd 95d6 ee3c 4244 0d3d
00000070: 3e0b 493d d8d4 173d c9c5 213c 0a71 00bd

tcn.network.1.conv1.weight_g f4 [32, 1, 1]
0.57383627 0.53009564 0.57764006 0.5087884 0.54784214 0.8235035 0.6618584 0.5892699
0.53889155 0.6370885 1.049087 0.7407267 0.570266 0.58752364 0.54000497 0.67537993
0.45787764 0.6924456 0.69013417 0.6839346 0.5951684 0.5742099 0.5230317 0.5682731
0.52895415 0.58546287 0.8267259 0.5414463 0.69177175 0.70063514 0.64739394 0.50153947
00000000: efe6 123f 59b4 073f 38e0 133f f53f 023f
00000010: 623f 0c3f 20d1 523f 8d6f 293f 64da 163f
00000020: ccf4 093f 3b18 233f 7c48 863f 44a0 3d3f
00000030: f4fc 113f f367 163f c43d 0a3f b3e5 2c3f
00000040: f06e ea3e 1d44 313f a2ac 303f 5716 2f3f
00000050: f55c 183f 6cff 123f 68e5 053f 597a 113f
00000060: 8a69 073f e5e0 153f 4fa4 533f 3a9c 0a3f
00000070: f417 313f d35c 333f 9cbb 253f e464 003f

tcn.network.1.conv1.weight_v f4 [32, 32, 2]
-0.01955814 -0.13189894 0.05093981 -0.09676707 0.020650161 0.027936976 0.07344178 0.051650714
0.020011837 0.012587058 -0.049238134 0.04019092 0.01710418 -0.10969107 -0.05499892 -0.05948205
-0.13519725 -0.0488379 0.08081091 0.035305366 -0.13239244 -0.105510354 0.057482485 -0.15064256
0.03617856 0.038647175 -0.053382203 0.09312091 0.03313741 -0.06603454 -0.14639716 -0.06497073
-0.11341155 -0.129314 0.049723662 -0.10058782 0.0765705 -0.106326886 0.06456125 -0.009626738
0.04813243 -0.016116422 0.020021675 0.01983544 0.03706988 -0.05522734 -0.030143188 0.08507328
0.0619227 0.05344875 0.0012583446 -0.12131774 0.048583806 0.058578506 0.0494704 -0.012386107
-0.1654534 -0.10234741 -0.11394605 -0.07644862 -0.019794408 -0.024071746 -0.13639979 0.032517247
0.031527665 -0.084642105 0.03112302 -0.09056988 0.11390996 -0.03287967 0.05275767 -0.16613851
-0.12108454 -0.1344961 0.17416291 -0.07333105 0.0055534397 0.0407126 -0.03813069 0.09275198
0.016266527 0.10969956 0.105020456 0.04682091 -0.007726448 -0.003182238 -0.14951529 0.006542735
0.18252623 -0.04536206 0.16282436 0.115108065 -0.040175818 0.15993759 0.054595657 0.07387177
-0.14365903 0.015218115 0.0700058 -0.1422027 0.019730931 0.008533646 0.14058605 -0.09291268
-0.13018498 -0.15270983 -0.12498881 -0.14859036 0.14219962 -0.029789971 -0.083707295 -0.13226242
-0.14866675 -0.09995425 0.057030037 0.020717343 -0.067873806 0.077483274 0.23939916 -0.157146
-0.15317643 -0.15213658 0.09598483 0.07268959 -0.05486109 0.027541507 0.023981366 -0.052253142
-0.030091526 0.067028895 0.088239186 0.08274544 -0.12977034 0.15677917 0.10447452 -0.08051026
-0.17262393 -0.10200066 -0.019280221 0.054444015 -0.15149951 -0.009688857 -0.02335673 0.13238007
0.008401897 0.04948031 -0.062121436 -0.06823077 -0.032237154 -0.02521827 -0.15831506 -0.03005344
0.019220829 -0.035561197 -0.03588071 -0.039630286 -0.075126685 -0.103349596 0.03262065 0.008946261
-0.1086977 -0.0062522013 -0.062930234 0.122733735 0.065625206 0.08973098 -0.033499215 0.1321461
-0.12957366 0.006233249 -0.0668456 -0.085407585 -0.027128184 0.07350563 -0.16580899 0.101947926
0.023415847 -0.012335445 0.058815874 -0.043537583 -0.09351672 -0.06536855 -0.14087757 0.18250674
-0.0334656 -0.09265459 -0.065927036 -0.0083126845 -0.0764597 -0.0055858903 0.051783696 0.037014455
0.090788506 -0.01069994 0.06157262 -0.092863575 -0.122986354 0.013597252 -0.19506846 -0.14355107
0.039158013 0.0028083345 0.14987093 -0.018808845 0.07229397 0.058820445 -0.10994488 -0.16604638
-0.16187416 -0.022126717 0.09192668 -0.113252535 -0.12634006 0.029059278 -0.08197914 -0.11891627
-0.12754948 -0.024154807 -0.063976005 -0.011694281 -0.05401487 -0.009040627 0.07207889 -0.06821402
-0.12554576 -0.15168755 -0.1060108 0.12274066 -0.042233627 0.030755969 0.013628894 0.052403793
0.050235305 0.02906716 -0.20314907 0.0010089047 -0.071951434 -0.20695083 -0.100267984 -0.05605515
-0.1111892 -0.18770313 0.1375448 -0.13037643 0.10028521 0.098551854 0.011231657 -0.11104334
0.046770103 0.004459086 -0.13567692 0.0013222747 0.14237584 -0.04906833 0.06914375 -0.12806606
00000000: 6438 a0bc 8410 07be 43a6 503d d02d c6bd
00000010: 872a a93c 16dc e43c a568 963d b38f 533d
00000020: ddef a33c f339 4e3c edad 49bd 3c9f 243d
00000030: 111e 8c3c b6a5 e0bd 8c46 61bd 73a3 73bd
00000040: 2671 0abe 400a 48bd 3180 a53d 5c9c 103d
00000050: e291 07be d015 d8bd c172 6b3d 0b42 1abe
00000060: f82f 143d 804c 1e3d 4ca7 5abd 2db6 be3d
00000070: 18bb 073d 1e3d 87bd 23e9 15be 600f 85bd
00000080: 5144 e8bd e46a 04be 0aab 4b3d fd00 cebd
00000090: ffd0 9c3d e9c1 d9bd b038 843d 77b9 1dbc
000000a0: 8326 453d 9606 84bc 7f04 a43c ef7d a23c
000000b0: 96d6 173d 1036 62bd d9ee f6bc e63a ae3d
000000c0: a8a2 7d3d 14ed 5a3d 0aef a43a 6f75 f8bd
000000d0: d0ff 463d 04f0 6f3d 79a1 4a3d 19ef 4abc
000000e0: 9e6c 29be 859b d1bd 8c5c e9bd 1891 9cbd
000000f0: e227 a2bc 1c32 c5bc 63ac 0bbe ce30 053d
00000100: 2723 013d d758 adbd b4f5 fe3c b47c b9bd
00000110: a049 e93d d5ac 06bd 6d18 583d 3720 2abe
00000120: 2cfb f7bd 58b9 09be c357 323e 972e 96bd
00000130: a1f9 b53b 41c2 263d ed2e 1cbd c0f4 bd3d
00000140: 6141 853c 2aaa e03d f714 d73d 48c7 3f3d
00000150: 252e fdbb 188d 50bb 891a 19be 7064 d63b
00000160: 28e8 3a3e 91cd 39bd 6ebb 263e c7bd eb3d
00000170: 668f 24bd aec6 233e b29f 5f3d 154a 973d
00000180: 5a1b 13be 6755 793c 335f 8f3d 969d 11be
00000190: c3a2 a13c b5d0 0b3c caf5 0f3e 0149 bebd
000001a0: 364f 05be f75f 1cbe 22fa ffbd 1228 18be
000001b0: c79c 113e 190a f4bc bb6e abbd cd6f 07be
000001c0: 193c 18be d0b4 ccbd 5498 693d 6bb7 a93c
000001d0: 6c01 8bbd 8daf 9e3d 0e25 753e e2ea 20be
000001e0: 48da 1cbe b1c9 1bbe b293 c43d 48de 943d
000001f0: 06b6 60bd ba9e e13c 9274 c43c 6407 56bd
00000200: 8182 f6bc 7246 893d bfb6 b43d 7176 a93d
00000210: 84e2 04be b88a 203e bdf6 d53d 90e2 a4bd
00000220: 54c4 30be b9e5 d0bd 8ef1 9dbc b000 5f3d
00000230: b022 1bbe 03be 1ebc 9d56 bfbc a48e 073e
00000240: 1ca8 093c deab 4a3d 0c73 7ebd 93bc 8bbd
00000250: 1b0b 04bd 8c96 cebc 581d 22be a232 f6bc
00000260: 0075 9d3c 9ea8 11bd a7f7 12bd 5e53 22bd
00000270: 05dc 99bd f4a8 d3bd 3b9d 053d 5793 123c
00000280: e69c debd 44df ccbb 91e1 80bd d35b fb3d
00000290: 8266 863d e0c4 b73d 7936 09bd 4f51 073e
000002a0: f5ae 04be 4840 cc3b 59e6 88bd 2cea aebd
000002b0: ed3b debc 1f8a 963d d5c9 29be 13ca d03d
000002c0: 97d2 bf3c 9b1a 4abc eae8 703d 7754 32bd
000002d0: b285 bfbd f2df 85bd 3642 10be 0ce3 3a3e
000002e0: 3a13 09bd b1c1 bdbd c104 87bd ed31 08bc
000002f0: e796 9cbd d809 b7bb 241b 543d 789c 173d
00000300: 53ef b93d cd4e 2fbc 9233 7c3d 422f bebd
00000310: 45e0 fbbd 02c7 5e3c 07c0 47be 0dff 12be
00000320: 2764 203d 090c 383b c477 193e 0215 9abc
00000330: dc0e 943d b5ed 703d c82a e1bd 1008 2abe
00000340: 57c2 25be 1743 b5bc 0e44 bc3d f2f0 e7bd
00000350: 4a5f 01be b90d ee3c aee4 a7bd 608a f3bd
00000360: 559c 02be 4de0 c5bc da05 83bd 5f99 3fbc
00000370: b23e 5dbd 231f 14bc 199e 933d cbb3 8bbd
00000380: 118f 00be fb53 1bbe 311c d9bd 755f fb3d
00000390: 2bfd 2cbd f1f3 fb3c ba4b 5f3c 5ca5 563d
000003a0: 89c3 4d3d 411e ee3c 4f06 50be 393d 843a
000003b0: 465b 93bd ebea 53be 4d59 cdbd 169a 65bd
000003c0: 2ab7 e3bd 4035 40be 8bd8 0c3e 6681 05be
000003d0: 5562 cd3d 8ed5 c93d fc04 383c b16a e3bd
000003e0: 0292 3f3d 861d 923b e4ee 0abe 2d50 ad3a
000003f0: f9ca 113e e0fb 48bd 3d9b 8d3d c023 03be

tcn.network.1.conv2.bias f4 [32]
0.050501883 -0.006757038 -0.023115024 -0.0007092181 -0.05623191 -0.1265971 0.08736952 0.022453727
-0.022507647 -0.06444362 0.0139939515 -0.03213793 0.1233775 -0.03568075 0.14176838 -0.012086121
-0.058314692 0.11300323 -0.0059110583 0.15381747 0.016514808 -0.13985571 0.006264716 0.028771648
0.07352415 0.088487335 0.017239036 -0.18195139 0.14732017 0.03435202 -0.11189829 -0.0526055
00000000: 10db 4e3d 256a ddbb b85b bdbc d2ea 39ba
00000010: 6e53 66bd aca2 01be caee b23d e1f0 b73c
00000020: f561 b8bc 04fb 83bd e346 653c 10a3 03bd
00000030: 58ad fc3d fa25 12bd bb2b 113e de04 46bc
00000040: 63db 6ebd 3d6e e73d 8db1 c1bb 5482 1d3e
00000050: 104a 873c 5636 0fbe 3f48 cd3b 85b2 eb3c
00000060: d493 963d d938 b53d e138 8d3c 7751 3abe
00000070: 19db 163e b4b4 0c3d ee2a e5bd dd78 57bd

tcn.network.1.conv2.weight_g f4 [32, 1, 1]
0.5201329 0.6313068 0.6055091 0.7266978 0.59534013 0.50486505 0.66394436 0.5194307
0.56937516 0.45377254 0.71607834 0.6031307 0.92249197 0.59508204 0.83850014 0.72890675
0.50926226 0.70173496 0.56414413 0.6439947 0.6483534 0.6680953 0.44826332 0.6249554
0.517811 0.71647245 0.71841675 0.57828313 0.670995 0.5493451 0.61519396 0.6606332
00000000: 6e27 053f 539d 213f a502 1b3f de08 3a3f
00000010: 3668 183f d63e 013f 42f8 293f 69f9 043f
00000020: 92c2 113f e054 e83e e950 373f c666 1a3f
00000030: 6f28 6c3f 4c57 183f f2a7 563f a299 3a3f
00000040: 035f 023f e7a4 333f c06b 103f d6dc 243f
00000050: 7dfa 253f 4b08 2b3f c582 e53e 14fd 1f3f
00000060: 438f 043f bd6a 373f 29ea 373f 5d0a 143f
00000070: 54c6 2b3f e1a1 0c3f 5a7d 1d3f 421f 293f
