models/prototyping6/tcn_fold_6/best.pth (torch, 224151 bytes, 130 tensors)

tcn.d_reduce.weight f4 [32, 1, 1]
000000 61 da 36 3f 8e 80 28 3f a5 31 40 bf 84 af a0 3e
       0.7142697 0.6582116 -0.7507575 0.31383908
000010 53 0a b9 be 69 65 7e bf 99 17 42 3e 52 4b bd be
       -0.3614069 -0.9937349 0.18954314 -0.36971527
000020 68 79 2b 3f 6a 9c 84 3f 3d 25 20 3f 6c 90 00 bf
       0.66982126 1.0360234 0.6255682 -0.5022037
000030 da d6 41 3e 13 21 0b be 14 03 46 be 19 91 2c bf
       0.18929616 -0.13586836 -0.19337112 -0.674089
000040 ec 1d 0f 3f b2 62 f1 3e ac 75 f1 3e a9 1e 62 3e
       0.5590503 0.4714561 0.4716009 0.22082008
000050 bc bf 13 3f af 8f b2 3e 27 49 87 bf ff 4d 53 3f
       0.5771444 0.34875247 -1.0569199 0.8254089
000060 6b 2b fc 3e ec bf 87 3f 60 53 fa 3e fa 62 8f 3f
       0.49251875 1.0605445 0.48891735 1.120208
000070 c1 93 16 be 2c d0 4b bf f2 c7 78 be 02 90 82 bf
       -0.14704801 -0.7961452 -0.24295023 -1.0200198

tcn.d_reduce.bias f4 [32]
000000 b3 60 67 bf 6d f5 ed bd 00 74 20 3e 94 44 fd 3e
       -0.90381926 -0.11619077 0.1566925 0.49466383
000010 2b e7 ec 3e 1a 76 5d bf 34 c0 00 3f 2e 4b 28 3f
       0.46270117 -0.86508334 0.5029328 0.65739715
000020 5e 5c 83 bb 1e e7 e5 3e 75 e4 26 3f c0 5b 39 be
       -0.0040088138 0.4490289 0.6519235 -0.18101406
000030 94 d4 5f 3e da d6 2b bf 8b 98 a4 3c 4b 8d 02 3f
       0.21858436 -0.6712471 0.02009227 0.50996846
000040 fa b0 a0 3d 5a a8 4b 3f 27 81 d3 3c be ca 71 be
       0.078462556 0.7955376 0.02581842 -0.23612496
000050 44 b4 cf 3e 6b e8 14 be 10 3c 31 3f 46 4b 09 bf
       0.4056722 -0.14541785 0.69232273 -0.53630483
000060 61 65 1d bf 64 c8 57 3f ef 59 ca 3b 35 1b e5 3e
       -0.61482817 0.84290147 0.0061752717 0.4474732
000070 a6 a0 5c 3f a5 15 d9 3e e0 a3 21 be db ef 83 3e
       0.8618263 0.42399326 -0.1578517 0.25768933

tcn.network.0.conv1.bias f4 [32]
000000 a9 bd 09 bd 72 77 96 3d e0 7c ae 3d 20 b3 09 be
       -0.03362814 0.07347001 0.08519912 -0.13447237
000010 1c 4d c4 bc 60 24 0b 3c 40 18 66 bd 7d b3 3a be
       -0.02396255 0.008492559 -0.05617547 -0.18232532
000020 4a 96 37 3c 1c 8d 80 bc 5a 07 bb bc 49 05 83 bd
       0.011205265 -0.015692286 -0.022830654 -0.063974924
000030 cc 50 1e 3e fa 65 a4 bc e1 0e 0f be d0 56 ca bb
       0.15460509 -0.020068157 -0.1397052 -0.0061748996
000040 25 81 d6 3c 8a eb fa bd c6 b7 64 3d e1 60 89 bc
       0.026184628 -0.12251957 0.055839323 -0.016769828
000050 97 ff 79 bd 28 04 0f bd b4 15 bc bd 86 96 e9 bd
       -0.061034765 -0.034916073 -0.09183827 -0.11405663
000060 86 de 9c bd 42 90 82 3d 3a 78 c3 bc b2 57 35 3d
       -0.076596305 0.06375171 -0.02386104 0.044273086
000070 6e 07 c8 bd 52 38 ab 3d 1c 3c 90 bd a1 b6 ad bd
       -0.09767042 0.083603516 -0.07042715 -0.08482099

tcn.network.0.conv1.weight_g f4 [32, 1, 1]
000000 67 54 0c 3f ce 7d 17 3f 00 e4 20 3f 8d 0c f4 3e
       0.5481629 0.5917634 0.628479 0.47665825
000010 68 ee 0f 3f eb 39 0f 3f 70 25 0d 3f fd d4 02 3f
       0.56223154 0.5594775 0.5513525 0.51106244
000020 a2 93 04 3f 05 8c f6 3e 25 ea 0c 3f db 91 0c 3f
       0.5178777 0.481537 0.55044776 0.5491006
000030 ec 4b d9 3e d0 de 1a 3f f3 be 09 3f 85 3e f7 3e
       0.42440736 0.60496235 0.5380699 0.48289886
000040 1f af 13 3f 97 bf 04 3f ad ad fd 3e f7 fb ff 3e
       0.5768909 0.5185484 0.49546567 0.4999692
000050 fa bb 2d 3f a8 30 1a 3f e2 47 04 3f 04 81 10 3f
       0.67864954 0.60230494 0.51672184 0.5644686
000060 53 3b 05 3f 37 57 fa 3e 52 a2 1a 3f 11 b4 0a 3f
       0.52043647 0.48894665 0.6040393 0.5418101
000070 3a 06 17 3f ee c1 14 3f d6 74 f9 3e f9 69 0b 3f
       0.58993876 0.58108413 0.4872195 0.54458576

tcn.network.0.conv1.weight_v f4 [32, 32, 2]
000000 39 2d ca bc 80 47 0a bd 01 4c 33 3d 85 8f 3b 3d
       -0.024679767 -0.033759594 0.043773655 0.045791168
000010 1b e4 a2 bd c9 89 52 bd f0 81 cd bd b8 45 3e 3d
       -0.07953664 -0.051400933 -0.10034549 0.046453208
000020 5f 22 1d 3b b9 b9 0e bc e0 21 eb bb dd bd 05 3e
       0.0023976786 -0.008711272 -0.007175669 0.13060708
000030 8a 11 a2 bc 86 d0 59 38 77 51 37 3d 51 c5 b2 3d
       -0.019783754 5.1931034e-05 0.044755425 0.08729041
000040 5a 89 2f 3d 7b 8a ce 3d e3 73 9e bd 93 a3 12 bc
       0.042855598 0.10085007 -0.077369474 -0.008950132
000050 1c 16 7b bd bf e5 a3 bc fb de d2 3d 82 c8 c9 3c
       -0.061300382 -0.020007012 0.102964364 0.024631742
000060 a1 95 ce bd 18 23 81 3d 4a 37 01 3e 8e d4 38 3d
       -0.10087133 0.06305522 0.12618747 0.045124583
000070 2b c0 48 bc 0b cc be 3d 6e bb fa 3d 6e f6 f0 bd
       -0.012252848 0.09316262 0.122427806 -0.11765753
000080 cd 3a 7e 3d b1 a6 7a 3d 48 e1 d2 bd 9b e3 78 bd
       0.062067796 0.061194126 -0.10296875 -0.060763936
000090 d4 2d a4 3d d2 fd 05 bd 94 9e 39 ba 25 f3 88 3d
       0.080165535 -0.032712765 -0.000708082 0.06687001
0000a0 af 7e cb bc dc a3 a5 bd ba 36 81 bd 60 96 99 bd
       -0.02484068 -0.08087894 -0.063092664 -0.07499385
0000b0 1e 33 0d bc ec 20 0a be a1 22 e4 3d e7 02 1c 3d
       -0.008618144 -0.13489121 0.111394174 0.038088705
0000c0 1c e7 a6 3d ac c9 55 bd f2 59 11 be e0 eb 8c 3d
       0.08149549 -0.052194282 -0.14194468 0.06880927
0000d0 8c 2c 72 3d db 59 6c bd da e1 f9 bd fe 23 cc 3d
       0.059124514 -0.05770288 -0.12201281 0.099678025
0000e0 76 a5 ef bd ae 37 8c bd 80 ac bd 3d ee bb 8e bd
       -0.11701481 -0.068465576 0.092614174 -0.069694385
0000f0 c6 04 c8 bd 78 52 93 3d c2 5d be bd 2b 38 a8 3d
       -0.097665355 0.07193464 -0.09295227 0.08213838
000100 b2 40 ce 3d cf 53 ad bd 3f ad 75 3d ba ca 96 bd
       0.100709334 -0.08463251 0.059979673 -0.07362886
000110 b0 4e ec 3d 7e 37 9c 3d 45 e6 07 be a6 ce a2 bd
       0.11538446 0.07627772 -0.13271435 -0.07949571
000120 52 2b cc 3d 8e eb 8a bc 5b c9 fb bd dc 11 a8 3d
       0.099692 -0.016958024 -0.12294265 0.082065314
000130 aa e4 ad bb c3 6a 5b 3d 76 54 45 bc 88 d9 49 3d
       -0.0053068 0.053568613 -0.012044063 0.04927972
000140 3c 48 d6 3d ac 8a 34 3d 5d 4b 10 ba 78 81 08 3d
       0.10462996 0.04407756 -0.0005504394 0.033326596
000150 96 19 a3 bc 4c 84 0a 3d 1a c5 d8 3b 21 2a 81 3c
       -0.019909661 0.033817574 0.006615293 0.015767159
000160 15 7e 33 bd be 12 e2 bd 5a 29 df 3d 7b b3 0a 3e
       -0.043821413 -0.11038731 0.10896559 0.13545029
000170 d2 cc 20 3d ae ea 32 3e b2 ec d0 bd 2a 39 9f bd
       0.039257832 0.17472336 -0.10201396 -0.07774575
000180 da 4b 27 bd 9d 10 43 bd 7b 25 ab 3d 1b aa f3 bd
       -0.040843822 -0.047623266 0.08356758 -0.118976794
000190 86 0c 29 be 13 ca 03 bd 02 c3 0c 3e b5 35 4f 3d
       -0.16508684 -0.032175135 0.13746265 0.05058833
0001a0 6a 2f af 3c 83 94 07 3e 9c e1 fa bd 52 81 8d bd
       0.021384913 0.13240246 -0.12250063 -0.069094315
0001b0 01 45 58 bd c2 8f cb bd f6 ee 82 3a 02 25 06 3e
       -0.052800182 -0.09939529 0.0009989429 0.13100055
0001c0 25 5e 88 bd f4 93 29 3e b3 97 96 bd d4 f9 0b 3e
       -0.06658582 0.16560346 -0.07353153 0.1366952
0001d0 86 77 09 be 15 fe dd bd 69 59 29 bd 98 5c 0a 3e
       -0.13424501 -0.10839478 -0.041345034 0.13511884
0001e0 25 6b 05 be a8 9a d4 3d 54 46 b9 bd 9a 16 71 3b
       -0.13029154 0.10381061 -0.09046617 0.0036787153
0001f0 af 20 ec 3c 55 72 05 be fb c1 d3 3d 68 24 8a bc
       0.028824179 -0.13031895 0.10339733 -0.016863063
000200 bd b5 89 3d f7 44 0e bd e1 10 f3 bd b8 ba 56 bc
       0.06724117 -0.03473374 -0.11868454 -0.013106041
000210 37 06 a4 bd 28 71 be bd bc ad d7 bd 69 92 15 3d
       -0.08008998 -0.092989266 -0.10531184 0.03651658
000220 96 be 34 3d e6 f7 8c 3d 94 d7 de bc a1 d1 16 3e
       0.04412707 0.068832204 -0.027202405 0.14728405
000230 ea 25 35 3c d0 0b 11 bd 4c fe 90 bd 39 5b ec 3d
       0.011056403 -0.035411656 -0.07079753 0.11540837
000240 30 71 8a 3e 76 dc 52 3d 13 80 a7 3d d6 0e b8 bd
       0.2703948 0.05147978 0.08178725 -0.08987205
000250 f5 22 01 be 33 11 b7 3d 1d 9c 08 3e 6f 0e 74 3d
       -0.12610991 0.08938827 0.13340802 0.059584077
000260 4e 87 15 3e a1 45 0f be d2 6f 0e 3e df da d3 bd
       0.14602396 -0.13991405 0.13909844 -0.10344481
000270 74 f9 59 3d 98 88 05 3e 4e f4 d5 bd 60 0e cd 3d
       0.053216413 0.13040388 -0.10446988 0.100125074
000280 d6 9b 04 be a3 10 56 bd 8d 2a 41 bd d3 e9 d5 3d
       -0.12950072 -0.05226196 -0.04715972 0.10444989
000290 cf 4c 66 3e 46 bb 13 bd af 0c fc 3d 16 dc 07 bd
       0.22490238 -0.03606727 0.12307107 -0.033168875
0002a0 a8 05 0e bd 78 05 14 be 44 37 08 3e a3 eb 80 3a
       -0.034673363 -0.14455211 0.13302332 0.000983585
0002b0 53 42 0d be 43 b2 b9 bd ce 7f d7 3d f2 5a d8 3d
       -0.13794832 -0.09067204 0.10522424 0.105642214
0002c0 2d 2e 97 3c 3f f2 0b bc cf 51 0b bc 69 c2 14 be
       0.018454636 -0.008541643 -0.008503391 -0.14527287
0002d0 77 36 22 bc bc fd e3 bd c0 50 fa bc c4 ba 90 bd
       -0.009900681 -0.1113238 -0.030556083 -0.07066873
0002e0 cd 66 86 3d f5 ba ec 3d db 2f e4 3d 39 51 a5 bd
       0.065625764 0.11559097 0.1114194 -0.080721326
0002f0 57 56 8d bd ae 8d 0e 3e ca 1a 0e be cc 20 7b 3d
       -0.06901234 0.13921234 -0.13877407 0.061310574
000300 3e 44 c4 3d 06 a1 72 3d 8c 80 aa bd 68 4b 9a 3d
       0.09583329 0.059235595 -0.083252996 0.07533914
000310 f4 aa 8d bd 49 75 f6 3d eb 5b a9 bd 56 ce c6 3b
       -0.06917372 0.12034089 -0.08269485 0.0060670776
000320 30 90 f4 3d fd ec 20 3d dd 42 44 3d 4c 22 27 3c
       0.11941564 0.03928851 0.04791533 0.010201048
000330 f5 ef cb 3d dc 27 0d be 81 3a e7 3d 7f 8d b0 3d
       0.099578775 -0.13784736 0.112904556 0.08620738
000340 4e af 07 be bc b2 a6 bc 62 2f 10 be 2b ae b1 3d
       -0.13250467 -0.020348899 -0.14080575 0.08675798
000350 4f 1d bb 3b 2b d9 ce bd 4c ff 2f bd 4e 9a af bd
       0.005710281 -0.10100015 -0.04296808 -0.08574353
000360 cd 57 1e 3e d9 18 1c bb 0b 5f b5 3d 2e 45 56 bd
       0.15463181 -0.0023818521 0.08856019 -0.05231207
000370 95 1e e5 bd 99 5c 01 3e b8 38 fc 3d d4 1e e4 bd
       -0.11187474 0.1263298 0.12315506 -0.111386925
000380 68 b7 21 bd 96 81 1a 3e 0f bd 35 bc c3 f7 ed bc
       -0.03948155 0.15088496 -0.011092438 -0.029048806
000390 96 c1 a3 bd c0 ed af 3d c6 21 3a be 3d 52 ed bd
       -0.07995908 0.08590269 -0.18176946 -0.11587951
0003a0 c6 70 c6 bd 82 a5 5f bd 0b ad 68 bd 2e e4 37 3d
       -0.096894786 -0.0546012 -0.05680565 0.044895343
0003b0 0e c2 96 bc bb 83 5f bc aa 43 03 3e db af 7a 3d
       -0.01840308 -0.013642247 0.1281878 0.061202865
0003c0 d2 ac 01 bc da 15 c5 3c 65 51 8f bc 3f 99 bf 3d
       -0.007914739 0.024058271 -0.017494867 0.09355401
0003d0 cf 06 15 3d 2d ce 42 3d 3c 70 b9 bd a5 16 9d b8
       0.036383446 0.047559906 -0.0905461 -7.490561e-05
0003e0 6e 08 14 bc 89 b6 6c bd e1 b9 d4 3d fe 30 8b 3c
       -0.009035213 -0.057791267 0.10387016 0.016991135
0003f0 80 ec a9 bd 2a a1 31 bd 9d 2f d6 3d 99 f3 9d bd
       -0.08297062 -0.04336659 0.104583 -0.07712478

tcn.network.0.conv2.bias f4 [32]
000000 37 b3 d9 bd ac 5a 06 3c ce d8 04 3e d2 39 47 3d
       -0.10629886 0.008200329 0.1297333 0.048639126
000010 7c 3c 91 bd 1e 6f 30 3d 55 ee 0a be c7 27 d4 bd
       -0.070916146 0.04307472 -0.13567479 -0.103591494
000020 9e c2 41 bc d5 d1 19 bc 40 95 07 3d f0 4a 9f 3c
       -0.0118261855 -0.009388407 0.03310132 0.019444913
000030 de fd 95 3c 1c 97 1f bd 6c 81 df bd 7f 85 80 bd
       0.01830953 -0.03896247 -0.10913357 -0.06275462
000040 94 89 32 bd 04 bd 12 bd c4 fe 57 3d dd 13 b3 bd
       -0.043588236 -0.03582479 0.052733198 -0.08744023
000050 e9 42 a0 3d 78 fb d1 3d 7f b6 a7 3a cc 22 bf bd
       0.07825262 0.10253042 0.0012795477 -0.09332809
000060 8f 32 a2 3d 30 f6 87 3d 1c 18 1d bd 51 7d 8f 3d
       0.079197995 0.066387534 -0.03835307 0.07006324
000070 79 bf 55 3d ac 23 c9 3c 6e 1f a6 3d 12 55 82 bd
       0.052184556 0.024553142 0.081114635 -0.06363882

tcn.network.0.conv2.weight_g f4 [32, 1, 1]
000000 5b 48 0d 3f 08 8b 0b 3f e9 49 f1 3e db b2 17 3f
       0.5518853 0.5450902 0.471267 0.59257287
000010 70 ea 09 3f 5c 54 f5 3e cc a2 04 3f 1f 65 1c 3f
       0.5387335 0.47915924 0.5181091 0.610918
000020 08 7b 0d 3f 37 f4 07 3f 6f 33 f9 3e e2 7e 10 3f
       0.55265856 0.5310702 0.48672053 0.5644361
000030 99 d9 06 3f da 92 13 3f 89 d1 fd 3e 0d 31 26 3f
       0.5267578 0.5764595 0.49573925 0.64918596
000040 61 f4 06 3f 12 fa 22 3f d8 2d 20 3f 16 f0 0c 3f
       0.5271664 0.63662827 0.6256995 0.5505384
000050 dd 75 3b 3f 06 59 01 3f b9 66 20 3f 05 7e 0e 3f
       0.7322672 0.50526464 0.6265674 0.5566104
000060 b1 3d ec 3e dc 14 cc 3e 06 68 03 3f c3 ab 0a 3f
       0.46140817 0.39859664 0.513306 0.5416834
000070 c0 4b f5 3e d4 66 29 3f 6e 92 e7 3e b7 05 13 3f
       0.47909355 0.6617253 0.45228904 0.57430595

tcn.network.0.conv2.weight_v f4 [32, 32, 2]
000000 83 f1 30 bc 89 46 04 3e d7 7e 71 bd a4 e6 d4 bd
       -0.010799768 0.12917532 -0.058958855 -0.10395554
000010 5b 41 b2 bd ec d7 c9 3b ee 70 c9 3d 98 5a d2 3b
       -0.08703872 0.006159773 0.09835993 0.006419491
000020 14 33 eb bd 82 62 00 be 0a 08 0b 3e 36 39 7d 3d
       -0.11484352 -0.12537578 0.13577285 0.06182214
000030 70 2f 6e 3d 0f 6d b8 bd 5b c0 95 3d fb 53 7d bd
       0.05815071 -0.09005176 0.073120795 -0.06184767
000040 27 7a 0c be e2 7f d6 bc 30 7b 1a be 89 78 3c bc
       -0.13718472 -0.026184026 -0.15086055 -0.011503347
000050 09 de 65 3d ef c5 ca bd 0a bb c7 bd e1 b0 c3 bc
       0.056119952 -0.09901034 -0.09752472 -0.023888053
000060 56 25 4a 3d f7 88 41 bd 8d f8 64 bd 9a 19 13 be
       0.049352013 -0.04724976 -0.0559011 -0.14365235
000070 c1 26 b0 bb 8e bd 1e be 7d 10 a3 3d 3f 4a 04 be
       -0.0053757136 -0.15501997 0.07962129 -0.12918948
000080 53 d2 8d bd cd 1e 7f bd 0e b5 c7 3d bd 7d e6 3c
       -0.06924882 -0.062285233 0.0975133 0.028136129
000090 bb 41 f3 bd 73 cc 60 bd 67 32 1f 3d f1 2c b1 3d
       -0.118777715 -0.054882478 0.038866427 0.0865115
0000a0 b4 78 90 3c 00 1b bc 3d cd e1 4e bc 56 8b 02 3d
       0.01763568 0.09184837 -0.012627077 0.031871162
0000b0 7c 6a a0 3d 61 5c f9 bd 73 40 c9 3d 2d 47 62 bd
       0.0783281 -0.12175823 0.09826746 -0.05524366
0000c0 12 65 04 3d 65 dd 8a bd 7e c7 c6 bd b6 ed 7c 3d
       0.03232295 -0.06780509 -0.09706019 0.061750136
0000d0 5b cd cb bd e3 41 1b bc c2 63 22 bd 0c 8b 18 3d
       -0.09951278 -0.009476158 -0.039645918 0.03724198
0000e0 68 33 bd 3d 2d 6e 8c bc 9b 00 b9 bc be da 6a bd
       0.092383206 -0.01714238 -0.022583297 -0.057337515
0000f0 57 c5 e3 bc da a2 85 bd fc c9 e6 bd d0 7d cc bd
       -0.02780406 -0.06525202 -0.11268994 -0.09984934
000100 55 c0 0d be cd 8d d1 3d 0a b0 26 be 68 66 3f bd
       -0.138429 0.102321245 -0.16278091 -0.04672852
000110 9a fa e5 bd 12 cf 76 3d 30 f2 27 be 41 e4 4d bd
       -0.11229439 0.06025607 -0.16400981 -0.050266508
000120 a6 2c e5 bc e1 d7 f7 bb e5 15 e5 bd 8e be 8d bd
       -0.027975392 -0.0075635766 -0.11185817 -0.06921111
000130 7b 99 9b 3c b0 07 10 3e 65 d7 10 be ed eb 16 be
       0.018994084 0.14065433 -0.14144666 -0.14738436
000140 c3 dc 0c be ed 4d 12 3d c3 eb bb bd 44 a3 09 3d
       -0.13756089 0.035718847 -0.09175827 0.033602968
000150 ed 73 88 bd 52 1f 2a be 9f b3 80 bd 62 5b 18 3e
       -0.06662736 -0.1661351 -0.0628426 0.1487861
000160 97 43 95 bc fc f5 1c be f4 5c 17 bd bf c4 d5 3c
       -0.018220706 -0.1532821 -0.03695388 0.026094792
000170 1a 85 33 be 8c 39 24 be 0d 6d 7b bc 9b 0b fa bc
       -0.17531243 -0.16037577 -0.015345824 -0.030523112
000180 f5 69 aa bd 92 e1 d9 bd d5 55 c9 bd 0a 48 c0 3d
       -0.08320991 -0.10638727 -0.09830824 0.0938874
000190 11 c5 15 be 30 cb f8 3d 18 2d 18 be 2c a6 f6 bd
       -0.14625956 0.1214813 -0.14860952 -0.120434135
0001a0 68 ea 88 3d 8b c7 72 3d fe d7 4a be e3 1d 06 3d
       0.066853344 0.05927233 -0.19808957 0.032743346
0001b0 e6 d4 88 bd 66 df 6f 3d f4 97 50 3d 35 6b 63 bd
       -0.06681232 0.05856266 0.050926164 -0.055522162
0001c0 b0 58 b0 bd 46 4c 25 be 09 94 04 be 7f d9 16 be
       -0.08610666 -0.16142377 -0.12947096 -0.14731406
0001d0 88 a0 a1 bc 22 54 15 be 6d da 28 3e bb 80 13 be
       -0.019729868 -0.14582875 0.16489573 -0.14404576
0001e0 dc d2 c7 3d da 41 cd 3d e8 a2 25 3e 06 53 95 bc
       0.09757015 0.10022326 0.16175425 -0.018228065
0001f0 c5 c6 26 be 1e ed bb 3d db e1 aa 3d d3 a9 d9 bd
       -0.16286762 0.09176086 0.0834386 -0.106280945
000200 11 5e da 3d e2 b9 60 bb 2a 02 ad 3d e5 c2 e9 bd
       0.10662473 -0.0034290482 0.084476784 -0.11414126
000210 9c 69 80 bc d4 e9 2c 3e e3 b4 29 3e 18 41 d3 bd
       -0.015675358 0.16886073 0.16572909 -0.1031515
000220 96 dd 84 3b 89 d2 7a 3d 7f 35 39 be 40 bc c2 3d
       0.0040547354 0.06123594 -0.18086813 0.09508562
000230 67 ef 98 bc 42 9c 82 bd af 9a e3 3b f7 bf fb 3d
       -0.018668843 -0.0637746 0.00694593 0.12292474
000240 3d 90 07 3d 19 43 d9 3d 4f 70 a7 bd 07 bb 0c 3d
       0.03309654 0.10608501 -0.08175718 0.03435805
000250 e3 68 23 bd 98 3c 70 3d 69 30 27 3e 5a 02 08 3e
       -0.03989495 0.058651537 0.16327061 0.13282147
000260 2d b6 dc bd a5 bd e2 3d 71 8b 2f be 0a f0 ee ba
       -0.10776935 0.11071328 -0.17143036 -0.0018229496
000270 09 80 f6 bc ce 10 83 bd 43 10 cd ba de 02 59 bd
       -0.030090349 -0.063996896 -0.0015645105 -0.05298125
000280 c3 1d 84 3d 63 af 87 bd 25 79 db bd 01 9e 4e b9
       0.06450989 -0.06625249 -0.10716466 -0.00019704552
000290 69 e0 1c 3e 41 16 c0 bd fd 7f 01 be 16 94 4f bd
       0.1531998 -0.093792446 -0.1264648 -0.050678335
0002a0 1a a1 1b be 05 9e f1 bd 74 93 97 3a 90 e0 b8 3d
       -0.15198174 -0.11797718 0.001156433 0.09027207
0002b0 b9 1c f5 bd 73 b5 e2 3d 70 02 18 be 54 3e 61 bc
       -0.11968369 0.11069765 -0.1484468 -0.01374777
0002c0 04 ce aa 3a 6b 4c 3f be d0 b8 d7 bc 6e 07 c3 3d
       0.0013031368 -0.18681495 -0.026333243 0.095229015
0002d0 2b 39 1c be a2 40 0f be c7 7e ab 3c 08 8b 80 bc
       -0.15256183 -0.13989499 0.020934476 -0.015691295
0002e0 99 d0 05 be b4 29 48 3e b5 80 8f 3d 94 0c e0 b3
       -0.13067855 0.19547158 0.07006971 -1.0433101e-07
0002f0 be 7d 3e be 49 dc 14 be 03 c1 38 be b6 39 0f be
       -0.18602654 -0.14537157 -0.18042378 -0.13986859
000300 88 93 64 3d 38 f2 0b bd 54 38 63 3d 8b 74 96 3d
       0.05580476 -0.034166545 0.05547364 0.073464476
000310 42 af 12 3d 52 67 a0 3d be 27 ad 3d 69 e9 b2 3d
       0.03581167 0.07832207 0.08454846 0.08735926
000320 e1 8d 9a 3d 89 36 48 3d bd 5a 0d bd 5d 14 6f 3c
       0.075465925 0.048880134 -0.034510363 0.014592257
000330 29 34 dd 3d ad 05 f2 3d 39 de 00 3e d8 f4 59 3d
       0.108009644 0.11817489 0.12584771 0.053212017
000340 4a 23 1a 3d 83 cd 99 3d b7 ba b7 3d 46 a3 df 3d
       0.03763131 0.075099014 0.0897116 0.10919814
000350 63 26 ae 3d 41 5f c0 3c b5 f6 63 bc 4b ce 4e 32
       0.085034154 0.02348292 -0.0139138 1.2037684e-08
000360 5f 83 9b 3d 4a 92 42 3d c4 1e 45 3b 38 74 b3 3d
       0.075934164 0.047502793 0.0030078152 0.08762401
000370 ea 86 8b 3d d6 e8 bc 3d 5b 40 b8 3c 59 f6 ad 3d
       0.06812842 0.092240974 0.022491625 0.08494253
000380 f1 55 11 3e f7 99 7f 3c 4a 72 0c ad 6a e2 54 bd
       0.1419294 0.015600673 -7.983456e-12 -0.051973738
000390 f9 a2 bd 3d 06 82 09 3e 7a a3 08 3e 40 b2 10 3e
       0.092596 0.13428506 0.13343611 0.14130497
0003a0 92 8e 6c 3d 5b 12 9e 3d f1 00 41 3e 1d fb 39 3c
       0.057753153 0.07718345 0.18848015 0.011351374
0003b0 6a 24 1a 3e 47 7f 86 3d 2f 45 50 3d 08 e3 d6 3d
       0.15052953 0.06567245 0.05084723 0.104925215
0003c0 0f 19 b3 3d 00 ca b9 3d b9 8a e3 3d a1 42 19 3e
       0.08745014 0.090717316 0.111104436 0.14966823
0003d0 7d c4 06 3d 61 58 12 3e ac 16 c5 39 ed 8e 9c bd
       0.03290223 0.14291526 0.0003759166 -0.076444484
0003e0 6f 08 1c 3d 5d f7 d6 bc a7 24 5d b8 45 ea ce 26
       0.03809398 -0.026240999 -5.272464e-05 1.435762e-15
0003f0 ec ae 7a bc 3b 46 2f 3e 7c ae 1b bb ca 4b 13 b7
       -0.015300494 0.17116635 -0.0023755124 -8.779529e-06

tcn.network.0.net.0.bias f4 [32]
000000 a9 bd 09 bd 72 77 96 3d e0 7c ae 3d 20 b3 09 be
       -0.03362814 0.07347001 0.08519912 -0.13447237
000010 1c 4d c4 bc 60 24 0b 3c 40 18 66 bd 7d b3 3a be
       -0.02396255 0.008492559 -0.05617547 -0.18232532
000020 4a 96 37 3c 1c 8d 80 bc 5a 07 bb bc 49 05 83 bd
       0.011205265 -0.015692286 -0.022830654 -0.063974924
000030 cc 50 1e 3e fa 65 a4 bc e1 0e 0f be d0 56 ca bb
       0.15460509 -0.020068157 -0.1397052 -0.0061748996
000040 25 81 d6 3c 8a eb fa bd c6 b7 64 3d e1 60 89 bc
       0.026184628 -0.12251957 0.055839323 -0.016769828
000050 97 ff 79 bd 28 04 0f bd b4 15 bc bd 86 96 e9 bd
       -0.061034765 -0.034916073 -0.09183827 -0.11405663
000060 86 de 9c bd 42 90 82 3d 3a 78 c3 bc b2 57 35 3d
       -0.076596305 0.06375171 -0.02386104 0.044273086
000070 6e 07 c8 bd 52 38 ab 3d 1c 3c 90 bd a1 b6 ad bd
       -0.09767042 0.083603516 -0.07042715 -0.08482099

tcn.network.0.net.0.weight_g f4 [32, 1, 1]
000000 67 54 0c 3f ce 7d 17 3f 00 e4 20 3f 8d 0c f4 3e
       0.5481629 0.5917634 0.628479 0.47665825
000010 68 ee 0f 3f eb 39 0f 3f 70 25 0d 3f fd d4 02 3f
       0.56223154 0.5594775 0.5513525 0.51106244
000020 a2 93 04 3f 05 8c f6 3e 25 ea 0c 3f db 91 0c 3f
       0.5178777 0.481537 0.55044776 0.5491006
000030 ec 4b d9 3e d0 de 1a 3f f3 be 09 3f 85 3e f7 3e
       0.42440736 0.60496235 0.5380699 0.48289886
000040 1f af 13 3f 97 bf 04 3f ad ad fd 3e f7 fb ff 3e
       0.5768909 0.5185484 0.49546567 0.4999692
000050 fa bb 2d 3f a8 30 1a 3f e2 47 04 3f 04 81 10 3f
       0.67864954 0.60230494 0.51672184 0.5644686
000060 53 3b 05 3f 37 57 fa 3e 52 a2 1a 3f 11 b4 0a 3f
       0.52043647 0.48894665 0.6040393 0.5418101
000070 3a 06 17 3f ee c1 14 3f d6 74 f9 3e f9 69 0b 3f
       0.58993876 0.58108413 0.4872195 0.54458576

tcn.network.0.net.0.weight_v f4 [32, 32, 2]
000000 39 2d ca bc 80 47 0a bd 01 4c 33 3d 85 8f 3b 3d
       -0.024679767 -0.033759594 0.043773655 0.045791168
000010 1b e4 a2 bd c9 89 52 bd f0 81 cd bd b8 45 3e 3d
       -0.07953664 -0.051400933 -0.10034549 0.046453208
000020 5f 22 1d 3b b9 b9 0e bc e0 21 eb bb dd bd 05 3e
       0.0023976786 -0.008711272 -0.007175669 0.13060708
000030 8a 11 a2 bc 86 d0 59 38 77 51 37 3d 51 c5 b2 3d
       -0.019783754 5.1931034e-05 0.044755425 0.08729041
000040 5a 89 2f 3d 7b 8a ce 3d e3 73 9e bd 93 a3 12 bc
       0.042855598 0.10085007 -0.077369474 -0.008950132
000050 1c 16 7b bd bf e5 a3 bc fb de d2 3d 82 c8 c9 3c
       -0.061300382 -0.020007012 0.102964364 0.024631742
000060 a1 95 ce bd 18 23 81 3d 4a 37 01 3e 8e d4 38 3d
       -0.10087133 0.06305522 0.12618747 0.045124583
000070 2b c0 48 bc 0b cc be 3d 6e bb fa 3d 6e f6 f0 bd
       -0.012252848 0.09316262 0.122427806 -0.11765753
000080 cd 3a 7e 3d b1 a6 7a 3d 48 e1 d2 bd 9b e3 78 bd
       0.062067796 0.061194126 -0.10296875 -0.060763936
000090 d4 2d a4 3d d2 fd 05 bd 94 9e 39 ba 25 f3 88 3d
       0.080165535 -0.032712765 -0.000708082 0.06687001
0000a0 af 7e cb bc dc a3 a5 bd ba 36 81 bd 60 96 99 bd
       -0.02484068 -0.08087894 -0.063092664 -0.07499385
0000b0 1e 33 0d bc ec 20 0a be a1 22 e4 3d e7 02 1c 3d
       -0.008618144 -0.13489121 0.111394174 0.038088705
0000c0 1c e7 a6 3d ac c9 55 bd f2 59 11 be e0 eb 8c 3d
       0.08149549 -0.052194282 -0.14194468 0.06880927
0000d0 8c 2c 72 3d db 59 6c bd da e1 f9 bd fe 23 cc 3d
       0.059124514 -0.05770288 -0.12201281 0.099678025
0000e0 76 a5 ef bd ae 37 8c bd 80 ac bd 3d ee bb 8e bd
       -0.11701481 -0.068465576 0.092614174 -0.069694385
0000f0 c6 04 c8 bd 78 52 93 3d c2 5d be bd 2b 38 a8 3d
       -0.097665355 0.07193464 -0.09295227 0.08213838
000100 b2 40 ce 3d cf 53 ad bd 3f ad 75 3d ba ca 96 bd
       0.100709334 -0.08463251 0.059979673 -0.07362886
000110 b0 4e ec 3d 7e 37 9c 3d 45 e6 07 be a6 ce a2 bd
       0.11538446 0.07627772 -0.13271435 -0.07949571
000120 52 2b cc 3d 8e eb 8a bc 5b c9 fb bd dc 11 a8 3d
       0.099692 -0.016958024 -0.12294265 0.082065314
000130 aa e4 ad bb c3 6a 5b 3d 76 54 45 bc 88 d9 49 3d
       -0.0053068 0.053568613 -0.012044063 0.04927972
000140 3c 48 d6 3d ac 8a 34 3d 5d 4b 10 ba 78 81 08 3d
       0.10462996 0.04407756 -0.0005504394 0.033326596
000150 96 19 a3 bc 4c 84 0a 3d 1a c5 d8 3b 21 2a 81 3c
       -0.019909661 0.033817574 0.006615293 0.015767159
000160 15 7e 33 bd be 12 e2 bd 5a 29 df 3d 7b b3 0a 3e
       -0.043821413 -0.11038731 0.10896559 0.13545029
000170 d2 cc 20 3d ae ea 32 3e b2 ec d0 bd 2a 39 9f bd
       0.039257832 0.17472336 -0.10201396 -0.07774575
000180 da 4b 27 bd 9d 10 43 bd 7b 25 ab 3d 1b aa f3 bd
       -0.040843822 -0.047623266 0.08356758 -0.118976794
000190 86 0c 29 be 13 ca 03 bd 02 c3 0c 3e b5 35 4f 3d
       -0.16508684 -0.032175135 0.13746265 0.05058833
0001a0 6a 2f af 3c 83 94 07 3e 9c e1 fa bd 52 81 8d bd
       0.021384913 0.13240246 -0.12250063 -0.069094315
0001b0 01 45 58 bd c2 8f cb bd f6 ee 82 3a 02 25 06 3e
       -0.052800182 -0.09939529 0.0009989429 0.13100055
0001c0 25 5e 88 bd f4 93 29 3e b3 97 96 bd d4 f9 0b 3e
       -0.06658582 0.16560346 -0.07353153 0.1366952
0001d0 86 77 09 be 15 fe dd bd 69 59 29 bd 98 5c 0a 3e
       -0.13424501 -0.10839478 -0.041345034 0.13511884
0001e0 25 6b 05 be a8 9a d4 3d 54 46 b9 bd 9a 16 71 3b
       -0.13029154 0.10381061 -0.09046617 0.0036787153
0001f0 af 20 ec 3c 55 72 05 be fb c1 d3 3d 68 24 8a bc
       0.028824179 -0.13031895 0.10339733 -0.016863063
000200 bd b5 89 3d f7 44 0e bd e1 10 f3 bd b8 ba 56 bc
       0.06724117 -0.03473374 -0.11868454 -0.013106041
000210 37 06 a4 bd 28 71 be bd bc ad d7 bd 69 92 15 3d
       -0.08008998 -0.092989266 -0.10531184 0.03651658
000220 96 be 34 3d e6 f7 8c 3d 94 d7 de bc a1 d1 16 3e
       0.04412707 0.068832204 -0.027202405 0.14728405
000230 ea 25 35 3c d0 0b 11 bd 4c fe 90 bd 39 5b ec 3d
       0.011056403 -0.035411656 -0.07079753 0.11540837
000240 30 71 8a 3e 76 dc 52 3d 13 80 a7 3d d6 0e b8 bd
       0.2703948 0.05147978 0.08178725 -0.08987205
000250 f5 22 01 be 33 11 b7 3d 1d 9c 08 3e 6f 0e 74 3d
       -0.12610991 0.08938827 0.13340802 0.059584077
000260 4e 87 15 3e a1 45 0f be d2 6f 0e 3e df da d3 bd
       0.14602396 -0.13991405 0.13909844 -0.10344481
000270 74 f9 59 3d 98 88 05 3e 4e f4 d5 bd 60 0e cd 3d
       0.053216413 0.13040388 -0.10446988 0.100125074
000280 d6 9b 04 be a3 10 56 bd 8d 2a 41 bd d3 e9 d5 3d
       -0.12950072 -0.05226196 -0.04715972 0.10444989
000290 cf 4c 66 3e 46 bb 13 bd af 0c fc 3d 16 dc 07 bd
       0.22490238 -0.03606727 0.12307107 -0.033168875
0002a0 a8 05 0e bd 78 05 14 be 44 37 08 3e a3 eb 80 3a
       -0.034673363 -0.14455211 0.13302332 0.000983585
0002b0 53 42 0d be 43 b2 b9 bd ce 7f d7 3d f2 5a d8 3d
       -0.13794832 -0.09067204 0.10522424 0.105642214
0002c0 2d 2e 97 3c 3f f2 0b bc cf 51 0b bc 69 c2 14 be
       0.018454636 -0.008541643 -0.008503391 -0.14527287
0002d0 77 36 22 bc bc fd e3 bd c0 50 fa bc c4 ba 90 bd
       -0.009900681 -0.1113238 -0.030556083 -0.07066873
0002e0 cd 66 86 3d f5 ba ec 3d db 2f e4 3d 39 51 a5 bd
       0.065625764 0.11559097 0.1114194 -0.080721326
0002f0 57 56 8d bd ae 8d 0e 3e ca 1a 0e be cc 20 7b 3d
       -0.06901234 0.13921234 -0.13877407 0.061310574
000300 3e 44 c4 3d 06 a1 72 3d 8c 80 aa bd 68 4b 9a 3d
       0.09583329 0.059235595 -0.083252996 0.07533914
000310 f4 aa 8d bd 49 75 f6 3d eb 5b a9 bd 56 ce c6 3b
       -0.06917372 0.12034089 -0.08269485 0.0060670776
000320 30 90 f4 3d fd ec 20 3d dd 42 44 3d 4c 22 27 3c
       0.11941564 0.03928851 0.04791533 0.010201048
000330 f5 ef cb 3d dc 27 0d be 81 3a e7 3d 7f 8d b0 3d
       0.099578775 -0.13784736 0.112904556 0.08620738
000340 4e af 07 be bc b2 a6 bc 62 2f 10 be 2b ae b1 3d
       -0.13250467 -0.020348899 -0.14080575 0.08675798
000350 4f 1d bb 3b 2b d9 ce bd 4c ff 2f bd 4e 9a af bd
       0.005710281 -0.10100015 -0.04296808 -0.08574353
000360 cd 57 1e 3e d9 18 1c bb 0b 5f b5 3d 2e 45 56 bd
       0.15463181 -0.0023818521 0.08856019 -0.05231207
000370 95 1e e5 bd 99 5c 01 3e b8 38 fc 3d d4 1e e4 bd
       -0.11187474 0.1263298 0.12315506 -0.111386925
000380 68 b7 21 bd 96 81 1a 3e 0f bd 35 bc c3 f7 ed bc
       -0.03948155 0.15088496 -0.011092438 -0.029048806
000390 96 c1 a3 bd c0 ed af 3d c6 21 3a be 3d 52 ed bd
       -0.07995908 0.08590269 -0.18176946 -0.11587951
0003a0 c6 70 c6 bd 82 a5 5f bd 0b ad 68 bd 2e e4 37 3d
       -0.096894786 -0.0546012 -0.05680565 0.044895343
0003b0 0e c2 96 bc bb 83 5f bc aa 43 03 3e db af 7a 3d
       -0.01840308 -0.013642247 0.1281878 0.061202865
0003c0 d2 ac 01 bc da 15 c5 3c 65 51 8f bc 3f 99 bf 3d
       -0.007914739 0.024058271 -0.017494867 0.09355401
0003d0 cf 06 15 3d 2d ce 42 3d 3c 70 b9 bd a5 16 9d b8
       0.036383446 0.047559906 -0.0905461 -7.490561e-05
0003e0 6e 08 14 bc 89 b6 6c bd e1 b9 d4 3d fe 30 8b 3c
       -0.009035213 -0.057791267 0.10387016 0.016991135
0003f0 80 ec a9 bd 2a a1 31 bd 9d 2f d6 3d 99 f3 9d bd
       -0.08297062 -0.04336659 0.104583 -0.07712478

tcn.network.0.net.4.bias f4 [32]
000000 37 b3 d9 bd ac 5a 06 3c ce d8 04 3e d2 39 47 3d
       -0.10629886 0.008200329 0.1297333 0.048639126
000010 7c 3c 91 bd 1e 6f 30 3d 55 ee 0a be c7 27 d4 bd
       -0.070916146 0.04307472 -0.13567479 -0.103591494
000020 9e c2 41 bc d5 d1 19 bc 40 95 07 3d f0 4a 9f 3c
       -0.0118261855 -0.009388407 0.03310132 0.019444913
000030 de fd 95 3c 1c 97 1f bd 6c 81 df bd 7f 85 80 bd
       0.01830953 -0.03896247 -0.10913357 -0.06275462
000040 94 89 32 bd 04 bd 12 bd c4 fe 57 3d dd 13 b3 bd
       -0.043588236 -0.03582479 0.052733198 -0.08744023
000050 e9 42 a0 3d 78 fb d1 3d 7f b6 a7 3a cc 22 bf bd
       0.07825262 0.10253042 0.0012795477 -0.09332809
000060 8f 32 a2 3d 30 f6 87 3d 1c 18 1d bd 51 7d 8f 3d
       0.079197995 0.066387534 -0.03835307 0.07006324
000070 79 bf 55 3d ac 23 c9 3c 6e 1f a6 3d 12 55 82 bd
       0.052184556 0.024553142 0.081114635 -0.06363882

tcn.network.0.net.4.weight_g f4 [32, 1, 1]
000000 5b 48 0d 3f 08 8b 0b 3f e9 49 f1 3e db b2 17 3f
       0.5518853 0.5450902 0.471267 0.59257287
000010 70 ea 09 3f 5c 54 f5 3e cc a2 04 3f 1f 65 1c 3f
       0.5387335 0.47915924 0.5181091 0.610918
000020 08 7b 0d 3f 37 f4 07 3f 6f 33 f9 3e e2 7e 10 3f
       0.55265856 0.5310702 0.48672053 0.5644361
000030 99 d9 06 3f da 92 13 3f 89 d1 fd 3e 0d 31 26 3f
       0.5267578 0.5764595 0.49573925 0.64918596
000040 61 f4 06 3f 12 fa 22 3f d8 2d 20 3f 16 f0 0c 3f
       0.5271664 0.63662827 0.6256995 0.5505384
000050 dd 75 3b 3f 06 59 01 3f b9 66 20 3f 05 7e 0e 3f
       0.7322672 0.50526464 0.6265674 0.5566104
000060 b1 3d ec 3e dc 14 cc 3e 06 68 03 3f c3 ab 0a 3f
       0.46140817 0.39859664 0.513306 0.5416834
000070 c0 4b f5 3e d4 66 29 3f 6e 92 e7 3e b7 05 13 3f
       0.47909355 0.6617253 0.45228904 0.57430595

tcn.network.0.net.4.weight_v f4 [32, 32, 2]
000000 83 f1 30 bc 89 46 04 3e d7 7e 71 bd a4 e6 d4 bd
       -0.010799768 0.12917532 -0.058958855 -0.10395554
000010 5b 41 b2 bd ec d7 c9 3b ee 70 c9 3d 98 5a d2 3b
       -0.08703872 0.006159773 0.09835993 0.006419491
000020 14 33 eb bd 82 62 00 be 0a 08 0b 3e 36 39 7d 3d
       -0.11484352 -0.12537578 0.13577285 0.06182214
000030 70 2f 6e 3d 0f 6d b8 bd 5b c0 95 3d fb 53 7d bd
       0.05815071 -0.09005176 0.073120795 -0.06184767
000040 27 7a 0c be e2 7f d6 bc 30 7b 1a be 89 78 3c bc
       -0.13718472 -0.026184026 -0.15086055 -0.011503347
000050 09 de 65 3d ef c5 ca bd 0a bb c7 bd e1 b0 c3 bc
       0.056119952 -0.09901034 -0.09752472 -0.023888053
000060 56 25 4a 3d f7 88 41 bd 8d f8 64 bd 9a 19 13 be
       0.049352013 -0.04724976 -0.0559011 -0.14365235
000070 c1 26 b0 bb 8e bd 1e be 7d 10 a3 3d 3f 4a 04 be
       -0.0053757136 -0.15501997 0.07962129 -0.12918948
000080 53 d2 8d bd cd 1e 7f bd 0e b5 c7 3d bd 7d e6 3c
       -0.06924882 -0.062285233 0.0975133 0.028136129
000090 bb 41 f3 bd 73 cc 60 bd 67 32 1f 3d f1 2c b1 3d
       -0.118777715 -0.054882478 0.038866427 0.0865115
0000a0 b4 78 90 3c 00 1b bc 3d cd e1 4e bc 56 8b 02 3d
       0.01763568 0.09184837 -0.012627077 0.031871162
0000b0 7c 6a a0 3d 61 5c f9 bd 73 40 c9 3d 2d 47 62 bd
       0.0783281 -0.12175823 0.09826746 -0.05524366
0000c0 12 65 04 3d 65 dd 8a bd 7e c7 c6 bd b6 ed 7c 3d
       0.03232295 -0.06780509 -0.09706019 0.061750136
0000d0 5b cd cb bd e3 41 1b bc c2 63 22 bd 0c 8b 18 3d
       -0.09951278 -0.009476158 -0.039645918 0.03724198
0000e0 68 33 bd 3d 2d 6e 8c bc 9b 00 b9 bc be da 6a bd
       0.092383206 -0.01714238 -0.022583297 -0.057337515
0000f0 57 c5 e3 bc da a2 85 bd fc c9 e6 bd d0 7d cc bd
       -0.02780406 -0.06525202 -0.11268994 -0.09984934
000100 55 c0 0d be cd 8d d1 3d 0a b0 26 be 68 66 3f bd
       -0.138429 0.102321245 -0.16278091 -0.04672852
000110 9a fa e5 bd 12 cf 76 3d 30 f2 27 be 41 e4 4d bd
       -0.11229439 0.06025607 -0.16400981 -0.050266508
000120 a6 2c e5 bc e1 d7 f7 bb e5 15 e5 bd 8e be 8d bd
       -0.027975392 -0.0075635766 -0.11185817 -0.06921111
000130 7b 99 9b 3c b0 07 10 3e 65 d7 10 be ed eb 16 be
       0.018994084 0.14065433 -0.14144666 -0.14738436
000140 c3 dc 0c be ed 4d 12 3d c3 eb bb bd 44 a3 09 3d
       -0.13756089 0.035718847 -0.09175827 0.033602968
000150 ed 73 88 bd 52 1f 2a be 9f b3 80 bd 62 5b 18 3e
       -0.06662736 -0.1661351 -0.0628426 0.1487861
000160 97 43 95 bc fc f5 1c be f4 5c 17 bd bf c4 d5 3c
       -0.018220706 -0.1532821 -0.03695388 0.026094792
000170 1a 85 33 be 8c 39 24 be 0d 6d 7b bc 9b 0b fa bc
       -0.17531243 -0.16037577 -0.015345824 -0.030523112
000180 f5 69 aa bd 92 e1 d9 bd d5 55 c9 bd 0a 48 c0 3d
       -0.08320991 -0.10638727 -0.09830824 0.0938874
000190 11 c5 15 be 30 cb f8 3d 18 2d 18 be 2c a6 f6 bd
       -0.14625956 0.1214813 -0.14860952 -0.120434135
0001a0 68 ea 88 3d 8b c7 72 3d fe d7 4a be e3 1d 06 3d
       0.066853344 0.05927233 -0.19808957 0.032743346
0001b0 e6 d4 88 bd 66 df 6f 3d f4 97 50 3d 35 6b 63 bd
       -0.06681232 0.05856266 0.050926164 -0.055522162
0001c0 b0 58 b0 bd 46 4c 25 be 09 94 04 be 7f d9 16 be
       -0.08610666 -0.16142377 -0.12947096 -0.14731406
0001d0 88 a0 a1 bc 22 54 15 be 6d da 28 3e bb 80 13 be
       -0.019729868 -0.14582875 0.16489573 -0.14404576
0001e0 dc d2 c7 3d da 41 cd 3d e8 a2 25 3e 06 53 95 bc
       0.09757015 0.10022326 0.16175425 -0.018228065
0001f0 c5 c6 26 be 1e ed bb 3d db e1 aa 3d d3 a9 d9 bd
       -0.16286762 0.09176086 0.0834386 -0.106280945
000200 11 5e da 3d e2 b9 60 bb 2a 02 ad 3d e5 c2 e9 bd
       0.10662473 -0.0034290482 0.084476784 -0.11414126
000210 9c 69 80 bc d4 e9 2c 3e e3 b4 29 3e 18 41 d3 bd
       -0.015675358 0.16886073 0.16572909 -0.1031515
000220 96 dd 84 3b 89 d2 7a 3d 7f 35 39 be 40 bc c2 3d
       0.0040547354 0.06123594 -0.18086813 0.09508562
000230 67 ef 98 bc 42 9c 82 bd af 9a e3 3b f7 bf fb 3d
       -0.018668843 -0.0637746 0.00694593 0.12292474
000240 3d 90 07 3d 19 43 d9 3d 4f 70 a7 bd 07 bb 0c 3d
       0.03309654 0.10608501 -0.08175718 0.03435805
000250 e3 68 23 bd 98 3c 70 3d 69 30 27 3e 5a 02 08 3e
       -0.03989495 0.058651537 0.16327061 0.13282147
000260 2d b6 dc bd a5 bd e2 3d 71 8b 2f be 0a f0 ee ba
       -0.10776935 0.11071328 -0.17143036 -0.0018229496
000270 09 80 f6 bc ce 10 83 bd 43 10 cd ba de 02 59 bd
       -0.030090349 -0.063996896 -0.0015645105 -0.05298125
000280 c3 1d 84 3d 63 af 87 bd 25 79 db bd 01 9e 4e b9
       0.06450989 -0.06625249 -0.10716466 -0.00019704552
000290 69 e0 1c 3e 41 16 c0 bd fd 7f 01 be 16 94 4f bd
       0.1531998 -0.093792446 -0.1264648 -0.050678335
0002a0 1a a1 1b be 05 9e f1 bd 74 93 97 3a 90 e0 b8 3d
       -0.15198174 -0.11797718 0.001156433 0.09027207
0002b0 b9 1c f5 bd 73 b5 e2 3d 70 02 18 be 54 3e 61 bc
       -0.11968369 0.11069765 -0.1484468 -0.01374777
0002c0 04 ce aa 3a 6b 4c 3f be d0 b8 d7 bc 6e 07 c3 3d
       0.0013031368 -0.18681495 -0.026333243 0.095229015
0002d0 2b 39 1c be a2 40 0f be c7 7e ab 3c 08 8b 80 bc
       -0.15256183 -0.13989499 0.020934476 -0.015691295
0002e0 99 d0 05 be b4 29 48 3e b5 80 8f 3d 94 0c e0 b3
       -0.13067855 0.19547158 0.07006971 -1.0433101e-07
0002f0 be 7d 3e be 49 dc 14 be 03 c1 38 be b6 39 0f be
       -0.18602654 -0.14537157 -0.18042378 -0.13986859
000300 88 93 64 3d 38 f2 0b bd 54 38 63 3d 8b 74 96 3d
       0.05580476 -0.034166545 0.05547364 0.073464476
000310 42 af 12 3d 52 67 a0 3d be 27 ad 3d 69 e9 b2 3d
       0.03581167 0.07832207 0.08454846 0.08735926
000320 e1 8d 9a 3d 89 36 48 3d bd 5a 0d bd 5d 14 6f 3c
       0.075465925 0.048880134 -0.034510363 0.014592257
000330 29 34 dd 3d ad 05 f2 3d 39 de 00 3e d8 f4 59 3d
       0.108009644 0.11817489 0.12584771 0.053212017
000340 4a 23 1a 3d 83 cd 99 3d b7 ba b7 3d 46 a3 df 3d
       0.03763131 0.075099014 0.0897116 0.10919814
000350 63 26 ae 3d 41 5f c0 3c b5 f6 63 bc 4b ce 4e 32
       0.085034154 0.02348292 -0.0139138 1.2037684e-08
000360 5f 83 9b 3d 4a 92 42 3d c4 1e 45 3b 38 74 b3 3d
       0.075934164 0.047502793 0.0030078152 0.08762401
000370 ea 86 8b 3d d6 e8 bc 3d 5b 40 b8 3c 59 f6 ad 3d
       0.06812842 0.092240974 0.022491625 0.08494253
000380 f1 55 11 3e f7 99 7f 3c 4a 72 0c ad 6a e2 54 bd
       0.1419294 0.015600673 -7.983456e-12 -0.051973738
000390 f9 a2 bd 3d 06 82 09 3e 7a a3 08 3e 40 b2 10 3e
       0.092596 0.13428506 0.13343611 0.14130497
0003a0 92 8e 6c 3d 5b 12 9e 3d f1 00 41 3e 1d fb 39 3c
       0.057753153 0.07718345 0.18848015 0.011351374
0003b0 6a 24 1a 3e 47 7f 86 3d 2f 45 50 3d 08 e3 d6 3d
       0.15052953 0.06567245 0.05084723 0.104925215
0003c0 0f 19 b3 3d 00 ca b9 3d b9 8a e3 3d a1 42 19 3e
       0.08745014 0.090717316 0.111104436 0.14966823
0003d0 7d c4 06 3d 61 58 12 3e ac 16 c5 39 ed 8e 9c bd
       0.03290223 0.14291526 0.0003759166 -0.076444484
0003e0 6f 08 1c 3d 5d f7 d6 bc a7 24 5d b8 45 ea ce 26
       0.03809398 -0.026240999 -5.272464e-05 1.435762e-15
0003f0 ec ae 7a bc 3b 46 2f 3e 7c ae 1b bb ca 4b 13 b7
       -0.015300494 0.17116635 -0.0023755124 -8.779529e-06

tcn.network.0.downsample.weight f4 [32, 32, 1]
000000 e5 ec 31 be 12 3c 59 bd 53 3b 66 3e 18 0e 5d 3d
       -0.17375524 -0.053035803 0.22483568 0.05396852
000010 29 14 35 bc 75 c8 66 3d 20 56 51 3e 2a 60 f8 bd
       -0.01105217 0.056343514 0.2044301 -0.12127717
000020 c0 dc 5b 3d fb 34 0a 3e 6a 75 c0 b9 11 22 2e be
       0.05367732 0.13496773 -0.00036708574 -0.17005183
000030 14 62 4f 3e 47 53 5f be cb d2 5e bd 41 f2 f2 3c
       0.20252258 -0.21809112 -0.054400247 0.029656531
000040 6a df f3 3c 01 d7 6f 3d 36 69 3b be 2d 6a 0d be
       0.029769618 0.058554653 -0.18301854 -0.13810034
000050 b2 cf ff bc 22 27 bd 3d 1e 9c 76 bd 77 e9 3d be
       -0.031226967 0.092359796 -0.06020748 -0.18546091
000060 08 07 ba bc 0b 5f f8 3d 12 b8 82 bd 3b c1 50 3d
       -0.02270843 0.12127503 -0.06382765 0.05096553
000070 2d 71 e7 3b 97 11 9c bd fd 03 0c 3e 18 75 12 3e
       0.007063052 -0.076205425 0.13673396 0.1430248
000080 e7 d2 78 3d 39 ca 53 3e 4f 91 b5 bc 5b 9a 1b 3e
       0.060748007 0.2068261 -0.022164015 0.151956
000090 80 34 1c 3d 7e 67 84 3d 77 cc 4d 3e 6c 4c 06 be
       0.038136005 0.06465052 0.20097528 -0.1311509
0000a0 bb 9b 62 3e f9 7b 10 3e 4c bb 21 3c af 5e 94 be
       0.22129719 0.14109792 0.009871315 -0.28978488
0000b0 22 c0 97 bd ce f5 52 be 26 db 0a be 40 c3 e3 bd
       -0.07409693 -0.2060158 -0.13560161 -0.11121225
0000c0 63 35 28 3e 13 1d f3 3c ce 74 28 3e 89 b8 e7 3d
       0.16426615 0.02967695 0.16450807 0.11314494
0000d0 ac 6d ec 3d e5 d1 57 3c da c7 92 bd 1c ee 36 3e
       0.11544356 0.013172601 -0.07167025 0.17864269
0000e0 e4 b1 40 3d 30 54 00 3e 31 56 47 3e 8d d4 58 3e
       0.04704465 0.12532115 0.19466473 0.21174832
0000f0 54 21 be 3d d8 ec 9e bd fe 1f 87 be 97 de 86 be
       0.092837006 -0.07760018 -0.26391596 -0.26341698
000100 1e 60 34 be 64 97 67 3d ba ea 16 be b0 ff 1c 3e
       -0.17614791 0.05654086 -0.14737979 0.15331912
000110 ca 43 2d 3e cf 64 03 bd 5f 3c 21 bd ac fe 49 3d
       0.1692039 -0.03207856 -0.039364215 0.04931514
000120 4d 43 9d bd 97 ee 8d 3e fc 55 74 3d a0 1f 08 be
       -0.07678852 0.27721092 0.059652314 -0.13293314
000130 e4 f3 99 bd e6 87 00 be ab ef 0a 3d 43 9c 27 be
       -0.075172216 -0.12551841 0.03391997 -0.16368203
000140 ea 8f 9d 3e b7 19 fb 3d 32 0b 42 3e f2 81 32 3d
       0.3077386 0.12260764 0.18949583 0.043580957
000150 92 ec 7e 3e 6f ce a4 3c ea f7 ea 3d 6e 37 b5 bd
       0.24894932 0.020117966 0.11473067 -0.08848463
000160 3b f3 18 3d bc 26 ab 3d 56 99 bb 3d 30 3e 43 3e
       0.037341338 0.08356997 0.09160106 0.19066691
000170 ec 7c d3 bc 00 49 6e bd f6 b7 07 bd c6 df 8e bd
       -0.025816403 -0.058175087 -0.033134423 -0.06976275
000180 ad c5 63 3e d7 60 c0 bd 56 df 44 be 4f fb 0b be
       0.22243376 -0.09393471 -0.19225821 -0.13670085
000190 5d 5a c3 bd 18 5c 91 3d 66 c4 72 be 4d eb 18 be
       -0.0953872 0.070976436 -0.23707733 -0.1493351
0001a0 53 87 3c 3e 5b d6 45 be f3 1e c9 3c e8 70 ea 3d
       0.18410997 -0.19320051 0.02455089 0.114473164
0001b0 32 1c 14 bc b1 da 2b 3e 64 c1 b0 3c c0 0e d8 bd
       -0.009039925 0.16782643 0.02157659 -0.10549688
0001c0 ee 0b 55 be 2c d9 25 be 83 f2 d1 bd 5c ea f2 3d
       -0.20805332 -0.16196126 -0.102513336 0.11861107
0001d0 d2 14 e1 3d 7e 40 0b be 8f 5b dd bd d8 38 06 3e
       0.10990299 -0.1359882 -0.10808479 0.13107622
0001e0 b1 ce 4c 3e 5c 7a 3e be eb 67 ca 3a b7 fc 27 bd
       0.20000722 -0.18601364 0.0015442347 -0.041012492
0001f0 6f 68 02 3d 5c 4c 95 bd 0d 5f a4 3d 1e d2 86 3d
       0.031837877 -0.07289955 0.08025942 0.065830454
000200 11 47 54 3c f4 c2 3a 3e 01 4d 29 bd aa d1 53 3e
       0.012956397 0.18238431 -0.041333202 0.20685449
000210 cd 06 14 be 17 04 9a ba 09 d4 76 3d 18 76 cc 3d
       -0.1445572 -0.0011750486 0.060260806 0.09983462
000220 18 b1 73 3e 3d b5 75 3c dd 70 96 3e 06 f8 92 be
       0.23798025 0.014996824 0.29382983 -0.28704852
000230 72 b6 a5 bb 07 1a 60 be 37 80 d2 bd a4 58 1d bd
       -0.0050571496 -0.21884929 -0.10278361 -0.038414612
000240 9d 7b 09 3e e7 06 98 3d 63 28 ee 3d 19 7a b4 3d
       0.13426061 0.074231915 0.11628797 0.08812351
000250 14 ff 14 3e 41 36 25 3d 8e 6d 22 be 77 6b 41 3e
       0.1455043 0.040334944 -0.15862104 0.18888651
000260 c4 dc 3a be 33 ea 60 3e 48 e7 30 3d 3c 3b 26 3e
       -0.18248278 0.2196434 0.043189317 0.16233534
000270 8c a4 df bb 98 45 57 be 01 f4 25 be ac f0 3c be
       -0.0068250354 -0.21022642 -0.16206361 -0.18451184
000280 5d fd d3 bd d0 aa 17 3d 31 05 b1 3d 64 59 3f be
       -0.103510596 0.037028134 0.08643568 -0.18686444
000290 61 85 a6 bd f2 2d 6a bc fc 1c ec 3d 1a 6d 05 3b
       -0.08130909 -0.014293181 0.11528966 0.002035922
0002a0 0b 43 98 bc 21 76 46 be e7 f8 f8 bc db c0 94 3e
       -0.018586656 -0.19381 -0.030392123 0.29053387
0002b0 f8 49 47 bd 2e 6c 3c 3e 0f 37 bc bd fe a7 1c 3e
       -0.048654526 0.18400642 -0.09190189 0.15298459
0002c0 4d 25 d1 bd 02 8c b0 bc 5b 83 49 be 2b 59 be 3d
       -0.10212193 -0.021551136 -0.19679014 0.09294351
0002d0 a0 fc 7c be 2c 15 6c be 1f 2b 27 3d db 20 3f be
       -0.24705744 -0.23054951 0.040812608 -0.18664877
0002e0 c9 5f 02 3e cf cf 9d be 86 de 8b bd 89 5e 6b be
       0.12731852 -0.30822608 -0.06829552 -0.22985281
0002f0 62 56 9c bd 9e 39 a5 bd 49 63 31 3e 45 11 59 3e
       -0.07633664 -0.0806763 0.1732303 0.21197994
000300 ff 67 52 bd 45 72 a9 3c be 5c 71 be 2e 84 11 bd
       -0.05136871 0.02068437 -0.23570535 -0.035526447
000310 9b cc d1 3c 78 54 22 be 93 a2 22 3c ee fe 63 be
       0.025610259 -0.15852535 0.009926456 -0.22265217
000320 1d f5 20 bc 08 14 0b 3e bf 63 1c bc 0f 1a cd 3c
       -0.009824065 0.1358186 -0.009545266 0.02503684
000330 42 4c 44 3c 72 96 48 3d 6e 59 8b 3d d6 d8 3c be
       0.011981072 0.0489716 0.06804167 -0.18442091
000340 52 fa 65 bc c2 42 2a be 09 ab 7c 3e cb d9 ad bc
       -0.014036732 -0.16627029 0.2467462 -0.021222016
000350 fc ed 04 3e bb 9e 9c 3b 09 46 84 bc 21 c6 c8 3d
       0.12981409 0.0047796643 -0.016146677 0.09803415
000360 9b a5 a6 bd 66 c6 27 3d f3 8c 03 3e 7c 5c 06 be
       -0.081370555 0.040960692 0.12846737 -0.13121217
000370 b3 6f 50 be 49 c8 90 bb 46 6f 90 bb 63 01 ec 3c
       -0.2035511 -0.004418407 -0.004407796 0.028809255
000380 1f 2d 7f bd 2a 0f b3 bd 8b 85 42 bd 53 4d 36 bd
       -0.06229889 -0.08743127 -0.047490638 -0.044507336
000390 bc bb f4 3d d8 a7 36 3e c6 3c 3b be 33 4b 10 bd
       0.1194987 0.17837465 -0.18284902 -0.035227966
0003a0 48 84 1b bd 07 9a 72 be e6 18 78 be fd 23 83 3c
       -0.03796795 -0.2369157 -0.24228248 0.016008371
0003b0 85 6f 0e be fe d9 85 3d ec c8 dc 3b 97 b5 30 3e
       -0.13909729 0.06535719 0.006737819 0.17256771
0003c0 a2 8a 64 be 01 e6 59 be 4b 46 31 be 3b 25 2d be
       -0.22318509 -0.21279146 -0.17311971 -0.16908734
0003d0 c3 ec 38 be be e4 c5 bd 24 87 d6 bd bc d2 27 be
       -0.18059067 -0.0966277 -0.10474995 -0.16388983
0003e0 d3 7c f2 3d 13 62 a0 be 08 51 bf bb 6d 42 27 be
       0.118402146 -0.31324825 -0.005838517 -0.16333933
0003f0 2b c6 4e bd 47 70 0d 3e b9 14 87 3e 19 eb 26 3e
       -0.050481956 0.13812362 0.26382998 0.1630062

tcn.network.0.downsample.bias f4 [32]
000000 69 0e 39 3d 34 fb e7 bd 6a 00 2f 3e b0 74 0b bd
       0.04517976 -0.1132721 0.17090002 -0.03404683
000010 f9 89 3a 3e c9 a6 39 be 3e df e0 bd 72 e4 bc 3d
       0.18216695 -0.1813003 -0.1098008 0.0922326
000020 51 37 e7 bc d1 70 a2 3d 3e b4 29 be 9f fe 4c be
       -0.02822462 0.07931674 -0.16572663 -0.20019005
000030 db 44 e5 bd 65 25 2a 3e 07 c2 0f be 33 7c 33 3d
       -0.11194774 0.16615827 -0.1403886 0.043819617
000040 33 1e 67 3d 34 b7 e6 3d 40 af 6e 3e 22 86 5c bd
       0.056425285 0.11265412 0.2330904 -0.053838857
000050 b2 b6 fa 3d 81 e7 e7 bd 7a e1 2a be dd e7 56 3e
       0.122418776 -0.11323453 -0.16687575 0.20986886
000060 0c a3 52 3c 5a e3 7e bc ef af 67 bd 1a ea 14 be
       0.012856256 -0.0155571345 -0.056564268 -0.14542428
000070 bd 24 36 3e e3 5c b3 bd 3f 00 68 3d 61 ba 3d 3e
       0.17787452 -0.08757951 0.05664086 0.18528129

tcn.network.1.conv1.bias f4 [32]
000000 71 3d 05 bd 3f 73 10 3c b4 6c 26 3d 87 71 7c bd
       -0.0325293 0.008816539 0.04063101 -0.061631706
000010 18 f3 a4 3d c7 99 f7 3c 8c f0 07 be 3d ad 10 be
       0.08054179 0.030224694 -0.13275355 -0.14128585
000020 22 d6 16 bd 5e d5 8d 3d 26 ce 20 bd 42 f0 aa bd
       -0.036825307 0.06925462 -0.0392591 -0.08346607
000030 b7 89 81 bc bb ef 8f 3c 08 69 4e 3d 15 e5 a5 bd
       -0.015812738 0.017570367 0.050393134 -0.081003346
000040 a9 fa c6 3d 59 01 10 bd 25 84 10 3d a7 31 05 3d
       0.097157784 -0.035157535 0.035282273 0.032518055
000050 3b 71 4f 3d 80 9c e5 3a 42 67 16 be 18 ec 0e be
       0.050645094 0.0017517954 -0.14687827 -0.1395725
000060 3c 6d 0e be 54 1b 4b bd 26 02 21 bd 20 1b d1 bd
       -0.13908857 -0.04958661 -0.03930869 -0.10210252
000070 28 6a d1 bc 4e 98 65 3d 0d 00 8e bd 11 7a 88 bd
       -0.025563315 0.056053452 -0.069336034 -0.06663907

tcn.network.1.conv1.weight_g f4 [32, 1, 1]
000000 76 ad 0e 3f cd b4 0a 3f 03 c3 1f 3f 75 79 05 3f
       0.5573343 0.5418213 0.6240694 0.52138454
000010 aa f8 0c 3f 60 46 16 3f 38 65 29 3f a6 11 33 3f
       0.5506693 0.58701134 0.6617007 0.69948804
000020 4c 5d 20 3f 98 2e 14 3f f2 02 1a 3f 4c 25 25 3f
       0.6264236 0.57883596 0.60160744 0.64510036
000030 dc c7 22 3f 1f 5d 1a 3f f0 02 07 3f 65 6c 4d 3f
       0.6358621 0.6029834 0.5273886 0.8024352
000040 b5 b1 0e 3f 1d 02 1e 3f 27 bb 4c 3f 20 d3 1f 3f
       0.5573991 0.61721975 0.7997307 0.62431526
000050 db 20 02 3f f8 95 2f 3f 3c 17 fd 3e 11 05 00 3f
       0.50831383 0.6858821 0.4943179 0.5000773
000060 b9 64 fc 3e 61 6a 18 3f 52 37 21 3f 23 27 18 3f
       0.49295595 0.5953732 0.6297504 0.5943472
000070 74 6a 35 3f ad 83 16 3f 9b f6 2c 3f bd d6 16 3f
       0.7086556 0.5879467 0.6756379 0.58921415
