models/prototyping6/tcn_fold_4/best.pth (torch, 224151 bytes, 130 tensors)

tcn.d_reduce.weight f4 [32, 1, 1]
000000 0a 95 15 be c8 7b e3 be a4 58 78 3d bc 49 87 3f
       -0.14607635 -0.44430375 0.06063141 1.0569377
000010 b4 43 33 3c 82 8d 56 3e 4a ce 06 3f c4 cd 91 bf
       0.010941435 0.20952418 0.5265852 -1.139092
000020 34 1c 3a bf 05 1d 58 be 20 d4 18 bf 1d c2 01 3f
       -0.72699285 -0.2110482 -0.5969868 0.5068682
000030 33 a7 47 bd 2e c9 92 3f 54 f3 4c 3f e1 30 89 bf
       -0.048743438 1.1467645 0.8005879 -1.0718042
000040 18 e4 81 be a4 98 23 3f 21 ec 03 3e 1b 1b 9d 3e
       -0.25369334 0.63904786 0.12883045 0.30684742
000050 55 8c 7c bf 32 2d 94 be 1f 79 84 3e a9 92 2c 3f
       -0.9865163 -0.2894073 0.25873658 0.67411286
000060 56 d5 e1 3e 70 48 a9 be 72 01 4d bf 59 c0 11 3e
       0.44108075 -0.33063078 -0.8008033 0.14233531
000070 a6 e0 29 bf c0 41 e6 be b0 79 f4 3d 9d ae ec bd
       -0.6635841 -0.44972038 0.119372725 -0.11556742

tcn.d_reduce.bias f4 [32]
000000 5c c1 67 3e 21 61 3e bf d2 78 f4 be a8 b1 89 be
       0.22632354 -0.74366957 -0.4774843 -0.26893353
000010 a6 a1 47 bf ef bd c3 be fb 11 2a bf 0f fa fd 3d
       -0.7798103 -0.38230845 -0.66433686 0.124012105
000020 39 f9 39 3f 64 df 5b bf 26 1e 56 bf 1b 15 f4 bd
       0.7264591 -0.8588774 -0.8363975 -0.11918088
000030 7f 87 3b bf bd e7 f9 3e 3e 95 47 3f 05 26 37 3f
       -0.73253626 0.48809615 0.779621 0.7154239
000040 9b 0d 59 be 17 82 4d be 39 59 25 3f c4 bc aa 3d
       -0.21196596 -0.20069157 0.6458927 0.083367854
000050 65 18 6e 3f 91 ff 7d 3e 7a 0f f5 3e a5 78 23 bf
       0.93005973 0.24804522 0.4786337 -0.63855964
000060 97 5b ca be d2 5b 2d bf af 00 18 bf b1 85 b1 3e
       -0.39523003 -0.6771823 -0.59376043 0.3467231
000070 8c b7 86 3e 35 d6 b5 3d 22 f3 37 3f ee 1b 44 bf
       0.2631191 0.088787474 0.71855366 -0.7660512

tcn.network.0.conv1.bias f4 [32]
000000 20 85 a4 bc f7 2b e3 3d 7c 00 1a be d6 1e ae bc
       -0.02008301 0.1109237 -0.15039247 -0.021254938
000010 d8 32 9a 3d 69 f4 98 3d 9a fa bb bd 60 79 3b 3d
       0.07529229 0.074684925 -0.09178658 0.04577005
000020 3e fe df 3d 19 7a 37 3d b0 ea ee 3c c2 95 ea bd
       0.10937165 0.044794176 0.029164642 -0.11454345
000030 cf 8b ab 3d a6 82 3b bd 88 86 80 bc d3 e4 d3 bd
       0.08376276 -0.045778893 -0.01568915 -0.10346379
000040 2e 1d 5d bd 73 4c 66 3c 20 59 38 3d ca 84 a9 bd
       -0.053982906 0.014056313 0.04500687 -0.08277281
000050 c8 78 8d bd c6 78 f3 3d dc 89 04 bc 7f 22 9a 3d
       -0.06907803 0.1188827 -0.008089509 0.07526111
000060 00 cf 23 be 96 67 ee 3c b7 8d 2e be a7 19 b9 3d
       -0.15996933 0.029102128 -0.17046247 0.09038096
000070 d9 04 03 3e 71 e4 0e bd ba 65 97 3d 22 2a 1e be
       0.12794818 -0.034885827 0.0739245 -0.1544576

tcn.network.0.conv1.weight_g f4 [32, 1, 1]
000000 5d dd 0c 3f c4 bd 04 3f 0d ac 06 3f 9f a4 21 3f
       0.55025274 0.5185206 0.5260628 0.63141817
000010 e0 c2 15 3f cc 04 17 3f 5b 7f 0e 3f cc 2b 14 3f
       0.5850048 0.58991694 0.5566308 0.5787933
000020 96 4d e6 3e cb b7 05 3f 44 3e 18 3f 17 d5 10 3f
       0.44981068 0.5223357 0.5947001 0.5657515
000030 3d e6 0b 3f 05 38 02 3f 9f 22 13 3f f0 5c f9 3e
       0.5464819 0.5086673 0.574747 0.48703718
000040 6f ed 0c 3f 4b f3 13 3f 32 0c f1 3e ef 5f 07 3f
       0.55049795 0.5779311 0.47079617 0.5288076
000050 b5 91 12 3f 7e 7f 27 3f c2 5c 12 3f 83 7a 04 3f
       0.5725358 0.6542891 0.5717279 0.5174944
000060 64 f9 19 3f a9 2a fd 3e 3d 2e 00 3f aa c6 17 3f
       0.60146165 0.4944661 0.50070554 0.5928751
000070 9c d9 b9 3e b5 10 29 3f 56 38 03 3f 33 84 03 3f
       0.36298835 0.6604112 0.51257837 0.51373595

tcn.network.0.conv1.weight_v f4 [32, 32, 2]
000000 35 6a 64 bd 0f e8 03 be f3 6d 69 3d 22 21 df 3d
       -0.05576535 -0.12881492 0.05698962 0.108949915
000010 7e d2 8f bd 14 0c 66 bd 94 e2 1c bc f1 7b ca 3d
       -0.0702257 -0.056163862 -0.009575505 0.09886921
000020 6d 06 ab bd f7 f2 6b bd b8 7d 60 bd fa 29 c3 3c
       -0.08350835 -0.057604756 -0.054807395 0.023823727
000030 72 55 90 3c a9 a5 90 bd b1 57 e2 bd 9c ae a1 bd
       0.017618868 -0.07062847 -0.11051882 -0.07894632
000040 16 5c 76 bd 2a 20 6d 3d 79 a1 b4 3d 94 2f b1 3d
       -0.060146414 0.057892002 0.08819861 0.08651653
000050 f1 40 6f 3d fe 4d e1 bd b6 0d 73 bd d5 66 25 3d
       0.058411542 -0.11001204 -0.059339248 0.04038127
000060 40 13 e6 3d ef 2f 59 3d 6d 00 80 3e c2 46 c1 3d
       0.112341404 0.05302423 0.25000325 0.09437324
000070 b1 dd d5 3d 65 f0 70 3d 78 70 0f be 91 65 7f 3d
       0.10442675 0.058823008 -0.14007747 0.06235272
000080 07 7a e8 3c e4 dd ff 3d bf e3 91 3d 6a 6f 6a 3d
       0.0283785 0.12493494 0.07123517 0.05723516
000090 87 7a 4f 3d 6c 96 f3 3d c8 0f 25 3e c4 62 0e be
       0.05065396 0.11893925 0.16119301 -0.13904864
0000a0 bb f1 94 bc 0f 9e 7c 3d da e6 60 bd 51 ce 9b 3d
       -0.018181672 0.061674174 -0.054907657 0.07607711
0000b0 9e 84 c7 bd 27 ae 9f bd 0f f9 98 3c c3 28 ca bd
       -0.097420916 -0.07796889 0.018673448 -0.09871056
0000c0 7f 01 ac 3d 5c 33 95 bd d6 07 52 bd 41 22 f2 bc
       0.08398723 -0.07285187 -0.051277004 -0.02955735
0000d0 a8 9f 0a be 89 8b 16 3e 1e 6d fc 3c ab 1f 08 3d
       -0.13537467 0.14701666 0.03081375 0.033233326
0000e0 47 e6 2a 3b 7a 6b 58 bd 8c 10 18 bc 5c a9 06 3b
       0.0026077197 -0.052836873 -0.009281289 0.0020547723
0000f0 04 de c7 3d 97 2a 90 bd a2 f9 c5 3d 17 66 3e bd
       0.09759143 -0.07039373 0.09666754 -0.04648408
000100 07 d9 ed 3d f7 68 6e bd 77 06 53 bd ed 77 bb 3d
       0.1161366 -0.05820557 -0.051519837 0.091537334
000110 e3 28 d4 3d 5f da 1a be 53 20 05 bd 0c 1c eb 3d
       0.10359361 -0.15122364 -0.03250153 0.11479959
000120 b2 6a 91 ba 16 29 1a be e3 8b 96 3d ef f7 e7 bd
       -0.001109442 -0.15054736 0.073509 -0.113265865
000130 39 c3 a8 bd 97 57 04 3d eb 33 34 be 90 b6 62 3d
       -0.08240361 0.032310095 -0.1759793 0.055349886
000140 d8 58 30 3d cc 36 58 3d 6b d6 9c bc 77 8b 5c bd
       0.043053478 0.052786633 -0.019145211 -0.05384394
000150 56 74 29 be 1c 31 7a 3d 36 e5 97 3c f3 a9 d3 bc
       -0.16548285 0.06108199 0.018541913 -0.025837874
000160 96 3a d4 3d 50 38 9e bd 98 b6 33 3e d5 60 e1 3d
       0.10362737 -0.077255845 0.17550123 0.11004797
000170 d6 44 59 3e 39 11 8f bd 0e c2 ce bd 16 3a b2 3d
       0.21217665 -0.06985707 -0.10095607 0.08702485
000180 0f 45 17 3c f7 1e 8e be 35 a7 05 3d 3a 9b 54 bd
       0.009232773 -0.27758 0.032630164 -0.051905848
000190 80 c9 bc 3d dc 21 e0 3b ee 4a 37 3e a4 39 ed 3d
       0.092181206 0.006839974 0.17899677 0.1158326
0001a0 fd ec cb bd 04 0f 92 3c ba cc 71 bc b4 74 2a 3d
       -0.09957311 0.017829426 -0.014758283 0.041615203
0001b0 dc c5 15 bd 34 50 03 3d 29 af 32 3d 96 6f 5c 3d
       -0.036565647 0.03205891 0.043624077 0.053817354
0001c0 a6 14 ef 3d fc 05 63 bc 51 0c d4 3d 6c 28 b1 3d
       0.1167386 -0.013856407 0.10353912 0.08650288
0001d0 08 83 61 be ec 1f 3f bd 24 37 16 bd b1 93 06 be
       -0.2202264 -0.046661302 -0.03667368 -0.13142277
0001e0 0b e2 35 3c 55 fd e0 bb 68 02 2d be f8 07 b0 3d
       0.011101256 -0.006866137 -0.16895449 0.0859527
0001f0 86 68 2f bd 00 14 24 3e 1f 37 10 be 2b 3b d6 bd
       -0.04282429 0.16023254 -0.14083527 -0.10460504
000200 ab 3f a0 bc f2 29 b4 3d 37 8e fb 3d 44 63 e5 3d
       -0.01956161 0.08797063 0.12282985 0.11200574
000210 b2 d8 b5 3b a0 82 86 3d 16 62 b5 3d 04 fd 0c 3b
       0.0055495137 0.065678835 0.08856599 0.0021513114
000220 f6 d2 b6 3d 67 8f d0 3c d9 64 dc 3d c8 59 f7 3d
       0.08926956 0.025459005 0.10761423 0.12077671
000230 a7 f1 4d 3d 19 67 b6 3d 94 d6 c6 bc 51 f6 00 bd
       0.050279286 0.08906383 -0.02427224 -0.031484906
000240 18 56 b8 3d 94 8e b3 3c 73 f8 32 bc 3f 62 0e 3e
       0.09000796 0.021918572 -0.010923493 0.13904665
000250 09 84 0c 3e ba 5f 27 3d bd b1 a8 3d 90 04 3a be
       0.13722242 0.040862776 0.08237026 -0.18165803
000260 60 8d f1 3d 01 3e 77 bd d9 5a 58 be f5 36 3f be
       0.11794543 -0.060361866 -0.21128406 -0.18673308
000270 0e 06 a9 3c 4f 30 eb bd d5 05 86 3d c9 24 25 3d
       0.02063277 -0.114838235 0.06544081 0.040318284
000280 0d 46 47 3d d3 9f 2e 3d f7 5f fd bd 27 80 13 bd
       0.04865079 0.04263289 -0.123718195 -0.036010887
000290 77 bc 79 bd 5f 20 00 be 82 0a 67 be c8 08 4f be
       -0.06097075 -0.12512349 -0.22562602 -0.20218194
0002a0 29 c0 97 3d c1 07 c3 3d 54 79 c6 3d 73 42 18 be
       0.074096985 0.09522963 0.0969111 -0.14869098
0002b0 6b b9 b9 bd 63 90 26 be e4 32 81 bc 8a 10 a1 bd
       -0.09068569 -0.16266017 -0.015771337 -0.07864483
0002c0 3d 25 07 3e c2 d6 d5 3c 84 35 ad bc 2b f5 63 bc
       0.13197799 0.026103381 -0.021143682 -0.013913433
0002d0 26 3c ee bc 21 cc 46 3a 99 71 d6 3c 93 0f de bd
       -0.029081415 0.0007583518 0.026177214 -0.10842814
0002e0 d1 d6 f2 3d 2f 39 b4 3d 91 d1 a4 ba 60 ff 65 bd
       0.11857379 0.087999694 -0.0012574663 -0.056151748
0002f0 60 09 f9 bd 35 b5 82 bc 4b eb 92 bd dc 64 a3 3c
       -0.12159991 -0.015955547 -0.07173785 0.019945554
000300 37 78 db 3d d5 fd b1 3d 3b 0e f3 bd bb d0 2c 3d
       0.107162885 0.08690993 -0.118679486 0.04219125
000310 d1 3d 10 be 7f 72 16 bd c5 64 92 3d c5 82 fa 3d
       -0.14086081 -0.036730286 0.071481265 0.122319736
000320 24 4a 14 be 8c 23 e6 3d 21 7a f5 3d 43 2d e7 bd
       -0.14481407 0.11237249 0.11986185 -0.1128793
000330 86 a0 f1 bd 37 03 3e bd 21 e7 4c 3d 39 59 ea bd
       -0.117981955 -0.046389785 0.05002511 -0.11442799
000340 00 57 db bd ca e4 e3 3d 99 51 14 bd 90 d5 9c 3d
       -0.10709953 0.111276224 -0.03621063 0.07657921
000350 5e f9 23 3c f2 d9 d4 3d 88 74 86 3e c5 4d 32 3e
       0.010008184 0.10393132 0.2626078 0.17412479
000360 02 8d ee 3c 72 c1 d5 3d 7e 64 cf bb c3 55 a0 3c
       0.029119972 0.104372874 -0.0063291183 0.019572144
000370 09 e8 1b 3e ba e4 ae bd 6e 02 20 be 64 76 86 3d
       0.15225233 -0.0853972 -0.15625927 0.0656555
000380 8c 5e f3 bb 71 c3 75 3d fc e7 99 bd 53 ca 1f 3e
       -0.0074270424 0.06000084 -0.07514951 0.15604524
000390 77 4c 25 3d 3f 93 8e bd 19 4e d3 3d a3 28 c8 bd
       0.040356126 -0.06961679 0.1031763 -0.09773376
0003a0 cc 1a 43 3d f9 7c ab bd 76 12 a4 bd 76 48 ca bd
       0.047632977 -0.08373446 -0.08011334 -0.09877102
0003b0 b1 44 6b bd df 37 9b 3d 38 3a d0 bd 6a 56 4f bd
       -0.057438556 0.07579016 -0.10167354 -0.05061952
0003c0 d2 af 54 bd b9 44 1c 3e 76 4d 95 bd 11 83 6e bd
       -0.051925488 0.1526059 -0.07290165 -0.058230463
0003d0 7d 89 fb bd 26 33 76 3c f5 dc fd bd 60 09 ba 3d
       -0.12282083 0.015026843 -0.1239566 0.090838194
0003e0 78 43 26 be d1 29 0d be 25 3d 6f bd 97 46 95 bc
       -0.16236675 -0.13785483 -0.05840792 -0.018222136
0003f0 3d fc a6 3d 0f 5d be bd 3f 88 78 3d b8 32 a7 bd
       0.081535794 -0.09295093 0.06067681 -0.08163971

tcn.network.0.conv2.bias f4 [32]
000000 97 eb 52 3d 20 48 6d bd 6e 98 c7 3d f2 8e 6c 3d
       0.051494207 -0.057930112 0.097458705 0.05775351
000010 0d 49 3c be 6b bc 7a bd 5a e9 81 bc 95 a8 24 3d
       -0.18387242 -0.061214846 -0.015858341 0.040199835
000020 70 64 28 bd c7 6e ac bd 5e 9c 8b 3d 04 f1 9c bd
       -0.04111141 -0.084195666 0.06816934 -0.076631576
000030 fa 72 d6 bd 95 31 e2 bd 6c 51 b3 bd 7d 74 88 bd
       -0.10471149 -0.11044613 -0.08755764 -0.066628434
000040 6b 0a ea 3c a2 30 8d bb 4d 5d 1c 3e c8 50 0e be
       0.02856942 -0.004308776 0.15269966 -0.13898003
000050 52 09 ba 3d 61 c4 01 be 17 cf 01 be db 5c 20 3d
       0.09083809 -0.12672569 -0.12676655 0.039151054
000060 17 60 0a 3d 21 bf 8b 3b 7c ba b8 bd 79 30 4a bd
       0.033783045 0.0042647277 -0.09019944 -0.049362633
000070 ee c8 00 3e e8 94 c5 bc b8 f4 24 3d 01 d1 cd 3d
       0.12576649 -0.024118856 0.040272444 0.1004963

tcn.network.0.conv2.weight_g f4 [32, 1, 1]
000000 53 7e 05 3f 7d 5c 12 3f fc ba 0a 3f f1 76 05 3f
       0.5214588 0.57172376 0.54191566 0.52134615
000010 4b a5 06 3f 8d 88 26 3f f7 92 f2 3e 3f d6 0b 3f
       0.5259597 0.6505211 0.4737775 0.5462379
000020 83 72 0d 3f f2 68 07 3f 19 b5 ce 3e d1 05 1e 3f
       0.55252856 0.5289451 0.40372542 0.61727625
000030 ba 34 11 3f 12 26 2a 3f 49 d9 00 3f 36 67 20 3f
       0.5672108 0.6646434 0.5033155 0.6265749
000040 31 ad 00 3f e6 9c 15 3f 04 c0 0e 3f 61 df 01 3f
       0.5026427 0.58442533 0.5576174 0.50731474
000050 08 a2 06 3f d1 40 0d 3f 87 9a f1 3e 03 e2 fc 3e
       0.5259099 0.55177027 0.47188208 0.49391183
000060 ad 6e 1b 3f 92 b7 11 3f 99 06 0a 3f b8 a1 14 3f
       0.6071575 0.5692073 0.5391632 0.58059263
000070 71 ca 05 3f 87 83 f9 3e 9e dd 15 3f 9c 1c e9 3e
       0.52262026 0.4873316 0.58541286 0.4552964

tcn.network.0.conv2.weight_v f4 [32, 32, 2]
000000 a3 9e 41 bb 7d 10 02 be 47 ba 4f be 9a c3 4b be
       -0.0029544018 -0.12701602 -0.20285903 -0.19898835
000010 c0 5d bc bb 19 5e 55 3d 68 11 ed bd b7 63 9e b9
       -0.0057484806 0.05209169 -0.115755856 -0.00030210402
000020 e1 34 0d bd e0 e9 c5 bc 60 a2 ef bd f1 46 04 be
       -0.034474257 -0.024159372 -0.117008924 -0.12917687
000030 c4 22 db 3b 34 5b 1b be 06 03 2e 3e 68 3d 1d b7
       0.006687494 -0.1517151 0.16993341 -9.3722265e-06
000040 f7 ec f3 bd 32 0b 26 bd a2 aa b8 bd fe a4 e9 3d
       -0.11910432 -0.04053802 -0.090169206 0.11408423
000050 ce 64 a8 bd 4f 2c 20 bd 85 22 d2 3d 02 03 c8 3d
       -0.08222352 -0.039104756 0.1026049 0.09766199
000060 50 5a 38 bd 8f 85 3d 3c dc fb 1f 3e cc d3 8f bd
       -0.045008004 0.011567487 0.1562342 -0.07022819
000070 e7 4c 33 3d 49 b0 08 be db 64 60 3d 94 f8 ce bd
       0.04377451 -0.13348497 0.054783683 -0.10106006
000080 23 76 33 be b8 80 d6 3d d2 dd 9d bc fa 90 ad bd
       -0.17525534 0.1047377 -0.019270811 -0.08474918
000090 d3 fb 12 3e 05 5a 0e 3e df 86 27 3d 06 fc 13 3d
       0.14353876 0.13901527 0.040900107 0.03612902
0000a0 6c 7d 3a 3e 07 c8 1a b5 32 32 3a be 6d 3a 33 3e
       0.18211907 -5.766055e-07 -0.1818321 0.17502756
0000b0 79 ae ca bc 54 07 1c be 7d fd a5 3d 8e c3 32 3d
       -0.024741398 -0.1523717 0.0810499 0.043643527
0000c0 20 c6 ff 3d 89 2e dc 3d 15 bf 27 bd af 48 6c bd
       0.12488961 0.107510634 -0.040953714 -0.057686504
0000d0 43 7c 6d bd 91 18 2a 3e 50 06 44 be d1 4b 52 bd
       -0.057979833 0.16610934 -0.19143033 -0.051341835
0000e0 20 19 bd bd ca fa f7 bd 33 b5 17 3e 60 12 e9 bd
       -0.09233308 -0.12108381 0.14815216 -0.11380458
0000f0 47 26 8f 3b 04 09 c7 3d cf 8a a6 bd c1 9c 49 3e
       0.0043685767 0.097185165 -0.081319444 0.19688703
000100 b5 b6 51 3d a9 db a8 bd ac 5d ad bd ec f7 9a bc
       0.051199634 -0.08245022 -0.08465132 -0.018917046
000110 d5 93 60 bc 11 78 ac 3d f6 bb a3 3c 11 83 dd bd
       -0.013707121 0.08421338 0.019987088 -0.108160146
000120 95 a3 58 3d 57 3d 8e bc 11 57 e2 bb 55 ed a1 3d
       0.05289038 -0.017363233 -0.006907352 0.079065956
000130 0a 38 9e 3d b1 2f 26 3d b9 3a 8c 3c 4a e4 2e 3c
       0.07725532 0.040572826 0.017117845 0.010674546
000140 de 02 91 bd 7e 61 e6 3c 4c 5b 90 bd b6 8f 5b bd
       -0.07080625 0.02812266 -0.070486635 -0.05360385
000150 1e da dc bd 57 6c c7 3d 9e 8f 02 be 01 e4 f5 3d
       -0.1078379 0.09737461 -0.12750098 0.12006379
000160 e1 97 38 3d 47 c0 56 bd b8 8b 88 3d f5 c1 b6 bd
       0.045066718 -0.052429464 0.06667274 -0.08923713
000170 04 25 7e 3d fd ee 0e be 71 8a c1 3d 5e a4 40 bd
       0.06204702 -0.13958354 0.09450234 -0.047031753
000180 b0 b0 9c 3d d7 76 09 be 3d 97 14 3d 0a 31 37 3d
       0.07650888 -0.1342424 0.036277045 0.0447245
000190 b9 25 1d 3e 0b 4e 1a bc 03 1f d7 bd 75 4e 81 3d
       0.15346421 -0.009418021 -0.10503962 0.063137926
0001a0 c2 2a 34 be bd 2c 01 3c cd c0 fc bd 1e 1b a8 3d
       -0.17594436 0.007884202 -0.12341461 0.08208297
0001b0 7a 57 8e bd 2f 64 cc bd 38 6a a5 bb 00 4d c3 bd
       -0.069502786 -0.09980046 -0.0050480627 -0.09536171
0001c0 b5 8c 82 bd b5 7d eb bd d6 db a7 bb 53 c1 0c be
       -0.06374494 -0.11498586 -0.005122642 -0.13745622
0001d0 d1 18 2d 3d 49 7d 00 be f6 51 ed 3c 36 1e ec bc
       0.042259995 -0.12547792 0.028969746 -0.028823
0001e0 7d f5 98 bd ea fc 5a bd c0 f2 ee bd 6d cf d0 3d
       -0.07468698 -0.053463854 -0.11667395 0.10195813
0001f0 8d 34 82 bd 55 9a 96 bc 93 b3 e3 3d 87 96 0b 3e
       -0.063576795 -0.018384138 0.111182354 0.1363164
000200 13 76 17 3c c6 88 b0 3d 57 f9 08 3e 55 d1 a0 3d
       0.00924446 0.086198375 0.13376366 0.07852427
000210 7b 22 15 3d 84 12 63 3d 55 52 f6 3d 29 02 13 3e
       0.036409836 0.05543758 0.12027422 0.14356293
000220 40 54 a4 3d 49 f5 02 3e fc db d4 3c e9 dd 05 3e
       0.08023882 0.12788881 0.025983803 0.13072933
000230 c1 2e 88 bd 1d bd 2b 3e b7 f2 38 3d 95 29 ec bd
       -0.066495426 0.1677136 0.045153346 -0.11531369
000240 e0 d9 01 be 4e 05 ba 3d 5e 73 65 bd 66 f1 c4 bd
       -0.12680769 0.09083043 -0.056018226 -0.096163556
000250 49 4c b1 bd c0 c5 3e 3e a0 4d 58 3d 77 15 09 3e
       -0.08657128 0.18630123 0.052808404 0.13387094
000260 90 63 2b bc e2 d9 9c bd e6 d6 8b bb 31 9e 18 3d
       -0.010460749 -0.07658745 -0.0042675612 0.037260238
000270 23 a1 8d 3d 03 4d ef 3c 53 71 9b bd 74 df 8b bd
       0.069155 0.029211527 -0.07589974 -0.0682973
000280 eb 2c 19 be 05 99 14 be ee 3a 20 3e 17 34 99 3c
       -0.14958541 -0.14511497 0.1564748 0.018701596
000290 dd 50 10 3e 90 7c 9d bd 1a 3d 55 3e 66 2d 16 3e
       0.14093347 -0.07689774 0.2082409 0.14665756
0002a0 bc 31 19 3d 11 45 a0 bd b4 56 e1 bd 4f b2 02 be
       0.037400946 -0.07825673 -0.110028654 -0.12763332
0002b0 17 29 1f 3e f3 df 1c 3e 24 d7 7e 3b 6a 46 46 3e
       0.15543018 0.15319805 0.0038885558 0.19362798
0002c0 7d c3 55 bd 7d ce 0c 3b f1 31 05 3e e8 69 d7 3d
       -0.052188385 0.0021485381 0.13007332 0.10518247
0002d0 eb cf 07 bd a5 21 a5 bd 2c 48 cb bd 58 4d d2 bd
       -0.03315727 -0.08063058 -0.09925875 -0.102686584
0002e0 f6 0c 23 3d d5 a9 df 3d a6 4e 3d 3d 55 9d 1e 3e
       0.039807282 0.10921065 0.046217583 0.15489705
0002f0 63 4c 89 bd bf 54 55 bd d0 7d ab 3b 1a 18 bb 3d
       -0.06704023 -0.052082773 0.005233504 0.091354564
000300 59 b3 de bb e4 79 aa 3d 70 56 07 3d 64 2f 8c 3c
       -0.0067962823 0.0832403 0.033041418 0.017112441
000310 3d 41 f8 bd 39 95 ce 3c 94 b7 43 bd bd 72 68 3d
       -0.12121818 0.02521764 -0.047782496 0.056750048
000320 38 df 01 3d 80 e5 05 3e 0d 99 d6 bc 67 82 f3 3d
       0.03170702 0.13075829 -0.026196027 0.11890107
000330 fc 50 07 be fb 54 80 bd 12 b1 f2 3d 11 b9 36 be
       -0.13214487 -0.06266209 0.1185018 -0.17844035
000340 50 64 c3 3d 26 93 25 3c 29 e0 e7 bd 62 64 d0 3d
       0.095406175 0.010105884 -0.11322052 0.101753965
000350 79 a2 0b be 8d fd 1c be a8 1c f0 bd 2c 81 f4 3d
       -0.13636197 -0.15331097 -0.11724216 0.119387
000360 d7 2f 13 3d bf 38 b6 3c df 18 4c be dd c5 4e 3e
       0.035934296 0.022243856 -0.19931363 0.20192666
000370 35 69 2e be 4f e5 25 bc de 62 8e bd 94 91 91 3d
       -0.17032321 -0.010125472 -0.06952451 0.07107845
000380 a1 27 0f 3e 58 3a 21 be b7 e5 d4 3d 57 a3 bf bc
       0.13979961 -0.15744913 0.10395377 -0.023393316
000390 63 7f 89 bb 25 b8 c0 bd 9c 7c 28 ba 29 91 98 3d
       -0.004196094 -0.09410123 -0.00064272597 0.07449562
0003a0 fd 9c 69 be ca 23 06 be 59 38 8e bd 85 c6 0c 3d
       -0.22813793 -0.1309959 -0.06944341 0.03436901
0003b0 00 dc 27 be 7a 32 81 bd 8c 43 b1 bd de b1 7b 3c
       -0.16392517 -0.06308456 -0.08655462 0.015362231
0003c0 64 63 ee 3c 0b 4f 51 3d e6 20 f6 bd ec 90 f2 3d
       0.029100128 0.051100772 -0.12017994 0.11844048
0003d0 f5 aa fe 3d aa 17 06 be 3c 13 44 3c d9 88 0b 3d
       0.12434951 -0.13094965 0.011967476 0.034066055
0003e0 7a 24 c7 bd a9 cc a0 bc c4 ce 0c be 24 13 18 be
       -0.09723754 -0.01962884 -0.1375075 -0.14851052
0003f0 6d b7 a2 3d 01 b9 39 3d 8c 2e f1 bd 8f e4 9e 3d
       0.07945142 0.04534245 -0.11776456 0.07758438

tcn.network.0.net.0.bias f4 [32]
000000 20 85 a4 bc f7 2b e3 3d 7c 00 1a be d6 1e ae bc
       -0.02008301 0.1109237 -0.15039247 -0.021254938
000010 d8 32 9a 3d 69 f4 98 3d 9a fa bb bd 60 79 3b 3d
       0.07529229 0.074684925 -0.09178658 0.04577005
000020 3e fe df 3d 19 7a 37 3d b0 ea ee 3c c2 95 ea bd
       0.10937165 0.044794176 0.029164642 -0.11454345
000030 cf 8b ab 3d a6 82 3b bd 88 86 80 bc d3 e4 d3 bd
       0.08376276 -0.045778893 -0.01568915 -0.10346379
000040 2e 1d 5d bd 73 4c 66 3c 20 59 38 3d ca 84 a9 bd
       -0.053982906 0.014056313 0.04500687 -0.08277281
000050 c8 78 8d bd c6 78 f3 3d dc 89 04 bc 7f 22 9a 3d
       -0.06907803 0.1188827 -0.008089509 0.07526111
000060 00 cf 23 be 96 67 ee 3c b7 8d 2e be a7 19 b9 3d
       -0.15996933 0.029102128 -0.17046247 0.09038096
000070 d9 04 03 3e 71 e4 0e bd ba 65 97 3d 22 2a 1e be
       0.12794818 -0.034885827 0.0739245 -0.1544576

tcn.network.0.net.0.weight_g f4 [32, 1, 1]
000000 5d dd 0c 3f c4 bd 04 3f 0d ac 06 3f 9f a4 21 3f
       0.55025274 0.5185206 0.5260628 0.63141817
000010 e0 c2 15 3f cc 04 17 3f 5b 7f 0e 3f cc 2b 14 3f
       0.5850048 0.58991694 0.5566308 0.5787933
000020 96 4d e6 3e cb b7 05 3f 44 3e 18 3f 17 d5 10 3f
       0.44981068 0.5223357 0.5947001 0.5657515
000030 3d e6 0b 3f 05 38 02 3f 9f 22 13 3f f0 5c f9 3e
       0.5464819 0.5086673 0.574747 0.48703718
000040 6f ed 0c 3f 4b f3 13 3f 32 0c f1 3e ef 5f 07 3f
       0.55049795 0.5779311 0.47079617 0.5288076
000050 b5 91 12 3f 7e 7f 27 3f c2 5c 12 3f 83 7a 04 3f
       0.5725358 0.6542891 0.5717279 0.5174944
000060 64 f9 19 3f a9 2a fd 3e 3d 2e 00 3f aa c6 17 3f
       0.60146165 0.4944661 0.50070554 0.5928751
000070 9c d9 b9 3e b5 10 29 3f 56 38 03 3f 33 84 03 3f
       0.36298835 0.6604112 0.51257837 0.51373595

tcn.network.0.net.0.weight_v f4 [32, 32, 2]
000000 35 6a 64 bd 0f e8 03 be f3 6d 69 3d 22 21 df 3d
       -0.05576535 -0.12881492 0.05698962 0.108949915
000010 7e d2 8f bd 14 0c 66 bd 94 e2 1c bc f1 7b ca 3d
       -0.0702257 -0.056163862 -0.009575505 0.09886921
000020 6d 06 ab bd f7 f2 6b bd b8 7d 60 bd fa 29 c3 3c
       -0.08350835 -0.057604756 -0.054807395 0.023823727
000030 72 55 90 3c a9 a5 90 bd b1 57 e2 bd 9c ae a1 bd
       0.017618868 -0.07062847 -0.11051882 -0.07894632
000040 16 5c 76 bd 2a 20 6d 3d 79 a1 b4 3d 94 2f b1 3d
       -0.060146414 0.057892002 0.08819861 0.08651653
000050 f1 40 6f 3d fe 4d e1 bd b6 0d 73 bd d5 66 25 3d
       0.058411542 -0.11001204 -0.059339248 0.04038127
000060 40 13 e6 3d ef 2f 59 3d 6d 00 80 3e c2 46 c1 3d
       0.112341404 0.05302423 0.25000325 0.09437324
000070 b1 dd d5 3d 65 f0 70 3d 78 70 0f be 91 65 7f 3d
       0.10442675 0.058823008 -0.14007747 0.06235272
000080 07 7a e8 3c e4 dd ff 3d bf e3 91 3d 6a 6f 6a 3d
       0.0283785 0.12493494 0.07123517 0.05723516
000090 87 7a 4f 3d 6c 96 f3 3d c8 0f 25 3e c4 62 0e be
       0.05065396 0.11893925 0.16119301 -0.13904864
0000a0 bb f1 94 bc 0f 9e 7c 3d da e6 60 bd 51 ce 9b 3d
       -0.018181672 0.061674174 -0.054907657 0.07607711
0000b0 9e 84 c7 bd 27 ae 9f bd 0f f9 98 3c c3 28 ca bd
       -0.097420916 -0.07796889 0.018673448 -0.09871056
0000c0 7f 01 ac 3d 5c 33 95 bd d6 07 52 bd 41 22 f2 bc
       0.08398723 -0.07285187 -0.051277004 -0.02955735
0000d0 a8 9f 0a be 89 8b 16 3e 1e 6d fc 3c ab 1f 08 3d
       -0.13537467 0.14701666 0.03081375 0.033233326
0000e0 47 e6 2a 3b 7a 6b 58 bd 8c 10 18 bc 5c a9 06 3b
       0.0026077197 -0.052836873 -0.009281289 0.0020547723
0000f0 04 de c7 3d 97 2a 90 bd a2 f9 c5 3d 17 66 3e bd
       0.09759143 -0.07039373 0.09666754 -0.04648408
000100 07 d9 ed 3d f7 68 6e bd 77 06 53 bd ed 77 bb 3d
       0.1161366 -0.05820557 -0.051519837 0.091537334
000110 e3 28 d4 3d 5f da 1a be 53 20 05 bd 0c 1c eb 3d
       0.10359361 -0.15122364 -0.03250153 0.11479959
000120 b2 6a 91 ba 16 29 1a be e3 8b 96 3d ef f7 e7 bd
       -0.001109442 -0.15054736 0.073509 -0.113265865
000130 39 c3 a8 bd 97 57 04 3d eb 33 34 be 90 b6 62 3d
       -0.08240361 0.032310095 -0.1759793 0.055349886
000140 d8 58 30 3d cc 36 58 3d 6b d6 9c bc 77 8b 5c bd
       0.043053478 0.052786633 -0.019145211 -0.05384394
000150 56 74 29 be 1c 31 7a 3d 36 e5 97 3c f3 a9 d3 bc
       -0.16548285 0.06108199 0.018541913 -0.025837874
000160 96 3a d4 3d 50 38 9e bd 98 b6 33 3e d5 60 e1 3d
       0.10362737 -0.077255845 0.17550123 0.11004797
000170 d6 44 59 3e 39 11 8f bd 0e c2 ce bd 16 3a b2 3d
       0.21217665 -0.06985707 -0.10095607 0.08702485
000180 0f 45 17 3c f7 1e 8e be 35 a7 05 3d 3a 9b 54 bd
       0.009232773 -0.27758 0.032630164 -0.051905848
000190 80 c9 bc 3d dc 21 e0 3b ee 4a 37 3e a4 39 ed 3d
       0.092181206 0.006839974 0.17899677 0.1158326
0001a0 fd ec cb bd 04 0f 92 3c ba cc 71 bc b4 74 2a 3d
       -0.09957311 0.017829426 -0.014758283 0.041615203
0001b0 dc c5 15 bd 34 50 03 3d 29 af 32 3d 96 6f 5c 3d
       -0.036565647 0.03205891 0.043624077 0.053817354
0001c0 a6 14 ef 3d fc 05 63 bc 51 0c d4 3d 6c 28 b1 3d
       0.1167386 -0.013856407 0.10353912 0.08650288
0001d0 08 83 61 be ec 1f 3f bd 24 37 16 bd b1 93 06 be
       -0.2202264 -0.046661302 -0.03667368 -0.13142277
0001e0 0b e2 35 3c 55 fd e0 bb 68 02 2d be f8 07 b0 3d
       0.011101256 -0.006866137 -0.16895449 0.0859527
0001f0 86 68 2f bd 00 14 24 3e 1f 37 10 be 2b 3b d6 bd
       -0.04282429 0.16023254 -0.14083527 -0.10460504
000200 ab 3f a0 bc f2 29 b4 3d 37 8e fb 3d 44 63 e5 3d
       -0.01956161 0.08797063 0.12282985 0.11200574
000210 b2 d8 b5 3b a0 82 86 3d 16 62 b5 3d 04 fd 0c 3b
       0.0055495137 0.065678835 0.08856599 0.0021513114
000220 f6 d2 b6 3d 67 8f d0 3c d9 64 dc 3d c8 59 f7 3d
       0.08926956 0.025459005 0.10761423 0.12077671
000230 a7 f1 4d 3d 19 67 b6 3d 94 d6 c6 bc 51 f6 00 bd
       0.050279286 0.08906383 -0.02427224 -0.031484906
000240 18 56 b8 3d 94 8e b3 3c 73 f8 32 bc 3f 62 0e 3e
       0.09000796 0.021918572 -0.010923493 0.13904665
000250 09 84 0c 3e ba 5f 27 3d bd b1 a8 3d 90 04 3a be
       0.13722242 0.040862776 0.08237026 -0.18165803
000260 60 8d f1 3d 01 3e 77 bd d9 5a 58 be f5 36 3f be
       0.11794543 -0.060361866 -0.21128406 -0.18673308
000270 0e 06 a9 3c 4f 30 eb bd d5 05 86 3d c9 24 25 3d
       0.02063277 -0.114838235 0.06544081 0.040318284
000280 0d 46 47 3d d3 9f 2e 3d f7 5f fd bd 27 80 13 bd
       0.04865079 0.04263289 -0.123718195 -0.036010887
000290 77 bc 79 bd 5f 20 00 be 82 0a 67 be c8 08 4f be
       -0.06097075 -0.12512349 -0.22562602 -0.20218194
0002a0 29 c0 97 3d c1 07 c3 3d 54 79 c6 3d 73 42 18 be
       0.074096985 0.09522963 0.0969111 -0.14869098
0002b0 6b b9 b9 bd 63 90 26 be e4 32 81 bc 8a 10 a1 bd
       -0.09068569 -0.16266017 -0.015771337 -0.07864483
0002c0 3d 25 07 3e c2 d6 d5 3c 84 35 ad bc 2b f5 63 bc
       0.13197799 0.026103381 -0.021143682 -0.013913433
0002d0 26 3c ee bc 21 cc 46 3a 99 71 d6 3c 93 0f de bd
       -0.029081415 0.0007583518 0.026177214 -0.10842814
0002e0 d1 d6 f2 3d 2f 39 b4 3d 91 d1 a4 ba 60 ff 65 bd
       0.11857379 0.087999694 -0.0012574663 -0.056151748
0002f0 60 09 f9 bd 35 b5 82 bc 4b eb 92 bd dc 64 a3 3c
       -0.12159991 -0.015955547 -0.07173785 0.019945554
000300 37 78 db 3d d5 fd b1 3d 3b 0e f3 bd bb d0 2c 3d
       0.107162885 0.08690993 -0.118679486 0.04219125
000310 d1 3d 10 be 7f 72 16 bd c5 64 92 3d c5 82 fa 3d
       -0.14086081 -0.036730286 0.071481265 0.122319736
000320 24 4a 14 be 8c 23 e6 3d 21 7a f5 3d 43 2d e7 bd
       -0.14481407 0.11237249 0.11986185 -0.1128793
000330 86 a0 f1 bd 37 03 3e bd 21 e7 4c 3d 39 59 ea bd
       -0.117981955 -0.046389785 0.05002511 -0.11442799
000340 00 57 db bd ca e4 e3 3d 99 51 14 bd 90 d5 9c 3d
       -0.10709953 0.111276224 -0.03621063 0.07657921
000350 5e f9 23 3c f2 d9 d4 3d 88 74 86 3e c5 4d 32 3e
       0.010008184 0.10393132 0.2626078 0.17412479
000360 02 8d ee 3c 72 c1 d5 3d 7e 64 cf bb c3 55 a0 3c
       0.029119972 0.104372874 -0.0063291183 0.019572144
000370 09 e8 1b 3e ba e4 ae bd 6e 02 20 be 64 76 86 3d
       0.15225233 -0.0853972 -0.15625927 0.0656555
000380 8c 5e f3 bb 71 c3 75 3d fc e7 99 bd 53 ca 1f 3e
       -0.0074270424 0.06000084 -0.07514951 0.15604524
000390 77 4c 25 3d 3f 93 8e bd 19 4e d3 3d a3 28 c8 bd
       0.040356126 -0.06961679 0.1031763 -0.09773376
0003a0 cc 1a 43 3d f9 7c ab bd 76 12 a4 bd 76 48 ca bd
       0.047632977 -0.08373446 -0.08011334 -0.09877102
0003b0 b1 44 6b bd df 37 9b 3d 38 3a d0 bd 6a 56 4f bd
       -0.057438556 0.07579016 -0.10167354 -0.05061952
0003c0 d2 af 54 bd b9 44 1c 3e 76 4d 95 bd 11 83 6e bd
       -0.051925488 0.1526059 -0.07290165 -0.058230463
0003d0 7d 89 fb bd 26 33 76 3c f5 dc fd bd 60 09 ba 3d
       -0.12282083 0.015026843 -0.1239566 0.090838194
0003e0 78 43 26 be d1 29 0d be 25 3d 6f bd 97 46 95 bc
       -0.16236675 -0.13785483 -0.05840792 -0.018222136
0003f0 3d fc a6 3d 0f 5d be bd 3f 88 78 3d b8 32 a7 bd
       0.081535794 -0.09295093 0.06067681 -0.08163971

tcn.network.0.net.4.bias f4 [32]
000000 97 eb 52 3d 20 48 6d bd 6e 98 c7 3d f2 8e 6c 3d
       0.051494207 -0.057930112 0.097458705 0.05775351
000010 0d 49 3c be 6b bc 7a bd 5a e9 81 bc 95 a8 24 3d
       -0.18387242 -0.061214846 -0.015858341 0.040199835
000020 70 64 28 bd c7 6e ac bd 5e 9c 8b 3d 04 f1 9c bd
       -0.04111141 -0.084195666 0.06816934 -0.076631576
000030 fa 72 d6 bd 95 31 e2 bd 6c 51 b3 bd 7d 74 88 bd
       -0.10471149 -0.11044613 -0.08755764 -0.066628434
000040 6b 0a ea 3c a2 30 8d bb 4d 5d 1c 3e c8 50 0e be
       0.02856942 -0.004308776 0.15269966 -0.13898003
000050 52 09 ba 3d 61 c4 01 be 17 cf 01 be db 5c 20 3d
       0.09083809 -0.12672569 -0.12676655 0.039151054
000060 17 60 0a 3d 21 bf 8b 3b 7c ba b8 bd 79 30 4a bd
       0.033783045 0.0042647277 -0.09019944 -0.049362633
000070 ee c8 00 3e e8 94 c5 bc b8 f4 24 3d 01 d1 cd 3d
       0.12576649 -0.024118856 0.040272444 0.1004963

tcn.network.0.net.4.weight_g f4 [32, 1, 1]
000000 53 7e 05 3f 7d 5c 12 3f fc ba 0a 3f f1 76 05 3f
       0.5214588 0.57172376 0.54191566 0.52134615
000010 4b a5 06 3f 8d 88 26 3f f7 92 f2 3e 3f d6 0b 3f
       0.5259597 0.6505211 0.4737775 0.5462379
000020 83 72 0d 3f f2 68 07 3f 19 b5 ce 3e d1 05 1e 3f
       0.55252856 0.5289451 0.40372542 0.61727625
000030 ba 34 11 3f 12 26 2a 3f 49 d9 00 3f 36 67 20 3f
       0.5672108 0.6646434 0.5033155 0.6265749
000040 31 ad 00 3f e6 9c 15 3f 04 c0 0e 3f 61 df 01 3f
       0.5026427 0.58442533 0.5576174 0.50731474
000050 08 a2 06 3f d1 40 0d 3f 87 9a f1 3e 03 e2 fc 3e
       0.5259099 0.55177027 0.47188208 0.49391183
000060 ad 6e 1b 3f 92 b7 11 3f 99 06 0a 3f b8 a1 14 3f
       0.6071575 0.5692073 0.5391632 0.58059263
000070 71 ca 05 3f 87 83 f9 3e 9e dd 15 3f 9c 1c e9 3e
       0.52262026 0.4873316 0.58541286 0.4552964

tcn.network.0.net.4.weight_v f4 [32, 32, 2]
000000 a3 9e 41 bb 7d 10 02 be 47 ba 4f be 9a c3 4b be
       -0.0029544018 -0.12701602 -0.20285903 -0.19898835
000010 c0 5d bc bb 19 5e 55 3d 68 11 ed bd b7 63 9e b9
       -0.0057484806 0.05209169 -0.115755856 -0.00030210402
000020 e1 34 0d bd e0 e9 c5 bc 60 a2 ef bd f1 46 04 be
       -0.034474257 -0.024159372 -0.117008924 -0.12917687
000030 c4 22 db 3b 34 5b 1b be 06 03 2e 3e 68 3d 1d b7
       0.006687494 -0.1517151 0.16993341 -9.3722265e-06
000040 f7 ec f3 bd 32 0b 26 bd a2 aa b8 bd fe a4 e9 3d
       -0.11910432 -0.04053802 -0.090169206 0.11408423
000050 ce 64 a8 bd 4f 2c 20 bd 85 22 d2 3d 02 03 c8 3d
       -0.08222352 -0.039104756 0.1026049 0.09766199
000060 50 5a 38 bd 8f 85 3d 3c dc fb 1f 3e cc d3 8f bd
       -0.045008004 0.011567487 0.1562342 -0.07022819
000070 e7 4c 33 3d 49 b0 08 be db 64 60 3d 94 f8 ce bd
       0.04377451 -0.13348497 0.054783683 -0.10106006
000080 23 76 33 be b8 80 d6 3d d2 dd 9d bc fa 90 ad bd
       -0.17525534 0.1047377 -0.019270811 -0.08474918
000090 d3 fb 12 3e 05 5a 0e 3e df 86 27 3d 06 fc 13 3d
       0.14353876 0.13901527 0.040900107 0.03612902
0000a0 6c 7d 3a 3e 07 c8 1a b5 32 32 3a be 6d 3a 33 3e
       0.18211907 -5.766055e-07 -0.1818321 0.17502756
0000b0 79 ae ca bc 54 07 1c be 7d fd a5 3d 8e c3 32 3d
       -0.024741398 -0.1523717 0.0810499 0.043643527
0000c0 20 c6 ff 3d 89 2e dc 3d 15 bf 27 bd af 48 6c bd
       0.12488961 0.107510634 -0.040953714 -0.057686504
0000d0 43 7c 6d bd 91 18 2a 3e 50 06 44 be d1 4b 52 bd
       -0.057979833 0.16610934 -0.19143033 -0.051341835
0000e0 20 19 bd bd ca fa f7 bd 33 b5 17 3e 60 12 e9 bd
       -0.09233308 -0.12108381 0.14815216 -0.11380458
0000f0 47 26 8f 3b 04 09 c7 3d cf 8a a6 bd c1 9c 49 3e
       0.0043685767 0.097185165 -0.081319444 0.19688703
000100 b5 b6 51 3d a9 db a8 bd ac 5d ad bd ec f7 9a bc
       0.051199634 -0.08245022 -0.08465132 -0.018917046
000110 d5 93 60 bc 11 78 ac 3d f6 bb a3 3c 11 83 dd bd
       -0.013707121 0.08421338 0.019987088 -0.108160146
000120 95 a3 58 3d 57 3d 8e bc 11 57 e2 bb 55 ed a1 3d
       0.05289038 -0.017363233 -0.006907352 0.079065956
000130 0a 38 9e 3d b1 2f 26 3d b9 3a 8c 3c 4a e4 2e 3c
       0.07725532 0.040572826 0.017117845 0.010674546
000140 de 02 91 bd 7e 61 e6 3c 4c 5b 90 bd b6 8f 5b bd
       -0.07080625 0.02812266 -0.070486635 -0.05360385
000150 1e da dc bd 57 6c c7 3d 9e 8f 02 be 01 e4 f5 3d
       -0.1078379 0.09737461 -0.12750098 0.12006379
000160 e1 97 38 3d 47 c0 56 bd b8 8b 88 3d f5 c1 b6 bd
       0.045066718 -0.052429464 0.06667274 -0.08923713
000170 04 25 7e 3d fd ee 0e be 71 8a c1 3d 5e a4 40 bd
       0.06204702 -0.13958354 0.09450234 -0.047031753
000180 b0 b0 9c 3d d7 76 09 be 3d 97 14 3d 0a 31 37 3d
       0.07650888 -0.1342424 0.036277045 0.0447245
000190 b9 25 1d 3e 0b 4e 1a bc 03 1f d7 bd 75 4e 81 3d
       0.15346421 -0.009418021 -0.10503962 0.063137926
0001a0 c2 2a 34 be bd 2c 01 3c cd c0 fc bd 1e 1b a8 3d
       -0.17594436 0.007884202 -0.12341461 0.08208297
0001b0 7a 57 8e bd 2f 64 cc bd 38 6a a5 bb 00 4d c3 bd
       -0.069502786 -0.09980046 -0.0050480627 -0.09536171
0001c0 b5 8c 82 bd b5 7d eb bd d6 db a7 bb 53 c1 0c be
       -0.06374494 -0.11498586 -0.005122642 -0.13745622
0001d0 d1 18 2d 3d 49 7d 00 be f6 51 ed 3c 36 1e ec bc
       0.042259995 -0.12547792 0.028969746 -0.028823
0001e0 7d f5 98 bd ea fc 5a bd c0 f2 ee bd 6d cf d0 3d
       -0.07468698 -0.053463854 -0.11667395 0.10195813
0001f0 8d 34 82 bd 55 9a 96 bc 93 b3 e3 3d 87 96 0b 3e
       -0.063576795 -0.018384138 0.111182354 0.1363164
000200 13 76 17 3c c6 88 b0 3d 57 f9 08 3e 55 d1 a0 3d
       0.00924446 0.086198375 0.13376366 0.07852427
000210 7b 22 15 3d 84 12 63 3d 55 52 f6 3d 29 02 13 3e
       0.036409836 0.05543758 0.12027422 0.14356293
000220 40 54 a4 3d 49 f5 02 3e fc db d4 3c e9 dd 05 3e
       0.08023882 0.12788881 0.025983803 0.13072933
000230 c1 2e 88 bd 1d bd 2b 3e b7 f2 38 3d 95 29 ec bd
       -0.066495426 0.1677136 0.045153346 -0.11531369
000240 e0 d9 01 be 4e 05 ba 3d 5e 73 65 bd 66 f1 c4 bd
       -0.12680769 0.09083043 -0.056018226 -0.096163556
000250 49 4c b1 bd c0 c5 3e 3e a0 4d 58 3d 77 15 09 3e
       -0.08657128 0.18630123 0.052808404 0.13387094
000260 90 63 2b bc e2 d9 9c bd e6 d6 8b bb 31 9e 18 3d
       -0.010460749 -0.07658745 -0.0042675612 0.037260238
000270 23 a1 8d 3d 03 4d ef 3c 53 71 9b bd 74 df 8b bd
       0.069155 0.029211527 -0.07589974 -0.0682973
000280 eb 2c 19 be 05 99 14 be ee 3a 20 3e 17 34 99 3c
       -0.14958541 -0.14511497 0.1564748 0.018701596
000290 dd 50 10 3e 90 7c 9d bd 1a 3d 55 3e 66 2d 16 3e
       0.14093347 -0.07689774 0.2082409 0.14665756
0002a0 bc 31 19 3d 11 45 a0 bd b4 56 e1 bd 4f b2 02 be
       0.037400946 -0.07825673 -0.110028654 -0.12763332
0002b0 17 29 1f 3e f3 df 1c 3e 24 d7 7e 3b 6a 46 46 3e
       0.15543018 0.15319805 0.0038885558 0.19362798
0002c0 7d c3 55 bd 7d ce 0c 3b f1 31 05 3e e8 69 d7 3d
       -0.052188385 0.0021485381 0.13007332 0.10518247
0002d0 eb cf 07 bd a5 21 a5 bd 2c 48 cb bd 58 4d d2 bd
       -0.03315727 -0.08063058 -0.09925875 -0.102686584
0002e0 f6 0c 23 3d d5 a9 df 3d a6 4e 3d 3d 55 9d 1e 3e
       0.039807282 0.10921065 0.046217583 0.15489705
0002f0 63 4c 89 bd bf 54 55 bd d0 7d ab 3b 1a 18 bb 3d
       -0.06704023 -0.052082773 0.005233504 0.091354564
000300 59 b3 de bb e4 79 aa 3d 70 56 07 3d 64 2f 8c 3c
       -0.0067962823 0.0832403 0.033041418 0.017112441
000310 3d 41 f8 bd 39 95 ce 3c 94 b7 43 bd bd 72 68 3d
       -0.12121818 0.02521764 -0.047782496 0.056750048
000320 38 df 01 3d 80 e5 05 3e 0d 99 d6 bc 67 82 f3 3d
       0.03170702 0.13075829 -0.026196027 0.11890107
000330 fc 50 07 be fb 54 80 bd 12 b1 f2 3d 11 b9 36 be
       -0.13214487 -0.06266209 0.1185018 -0.17844035
000340 50 64 c3 3d 26 93 25 3c 29 e0 e7 bd 62 64 d0 3d
       0.095406175 0.010105884 -0.11322052 0.101753965
000350 79 a2 0b be 8d fd 1c be a8 1c f0 bd 2c 81 f4 3d
       -0.13636197 -0.15331097 -0.11724216 0.119387
000360 d7 2f 13 3d bf 38 b6 3c df 18 4c be dd c5 4e 3e
       0.035934296 0.022243856 -0.19931363 0.20192666
000370 35 69 2e be 4f e5 25 bc de 62 8e bd 94 91 91 3d
       -0.17032321 -0.010125472 -0.06952451 0.07107845
000380 a1 27 0f 3e 58 3a 21 be b7 e5 d4 3d 57 a3 bf bc
       0.13979961 -0.15744913 0.10395377 -0.023393316
000390 63 7f 89 bb 25 b8 c0 bd 9c 7c 28 ba 29 91 98 3d
       -0.004196094 -0.09410123 -0.00064272597 0.07449562
0003a0 fd 9c 69 be ca 23 06 be 59 38 8e bd 85 c6 0c 3d
       -0.22813793 -0.1309959 -0.06944341 0.03436901
0003b0 00 dc 27 be 7a 32 81 bd 8c 43 b1 bd de b1 7b 3c
       -0.16392517 -0.06308456 -0.08655462 0.015362231
0003c0 64 63 ee 3c 0b 4f 51 3d e6 20 f6 bd ec 90 f2 3d
       0.029100128 0.051100772 -0.12017994 0.11844048
0003d0 f5 aa fe 3d aa 17 06 be 3c 13 44 3c d9 88 0b 3d
       0.12434951 -0.13094965 0.011967476 0.034066055
0003e0 7a 24 c7 bd a9 cc a0 bc c4 ce 0c be 24 13 18 be
       -0.09723754 -0.01962884 -0.1375075 -0.14851052
0003f0 6d b7 a2 3d 01 b9 39 3d 8c 2e f1 bd 8f e4 9e 3d
       0.07945142 0.04534245 -0.11776456 0.07758438

tcn.network.0.downsample.weight f4 [32, 32, 1]
000000 25 ab a9 bd 70 9d eb 3b 12 5d 70 3d 0d 27 55 be
       -0.08284596 0.007190399 0.05868251 -0.20815678
000010 b0 2c 00 3e b5 55 0d be f9 c6 fc 3c 19 b4 8d 3e
       0.12517047 -0.13802226 0.030856596 0.27676466
000020 31 16 64 3e 9a d9 ce bd 32 39 88 3e dd c9 48 be
       0.2227409 -0.10100098 0.26606137 -0.19608255
000030 bb d6 0c be 5e 76 b4 bd 88 62 7b be 3a 99 d8 3c
       -0.13753788 -0.08811639 -0.24549305 0.026440252
000040 a0 1b 1f 3d 18 69 91 3d e8 51 1f be f9 32 a2 bd
       0.038844705 0.07100123 -0.15558589 -0.079198785
000050 7b 38 9b bd a4 8c c2 bd 13 5e 77 bd 10 af 21 be
       -0.07579132 -0.09499481 -0.06039245 -0.15789437
000060 2b 83 89 bd e0 80 35 bd 82 a4 0d 3e 68 8d 84 3d
       -0.067144714 -0.044312358 0.13832286 0.064722836
000070 c4 77 29 bd fd e8 7c bd bf 14 e5 3d 9f de 0b 3e
       -0.041373983 -0.061745632 0.11185598 0.13659142
000080 fa 13 8c bc ec 17 ab bd b8 6b 18 3e 05 94 2f bd
       -0.01709937 -0.08354172 0.14884841 -0.04286577
000090 c1 ac 09 be 71 c5 cc bd 12 c5 dd 3c d6 4b 08 3e
       -0.13444807 -0.099985965 0.02707151 0.13310179
0000a0 6a 51 79 3d 3f be 05 3e 02 2b d6 3d bf 77 0d be
       0.060868658 0.13060854 0.10457422 -0.13815211
0000b0 6c ad c7 bd 29 a0 35 bd b8 87 1b 3e 60 d6 d0 3d
       -0.097498745 -0.044342194 0.15188491 0.10197139
0000c0 ae 93 01 3e 2c eb 1a be a9 31 e7 bd ff c2 3a 3d
       0.12653992 -0.15128773 -0.11288769 0.04559612
0000d0 de 59 ac bd e0 da ea 3d c9 ac 71 bc c1 03 06 3d
       -0.08415578 0.11467528 -0.014750668 0.032718424
0000e0 d9 c1 89 3d c1 a5 fe bd 2b da 8d 3d e5 e4 b8 3d
       0.06726427 -0.12433959 0.06926378 0.09028033
0000f0 a3 9a 83 bd cc 08 2b 3e ea fa 0d 3e 30 33 49 bd
       -0.06425979 0.16702574 0.13865247 -0.04912108
000100 37 c2 b1 3d f3 9c 84 3d fe 57 14 be 54 ac 1d be
       0.08679622 0.06475248 -0.14486691 -0.15397769
000110 ad 45 f7 3b d6 96 2c be 6f 3f 45 3d e3 6c 00 3b
       0.007546148 -0.16854414 0.048156198 0.0019596152
000120 17 d6 19 3e d3 f2 19 3e fe 65 1a 3e 53 23 d1 bd
       0.15023075 0.15034036 0.1507797 -0.10211816
000130 a1 64 a4 3c 9f 62 73 be 13 b2 a5 be ad 0e 37 ba
       0.020067515 -0.2376809 -0.32362422 -0.0006983083
000140 58 0a 34 3e 61 6d ba 3d b0 c2 34 bd 0e 67 a6 be
       0.17582071 0.091028936 -0.04413098 -0.325005
000150 3c 04 9d 3d 36 db 2a bd 9e fd 22 be 7c e2 fd bc
       0.07666823 -0.041712962 -0.1591706 -0.030991785
000160 d9 b9 51 3d 28 14 5b 3e 64 51 7f 3e ae be 57 be
       0.05120263 0.21394408 0.24933392 -0.21068832
000170 51 d0 a0 bd 23 24 72 3e 3b ed 59 be 9d 13 5c bc
       -0.07852233 0.23646598 -0.21281902 -0.013432411
000180 9f 71 14 be 22 2c ae bd c7 e5 9a bd 9c 10 ce 3d
       -0.14496468 -0.085045114 -0.07563358 0.10061762
000190 be 33 0a bd fb 82 26 be 60 7c d1 bd 46 a1 11 3e
       -0.03374075 -0.16260903 -0.10228801 0.14221677
0001a0 1f 1d 0e 3e 38 53 23 3e 12 b8 7c bc 35 25 4e 3d
       0.13878296 0.15949714 -0.015424745 0.050328452
0001b0 42 6a 44 3d 9c ae 6a 3e 59 93 03 3e f3 ec fd bd
       0.047952898 0.2291817 0.12849177 -0.1239871
0001c0 d8 05 4a bd 1e cf 06 be bb 5c 7d 3d 4b f0 34 3e
       -0.04932198 -0.13164946 0.061856013 0.1766979
0001d0 9a 96 1c be b7 75 7d bd d5 5a de 3d d3 41 1b be
       -0.15291825 -0.06187984 0.108571686 -0.15161829
0001e0 84 7c 04 3e 13 5d 2a 3c 65 fc 9c bb 2d 26 96 3c
       0.12938124 0.010398167 -0.00479083 0.01832875
0001f0 98 fa 34 be be 3d b6 bd 36 aa d9 3d 63 a2 6f bd
       -0.17673719 -0.08898495 0.10628168 -0.058504473
000200 a3 46 87 3e 36 e2 9c bc c5 7c 6c be 5d b3 e1 bd
       0.2642108 -0.019150835 -0.23094471 -0.11020539
000210 ef ad b9 bd 2c 16 54 be 22 39 59 be 66 d6 9f 3e
       -0.09066378 -0.20711583 -0.212132 0.3121826
000220 50 5c 93 3e fc dc 2e 3d 71 7f d6 bd ab f7 31 be
       0.28781366 0.042691216 -0.10473526 -0.17379634
000230 15 a3 27 3c 84 af 8b bd 36 79 8b bd de 3e 0e 3e
       0.010231753 -0.06820586 -0.068102285 0.1389117
000240 75 42 63 3c cc e5 23 be 01 22 09 be 9e b0 16 be
       0.013870825 -0.1600563 -0.13391878 -0.14715812
000250 0d 17 d5 3d 3b 36 07 3e 9b 3b 0a 3e f0 92 c1 ba
       0.10404787 0.13204281 0.134993 -0.0014768522
000260 dd ad f2 bd 26 dc 67 bd 11 6a 14 3e c3 71 26 3e
       -0.11849568 -0.056606434 0.14493586 0.16254334
000270 06 0c 10 3e 96 3d b6 3d c2 8f 16 bd 07 fa 04 bc
       0.14067087 0.08898465 -0.036758192 -0.008116252
000280 3d 4b cf 3d ae 06 6d be ed 24 7e bb 98 1e 46 3d
       0.101217724 -0.2314708 -0.0038779334 0.04836902
000290 ce 70 22 be ae b7 9b 3d 8a 37 96 3d 56 ec 61 be
       -0.15863344 0.076033935 0.07334812 -0.22062811
0002a0 89 ee e3 bd 23 5d 8f bd a2 76 94 be a9 9c 8a 3e
       -0.11129481 -0.07000186 -0.2899676 0.27072647
0002b0 07 cd 39 3d 90 eb a6 3e 2f 77 e0 bc 9c 60 27 be
       0.045361545 0.32601595 -0.027400581 -0.16345447
0002c0 ee 0d 90 be 99 c4 12 3e 1b 5a 44 bc 53 34 2d 3d
       -0.28135628 0.14332809 -0.011984373 0.04228623
0002d0 ed b0 76 bd 76 b8 0e 3e fc e0 0c bd b4 5a 36 3d
       -0.060227323 0.13937554 -0.03439425 0.044520095
0002e0 bd d8 3a 3e f3 83 cc bd 40 1b 08 be 23 25 91 3d
       0.18246742 -0.09986105 -0.13291645 0.070871614
0002f0 9a ca 0b be ed 53 31 be 56 d6 6b 3e 84 3c 18 bb
       -0.13651505 -0.17317171 0.23030981 -0.002322943
000300 c1 88 c7 3d b4 4a de 3d ff d0 07 3d 8a b6 8b be
       0.097428806 0.10854092 0.0331583 -0.27287704
000310 53 fa 86 3d 76 60 b8 bd 13 d3 ee bd 50 d4 76 3e
       0.06590714 -0.090027735 -0.11661353 0.24104428
000320 7f 6b 03 3e 4c 6c 82 3d 90 cb 88 bd d0 ff 52 bc
       0.12833975 0.06368312 -0.066794515 -0.012878373
000330 2f a2 e4 bc 21 d5 e3 bd d9 cf b9 3d 34 74 2b 3e
       -0.027909366 -0.111246355 0.09072847 0.16743547
000340 d7 64 34 be cb f3 c0 3b 1e 99 7f 3d a5 8e a0 bd
       -0.17616592 0.0058884374 0.062401883 -0.07839707
000350 39 4e 6a 3e c7 99 52 3e 4e 59 d0 bb 52 86 96 bd
       0.22881402 0.20566474 -0.006358302 -0.07349838
000360 23 9f 8d be 32 68 f3 3d 84 ef e0 3d ad 02 58 3e
       -0.27660474 0.11885108 0.10983184 0.2109477
000370 a4 c0 dc bb 60 b8 ae 3d 7b 46 ac bd be 60 8b bd
       -0.0067368317 0.085312605 -0.084118806 -0.068055615
000380 49 3b f3 bd fc 39 9f bd 67 86 a3 bd f3 72 bf bd
       -0.11876542 -0.077747315 -0.079846196 -0.09348097
000390 f7 a6 3a be 14 e1 93 bc ef 5e 10 3e b8 a4 06 be
       -0.18227755 -0.018051662 0.14098714 -0.13148773
0003a0 39 ed e9 bd f8 95 bf bc b4 c2 29 be 34 98 a2 bd
       -0.114222 -0.02338694 -0.1657818 -0.07939187
0003b0 6a 96 4f be ef d7 a7 3e 37 cb 3e 3e aa 51 82 3c
       -0.20272222 0.32781932 0.18632208 0.015908081
0003c0 cc 5e 6d be 81 83 3b bd 83 c8 03 3e c3 10 88 3e
       -0.23180693 -0.04577971 0.12869458 0.26575288
0003d0 53 a1 06 3e 11 4b cb 3d 99 8f 1e 3e d8 df bb bc
       0.13147478 0.09926427 0.15484466 -0.022933885
0003e0 e6 76 04 3e aa 2d 37 3d 2f 4f 77 bc 75 68 c6 3d
       0.12935981 0.044721283 -0.015094562 0.09687892
0003f0 ba 74 52 3d b3 82 d5 3d 8a d0 0a 3e 38 04 3b 3d
       0.05138085 0.104253195 0.13556114 0.04565832

tcn.network.0.downsample.bias f4 [32]
000000 f9 48 15 bd 9a 55 22 3e 94 16 ac bd 6b 09 f2 3d
       -0.036446545 0.15852967 -0.08402744 0.118182026
000010 eb d0 a6 ba 8a 6e 3a 3d 9e f0 2d 3e 79 2a cb bc
       -0.0012727057 0.045515575 0.1698632 -0.024800526
000020 b1 f3 09 3e 9d ce 8b bd 97 33 b3 bd 04 b3 ed bd
       0.13471867 -0.06826518 -0.08750074 -0.1160641
000030 03 2c de bd 5b fc 37 3e 3e 3a 28 be 05 e5 c5 3d
       -0.10848238 0.1796736 -0.16428468 0.09662823
000040 05 0d 55 bb f3 80 f1 3c 18 6e fc 3d 71 72 59 bb
       -0.003250898 0.029480433 0.12325686 -0.0033179785
000050 e6 34 12 3e 3b 02 bd bd 6b 8a 56 be 1b 2b 13 bd
       0.14277992 -0.09228941 -0.2095124 -0.03592978
000060 7d f2 86 3d ae f2 a5 3d 70 58 b9 3d be d1 8e bd
       0.0658922 0.08102928 0.09050071 -0.06973599
000070 03 70 42 3d 45 7a 36 be 5a b5 00 bd e0 da bc 3c
       0.047470104 -0.1782008 -0.03142295 0.023053586

tcn.network.1.conv1.bias f4 [32]
000000 97 8b c8 bc 23 f1 8f bd 62 c7 a3 3d d5 4d 11 bc
       -0.024480624 -0.07028415 0.07997014 -0.008868654
000010 83 16 9a bd 19 4f 9d 3c ad 75 4d 3c 41 3d a7 bd
       -0.07523825 0.019202756 0.012540263 -0.0816598
000020 1f 7a 04 3d 6c 14 01 3e eb d7 77 3b 6c 26 9a 3d
       0.032343026 0.12605447 0.0037817906 0.0752686
000030 15 11 bb bd b9 ff b7 bc df db 8f bd e1 6e 86 3d
       -0.091341175 -0.022460805 -0.07024359 0.06564117
000040 88 ef bf 3c c7 72 f6 bd 08 b6 ef bc 46 7b df bc
       0.023429647 -0.12033611 -0.029261604 -0.027280461
000050 e9 e1 75 bd 5d bc b3 39 9a 82 97 bd 26 08 c2 bd
       -0.060029898 0.00034281882 -0.07397957 -0.094742104
000060 db 53 8e bc e9 c1 94 3d 2e 19 0e 3d 7d ca 01 bb
       -0.01737397 0.07263548 0.034691982 -0.001980453
000070 10 a1 da bd 47 b7 bc bd 25 26 2d 3d 6d b0 8e 3d
       -0.106752515 -0.09214645 0.042272706 0.06967244

tcn.network.1.conv1.weight_g f4 [32, 1, 1]
000000 65 90 0f 3f 83 5f 08 3f 5e db 28 3f b2 76 fc 3e
       0.56079704 0.5327074 0.6595973 0.49309307
000010 61 0c 05 3f 1e e7 0d 3f f4 9e 0b 3f 6f 68 ff 3e
       0.51972014 0.5543078 0.5453942 0.49884364
000020 50 34 16 3f f9 96 11 3f 12 1d 15 3f 9a 77 20 3f
       0.5867357 0.5687099 0.5824748 0.626825
000030 ed 19 0b 3f f9 2a 0c 3f fb b7 fe 3e 2c 8e 4a 3f
       0.54336435 0.5475307 0.4974974 0.7912319
000040 fe c9 09 3f ee 44 06 3f 68 d1 34 3f cd 7a 01 3f
       0.5382384 0.5244893 0.7063203 0.50578004
000050 26 6b 0b 3f b7 15 ff 3e f0 b8 29 3f f3 fe 0f 3f
       0.5446037 0.49821255 0.6629782 0.56248397
000060 16 b4 12 3f 18 31 1c 3f 44 36 17 3f 87 e7 15 3f
       0.5730604 0.6101241 0.5906718 0.5855641
000070 1a 54 26 3f fc d1 4a 3f b6 75 12 3f 0c bf 10 3f
       0.6497208 0.7922666 0.5721086 0.56541514
