models/prototyping6/tcn_fold_4/best.pth (torch, 224151 bytes, 130 tensors)

tcn.d_reduce.weight f4 [32, 1, 1]
000000 9c 9b 83 bf d3 de 08 bf 57 69 88 be 20 b7 1f bf
       -1.0281863 -0.53465 -0.26642868 -0.623888
000010 7e 39 e1 be 55 ef 32 bf 2c 6d 23 3f 39 00 d2 3e
       -0.43989176 -0.6989644 0.6383846 0.41015795
000020 93 85 69 3d 0c 65 55 3f 66 c4 6a bd 07 10 6e bf
       0.057012152 0.8335731 -0.057316206 -0.92993206
000030 de e3 fd be 14 11 13 3f 43 9c 5a bf 00 67 86 bf
       -0.4958791 0.57447934 -0.85394686 -1.0500183
000040 4a 75 08 3e c4 e7 29 bf 42 ef 43 3f ee b9 2e be
       0.13325992 -0.6636927 0.76536953 -0.17063114
000050 5c cd 80 3f 3d 33 79 3d dd ad 07 3f ca f0 da 3d
       1.0062671 0.06083988 0.5299967 0.10690458
000060 7c d8 97 3e 60 84 37 3f 0f 80 1b bf 7e 62 4d 3f
       0.29657352 0.71686363 -0.60742277 0.8022841
000070 42 b6 ba be 4e ec 69 3e 46 71 8e bf c4 5a 10 3f
       -0.36467177 0.2284405 -1.1128318 0.563885

tcn.d_reduce.bias f4 [32]
000000 6b cf 32 bf 35 2f 0a 3f b3 cc 43 bf 36 0c d4 be
       -0.69847745 0.5397828 -0.7648422 -0.41415566
000010 4d d9 6a bf d7 bf 54 be c5 af ac be 0d b2 3e bf
       -0.91737825 -0.20776306 -0.33727852 -0.74490434
000020 3c 7e 9d 3e 94 30 66 3f e6 58 0a 3f bd a6 af be
       0.30760372 0.89917874 0.540419 -0.343069
000030 8a 62 9d 3e 45 a7 15 bf 92 39 71 3f 22 b4 49 be
       0.30739242 -0.5845836 0.9422847 -0.19697621
000040 89 20 8f be a7 76 f4 be 6e 8d 14 3f 2f 61 3c be
       -0.2795451 -0.47746775 0.58028305 -0.18396448
000050 95 db fd 3e 07 f7 10 bf db 86 97 be a7 43 65 bf
       0.4958159 -0.56626934 -0.29595074 -0.89556354
000060 0e 3b 17 bf 18 0a 24 bf 72 e6 60 bf a4 be 6d 3f
       -0.59074485 -0.640779 -0.8785163 0.9286902
000070 59 b4 f9 bd b4 5c 44 be 90 61 e2 bd 9e 37 b7 3e
       -0.12192602 -0.19175988 -0.11053765 0.3578462

tcn.network.0.conv1.bias f4 [32]
000000 c5 1d 77 bd dd 26 34 be f1 c6 d9 bd 15 d5 20 bd
       -0.060331125 -0.1759295 -0.10633648 -0.03926571
000010 5a fc 76 bc c1 7a d9 bd 93 42 26 be bb e6 f2 bc
       -0.015074814 -0.106191166 -0.16236334 -0.029651036
000020 c5 f5 49 bd de a7 27 bd 2a ea 95 ba d4 16 a7 bd
       -0.04930665 -0.040931575 -0.0011437584 -0.08158651
000030 fc c2 3f 3d 75 ab 87 3d 40 0d e4 bd ee a1 c7 bd
       0.04681681 0.066245 -0.1113534 -0.097476825
000040 4a ea c9 bd fe 66 f5 bd 48 5a 8d 3d 89 ba 56 bd
       -0.0985914 -0.11982535 0.069019854 -0.052423988
000050 f9 f3 f4 3c 58 da 59 3d 3c 0a dc 3c 33 bb 4c 3b
       0.029901491 0.053186744 0.026860349 0.003123951
000060 3c e5 f6 bd 7e c0 e8 bd 72 07 7b be 75 3a 8c 3d
       -0.12055442 -0.1136484 -0.24514559 0.06847087
000070 2c 38 97 bd ab 79 f8 bd fc ee 8a bd 33 c9 d8 bd
       -0.07383761 -0.12132581 -0.06783864 -0.10585251

tcn.network.0.conv1.weight_g f4 [32, 1, 1]
000000 5d 27 07 3f 39 e5 fd 3e 26 af 0e 3f 87 ef 06 3f
       0.5279444 0.49588946 0.55736005 0.5270924
000010 3f 94 18 3f 48 19 fa 3e 5e 77 17 3f 76 9e 13 3f
       0.59601206 0.48847413 0.59166515 0.5766367
000020 a0 17 fc 3e 58 25 09 3f b1 ae 09 3f a1 ca f6 3e
       0.49236774 0.5357261 0.5378218 0.4820147
000030 31 61 04 3f 13 b5 fe 3e 59 40 f9 3e e1 56 06 3f
       0.517108 0.49747524 0.48681906 0.52476317
000040 83 8d 0a 3f d3 ef 2b 3f eb d8 0d 3f c1 08 01 3f
       0.5412218 0.6716282 0.55409116 0.5040398
000050 b6 fb 0f 3f 24 0e 0e 3f 21 8c e6 3e ff f6 e0 3e
       0.56243455 0.55490327 0.45028785 0.43938443
000060 3d 17 0e 3f b7 ba 1a 3f 9a 50 1a 3f 37 37 06 3f
       0.5550421 0.60441154 0.6027924 0.52428
000070 5a e7 04 3f 3a 92 0b 3f ea 44 0b 3f 70 bb ec 3e
       0.51915514 0.5452 0.5440203 0.46236753

tcn.network.0.conv1.weight_v f4 [32, 32, 2]
000000 91 fb 27 3d 58 05 f5 3d 1b a6 6d bc ec dc 22 3d
       0.041011397 0.1196391 -0.014504935 0.03976147
000010 60 f5 dc bd a3 ab f1 bc 3b 70 35 bd 00 12 c0 bd
       -0.10788989 -0.029500788 -0.044296484 -0.09378433
000020 a2 fe aa 3d 91 37 db 3d 43 de 00 3d 61 bc c5 bc
       0.083493486 0.10703958 0.031461965 -0.024137678
000030 c8 cf 64 3c 04 be b7 bc b4 18 ad bd e2 48 41 bd
       0.013965555 -0.022429474 -0.08451977 -0.047188647
000040 e0 fa 2a bd 3b 64 95 3d f1 2a d0 3b 44 2e e3 bc
       -0.04174316 0.07294508 0.0063527753 -0.027732022
000050 64 3e 8d 3d b9 5d 0f bd 5b b5 99 bd 71 85 04 3e
       0.06896666 -0.03500149 -0.07505294 0.12941529
000060 55 70 f9 bd be f8 d1 bd da c2 ac bd 81 26 8a 3d
       -0.12179629 -0.10252522 -0.084356025 0.06745625
000070 f6 c5 f7 3d da f9 09 bd db d3 13 3d 49 43 c4 bd
       0.12098305 -0.033685543 0.036090713 -0.09583146
000080 59 47 bf 3d e4 1f 3b bc 8f 9d d7 bd 06 a0 29 3d
       0.0933978 -0.011421178 -0.10528099 0.041412376
000090 67 e4 c0 3c ce b8 c6 3d 2f a4 08 3e e3 b7 9d bc
       0.02354641 0.097032174 0.13343881 -0.019252723
0000a0 c1 09 a9 3d b9 f6 c3 bd f2 f7 e5 bd e0 55 55 bc
       0.082538135 -0.09568543 -0.112289324 -0.0130209625
0000b0 cb 11 ce 3d 0c a4 ee 3d b2 03 22 3d 0b 24 db 3d
       0.100619875 0.11652383 0.039554305 0.10700234
0000c0 8b 7b b3 3d 49 c3 0a 3e 92 f0 48 3d c2 fb a9 bd
       0.08763798 0.13551058 0.04905755 -0.08299972
0000d0 e0 dc 05 3d a5 14 53 3d a5 c9 02 be 7e 0a d5 3d
       0.032681346 0.05153336 -0.12772234 0.10402392
0000e0 5c 75 03 3e 88 59 fd bc 4c ed 84 bd 6d 5d 47 3d
       0.12837738 -0.03092648 -0.06490573 0.048673082
0000f0 d1 32 93 3d 00 0c 10 bb 7b 1a cc 3d 11 fd 29 bc
       0.07187427 -0.0021979809 0.09965988 -0.010375277
000100 2c 07 07 3e 7c 33 4c 3d 33 fa 16 3c 53 ef fa bd
       0.1318633 0.049853787 0.009214926 -0.12252679
000110 d7 f4 33 bd 09 42 a5 bc e5 f9 5b 3b c5 79 8a 3d
       -0.04393467 -0.02017309 0.0033565697 0.06761507
000120 67 e5 0c 3d 1a cc 34 bd 9b 9e bc 3d 90 60 86 bd
       0.034398463 -0.04413996 0.09209939 -0.065613866
000130 06 df 48 3d a2 c0 84 3d 29 43 c8 3c 83 0d 40 bc
       0.049040817 0.06482054 0.024446087 -0.011721971
000140 25 4e 1a be ba af 12 be 35 15 7b 3b 3a 25 07 bd
       -0.15068872 -0.14324847 0.00383122 -0.032994486
000150 fa a2 87 bd ba 91 d0 bd d5 0f dc 3d 4f a2 a1 bd
       -0.06622882 -0.10184045 0.10745207 -0.07892286
000160 d5 e9 b4 3d 9a e9 f6 bd 10 d0 e3 b5 2f c9 b7 3d
       0.088336624 -0.12056275 -1.6973372e-06 0.089739196
000170 d5 51 dc 3c 3b e1 24 3d 2f ea 70 bc ea 1a 1d be
       0.02689449 0.04025386 -0.014704271 -0.15342298
000180 91 71 d7 bd 26 56 d7 3d 74 57 e7 bc 71 63 51 bd
       -0.10519708 0.105144784 -0.028239943 -0.051120225
000190 29 cc 88 bd b1 a9 54 bc bd a7 22 bd 3b ff e9 bd
       -0.066795655 -0.012979911 -0.03971075 -0.114256345
0001a0 dd bc 14 bd cb 97 17 bd a1 e8 60 3d 83 5d cd 3d
       -0.036312927 -0.037009995 0.054909352 0.100276016
0001b0 41 1b 83 bd e4 4e e2 3d 02 90 63 3d 0e d2 12 3e
       -0.06401683 0.110502034 0.05555726 0.14337942
0001c0 77 2a 7b 3d f2 9f 16 3e 85 0f 87 bd d2 ae cf b9
       0.061319795 0.14709452 -0.06594757 -0.00039612368
0001d0 3e 0a be 3d cc 6f 97 3c 65 a4 0a be b8 39 eb bd
       0.09279297 0.018485926 -0.13539274 -0.11485618
0001e0 d8 0f 47 3c 9e 09 c6 bd ca 97 27 3d 2a 41 0e bd
       0.012149774 -0.09669803 0.04091624 -0.034730114
0001f0 8d c2 97 3d e8 4f a1 bd 8c 7c 31 3c 49 23 0e 3e
       0.074101545 -0.07876569 0.010832917 0.13880648
000200 c7 d4 ab 3d ec a1 61 bc 11 38 3f bc e8 1f fa ba
       0.083901934 -0.013771515 -0.011671082 -0.0019082995
000210 d6 3b f8 3d 4c 8c a0 bd 65 1b 00 3e 4e f7 c9 3c
       0.12120788 -0.078392595 0.1251045 0.024654057
000220 84 53 a9 bd 70 1f 33 bd 29 1d 90 3d 24 8e ba bc
       -0.082678825 -0.043731153 0.07036812 -0.022772856
000230 49 7d 28 bd dc e0 de 3d f6 bb 40 bd 88 07 c1 bd
       -0.041135106 0.10882732 -0.047054254 -0.094252646
000240 de 3d 88 3c 66 3b 10 3d f6 99 c2 3d cb f9 d0 3d
       0.016631063 0.035212897 0.09502022 0.10203894
000250 ec e5 1a 3d 44 42 2e bd da 1e b3 3d 3c a9 ca 3c
       0.037816927 -0.042543665 0.08746119 0.0247389
000260 f7 8d bc b9 d2 ef 01 3c a0 06 7a 3c fa f3 01 3c
       -0.00035963926 0.007930713 0.015260369 0.007931704
000270 23 b3 eb bd 2d c4 f5 3b cc d0 c6 bc 22 88 28 3d
       -0.11508777 0.0075001926 -0.024269484 0.04114545
000280 61 a9 24 3d 6d 07 6e bd d9 9b 4c bd 98 f3 12 bd
       0.040200595 -0.05811255 -0.049953315 -0.03587684
000290 0c 31 1b bd 7d a5 8f bc 2d b8 25 bd bb 3a d9 3d
       -0.03788857 -0.017534966 -0.040458847 0.10606905
0002a0 d1 e9 f0 3d ed 43 b6 bd e8 d9 a6 bd 08 60 04 3e
       0.11763347 -0.088996746 -0.08147031 0.12927258
0002b0 17 b3 5e bb 6a 2e e4 bc d3 42 03 3e 0e 01 2e bc
       -0.0033981258 -0.027854163 0.1281846 -0.010620369
0002c0 1d fb 90 bd 0d 6d a1 3b 75 bd e0 3d 63 dc 56 3d
       -0.07079146 0.00492633 0.10973636 0.05245627
0002d0 80 62 59 3d 79 89 12 3e ae 70 77 bd f0 b4 06 3c
       0.053072453 0.14310254 -0.060410194 0.00822185
0002e0 16 fc 9f 3c c6 a9 09 bd b5 32 af bd 27 af e7 bc
       0.019529384 -0.033609174 -0.085545935 -0.028281761
0002f0 44 35 85 3d c6 cb b2 bd c6 23 ca 3d 54 d8 d6 bd
       0.065043 -0.08730273 0.098701045 -0.1049048
000300 ac d8 59 bd 8d 22 19 bd 4f cc f4 3d 09 f6 91 bd
       -0.05318515 -0.037386466 0.11953031 -0.071270056
000310 4f 31 09 3e 41 64 ce bd 98 47 6c bd ce aa 61 3e
       0.13397716 -0.10077716 -0.057685465 0.22037813
000320 4e 6c c8 3d d6 90 8a bd 0a c7 ac 3d bc 19 b9 3d
       0.097862825 -0.067659065 0.08436401 0.090381116
000330 d8 ae eb 3d 4e df a4 bc e7 16 74 bd 33 1b 98 bd
       0.11507958 -0.020126011 -0.059592154 -0.07427063
000340 47 6a f1 bd 25 82 ca 3b 26 9a bf bd 2f 47 42 be
       -0.11787849 0.006180065 -0.09355573 -0.18972467
000350 6c 2d 10 be 44 55 56 bd 70 ee b7 3d 0a 50 32 3d
       -0.14079827 -0.05232741 0.08981025 0.043533362
000360 00 88 c4 bd 6e a7 e3 3d ff 5e da 3c 3e fa df 3d
       -0.095962524 0.11115919 0.026656626 0.10936402
000370 0b 57 3c bd e6 30 f5 3d 0d 9b 3f 3c fc 36 be bd
       -0.04598145 0.11972217 0.011694682 -0.09287831
000380 92 31 a3 bc 3e 2c cd 3d df 32 e0 bc 2f 05 62 3e
       -0.019921098 0.10018204 -0.027368007 0.2207229
000390 3f 52 2f bd 3a 18 24 bd a7 0a 8b bd 13 6b 34 3e
       -0.042803045 -0.040062167 -0.06789141 0.1761897
0003a0 ff 99 00 bd d9 1d 42 3d 0d 2d e8 bd 5b 86 21 3d
       -0.031396862 0.047391746 -0.11336718 0.039434772
0003b0 ea ba 62 3d 7c 28 fe bd 66 2b c9 3b 69 50 1f 3c
       0.055354036 -0.124100655 0.0061392067 0.009723761
0003c0 7b 79 e3 bd 12 de e1 bc 68 06 f2 bd 5c 12 b2 3d
       -0.11107155 -0.027571712 -0.11817628 0.08694908
0003d0 4d 2c 0a 3e f2 82 b1 bd d2 8f 08 be 79 1f 28 3d
       0.13493462 -0.08667554 -0.13336113 0.04104564
0003e0 8b 23 05 3e 0c 3f a0 3e 71 ae b8 bd a9 a4 c9 3d
       0.1300184 0.312981 -0.09017647 0.098458596
0003f0 e7 72 73 bc 4d 6e d9 3d 81 97 86 bd 0f 7b c2 be
       -0.014858938 0.10616741 -0.06571866 -0.3798451

tcn.network.0.conv2.bias f4 [32]
000000 ac ba 02 be c6 dc af 3d 25 bf 37 3d f9 d2 09 bd
       -0.12766522 0.08587031 0.044860024 -0.033648465
000010 a5 0b b9 ba e7 94 14 bc e7 47 87 bb b4 c7 10 3d
       -0.001411785 -0.009068704 -0.0041284445 0.0353467
000020 99 6f 46 3c 7d 93 0c 3d 05 41 69 bd 20 d0 cc bd
       0.012111568 0.034320343 -0.056946773 -0.10000634
000030 23 4e 33 bd 49 06 00 be 2f c0 d8 3c 26 72 32 bb
       -0.04377569 -0.12502398 0.026458828 -0.0027228682
000040 9a dd 90 3d 6f 42 fe 3c b4 d8 00 3c d7 9f 5b bd
       0.07073517 0.031037537 0.007864166 -0.053619232
000050 12 19 0b be 34 46 44 bd ae c1 c3 bd 95 f2 30 3c
       -0.13583782 -0.047918513 -0.09558426 0.010800024
000060 00 cd f0 bd a6 16 44 bd 0b 86 76 3b 2d f3 b1 bb
       -0.11757851 -0.04787316 0.0037616517 -0.0054306
000070 62 10 29 3d e5 e7 4c bd 12 7a cf bd 6a 44 07 bd
       0.04127539 -0.05002584 -0.10130705 -0.03302423

tcn.network.0.conv2.weight_g f4 [32, 1, 1]
000000 be 9e 0b 3f 0e 57 16 3f 1a 31 ed 3e d2 23 01 3f
       0.54539096 0.58726585 0.46326524 0.5044528
000010 b9 db 0d 3f 48 4c 08 3f 7e 3c 01 3f ad 7c 06 3f
       0.55413395 0.53241396 0.5048293 0.5253399
000020 57 10 1b 3f 42 60 07 3f 9d 58 05 3f f3 e9 17 3f
       0.6057181 0.5288125 0.5208834 0.59341353
000030 81 48 0b 3f de ac 08 3f 23 11 0f 3f fa 17 38 3f
       0.5440751 0.53388774 0.55885524 0.71911585
000040 cf 6f 0c 3f 33 a7 0e 3f 68 1c 0a 3f 3a 5c 25 3f
       0.54858106 0.55723876 0.53949594 0.6459385
000050 10 b4 01 3f 1b 50 10 3f 68 51 15 3f 74 a1 08 3f
       0.5066538 0.5637223 0.5832734 0.5337136
000060 2c 97 08 3f 6c 38 0b 3f bd ee 10 3f 15 82 04 3f
       0.5335567 0.5438297 0.56614286 0.5176099
000070 5c 0b 0d 3f 42 22 09 3f 92 2f 03 3f b8 ba 11 3f
       0.5509546 0.535679 0.5124446 0.56925535

tcn.network.0.conv2.weight_v f4 [32, 32, 2]
000000 9a d0 e2 bd 8d 16 33 3d 1a ae 88 3d 84 5c 10 3e
       -0.11074944 0.043722678 0.06673832 0.14097792
000010 bd d9 19 3e cc a3 39 3d b3 65 0c 3e 49 a8 fb bd
       0.15024467 0.045322224 0.1371067 -0.12287957
000020 43 be a7 3d 7f 68 c2 bd f0 6c b4 bd 14 21 ba bd
       0.081905864 -0.09492587 -0.08809841 -0.090883404
000030 72 5a 32 3e 82 2f 1c bd 7b 18 1f 3e 74 ce 24 be
       0.17417315 -0.038131244 0.15536682 -0.1609438
000040 b4 46 c1 bc ea 8a 27 be fb 12 f5 bd b7 7e 14 3d
       -0.023593284 -0.16361585 -0.11966511 0.036253657
000050 be 9c 0a be d3 d9 b1 3d 6f 52 26 3e f6 29 87 bd
       -0.13536355 0.08684125 0.16242383 -0.065998
000060 60 dd 83 3d 4d 61 62 bd 96 9f 01 be 7b 7a a2 3d
       0.06438708 -0.055268575 -0.12658533 0.079335175
000070 d5 76 a4 3d 0a 5f c1 bd 10 b1 1e bd e9 f2 38 bd
       0.08030478 -0.094419554 -0.03874308 -0.045153532
000080 a9 6f 02 3e 81 f3 2b 3e 05 79 57 3e 4e 28 00 3e
       0.12737907 0.16792108 0.21042259 0.12515375
000090 6b 94 80 3d 9a a9 0c 3e f8 c3 70 bd 51 9c 4a 3c
       0.062783085 0.13736573 -0.05878064 0.01236637
0000a0 c7 b4 29 be 0e 63 be bd ce 36 a9 3c 32 ab af 3d
       -0.16572867 -0.09296237 0.020656016 0.08577575
0000b0 15 86 d0 3b 8e 9b 93 3d fe 45 d0 bc 51 61 16 bd
       0.00636364 0.07207404 -0.025424 -0.036713902
0000c0 09 49 d1 bd c6 44 1a 3d c0 a0 c4 bd 93 bc 0d bd
       -0.102190085 0.037663244 -0.09600973 -0.034603667
0000d0 b7 e3 5d 3a 82 ea 81 bd 6d e3 bc 3d 66 9b 9e 3d
       0.0008464413 -0.06343557 0.092230655 0.07744484
0000e0 2b 0f 0c 3e 96 67 9d bd 62 ea 18 be 0b f3 03 be
       0.13677661 -0.07685773 -0.1493316 -0.12885682
0000f0 1f e1 af 3d 5f 65 d2 3d 08 b2 19 3d ea b9 5b 3d
       0.0858786 0.10273241 0.0375233 0.0536441
000100 57 1e 15 3d 7a 97 ed bd 4c 79 c2 3d 47 35 e4 bd
       0.036405887 -0.116011575 0.09495792 -0.11142974
000110 22 3d 96 3d dc 91 9f 3d 12 c0 e2 3d 48 0b 83 3d
       0.07335879 0.07791492 0.11071791 0.06398636
000120 3e b3 71 3d ed c2 75 3d 80 0e 8a 3d 49 5d 88 bc
       0.05900883 0.06000035 0.06741047 -0.016646044
000130 07 e0 3b 3d 91 4c 65 bd 2d 08 ac 3d 0a 9e 64 3d
       0.045867946 -0.055981223 0.08399997 0.05581478
000140 96 a2 bf 3b ce e4 b6 3d e1 f0 e5 bc 92 64 bb 3d
       0.005848239 0.0893036 -0.028068962 0.09150042
000150 d7 7f 9d 3d 4e 63 9e bc e0 22 26 3c f9 38 8c 3d
       0.07690399 -0.019334462 0.010140151 0.06846804
000160 88 8e ab bd 35 9e fd bd 99 02 f9 bd 93 8b 13 be
       -0.08376795 -0.12383691 -0.121586986 -0.14408712
000170 04 0c a0 bd db 5d d1 3d 77 6a 32 3d 70 b6 ab bd
       -0.07814792 0.1022298 0.043558564 -0.083844066
000180 ff 93 83 bd 82 42 b1 bd 01 5a 30 bd 82 db d2 3a
       -0.064247124 -0.086552635 -0.043054584 0.0016087147
000190 56 4e 80 bb a7 c1 20 3e 70 91 7d bd ac b0 a0 3d
       -0.0039155884 0.15698873 -0.061906278 0.078461975
0001a0 0b 41 32 bc e4 04 81 3d 08 7a f1 bd e0 d8 16 be
       -0.010879765 0.06299761 -0.11790854 -0.14731169
0001b0 8d 19 81 bd 11 1e c5 bb ef f5 32 3d 56 f2 c4 bd
       -0.063037015 -0.006015547 0.04369157 -0.096165344
0001c0 24 32 bc bc 8d e0 1d be 65 84 21 be f5 4e df 3d
       -0.022973128 -0.1541769 -0.15773161 0.10903732
0001d0 89 1f a4 bd a2 3b b1 bd ec ae 03 be f7 60 a5 bd
       -0.08013827 -0.08653952 -0.12859696 -0.08075135
0001e0 33 7a 86 bc fb 68 40 bd 91 a6 02 be c3 d0 fb bd
       -0.016415691 -0.046975117 -0.12758853 -0.122956775
0001f0 1b b1 c3 3d 12 a3 bb 3c f6 6d c2 3d a8 2b 88 3d
       0.095552646 0.022904906 0.0949363 0.06648952
000200 5a 0a 8b bc fa 6d 92 bc 98 f1 06 3e 24 71 12 3e
       -0.01697271 -0.017874707 0.13178098 0.14300972
000210 4c 68 07 be 85 9e 04 3e 94 f9 31 be 55 ba 25 be
       -0.1322338 0.12951095 -0.17380363 -0.16184361
000220 cb 90 4a be df de 0e be df 3f 09 3d 73 ed f8 3d
       -0.19781797 -0.13952206 0.033508178 0.12154665
000230 76 12 6a bc 88 9b e8 bc a3 24 6e bd a6 5d cb bd
       -0.014286628 -0.028394476 -0.05814041 -0.099299714
000240 1f 72 e9 3d 65 f7 7b bd a8 79 d0 bd a5 1b 02 3e
       0.1139872 -0.06151523 -0.10179454 0.12705858
000250 3b fc 4a be 8b d8 01 3e 62 65 aa bd d9 53 33 3e
       -0.19822781 0.12680261 -0.083201185 0.17512454
000260 d8 1c 3d 3d 90 e7 ed 3d 29 56 b3 bd 0f c1 af 3c
       0.046170086 0.11616433 -0.08756668 0.021454362
000270 77 14 7c bd e9 af c3 3d 6d 10 e2 bd f7 cf 0a 3e
       -0.061542954 0.095550366 -0.11038289 0.13555895
000280 46 d8 cf bd d3 19 ed 3d 03 73 66 bd 4d 57 5d bd
       -0.10148673 0.11577191 -0.056262027 -0.054038335
000290 40 37 2f be 23 45 08 be 83 e5 bf bc d4 74 bf 3d
       -0.1711092 -0.13307624 -0.02342487 0.09348455
0002a0 e7 5d 8b bc 69 40 11 3e 6a b3 3c be 8a f8 5f 3e
       -0.01701255 0.14184727 -0.18427816 0.21872154
0002b0 0d fd 80 bc a0 3d d5 bd 18 ec ba 3c 6a 9e 70 3d
       -0.015745664 -0.10412145 0.022817656 0.058744825
0002c0 36 03 38 3e 9f 0d 1f 3e 65 3f b0 3c 9c 49 28 3c
       0.17969975 0.1553254 0.021514604 0.010271456
0002d0 3e fe 08 3e 64 ec 06 3e 2c 11 d0 3d 71 9a 56 bd
       0.13378236 0.13176113 0.10159525 -0.05239338
0002e0 24 00 1d be ea e4 2b be f9 25 e0 3d 67 55 08 be
       -0.15332085 -0.16786543 0.10944743 -0.13313828
0002f0 d9 26 ee bc cd d8 26 be 09 66 3b 3d 5c df 40 3d
       -0.029071258 -0.1629364 0.045751605 0.047088012
000300 f7 17 fc bd 3b 87 7b 3d 3e 11 25 be 93 b7 ab 3d
       -0.123092584 0.061408263 -0.16119859 0.083846234
000310 03 12 15 3e 91 f3 e7 3d 26 2c b9 bd 48 8d ab bb
       0.14557652 0.113257535 -0.09041624 -0.005235348
000320 46 46 a5 b8 8b 51 9c bd 00 0e 84 bd e7 4b 45 bc
       -7.8809026e-05 -0.076327406 -0.06447983 -0.012042022
000330 0c 4f fd 3d 2f 72 a2 3d fc 54 0c 3d fe 95 a8 3d
       0.123685926 0.07931935 0.034260735 0.08231734
000340 e4 5b 1b bc e5 63 7a 3b 17 f0 18 3e 36 e3 4f 3e
       -0.009482358 0.0038206514 0.14935337 0.20301518
000350 75 9c f4 bd 97 19 22 3e a9 49 83 3d 24 82 c9 3c
       -0.11943904 0.15830074 0.06410534 0.024598189
000360 cf 1b 12 3a 9c 0f d6 3d b3 b6 18 be a6 01 56 bc
       0.0005573602 0.10452196 -0.14913444 -0.013061916
000370 3b a2 1a 3e 8d 23 13 3e 39 1a 7b 3c 32 1f 02 3e
       0.15100949 0.1436903 0.015326076 0.12707213
000380 4c ec b9 3d 0b d8 94 3d 03 d6 8a 3d ac 76 34 3e
       0.09078273 0.072677694 0.06779101 0.17623395
000390 dc 76 49 3d 5d 08 60 bd 6a d8 c9 3d a1 dd 21 be
       0.04918562 -0.054695476 0.09855731 -0.15807201
0003a0 44 12 c6 3d f6 c6 c6 bd ac 9f d1 3d d7 0a 72 3d
       0.09671453 -0.097059175 0.10235533 0.05909237
0003b0 d7 fc e6 bd d0 3a 2e 3e 1a 84 69 bd 7a 49 82 bd
       -0.11278694 0.17014623 -0.057010747 -0.06361671
0003c0 aa 3a aa bd 93 69 0f 3e 07 9c 37 be 63 bf e4 bd
       -0.083119705 0.14005117 -0.17930613 -0.111693166
0003d0 5a 09 91 3d e3 23 2c 3e bd 88 b8 bd 52 e5 21 be
       0.07081862 0.16810565 -0.09010456 -0.15810135
0003e0 94 b6 cc bd fb dc 71 3d 29 ae ad 3d db 54 bf bc
       -0.099957615 0.059048634 0.08480484 -0.023355892
0003f0 98 01 c7 3d 54 5f d3 3d f5 96 06 be fd c7 1d bd
       0.09717101 0.10320917 -0.13143523 -0.0385208

tcn.network.0.net.0.bias f4 [32]
000000 c5 1d 77 bd dd 26 34 be f1 c6 d9 bd 15 d5 20 bd
       -0.060331125 -0.1759295 -0.10633648 -0.03926571
000010 5a fc 76 bc c1 7a d9 bd 93 42 26 be bb e6 f2 bc
       -0.015074814 -0.106191166 -0.16236334 -0.029651036
000020 c5 f5 49 bd de a7 27 bd 2a ea 95 ba d4 16 a7 bd
       -0.04930665 -0.040931575 -0.0011437584 -0.08158651
000030 fc c2 3f 3d 75 ab 87 3d 40 0d e4 bd ee a1 c7 bd
       0.04681681 0.066245 -0.1113534 -0.097476825
000040 4a ea c9 bd fe 66 f5 bd 48 5a 8d 3d 89 ba 56 bd
       -0.0985914 -0.11982535 0.069019854 -0.052423988
000050 f9 f3 f4 3c 58 da 59 3d 3c 0a dc 3c 33 bb 4c 3b
       0.029901491 0.053186744 0.026860349 0.003123951
000060 3c e5 f6 bd 7e c0 e8 bd 72 07 7b be 75 3a 8c 3d
       -0.12055442 -0.1136484 -0.24514559 0.06847087
000070 2c 38 97 bd ab 79 f8 bd fc ee 8a bd 33 c9 d8 bd
       -0.07383761 -0.12132581 -0.06783864 -0.10585251

tcn.network.0.net.0.weight_g f4 [32, 1, 1]
000000 5d 27 07 3f 39 e5 fd 3e 26 af 0e 3f 87 ef 06 3f
       0.5279444 0.49588946 0.55736005 0.5270924
000010 3f 94 18 3f 48 19 fa 3e 5e 77 17 3f 76 9e 13 3f
       0.59601206 0.48847413 0.59166515 0.5766367
000020 a0 17 fc 3e 58 25 09 3f b1 ae 09 3f a1 ca f6 3e
       0.49236774 0.5357261 0.5378218 0.4820147
000030 31 61 04 3f 13 b5 fe 3e 59 40 f9 3e e1 56 06 3f
       0.517108 0.49747524 0.48681906 0.52476317
000040 83 8d 0a 3f d3 ef 2b 3f eb d8 0d 3f c1 08 01 3f
       0.5412218 0.6716282 0.55409116 0.5040398
000050 b6 fb 0f 3f 24 0e 0e 3f 21 8c e6 3e ff f6 e0 3e
       0.56243455 0.55490327 0.45028785 0.43938443
000060 3d 17 0e 3f b7 ba 1a 3f 9a 50 1a 3f 37 37 06 3f
       0.5550421 0.60441154 0.6027924 0.52428
000070 5a e7 04 3f 3a 92 0b 3f ea 44 0b 3f 70 bb ec 3e
       0.51915514 0.5452 0.5440203 0.46236753

tcn.network.0.net.0.weight_v f4 [32, 32, 2]
000000 91 fb 27 3d 58 05 f5 3d 1b a6 6d bc ec dc 22 3d
       0.041011397 0.1196391 -0.014504935 0.03976147
000010 60 f5 dc bd a3 ab f1 bc 3b 70 35 bd 00 12 c0 bd
       -0.10788989 -0.029500788 -0.044296484 -0.09378433
000020 a2 fe aa 3d 91 37 db 3d 43 de 00 3d 61 bc c5 bc
       0.083493486 0.10703958 0.031461965 -0.024137678
000030 c8 cf 64 3c 04 be b7 bc b4 18 ad bd e2 48 41 bd
       0.013965555 -0.022429474 -0.08451977 -0.047188647
000040 e0 fa 2a bd 3b 64 95 3d f1 2a d0 3b 44 2e e3 bc
       -0.04174316 0.07294508 0.0063527753 -0.027732022
000050 64 3e 8d 3d b9 5d 0f bd 5b b5 99 bd 71 85 04 3e
       0.06896666 -0.03500149 -0.07505294 0.12941529
000060 55 70 f9 bd be f8 d1 bd da c2 ac bd 81 26 8a 3d
       -0.12179629 -0.10252522 -0.084356025 0.06745625
000070 f6 c5 f7 3d da f9 09 bd db d3 13 3d 49 43 c4 bd
       0.12098305 -0.033685543 0.036090713 -0.09583146
000080 59 47 bf 3d e4 1f 3b bc 8f 9d d7 bd 06 a0 29 3d
       0.0933978 -0.011421178 -0.10528099 0.041412376
000090 67 e4 c0 3c ce b8 c6 3d 2f a4 08 3e e3 b7 9d bc
       0.02354641 0.097032174 0.13343881 -0.019252723
0000a0 c1 09 a9 3d b9 f6 c3 bd f2 f7 e5 bd e0 55 55 bc
       0.082538135 -0.09568543 -0.112289324 -0.0130209625
0000b0 cb 11 ce 3d 0c a4 ee 3d b2 03 22 3d 0b 24 db 3d
       0.100619875 0.11652383 0.039554305 0.10700234
0000c0 8b 7b b3 3d 49 c3 0a 3e 92 f0 48 3d c2 fb a9 bd
       0.08763798 0.13551058 0.04905755 -0.08299972
0000d0 e0 dc 05 3d a5 14 53 3d a5 c9 02 be 7e 0a d5 3d
       0.032681346 0.05153336 -0.12772234 0.10402392
0000e0 5c 75 03 3e 88 59 fd bc 4c ed 84 bd 6d 5d 47 3d
       0.12837738 -0.03092648 -0.06490573 0.048673082
0000f0 d1 32 93 3d 00 0c 10 bb 7b 1a cc 3d 11 fd 29 bc
       0.07187427 -0.0021979809 0.09965988 -0.010375277
000100 2c 07 07 3e 7c 33 4c 3d 33 fa 16 3c 53 ef fa bd
       0.1318633 0.049853787 0.009214926 -0.12252679
000110 d7 f4 33 bd 09 42 a5 bc e5 f9 5b 3b c5 79 8a 3d
       -0.04393467 -0.02017309 0.0033565697 0.06761507
000120 67 e5 0c 3d 1a cc 34 bd 9b 9e bc 3d 90 60 86 bd
       0.034398463 -0.04413996 0.09209939 -0.065613866
000130 06 df 48 3d a2 c0 84 3d 29 43 c8 3c 83 0d 40 bc
       0.049040817 0.06482054 0.024446087 -0.011721971
000140 25 4e 1a be ba af 12 be 35 15 7b 3b 3a 25 07 bd
       -0.15068872 -0.14324847 0.00383122 -0.032994486
000150 fa a2 87 bd ba 91 d0 bd d5 0f dc 3d 4f a2 a1 bd
       -0.06622882 -0.10184045 0.10745207 -0.07892286
000160 d5 e9 b4 3d 9a e9 f6 bd 10 d0 e3 b5 2f c9 b7 3d
       0.088336624 -0.12056275 -1.6973372e-06 0.089739196
000170 d5 51 dc 3c 3b e1 24 3d 2f ea 70 bc ea 1a 1d be
       0.02689449 0.04025386 -0.014704271 -0.15342298
000180 91 71 d7 bd 26 56 d7 3d 74 57 e7 bc 71 63 51 bd
       -0.10519708 0.105144784 -0.028239943 -0.051120225
000190 29 cc 88 bd b1 a9 54 bc bd a7 22 bd 3b ff e9 bd
       -0.066795655 -0.012979911 -0.03971075 -0.114256345
0001a0 dd bc 14 bd cb 97 17 bd a1 e8 60 3d 83 5d cd 3d
       -0.036312927 -0.037009995 0.054909352 0.100276016
0001b0 41 1b 83 bd e4 4e e2 3d 02 90 63 3d 0e d2 12 3e
       -0.06401683 0.110502034 0.05555726 0.14337942
0001c0 77 2a 7b 3d f2 9f 16 3e 85 0f 87 bd d2 ae cf b9
       0.061319795 0.14709452 -0.06594757 -0.00039612368
0001d0 3e 0a be 3d cc 6f 97 3c 65 a4 0a be b8 39 eb bd
       0.09279297 0.018485926 -0.13539274 -0.11485618
0001e0 d8 0f 47 3c 9e 09 c6 bd ca 97 27 3d 2a 41 0e bd
       0.012149774 -0.09669803 0.04091624 -0.034730114
0001f0 8d c2 97 3d e8 4f a1 bd 8c 7c 31 3c 49 23 0e 3e
       0.074101545 -0.07876569 0.010832917 0.13880648
000200 c7 d4 ab 3d ec a1 61 bc 11 38 3f bc e8 1f fa ba
       0.083901934 -0.013771515 -0.011671082 -0.0019082995
000210 d6 3b f8 3d 4c 8c a0 bd 65 1b 00 3e 4e f7 c9 3c
       0.12120788 -0.078392595 0.1251045 0.024654057
000220 84 53 a9 bd 70 1f 33 bd 29 1d 90 3d 24 8e ba bc
       -0.082678825 -0.043731153 0.07036812 -0.022772856
000230 49 7d 28 bd dc e0 de 3d f6 bb 40 bd 88 07 c1 bd
       -0.041135106 0.10882732 -0.047054254 -0.094252646
000240 de 3d 88 3c 66 3b 10 3d f6 99 c2 3d cb f9 d0 3d
       0.016631063 0.035212897 0.09502022 0.10203894
000250 ec e5 1a 3d 44 42 2e bd da 1e b3 3d 3c a9 ca 3c
       0.037816927 -0.042543665 0.08746119 0.0247389
000260 f7 8d bc b9 d2 ef 01 3c a0 06 7a 3c fa f3 01 3c
       -0.00035963926 0.007930713 0.015260369 0.007931704
000270 23 b3 eb bd 2d c4 f5 3b cc d0 c6 bc 22 88 28 3d
       -0.11508777 0.0075001926 -0.024269484 0.04114545
000280 61 a9 24 3d 6d 07 6e bd d9 9b 4c bd 98 f3 12 bd
       0.040200595 -0.05811255 -0.049953315 -0.03587684
000290 0c 31 1b bd 7d a5 8f bc 2d b8 25 bd bb 3a d9 3d
       -0.03788857 -0.017534966 -0.040458847 0.10606905
0002a0 d1 e9 f0 3d ed 43 b6 bd e8 d9 a6 bd 08 60 04 3e
       0.11763347 -0.088996746 -0.08147031 0.12927258
0002b0 17 b3 5e bb 6a 2e e4 bc d3 42 03 3e 0e 01 2e bc
       -0.0033981258 -0.027854163 0.1281846 -0.010620369
0002c0 1d fb 90 bd 0d 6d a1 3b 75 bd e0 3d 63 dc 56 3d
       -0.07079146 0.00492633 0.10973636 0.05245627
0002d0 80 62 59 3d 79 89 12 3e ae 70 77 bd f0 b4 06 3c
       0.053072453 0.14310254 -0.060410194 0.00822185
0002e0 16 fc 9f 3c c6 a9 09 bd b5 32 af bd 27 af e7 bc
       0.019529384 -0.033609174 -0.085545935 -0.028281761
0002f0 44 35 85 3d c6 cb b2 bd c6 23 ca 3d 54 d8 d6 bd
       0.065043 -0.08730273 0.098701045 -0.1049048
000300 ac d8 59 bd 8d 22 19 bd 4f cc f4 3d 09 f6 91 bd
       -0.05318515 -0.037386466 0.11953031 -0.071270056
000310 4f 31 09 3e 41 64 ce bd 98 47 6c bd ce aa 61 3e
       0.13397716 -0.10077716 -0.057685465 0.22037813
000320 4e 6c c8 3d d6 90 8a bd 0a c7 ac 3d bc 19 b9 3d
       0.097862825 -0.067659065 0.08436401 0.090381116
000330 d8 ae eb 3d 4e df a4 bc e7 16 74 bd 33 1b 98 bd
       0.11507958 -0.020126011 -0.059592154 -0.07427063
000340 47 6a f1 bd 25 82 ca 3b 26 9a bf bd 2f 47 42 be
       -0.11787849 0.006180065 -0.09355573 -0.18972467
000350 6c 2d 10 be 44 55 56 bd 70 ee b7 3d 0a 50 32 3d
       -0.14079827 -0.05232741 0.08981025 0.043533362
000360 00 88 c4 bd 6e a7 e3 3d ff 5e da 3c 3e fa df 3d
       -0.095962524 0.11115919 0.026656626 0.10936402
000370 0b 57 3c bd e6 30 f5 3d 0d 9b 3f 3c fc 36 be bd
       -0.04598145 0.11972217 0.011694682 -0.09287831
000380 92 31 a3 bc 3e 2c cd 3d df 32 e0 bc 2f 05 62 3e
       -0.019921098 0.10018204 -0.027368007 0.2207229
000390 3f 52 2f bd 3a 18 24 bd a7 0a 8b bd 13 6b 34 3e
       -0.042803045 -0.040062167 -0.06789141 0.1761897
0003a0 ff 99 00 bd d9 1d 42 3d 0d 2d e8 bd 5b 86 21 3d
       -0.031396862 0.047391746 -0.11336718 0.039434772
0003b0 ea ba 62 3d 7c 28 fe bd 66 2b c9 3b 69 50 1f 3c
       0.055354036 -0.124100655 0.0061392067 0.009723761
0003c0 7b 79 e3 bd 12 de e1 bc 68 06 f2 bd 5c 12 b2 3d
       -0.11107155 -0.027571712 -0.11817628 0.08694908
0003d0 4d 2c 0a 3e f2 82 b1 bd d2 8f 08 be 79 1f 28 3d
       0.13493462 -0.08667554 -0.13336113 0.04104564
0003e0 8b 23 05 3e 0c 3f a0 3e 71 ae b8 bd a9 a4 c9 3d
       0.1300184 0.312981 -0.09017647 0.098458596
0003f0 e7 72 73 bc 4d 6e d9 3d 81 97 86 bd 0f 7b c2 be
       -0.014858938 0.10616741 -0.06571866 -0.3798451

tcn.network.0.net.4.bias f4 [32]
000000 ac ba 02 be c6 dc af 3d 25 bf 37 3d f9 d2 09 bd
       -0.12766522 0.08587031 0.044860024 -0.033648465
000010 a5 0b b9 ba e7 94 14 bc e7 47 87 bb b4 c7 10 3d
       -0.001411785 -0.009068704 -0.0041284445 0.0353467
000020 99 6f 46 3c 7d 93 0c 3d 05 41 69 bd 20 d0 cc bd
       0.012111568 0.034320343 -0.056946773 -0.10000634
000030 23 4e 33 bd 49 06 00 be 2f c0 d8 3c 26 72 32 bb
       -0.04377569 -0.12502398 0.026458828 -0.0027228682
000040 9a dd 90 3d 6f 42 fe 3c b4 d8 00 3c d7 9f 5b bd
       0.07073517 0.031037537 0.007864166 -0.053619232
000050 12 19 0b be 34 46 44 bd ae c1 c3 bd 95 f2 30 3c
       -0.13583782 -0.047918513 -0.09558426 0.010800024
000060 00 cd f0 bd a6 16 44 bd 0b 86 76 3b 2d f3 b1 bb
       -0.11757851 -0.04787316 0.0037616517 -0.0054306
000070 62 10 29 3d e5 e7 4c bd 12 7a cf bd 6a 44 07 bd
       0.04127539 -0.05002584 -0.10130705 -0.03302423

tcn.network.0.net.4.weight_g f4 [32, 1, 1]
000000 be 9e 0b 3f 0e 57 16 3f 1a 31 ed 3e d2 23 01 3f
       0.54539096 0.58726585 0.46326524 0.5044528
000010 b9 db 0d 3f 48 4c 08 3f 7e 3c 01 3f ad 7c 06 3f
       0.55413395 0.53241396 0.5048293 0.5253399
000020 57 10 1b 3f 42 60 07 3f 9d 58 05 3f f3 e9 17 3f
       0.6057181 0.5288125 0.5208834 0.59341353
000030 81 48 0b 3f de ac 08 3f 23 11 0f 3f fa 17 38 3f
       0.5440751 0.53388774 0.55885524 0.71911585
000040 cf 6f 0c 3f 33 a7 0e 3f 68 1c 0a 3f 3a 5c 25 3f
       0.54858106 0.55723876 0.53949594 0.6459385
000050 10 b4 01 3f 1b 50 10 3f 68 51 15 3f 74 a1 08 3f
       0.5066538 0.5637223 0.5832734 0.5337136
000060 2c 97 08 3f 6c 38 0b 3f bd ee 10 3f 15 82 04 3f
       0.5335567 0.5438297 0.56614286 0.5176099
000070 5c 0b 0d 3f 42 22 09 3f 92 2f 03 3f b8 ba 11 3f
       0.5509546 0.535679 0.5124446 0.56925535

tcn.network.0.net.4.weight_v f4 [32, 32, 2]
000000 9a d0 e2 bd 8d 16 33 3d 1a ae 88 3d 84 5c 10 3e
       -0.11074944 0.043722678 0.06673832 0.14097792
000010 bd d9 19 3e cc a3 39 3d b3 65 0c 3e 49 a8 fb bd
       0.15024467 0.045322224 0.1371067 -0.12287957
000020 43 be a7 3d 7f 68 c2 bd f0 6c b4 bd 14 21 ba bd
       0.081905864 -0.09492587 -0.08809841 -0.090883404
000030 72 5a 32 3e 82 2f 1c bd 7b 18 1f 3e 74 ce 24 be
       0.17417315 -0.038131244 0.15536682 -0.1609438
000040 b4 46 c1 bc ea 8a 27 be fb 12 f5 bd b7 7e 14 3d
       -0.023593284 -0.16361585 -0.11966511 0.036253657
000050 be 9c 0a be d3 d9 b1 3d 6f 52 26 3e f6 29 87 bd
       -0.13536355 0.08684125 0.16242383 -0.065998
000060 60 dd 83 3d 4d 61 62 bd 96 9f 01 be 7b 7a a2 3d
       0.06438708 -0.055268575 -0.12658533 0.079335175
000070 d5 76 a4 3d 0a 5f c1 bd 10 b1 1e bd e9 f2 38 bd
       0.08030478 -0.094419554 -0.03874308 -0.045153532
000080 a9 6f 02 3e 81 f3 2b 3e 05 79 57 3e 4e 28 00 3e
       0.12737907 0.16792108 0.21042259 0.12515375
000090 6b 94 80 3d 9a a9 0c 3e f8 c3 70 bd 51 9c 4a 3c
       0.062783085 0.13736573 -0.05878064 0.01236637
0000a0 c7 b4 29 be 0e 63 be bd ce 36 a9 3c 32 ab af 3d
       -0.16572867 -0.09296237 0.020656016 0.08577575
0000b0 15 86 d0 3b 8e 9b 93 3d fe 45 d0 bc 51 61 16 bd
       0.00636364 0.07207404 -0.025424 -0.036713902
0000c0 09 49 d1 bd c6 44 1a 3d c0 a0 c4 bd 93 bc 0d bd
       -0.102190085 0.037663244 -0.09600973 -0.034603667
0000d0 b7 e3 5d 3a 82 ea 81 bd 6d e3 bc 3d 66 9b 9e 3d
       0.0008464413 -0.06343557 0.092230655 0.07744484
0000e0 2b 0f 0c 3e 96 67 9d bd 62 ea 18 be 0b f3 03 be
       0.13677661 -0.07685773 -0.1493316 -0.12885682
0000f0 1f e1 af 3d 5f 65 d2 3d 08 b2 19 3d ea b9 5b 3d
       0.0858786 0.10273241 0.0375233 0.0536441
000100 57 1e 15 3d 7a 97 ed bd 4c 79 c2 3d 47 35 e4 bd
       0.036405887 -0.116011575 0.09495792 -0.11142974
000110 22 3d 96 3d dc 91 9f 3d 12 c0 e2 3d 48 0b 83 3d
       0.07335879 0.07791492 0.11071791 0.06398636
000120 3e b3 71 3d ed c2 75 3d 80 0e 8a 3d 49 5d 88 bc
       0.05900883 0.06000035 0.06741047 -0.016646044
000130 07 e0 3b 3d 91 4c 65 bd 2d 08 ac 3d 0a 9e 64 3d
       0.045867946 -0.055981223 0.08399997 0.05581478
000140 96 a2 bf 3b ce e4 b6 3d e1 f0 e5 bc 92 64 bb 3d
       0.005848239 0.0893036 -0.028068962 0.09150042
000150 d7 7f 9d 3d 4e 63 9e bc e0 22 26 3c f9 38 8c 3d
       0.07690399 -0.019334462 0.010140151 0.06846804
000160 88 8e ab bd 35 9e fd bd 99 02 f9 bd 93 8b 13 be
       -0.08376795 -0.12383691 -0.121586986 -0.14408712
000170 04 0c a0 bd db 5d d1 3d 77 6a 32 3d 70 b6 ab bd
       -0.07814792 0.1022298 0.043558564 -0.083844066
000180 ff 93 83 bd 82 42 b1 bd 01 5a 30 bd 82 db d2 3a
       -0.064247124 -0.086552635 -0.043054584 0.0016087147
000190 56 4e 80 bb a7 c1 20 3e 70 91 7d bd ac b0 a0 3d
       -0.0039155884 0.15698873 -0.061906278 0.078461975
0001a0 0b 41 32 bc e4 04 81 3d 08 7a f1 bd e0 d8 16 be
       -0.010879765 0.06299761 -0.11790854 -0.14731169
0001b0 8d 19 81 bd 11 1e c5 bb ef f5 32 3d 56 f2 c4 bd
       -0.063037015 -0.006015547 0.04369157 -0.096165344
0001c0 24 32 bc bc 8d e0 1d be 65 84 21 be f5 4e df 3d
       -0.022973128 -0.1541769 -0.15773161 0.10903732
0001d0 89 1f a4 bd a2 3b b1 bd ec ae 03 be f7 60 a5 bd
       -0.08013827 -0.08653952 -0.12859696 -0.08075135
0001e0 33 7a 86 bc fb 68 40 bd 91 a6 02 be c3 d0 fb bd
       -0.016415691 -0.046975117 -0.12758853 -0.122956775
0001f0 1b b1 c3 3d 12 a3 bb 3c f6 6d c2 3d a8 2b 88 3d
       0.095552646 0.022904906 0.0949363 0.06648952
000200 5a 0a 8b bc fa 6d 92 bc 98 f1 06 3e 24 71 12 3e
       -0.01697271 -0.017874707 0.13178098 0.14300972
000210 4c 68 07 be 85 9e 04 3e 94 f9 31 be 55 ba 25 be
       -0.1322338 0.12951095 -0.17380363 -0.16184361
000220 cb 90 4a be df de 0e be df 3f 09 3d 73 ed f8 3d
       -0.19781797 -0.13952206 0.033508178 0.12154665
000230 76 12 6a bc 88 9b e8 bc a3 24 6e bd a6 5d cb bd
       -0.014286628 -0.028394476 -0.05814041 -0.099299714
000240 1f 72 e9 3d 65 f7 7b bd a8 79 d0 bd a5 1b 02 3e
       0.1139872 -0.06151523 -0.10179454 0.12705858
000250 3b fc 4a be 8b d8 01 3e 62 65 aa bd d9 53 33 3e
       -0.19822781 0.12680261 -0.083201185 0.17512454
000260 d8 1c 3d 3d 90 e7 ed 3d 29 56 b3 bd 0f c1 af 3c
       0.046170086 0.11616433 -0.08756668 0.021454362
000270 77 14 7c bd e9 af c3 3d 6d 10 e2 bd f7 cf 0a 3e
       -0.061542954 0.095550366 -0.11038289 0.13555895
000280 46 d8 cf bd d3 19 ed 3d 03 73 66 bd 4d 57 5d bd
       -0.10148673 0.11577191 -0.056262027 -0.054038335
000290 40 37 2f be 23 45 08 be 83 e5 bf bc d4 74 bf 3d
       -0.1711092 -0.13307624 -0.02342487 0.09348455
0002a0 e7 5d 8b bc 69 40 11 3e 6a b3 3c be 8a f8 5f 3e
       -0.01701255 0.14184727 -0.18427816 0.21872154
0002b0 0d fd 80 bc a0 3d d5 bd 18 ec ba 3c 6a 9e 70 3d
       -0.015745664 -0.10412145 0.022817656 0.058744825
0002c0 36 03 38 3e 9f 0d 1f 3e 65 3f b0 3c 9c 49 28 3c
       0.17969975 0.1553254 0.021514604 0.010271456
0002d0 3e fe 08 3e 64 ec 06 3e 2c 11 d0 3d 71 9a 56 bd
       0.13378236 0.13176113 0.10159525 -0.05239338
0002e0 24 00 1d be ea e4 2b be f9 25 e0 3d 67 55 08 be
       -0.15332085 -0.16786543 0.10944743 -0.13313828
0002f0 d9 26 ee bc cd d8 26 be 09 66 3b 3d 5c df 40 3d
       -0.029071258 -0.1629364 0.045751605 0.047088012
000300 f7 17 fc bd 3b 87 7b 3d 3e 11 25 be 93 b7 ab 3d
       -0.123092584 0.061408263 -0.16119859 0.083846234
000310 03 12 15 3e 91 f3 e7 3d 26 2c b9 bd 48 8d ab bb
       0.14557652 0.113257535 -0.09041624 -0.005235348
000320 46 46 a5 b8 8b 51 9c bd 00 0e 84 bd e7 4b 45 bc
       -7.8809026e-05 -0.076327406 -0.06447983 -0.012042022
000330 0c 4f fd 3d 2f 72 a2 3d fc 54 0c 3d fe 95 a8 3d
       0.123685926 0.07931935 0.034260735 0.08231734
000340 e4 5b 1b bc e5 63 7a 3b 17 f0 18 3e 36 e3 4f 3e
       -0.009482358 0.0038206514 0.14935337 0.20301518
000350 75 9c f4 bd 97 19 22 3e a9 49 83 3d 24 82 c9 3c
       -0.11943904 0.15830074 0.06410534 0.024598189
000360 cf 1b 12 3a 9c 0f d6 3d b3 b6 18 be a6 01 56 bc
       0.0005573602 0.10452196 -0.14913444 -0.013061916
000370 3b a2 1a 3e 8d 23 13 3e 39 1a 7b 3c 32 1f 02 3e
       0.15100949 0.1436903 0.015326076 0.12707213
000380 4c ec b9 3d 0b d8 94 3d 03 d6 8a 3d ac 76 34 3e
       0.09078273 0.072677694 0.06779101 0.17623395
000390 dc 76 49 3d 5d 08 60 bd 6a d8 c9 3d a1 dd 21 be
       0.04918562 -0.054695476 0.09855731 -0.15807201
0003a0 44 12 c6 3d f6 c6 c6 bd ac 9f d1 3d d7 0a 72 3d
       0.09671453 -0.097059175 0.10235533 0.05909237
0003b0 d7 fc e6 bd d0 3a 2e 3e 1a 84 69 bd 7a 49 82 bd
       -0.11278694 0.17014623 -0.057010747 -0.06361671
0003c0 aa 3a aa bd 93 69 0f 3e 07 9c 37 be 63 bf e4 bd
       -0.083119705 0.14005117 -0.17930613 -0.111693166
0003d0 5a 09 91 3d e3 23 2c 3e bd 88 b8 bd 52 e5 21 be
       0.07081862 0.16810565 -0.09010456 -0.15810135
0003e0 94 b6 cc bd fb dc 71 3d 29 ae ad 3d db 54 bf bc
       -0.099957615 0.059048634 0.08480484 -0.023355892
0003f0 98 01 c7 3d 54 5f d3 3d f5 96 06 be fd c7 1d bd
       0.09717101 0.10320917 -0.13143523 -0.0385208

tcn.network.0.downsample.weight f4 [32, 32, 1]
000000 66 63 d4 bd 03 3c 83 be e5 d5 0b 3e 49 34 71 be
       -0.10370521 -0.25631723 0.13655813 -0.23555101
000010 ac a1 06 3d 87 e8 23 be 3c 61 ff 3d 2c 10 3c 3e
       0.032869026 -0.16006671 0.12469718 0.18365544
000020 35 30 25 be 43 cc 8e 3d 2a c1 01 3c 9c 89 9a be
       -0.16131671 0.069725536 0.007919589 -0.30183113
000030 76 8f 96 be aa cc a0 3e 8c 1b 81 be 11 56 c2 bd
       -0.29406327 0.31406146 -0.2521633 -0.09489072
000040 96 a2 35 3e 3c 62 b6 bc 8d 1c 2a 3e ba 41 38 be
       0.17737803 -0.022263639 0.16612454 -0.17993823
000050 5d 34 aa 3d 97 4d 33 3e c5 e1 a7 3e 4e 02 56 3d
       0.08310769 0.17510067 0.32789436 0.05224829
000060 41 19 43 3e c9 13 f6 3c 21 5b ed bd 20 4b 24 3d
       0.19052602 0.030038731 -0.11589647 0.040110707
000070 3f fa ff bd 80 47 99 3e 32 50 d9 bd d8 b2 c8 3d
       -0.124989025 0.29937363 -0.10610999 0.09799737
000080 04 f9 0b be 52 b6 05 be de 06 4b 3c 20 f5 0a 3c
       -0.1366921 -0.13057831 0.012391774 0.008481294
000090 7a 94 ca 3d c9 5a 75 bc a1 57 14 3e 18 d5 62 3e
       0.09891601 -0.014975258 0.14486553 0.22151601
0000a0 ed 10 e3 3d 5f 91 db 3c 91 c3 d0 3c 31 38 08 be
       0.11087213 0.026802717 0.025483878 -0.13302685
0000b0 c9 95 5c 3d ea 6b 17 3e 5f 18 16 be 81 e1 85 3d
       0.053853784 0.1478726 -0.14657734 0.06537152
0000c0 47 96 57 bc 3c 0f 0e 3e 06 1b 7b 3c 4a b1 d7 3d
       -0.0131583875 0.13872999 0.015326267 0.10531862
0000d0 bd 1e ea bd 17 d1 d2 3d 29 32 eb 3d 05 31 b2 bd
       -0.11431644 0.10293787 0.11484177 -0.08700756
0000e0 df ec 49 3d ed 00 b4 bd c2 2e 58 3d c1 0f 2b 3c
       0.049298164 -0.08789239 0.052778967 0.010440768
0000f0 68 5d aa 3d 25 60 66 3e a1 89 88 bd 2d b4 05 3e
       0.08318597 0.22497614 -0.06666876 0.13057013
000100 7f 38 b7 bc 15 9a 5a bd ed 4a 01 3d f2 a6 d6 3d
       -0.022365807 -0.0533696 0.031565595 0.10481061
000110 81 56 9f bc 64 5d 96 be 7d 4f 54 3e 85 e4 b7 3d
       -0.019450428 -0.29368126 0.20733447 0.089791335
000120 49 19 64 bc 41 f0 32 3e d7 7d 12 3e cc d6 31 be
       -0.013922044 0.17474462 0.14305817 -0.17367095
000130 2d de 20 be 0f 9f d5 3d 51 57 c2 bd f8 9c 9d be
       -0.15709753 0.10430729 -0.094893105 -0.3078382
000140 04 a5 46 3e d0 6a 68 3b ee 7b e7 3d 4a 20 20 be
       0.19398886 0.0035464056 0.113029346 -0.15637317
000150 b9 6d 91 3d f4 a2 3f 3d b2 0b 89 3e cd dd cb 3d
       0.07101006 0.046786264 0.26766735 0.099544145
000160 53 c1 8e 3d f4 b2 a9 bc d6 fc 97 bb 8b b0 39 3e
       0.069704674 -0.020715214 -0.0046382947 0.18133752
000170 40 f8 61 be a0 58 19 3e 7e 9a 39 be 09 28 c7 bd
       -0.22067356 0.14975214 -0.1812534 -0.09724433
000180 94 69 05 3e 72 57 2e 3e b0 e1 e3 bd c6 98 19 3e
       0.13028556 0.17025545 -0.11127031 0.14999685
000190 02 81 a9 3d 7c d1 58 3e ee f7 46 be 55 74 92 bd
       0.082765594 0.21173662 -0.19430515 -0.07151095
0001a0 51 0d ca 3d 48 6b 91 bc 3c a8 c4 bd 9c 17 5a 3e
       0.09865821 -0.017751351 -0.09602401 0.21298069
0001b0 87 1b 86 3e ac ee 82 be 4f 96 46 3e 26 28 98 3e
       0.26192877 -0.25572717 0.19393276 0.2971813
0001c0 87 27 60 be 17 2f 08 3e 59 92 b7 3b a8 46 2e bc
       -0.21890078 0.13299213 0.005602163 -0.010636963
0001d0 c7 cd 98 be 51 ba 20 3d 1f 2d f4 3c e8 cc 5a be
       -0.29844496 0.039240185 0.029806672 -0.21367228
0001e0 94 8a df bd b7 99 46 bd f4 93 e9 3d 3b f2 22 bd
       -0.109151036 -0.048486438 0.11405173 -0.03978179
0001f0 3e fd 25 3e 79 0a 77 be af 94 78 3e fd db 87 3c
       0.16209885 -0.24125089 0.24275468 0.01658439
000200 8a e2 93 3d 24 44 d5 bd 2c 2f 9e 3c 4c c6 d6 3d
       0.07220943 -0.104133874 0.019309603 0.10487041
000210 0f 0b 6e bc da c4 b9 3d 9e df 69 3e 71 7a b5 3c
       -0.014529004 0.090707496 0.2283921 0.022153111
000220 cf 90 40 be b4 be f2 bd a1 c9 d1 3d a5 c2 ad bd
       -0.1880524 -0.1185278 0.10243536 -0.08484391
000230 02 26 f5 bd 13 85 3d 3e ed 80 9c 3d 70 2f 26 be
       -0.1197014 0.18507795 0.07641778 -0.16229033
000240 3b 21 15 3d b7 c9 0d 3e 33 2f c4 3d e1 20 d0 3c
       0.036408644 0.1384648 0.09579315 0.025406303
000250 3a 25 d3 3d 83 33 d0 3d 15 b8 8b 3d fc 91 4c 3d
       0.10309835 0.10166075 0.0682222 0.04994391
000260 6f 0b 50 3d 5b 03 41 3c 67 fb 8c 3d 69 53 5b bc
       0.050792154 0.011780585 0.06883889 -0.013386586
000270 f4 53 b2 3d 3c 69 02 bd 3f 8a 0d be c0 b0 33 3d
       0.08707419 -0.03183864 -0.13822268 0.043869734
000280 18 59 09 bd 96 50 25 be ae 49 ae bc ca 1f e7 3d
       -0.033532232 -0.16144022 -0.021275368 0.1128536
000290 67 b8 9b bd 00 76 a3 3d 8c 23 03 3e 88 7e 08 3d
       -0.07603531 0.07981491 0.12806529 0.033323795
0002a0 0a ab d3 bd 37 da 3d bd cd c8 4d bd ac 0e 33 bd
       -0.103353575 -0.046350684 -0.050240327 -0.043715164
0002b0 7a 5f ea 3d 76 d7 cd bd 30 f9 93 3d 8a 9e a0 bc
       0.11443992 -0.100508615 0.07225263 -0.019606847
0002c0 9a 1c 4a 3e 02 87 a2 3d dc e7 e3 3c c5 18 0d 3e
       0.19737473 0.07935907 0.02782052 0.1377898
0002d0 bf a8 12 3e ea ee f5 3d 4a 9e 39 bd 04 7c 82 3c
       0.14322184 0.1200846 -0.04531697 0.015928276
0002e0 07 1f 22 3e 5f 5f a0 bc 0c 1a 0e bb a4 17 ce 3d
       0.15832148 -0.019576726 -0.0021683006 0.10063103
0002f0 7a 79 ac 3d 59 e6 c0 bd 07 2a 77 be 91 28 86 bc
       0.08421607 -0.09418935 -0.24137126 -0.016376765
000300 ee aa 79 bd 90 84 d4 3d 63 93 02 be 56 c4 16 3c
       -0.060954027 0.10376847 -0.12751536 0.009202084
000310 02 37 41 bd 4d df db 3c f8 d4 5d 3d 01 6e 79 bd
       -0.0471716 0.026839877 0.05415818 -0.060895924
000320 90 71 35 3e 78 e9 53 3e 45 90 11 be 4c a1 fd bd
       0.17719102 0.2069453 -0.1421519 -0.123842806
000330 7c 59 3c be 1e 18 2a be c9 a0 95 3d 1e 66 2b be
       -0.1839351 -0.16610762 0.07306058 -0.16738173
000340 38 2d b4 bd 87 0d de 3d b6 f8 95 bc 44 cf d1 bc
       -0.08797687 0.10842424 -0.018307071 -0.025611527
000350 bb d3 e3 3d 7a 9f 14 be 2f 2a ad bd cc 49 2b bd
       0.11124369 -0.1451396 -0.084553115 -0.041818425
000360 4f b5 13 3e 5a 5d 29 3e 3f 74 42 be 1f 5f cd 3d
       0.14424632 0.16539517 -0.18989657 0.100279085
000370 87 31 39 3d 51 62 cf bd 31 e2 3b be 86 e5 32 3e
       0.04521325 -0.10126174 -0.18348004 0.17470369
000380 4b 11 29 3c 5f 61 c3 bd 66 aa c9 3b 7d fb 56 bc
       0.010319064 -0.095400564 0.0061543463 -0.013121483
000390 3d da 28 3e 8a b1 01 be 83 1d 1f 3e a5 cd 93 3d
       0.16489501 -0.12665382 0.15538602 0.07216958
0003a0 d0 4d 27 be 78 bd b9 bc 0a b3 b6 bc 4d 4a 07 be
       -0.16338277 -0.022673354 -0.02230217 -0.13211937
0003b0 21 00 93 bc d4 f4 88 bc 12 2f 62 be 37 b4 34 3d
       -0.017944397 -0.016718306 -0.22088268 0.04411718
0003c0 a9 ee 48 3e fb b7 e6 bd 96 43 8c bc 78 56 74 3d
       0.19622292 -0.1126556 -0.017122071 0.059652776
0003d0 43 e0 a9 3d 2d 05 a5 bc 1f 7a 51 3e ac 75 35 3c
       0.08294728 -0.02014407 0.20456742 0.011075418
0003e0 d6 71 b7 bd 21 e0 80 3e aa 99 2e bd cd ed 41 3d
       -0.08957259 0.25170997 -0.042627014 0.047345925
0003f0 5b 3c c7 bd 98 ba 54 bd 7b 78 e6 bd bd 1d 94 bd
       -0.09728309 -0.051935762 -0.112534486 -0.072322346

tcn.network.0.downsample.bias f4 [32]
000000 54 66 40 bc 31 92 c7 bc 36 c1 38 be 62 8a ad bb
       -0.011743147 -0.024361702 -0.18042454 -0.0052960375
000010 a1 e8 35 be a2 48 e7 3d 78 d5 a9 3d 5f a0 db bd
       -0.17764522 0.112931505 0.08292669 -0.10723948
000020 94 c3 94 3d 2c e4 bf 3d 4b da 7c bd c3 dd 12 be
       0.07263866 0.09369692 -0.061731618 -0.14342408
000030 80 eb 26 bd 87 c5 dc bd 51 fb af 3d ff 47 e8 3d
       -0.040751934 -0.10779863 0.08592857 0.11341857
000040 d6 ca fd 3d 93 27 1e bc c0 29 45 3e 75 b9 a7 bd
       0.123922035 -0.00965299 0.19254208 -0.0818967
000050 fb 02 ac bd 87 44 36 3b 50 4f ce 3d 38 c5 30 3e
       -0.08399006 0.0027811842 0.100737214 0.17262733
000060 94 1d 15 3e 5a fd 2b bc 22 36 12 3e 8b f2 fb 3c
       0.14562064 -0.010497415 0.14278463 0.030755302
000070 f2 2e 38 be cd 7e 96 ba a2 7d e5 bd 68 d0 cb bd
       -0.17986658 -0.0011481881 -0.11205603 -0.0995186

tcn.network.1.conv1.bias f4 [32]
000000 c9 9c dc 3b ec 1a a9 bd 05 2b bc 3d ef d5 08 be
       0.0067325574 -0.08257088 0.09187893 -0.13362859
000010 24 d1 3f 3d 71 a9 08 3d 22 0f fe 3d 0a 60 d5 3d
       0.04683031 0.033364717 0.1240523 0.104187086
000020 b8 d3 b3 3b 36 e5 41 3d 68 74 8f bd aa ff d9 3d
       0.0054878853 0.047337733 -0.070046246 0.10644467
000030 48 56 ac 3d f9 f3 88 3c bb 02 63 3d e5 1b 56 bc
       0.08414894 0.016717898 0.055422526 -0.013068174
000040 de 46 11 3e 06 8b 34 3d 6e c4 70 bd 90 59 67 bd
       0.1418719 0.044077896 -0.05878108 -0.056481898
000050 92 2b 0c bd 7b 80 a5 3d 3d bd 02 3e c8 68 ce bd
       -0.03422124 0.08081146 0.12767501 -0.10078579
000060 94 6d 2d bd 43 72 bb 3d 08 cc 1d 3d 30 f0 15 be
       -0.04234083 0.09152653 0.038524657 -0.14642406
000070 83 ac 89 3d 39 30 53 bc 08 78 bb bd d5 bc 99 3d
       0.06722357 -0.012889915 -0.091537535 0.0750672

tcn.network.1.conv1.weight_g f4 [32, 1, 1]
000000 57 02 29 3f 04 16 18 3f ce ba 18 3f c8 eb 14 3f
       0.66019195 0.59408593 0.5966004 0.58172274
000010 f2 ee f2 3e 83 8e 5a 3f 77 73 32 3f 99 cb 51 3f
       0.47447926 0.85373706 0.69707435 0.8195129
000020 f8 d3 2d 3f ea af 2a 3f 3e 18 3c 3f 50 9f 30 3f
       0.67901564 0.66674674 0.7347449 0.6899309
000030 ec 89 09 3f 1d 18 11 3f ad 1d 11 3f 5c d9 37 3f
       0.5372608 0.5667742 0.56685907 0.7181604
000040 4b 86 02 3f 07 e1 23 3f db a2 0a 3f 40 68 4c 3f
       0.50986165 0.6401524 0.5415475 0.7984657
000050 a3 4a 1e 3f 6c 06 07 3f e8 ce 43 3f 77 98 1a 3f
       0.61832637 0.52744174 0.7648759 0.6038889
000060 54 1c 0d 3f 1b fc f9 3e 53 85 1d 3f a2 40 21 3f
       0.5512135 0.48825154 0.6153156 0.62989247
000070 19 72 14 3f 6c 9e 46 3f b6 ca 00 3f 21 c9 10 3f
       0.579866 0.7758548 0.5030931 0.565569
