models/prototyping6/tcn_fold_7/best.pth (torch, 224151 bytes, 130 tensors)

tcn.d_reduce.weight f4 [32, 1, 1]
00000000: 5b20 043f 5497 453e c4db 213f d62d 15bf
00000010: e4f4 623f fd6e 81bf 885b 5c3e aec2 423f
00000020: 674d 8f3f ee3c 95be 00f9 58bc 9118 6bbf
00000030: 8a63 20bf b670 1bbe 7c51 16bf 02a2 693f
00000040: d0b0 0abf 170c 0cbf 0766 883f 961f 56be
00000050: 3c80 e5be 4491 8a3f 9dc5 843f 2941 d8be
00000060: f532 ac3d 3fda 89bf 11f0 8d3f d17e 85bf
00000070: 1c0a 7bbe 2f62 163f b7bb 343f d74d 49bf
0.5161187 0.19296008 0.6322596 -0.58273065 0.88654923 -1.0111996 0.21519291 0.7607831
1.1195496 -0.29148048 -0.01324296 -0.9183436 -0.62651885 -0.15179715 -0.58718085 0.9126283
-0.54176044 -0.5470595 1.0656136 -0.20910487 -0.44824398 1.0825582 1.0372807 -0.42237213
0.08408157 -1.0769728 1.1088887 -1.0429326 -0.24515575 0.58743566 0.7059893 -0.786344

tcn.d_reduce.bias f4 [32]
00000000: c506 533f 922f 43bf ffeb 923e 527f 503f
00000010: c58f 1fbf 514b fbbe 7647 08bf df95 03bc
00000020: aa3c 6a3f c4ca 48bf a1dd 4dbf 06e2 9a3e
00000030: 4388 363f 91bd e9bd 758c 493c 1e51 09bf
00000040: 8275 89bd 7fe2 35bc 5650 853e a963 7cbe
00000050: 40dc 5e3d ea92 9abd 679a 313f 8ee5 7cbe
00000060: 81a4 1d3f bc41 5fbf df13 a8bc fafd 4dbd
00000070: f790 4ebe 9f0e debe c877 c93b c6dd 6bbf
0.82432204 -0.7624446 0.28695676 0.81444275 -0.6232875 -0.490809 -0.5323404 -0.0080313375
0.91498816 -0.78434396 -0.80416304 0.30250567 0.7130167 -0.1141311 0.012301554 -0.536394
-0.06711866 -0.011101364 0.26037854 -0.24647392 0.054409266 -0.07547553 0.69376224 -0.24696943
0.6157914 -0.8720968 -0.020517288 -0.05029104 -0.20172487 -0.4337053 0.0061483122 -0.92135274

tcn.network.0.conv1.bias f4 [32]
00000000: 108f 50bc 83b0 00be 5db4 73bd 9678 09be
00000010: f78d 4ebe 68ae b53d c058 8cbc 18b4 943d
00000020: cdc3 7f3b b1f4 18bd 348a 02be 9318 a8bd
00000030: d7ed 7e3d 7dca 29bd 3b6f 57bd 1f9c 443d
00000040: 384f 0c3d cd24 6ebd 29b0 cc3d 359e fdbd
00000050: e698 3ebd 9484 81bd 8bab f83c 010f e13d
00000060: 4af0 86bc e714 983c 3125 dd3c 9157 bb3c
00000070: d593 adbd 89f9 6bbd b8fb ebbc 6121 6f3d
-0.012729421 -0.12567334 -0.05949818 -0.13424906 -0.20171343 0.08871156 -0.017132163 0.07260913
0.0039026618 -0.03734273 -0.12748033 -0.08207812 0.06223854 -0.041452873 -0.052596312 0.04800045
0.034255236 -0.058140565 0.099945374 -0.12383691 -0.046532534 -0.063241154 0.030355236 0.1098919
-0.016472 0.018564655 0.026995273 0.022868903 -0.08475462 -0.057611022 -0.028806552 0.058381442

tcn.network.0.conv1.weight_g f4 [32, 1, 1]
00000000: 181e 013f ca54 163f a334 123f a529 033f
00000010: 08cf 163f 065c 0e3f f328 003f 90b4 123f
00000020: 671d e73e 313e 2f3f 47f9 043f e292 0c3f
00000030: e332 fc3e 254d 0c3f 2a04 0f3f 5974 083f
00000040: f73e 0f3f d60a e13e 3478 d63e 5b54 0f3f
00000050: ae77 043f e45c 153f 4cec 0a3f 409e 033f
00000060: 1eb6 153f d200 033f bb5a 023f 8457 c53e
00000070: a8c8 053f 9113 133f eae2 223f e443 ea3e
0.50436544 0.5872313 0.5711157 0.5123542 0.58909655 0.55609167 0.50062484 0.57306767
0.4513962 0.6845427 0.5194287 0.54911625 0.49257573 0.54805213 0.5586573 0.5330253
0.5595545 0.4395358 0.41888583 0.5598809 0.51745117 0.58344865 0.5426681 0.51413345
0.58481014 0.51173127 0.50919694 0.38543332 0.522593 0.5745173 0.63627493 0.4575492

tcn.network.0.conv1.weight_v f4 [32, 32, 2]
00000000: 76f8 543d 271f 9dbd a8be 01bd 80e1 ba3d
00000010: 68c1 313d 5e6a 333d 96d6 a63d 698a 94bc
00000020: f90b 633d 7ba8 0dbd b6c2 86bd bb7d a8bc
00000030: 183e f1bb a307 cc3d ff67 a73d 91a1 0abc
00000040: ffd0 9f3c af06 f4bd 671c b83d f3ea c1bd
00000050: 1a6d 37bd e4f0 063c 0884 9a3d f313 c7bd
00000060: c066 ff3b 0139 dc3b 2703 9d3d 5c03 8d3a
00000070: c0d2 4d3d 8fef c63d ada8 193d 510d 71bd
00000080: 7b90 2d3d 8e6f 353d 0d07 7cbc 52a7 8a3c
00000090: 7b31 82bd 5d85 c1bd f463 853c 4c44 b83c
000000a0: fdc7 a7bd 1ccf 113d a432 9c3d 8713 3d3c
000000b0: 0ac5 c3bd c816 b93d e168 0e3c e13e 79bd
000000c0: 75e3 4dbc 073b 1f3d 3355 653d 9bb9 9a3d
000000d0: a45f fd3d 5182 7dbd 2630 8a3c 0252 e2bd
000000e0: d78e aa3c 528d bd3c f1f8 7a3d e92f 953d
000000f0: 3cbf d5bd 5ca3 f03c b0d2 523d ecf4 cbbd
00000100: 15bf 0abe 4079 b0bd 1a11 013d bb9a 023e
00000110: 6480 753c 9c57 d43d 570a ac3d e1c9 43bc
00000120: e4a7 9b3a 0797 14bd 09c0 163e 07fa ad3d
00000130: 9ef0 00be c866 6dbb f52a f43d b4bb 733d
00000140: 7c15 ccbd cbd7 54bd 5dfd 88bd 6f74 c1bd
00000150: 51f4 4f3d 5f86 1e3e 4f61 c0bd e708 75bd
00000160: 3f23 aa3d a2df 8bbd 986e 70bc 264e f03d
00000170: f06c 21be 60bc a2bd 5977 00be d15c e0bd
00000180: d920 0ebd 3e19 4bbd 6a17 15be 16ac c23d
00000190: f88c 8f3d a596 9d3d 7da0 cd3d 52a0 1a3d
000001a0: 3a8c 1b3c b473 28bd 1387 bb3d 592c 9c3d
000001b0: 1019 47bd 6818 b73d 1b9c 1bbe 148f 013e
000001c0: ed3e adbd 11dc 0b3e 4faf 9a3d e6c6 2e3c
000001d0: dafd 00be d2e6 d1bd f300 743d e181 f23d
000001e0: 83b5 1fbe 4f4e 11be 2452 063e def5 d93d
000001f0: 44fa 343e 999f 393d 2151 13bc d709 7e3d
00000200: 62e3 9d3d aeab cabd 12c2 f3bb 1ad3 c43d
00000210: feda 0c3d a7a4 6b3d 7ee1 0abe 9922 d53c
00000220: f525 9d3d f6e7 1e3e 502b 733d e0da 013e
00000230: 8274 e83c 0cd2 25bd 2f12 2ebd d831 b5bd
00000240: e6ac ebbd 2e41 de3c a5ab 533d b1c8 373d
00000250: 1028 26bd fa05 113d 171b e3bd 62ca 8abc
00000260: 5b8b edbd 1456 803d 7af4 63bd 54e1 383d
00000270: ccb3 ee3b f121 9dbc d4eb 993c b2a3 a93d
00000280: 1741 afbd ddb5 29bd f46a 693d 4ba0 1fbc
00000290: 0542 0fbb dc47 213d 5637 83bd 3415 22bb
000002a0: a5fc a1bd c10f aebc a35d d6bd 14fa ca3d
000002b0: 7f5e 18be 1245 413d 565e a13c a18b 8e3d
000002c0: d2bc e1bc ca97 d5bd c35e 74bd 4868 bb3c
000002d0: 2ead 71bd 580b 10be 91b3 e9bc ed74 b2bd
000002e0: 132c 21bd 8d3b 823d b3cc b6bc ddba eb3d
000002f0: d6a3 fcbc b757 2fbd 20b9 aa3d f27c 8e3d
00000300: 90e4 ff3b 9c52 1fbe dbdf 67bd 00c1 ba3d
00000310: 7b10 623d c332 7abd 0d69 33bd 2474 debd
00000320: 22ec d33b cec7 dd3c 1419 9c3c e0f9 6ebc
00000330: 0c03 963d 82e1 59bd 4613 e6bb 38bf 9a3c
00000340: e683 fe3c f1d5 80bc 3e12 48bb 4b5a 98bd
00000350: 559e ee3d 4350 ebbc e8e7 de3d 679a c8bd
00000360: d621 b1bc 580b 1abb 9eb3 103e d0e8 fdbd
00000370: eca4 bbbd 105f f0bd f964 493d 4a9a 9abd
00000380: b09d 853d b82c a0bd 3a77 00bd 7a24 edbd
00000390: 9c92 3e3d 5fcd fb3b cc51 0a3e 739b 8eba
000003a0: 5412 963c a1e2 c9bd 6c64 84bd e39e dbbd
000003b0: 86ce babd b39a e9bd 4303 d33d 1452 e2bd
000003c0: 70f4 a93b 161f 963d 88da e03d 08e2 24bd
000003d0: 52a7 ff3d 8fc6 8bbd d9b3 9d3d d8a6 c2bd
000003e0: 15d9 3fbd d51a bd3d be80 4b3d 6f7a 353d
000003f0: baba 10bd 463a a03d 2a83 073e fd9d a4bc
0.051994763 -0.076719575 -0.031675965 0.09125042 0.043397337 0.04380261 0.08146398 -0.018132405
0.05543134 -0.034584504 -0.06580107 -0.020567765 -0.0073621385 0.09962394 0.081741326 -0.008461372
0.019508837 -0.11915337 0.08989792 -0.09468641 -0.04478178 0.008236144 0.07544714 -0.09720602
0.007794231 0.0067206626 0.07666617 0.0010758447 0.050249815 0.09713661 0.037514377 -0.05885059
0.042374115 0.04429584 -0.01538254 0.016925488 -0.06357094 -0.09449265 0.016283013 0.022493504
-0.081924416 0.035597906 0.076268464 0.0115403 -0.095590666 0.09037548 0.008691997 -0.06085098
-0.012566437 0.038874652 0.055989455 0.07554933 0.123717576 -0.061891858 0.016868662 -0.11050798
0.020820064 0.023138676 0.061272565 0.07284529 -0.10436866 0.02937477 0.05147046 -0.099588245
-0.13549455 -0.086168766 0.03151045 0.12754337 0.014984224 0.10368273 0.0840041 -0.011949987
0.0011875597 -0.036276843 0.14721693 0.084949546 -0.12591788 -0.0036224592 0.11922256 0.05950518
-0.09965035 -0.05196361 -0.0668895 -0.09446036 0.050770108 0.15480946 -0.0939356 -0.059822943
0.08307504 -0.06829764 -0.014674805 0.11733656 -0.15764213 -0.07946086 -0.12545528 -0.10955203
-0.034699295 -0.04958462 -0.14559713 0.09505479 0.070093095 0.07694749 0.10040376 0.03775055
0.009493882 -0.041125968 0.09156623 0.07625646 -0.048607886 0.08940202 -0.15196268 0.12652236
-0.08459268 0.13658167 0.07552969 0.010667538 -0.12596837 -0.102491036 0.059571218 0.11841179
-0.15596585 -0.14190029 0.13117272 0.106425986 0.17673594 0.04531822 -0.008991511 0.062021103
0.077093855 -0.098960266 -0.0074389065 0.09610577 0.034388535 0.05753007 -0.13562581 0.026017474
0.07673255 0.15518174 0.059367478 0.1268115 0.028375868 -0.04048352 -0.04249781 -0.088473976
-0.11507587 0.02713069 0.051677365 0.04486913 -0.04056555 0.03540609 -0.11089151 -0.016942207
-0.115988456 0.06266418 -0.055653073 0.045136765 0.007284617 -0.019181224 0.01878921 0.082831755
-0.08557337 -0.041433204 0.056986764 -0.009742807 -0.002185942 0.03937517 -0.06407039 -0.0024731876
-0.07909516 -0.021247746 -0.104670785 0.0991098 -0.14879797 0.04718501 0.019698303 0.06960226
-0.027555857 -0.10429342 -0.059660684 0.022876874 -0.059003048 -0.14066827 -0.028528007 -0.08713708
-0.039348673 0.06359015 -0.022314405 0.11510251 -0.030839842 -0.04280826 0.08336091 0.06957425
0.007809229 -0.15558857 -0.05660997 0.09118843 0.0551915 -0.061083566 -0.043801356 -0.10861996
0.006467358 0.027072813 0.019054927 -0.014585942 0.073248 -0.053193577 -0.0070213405 0.018890008
0.031068753 -0.015727015 -0.0030528451 -0.07439097 0.11651293 -0.028724795 0.10884076 -0.09795075
-0.02162258 -0.0023505297 0.14131019 -0.12397921 -0.09162316 -0.11736882 0.04916856 -0.075489596
0.06524217 -0.078210294 -0.031363703 -0.11579223 0.046526536 0.0076843943 0.13507766 -0.0010880068
0.018319286 -0.09857679 -0.064644665 -0.107236646 -0.091214225 -0.1140646 0.103033565 -0.110508114
0.00518661 0.07330148 0.109791815 -0.040254623 0.12483086 -0.068249814 0.07700319 -0.09504479
-0.046837885 0.092336334 0.049683325 0.044306215 -0.035334326 0.07823615 0.13233629 -0.020094866

tcn.network.0.conv2.bias f4 [32]
00000000: 9ccc c4bd bd09 043d fe84 c6bd 7a10 14ba
00000010: 2e1a 3ebd 4253 ef3d 5314 363d 0e84 6b3d
00000020: 0177 17bd 4294 c73d cdd0 b7bd 50bc 08be
00000030: 3c54 8fbd 0912 c53c e42f 75be 71cb 0ebe
00000040: 3cc4 b6bc ab7c 653d 3c40 a73d b0fe ea3c
00000050: 4595 45be 61be dd3c 7ff5 663d 81d5 d53d
00000060: bf2d 1dbc 88cc b53d ae64 54ba 06b1 13bd
00000070: 76ca 163b ff05 f9bd 51ba f63b 2e43 93bd
-0.09609339 0.03223585 -0.09693335 -0.0005648207 -0.046411686 0.11685802 0.044452976 0.057498984
-0.036978725 0.09745075 -0.089753725 -0.13353086 -0.06998488 0.024056451 -0.2394405 -0.13944794
-0.022310369 0.056027096 0.081665486 0.028685898 -0.19295223 0.027068319 0.056386467 0.10441113
-0.009593426 0.08876902 -0.00081021606 -0.036057495 0.002300886 -0.12159347 0.007529535 -0.07190548

tcn.network.0.conv2.weight_g f4 [32, 1, 1]
00000000: 3e7f 073f 541e 023f c0e2 0e3f 4bf0 223f
00000010: 66b7 053f 7929 093f 9409 123f f5b7 ef3e
00000020: 19a8 143f 8c22 fb3e 30b4 193f 8d3f 0d3f
00000030: f5c9 123f 747a 103f 256e 143f 9ed4 1d3f
00000040: 8ce2 fc3e 489c 073f d25b 113f 2f1c 233f
00000050: 7800 113f 4a5a 103f 4072 083f 932c 073f
00000060: 739e f33e 3ed1 0c3f cf56 1d3f 6056 063f
00000070: ac5f 123f 54d4 013f a15b 063f d845 123f
0.5292853 0.5082753 0.55814743 0.6364791 0.5223297 0.5357891 0.57045865 0.46820036
0.58068997 0.49049795 0.6004057 0.55175096 0.5733941 0.5643685 0.5798057 0.61652553
0.49391592 0.5297284 0.5678073 0.6371488 0.5664134 0.5638777 0.5329933 0.5280239
0.47581825 0.5500678 0.61460584 0.5247555 0.57177234 0.5071461 0.52483565 0.57137823

tcn.network.0.conv2.weight_v f4 [32, 32, 2]
00000000: ec6c 903c 80b0 9e3c 7f77 1ebd 3747 90bd
00000010: b671 e3bd 6603 c2bd 57a0 c83d 4cfd 9b3c
00000020: f8eb 173e 5e06 0fbe 8623 20be 3e07 323e
00000030: 1bd5 453d 8c76 b73d aef1 0a3e 1d17 b2bd
00000040: fecb 94bd 603a 2abe d3a1 a3bd 3c32 9ebd
00000050: 8a19 17be e23a 373e f4fd dc3b 194d 87bd
00000060: 36c7 b4bd a8f3 563d d415 143d bf95 13bd
00000070: 059f 1abe 0acc 09be 74aa 053e 0172 1ebe
00000080: 03cb 753c b877 cabd 6fb2 6e3d e503 943d
00000090: c6b0 ec3c a8fa 45bd 867e 7f3d 7969 e83d
000000a0: 48ff b7bd 8c22 f3bd 2031 4cbc d933 0bbe
000000b0: 2516 ab3d 214b a73d f193 bfbd 2393 783d
000000c0: 9ed4 04be 9272 0fbe d56d 61bd dd3c 39be
000000d0: ff6c a73d 0269 23be be5c 85bc 47b8 33bd
000000e0: 3615 a1bd e376 09be b0c5 4ebd 207e 10be
000000f0: 5663 313d 3090 163e 13e5 ac3a 817e 693c
00000100: 7817 f43d 2189 dabd 620f 923d a654 fc3c
00000110: 1c34 e83d 0a4c c7bd 1a16 0abe d597 23bc
00000120: d5ea 73bd 0e75 27be ab71 4cbd fd4c 05bd
00000130: e182 8bbc b138 d4bd 0bf8 b53d 8a74 173e
00000140: b5fd 45bd 2c9e 06be 4923 18bd cc6b 17be
00000150: 3f27 5ebd b8cf e4bc 7152 fa3d d07b 43bd
00000160: e50a c1bd bbb2 eb3d f0f7 cf3b be74 443c
00000170: b8c6 33be f1f8 ac3d 1f6e 0cbe a0b5 72be
00000180: f291 09bd 386e 593b 7dbd ecbd 964d 343d
00000190: 9c47 403d ddf6 4fbd ad6e cb3c 05f4 abbd
000001a0: 002b 613d e67f e93d 07bb e43d 729d 383c
000001b0: c56e e13c dfd7 5e3d e73a cdbc 8aae c83d
000001c0: 6051 d33d ad32 303c 46a6 be3d 9a17 af3d
000001d0: 8380 003e 8303 463d e0d0 b0bd c2f4 ac3c
000001e0: 6be1 013d 13ef d03d 7ed0 bd3c 04ea 993d
000001f0: 81a2 fabd 30c0 1abe 376f 593c 0c98 fe3d
00000200: ef19 cabd c23a 11be 67a0 873d 150c 66bd
00000210: 94d5 17be c4df 37bd 820f fabd 3495 09be
00000220: 3084 0ebe d421 09b1 5127 fe3d 04bd a93c
00000230: 8cd9 013d 9fd0 c3bd 4ae6 bd3d 65f4 663d
00000240: a714 4c3c 4692 99bd 4d47 133e 6cb7 e83d
00000250: 005b c53d 51dd 023e b568 24be f104 24be
00000260: fceb 4ebd 7799 3cbd 3f16 83bc 1f7b c83d
00000270: 2dc7 e43d 5143 513d a0e7 503d 1d0c f8bd
00000280: fc37 9abd 7d7f 8bbd f971 1fb9 978a f7bd
00000290: 2aeb 2bbc 3422 a4bd 5d09 f43d 81fb 89b9
000002a0: df0c e5bd f22f 143e ebe7 45be 305e 15be
000002b0: 6f69 7dbd 40b4 6bba d6f3 28be 681d 18be
000002c0: e6be 0c3e dd65 debd 1ff8 1f3d f8ce 8abd
000002d0: f33f eabc 6faf 4c3d a635 fc3c 531c 83bd
000002e0: d375 e8bd 374a 81bd 81fe 98bd bf0f f63c
000002f0: 7b68 c3bd 5dc6 8538 faf3 02be b933 c7bb
00000300: 0e0c b3bd 1eae b1bd 6804 36bd d00a 293d
00000310: 67f2 10bc f9f1 ed3c 1eb0 2d3d 0721 a1ba
00000320: 59bd b8bd 19ea 193c 3c10 2cbe 9d4d a73d
00000330: 4de5 22bc 6178 a83d a413 023d 26bd 253d
00000340: aa98 8c3d ca26 55bd ebff 5a3d c3e8 e0bc
00000350: 7d52 6c3d f36e 083d 9e7c 99bb 79f7 80bb
00000360: ceef b0bd ba49 a0bd e354 0fbe 9781 97bd
00000370: 28a5 debc 6960 a7bc 0aaa 0d3e 2f2e 00be
00000380: e660 563d 7868 15bd 80ba f4bc eebe 6cbd
00000390: b1d1 bfbc 5824 513d 76de 96bd 9cbd 30bd
000003a0: 524d 8cbd 73f7 4cbd 66ed 093c 0444 95bd
000003b0: dfc2 6a3c 35d0 613d a3b1 2f3d 0c69 9b3d
000003c0: d149 92bc f85a dc3c 7a87 e9bb 0ccf 1bbc
000003d0: 35ac c43c 3bed a4bd f6b8 65bd c13e 79bd
000003e0: 9354 803b f376 5bbd 9f30 eabc a812 0e3d
000003f0: ccf1 723d 4ebb ae3d 48e0 ec3c 56a8 a3bd
0.017630063 0.019371271 -0.03868818 -0.07044833 -0.11105673 -0.094733045 0.097962074 0.01904168
0.14836109 -0.13967273 -0.15638551 0.17385575 0.048298936 0.08958158 0.13568756 -0.08695815
-0.07265471 -0.16623831 -0.0798985 -0.07724425 -0.14755836 0.17893556 0.0067441408 -0.06606502
-0.08827059 0.052478462 0.03615363 -0.03603148 -0.15099724 -0.13456741 0.13053304 -0.15473177
0.015002015 -0.09886116 0.058275636 0.07227305 0.028892886 -0.048334748 0.06237652 0.11348242
-0.08984238 -0.11871824 -0.012462884 -0.13593997 0.08353833 0.081686266 -0.093543895 0.060687196
-0.12971732 -0.14008549 -0.055036385 -0.18089624 0.08175086 -0.15958026 -0.016279574 -0.043876912
-0.07865374 -0.13424258 -0.0504815 -0.14110613 0.043307625 0.1470344 0.0013190828 0.014251352
0.11918539 -0.106706865 0.0713184 0.030802082 0.11338064 -0.097313 -0.13484994 -0.00998493
-0.059550125 -0.16353247 -0.04991309 -0.032544125 -0.017030181 -0.103623755 0.08885201 0.1479055
-0.048337657 -0.13146275 -0.037143026 -0.14787215 -0.054236647 -0.02793108 0.12222756 -0.0477255
-0.09425906 0.115086995 0.006346695 0.011990724 -0.17556274 0.08445919 -0.13713883 -0.23702097
-0.03358645 0.0033177268 -0.115595795 0.044019304 0.046943292 -0.050772537 0.024833048 -0.083961524
0.05497265 0.11401348 0.11168485 0.011268007 0.02751864 0.05440509 -0.0250525 0.09798916
0.103182554 0.01075427 0.09309058 0.085494235 0.12549023 0.048343193 -0.0863359 0.021112803
0.031709116 0.1020185 0.023170706 0.07515338 -0.122380264 -0.15112376 0.013271145 0.124313444
-0.09868228 -0.1418257 0.06622391 -0.056163866 -0.14827567 -0.044891134 -0.12209989 -0.13435823
-0.13917613 -1.9955353e-09 0.12409843 0.020720012 0.03170161 -0.09561276 0.0927244 0.056385417
0.012456096 -0.074986026 0.14382668 0.1136311 0.096364975 0.12779738 -0.16055568 -0.1601751
-0.05051802 -0.046044793 -0.016001819 0.097891085 0.11170802 0.05108959 0.051002145 -0.121116854
-0.075302094 -0.06811426 -0.0001520588 -0.12086981 -0.010493079 -0.08014336 0.119158484 -0.0002631806
-0.111840956 0.14471415 -0.19326751 -0.14586711 -0.061868127 -0.0008991398 -0.16499266 -0.14854968
0.13744697 -0.10859273 0.039054986 -0.067777574 -0.028594946 0.049971994 0.0307873 -0.06401887
-0.11350598 -0.063129835 -0.07470418 0.030036805 -0.095414124 6.378882e-05 -0.12788382 -0.006079164
-0.087425336 -0.08675788 -0.044437796 0.041270077 -0.008846856 0.029046046 0.042404287 -0.0012293168
-0.0902049 0.009394192 -0.16803068 0.081691004 -0.009942365 0.082260855 0.031757012 0.04046359
0.06865056 -0.052038945 0.05346672 -0.02745474 0.057695854 0.033308934 -0.004684045 -0.003935751
-0.08639489 -0.07826562 -0.13997225 -0.07397764 -0.027178362 -0.020431714 0.13834396 -0.12517618
0.052338503 -0.036476582 -0.029874086 -0.057799272 -0.023415418 0.05106005 -0.0736665 -0.043149576
-0.06850685 -0.050040673 0.008418417 -0.072883636 0.014328687 0.055130202 0.042894017 0.075883955
-0.017857464 0.026898846 -0.007126746 -0.009509813 0.024007896 -0.080530606 -0.056084596 -0.060850862
0.003916332 -0.053580236 -0.028587637 0.03468576 0.059312627 0.08531819 0.02891554 -0.07991092

tcn.network.0.net.0.bias f4 [32]
00000000: 108f 50bc 83b0 00be 5db4 73bd 9678 09be
00000010: f78d 4ebe 68ae b53d c058 8cbc 18b4 943d
00000020: cdc3 7f3b b1f4 18bd 348a 02be 9318 a8bd
00000030: d7ed 7e3d 7dca 29bd 3b6f 57bd 1f9c 443d
00000040: 384f 0c3d cd24 6ebd 29b0 cc3d 359e fdbd
00000050: e698 3ebd 9484 81bd 8bab f83c 010f e13d
00000060: 4af0 86bc e714 983c 3125 dd3c 9157 bb3c
00000070: d593 adbd 89f9 6bbd b8fb ebbc 6121 6f3d
-0.012729421 -0.12567334 -0.05949818 -0.13424906 -0.20171343 0.08871156 -0.017132163 0.07260913
0.0039026618 -0.03734273 -0.12748033 -0.08207812 0.06223854 -0.041452873 -0.052596312 0.04800045
0.034255236 -0.058140565 0.099945374 -0.12383691 -0.046532534 -0.063241154 0.030355236 0.1098919
-0.016472 0.018564655 0.026995273 0.022868903 -0.08475462 -0.057611022 -0.028806552 0.058381442

tcn.network.0.net.0.weight_g f4 [32, 1, 1]
00000000: 181e 013f ca54 163f a334 123f a529 033f
00000010: 08cf 163f 065c 0e3f f328 003f 90b4 123f
00000020: 671d e73e 313e 2f3f 47f9 043f e292 0c3f
00000030: e332 fc3e 254d 0c3f 2a04 0f3f 5974 083f
00000040: f73e 0f3f d60a e13e 3478 d63e 5b54 0f3f
00000050: ae77 043f e45c 153f 4cec 0a3f 409e 033f
00000060: 1eb6 153f d200 033f bb5a 023f 8457 c53e
00000070: a8c8 053f 9113 133f eae2 223f e443 ea3e
0.50436544 0.5872313 0.5711157 0.5123542 0.58909655 0.55609167 0.50062484 0.57306767
0.4513962 0.6845427 0.5194287 0.54911625 0.49257573 0.54805213 0.5586573 0.5330253
0.5595545 0.4395358 0.41888583 0.5598809 0.51745117 0.58344865 0.5426681 0.51413345
0.58481014 0.51173127 0.50919694 0.38543332 0.522593 0.5745173 0.63627493 0.4575492

tcn.network.0.net.0.weight_v f4 [32, 32, 2]
00000000: 76f8 543d 271f 9dbd a8be 01bd 80e1 ba3d
00000010: 68c1 313d 5e6a 333d 96d6 a63d 698a 94bc
00000020: f90b 633d 7ba8 0dbd b6c2 86bd bb7d a8bc
00000030: 183e f1bb a307 cc3d ff67 a73d 91a1 0abc
00000040: ffd0 9f3c af06 f4bd 671c b83d f3ea c1bd
00000050: 1a6d 37bd e4f0 063c 0884 9a3d f313 c7bd
00000060: c066 ff3b 0139 dc3b 2703 9d3d 5c03 8d3a
00000070: c0d2 4d3d 8fef c63d ada8 193d 510d 71bd
00000080: 7b90 2d3d 8e6f 353d 0d07 7cbc 52a7 8a3c
00000090: 7b31 82bd 5d85 c1bd f463 853c 4c44 b83c
000000a0: fdc7 a7bd 1ccf 113d a432 9c3d 8713 3d3c
000000b0: 0ac5 c3bd c816 b93d e168 0e3c e13e 79bd
000000c0: 75e3 4dbc 073b 1f3d 3355 653d 9bb9 9a3d
000000d0: a45f fd3d 5182 7dbd 2630 8a3c 0252 e2bd
000000e0: d78e aa3c 528d bd3c f1f8 7a3d e92f 953d
000000f0: 3cbf d5bd 5ca3 f03c b0d2 523d ecf4 cbbd
00000100: 15bf 0abe 4079 b0bd 1a11 013d bb9a 023e
00000110: 6480 753c 9c57 d43d 570a ac3d e1c9 43bc
00000120: e4a7 9b3a 0797 14bd 09c0 163e 07fa ad3d
00000130: 9ef0 00be c866 6dbb f52a f43d b4bb 733d
00000140: 7c15 ccbd cbd7 54bd 5dfd 88bd 6f74 c1bd
00000150: 51f4 4f3d 5f86 1e3e 4f61 c0bd e708 75bd
00000160: 3f23 aa3d a2df 8bbd 986e 70bc 264e f03d
00000170: f06c 21be 60bc a2bd 5977 00be d15c e0bd
00000180: d920 0ebd 3e19 4bbd 6a17 15be 16ac c23d
00000190: f88c 8f3d a596 9d3d 7da0 cd3d 52a0 1a3d
000001a0: 3a8c 1b3c b473 28bd 1387 bb3d 592c 9c3d
000001b0: 1019 47bd 6818 b73d 1b9c 1bbe 148f 013e
000001c0: ed3e adbd 11dc 0b3e 4faf 9a3d e6c6 2e3c
000001d0: dafd 00be d2e6 d1bd f300 743d e181 f23d
000001e0: 83b5 1fbe 4f4e 11be 2452 063e def5 d93d
000001f0: 44fa 343e 999f 393d 2151 13bc d709 7e3d
00000200: 62e3 9d3d aeab cabd 12c2 f3bb 1ad3 c43d
00000210: feda 0c3d a7a4 6b3d 7ee1 0abe 9922 d53c
00000220: f525 9d3d f6e7 1e3e 502b 733d e0da 013e
00000230: 8274 e83c 0cd2 25bd 2f12 2ebd d831 b5bd
00000240: e6ac ebbd 2e41 de3c a5ab 533d b1c8 373d
00000250: 1028 26bd fa05 113d 171b e3bd 62ca 8abc
00000260: 5b8b edbd 1456 803d 7af4 63bd 54e1 383d
00000270: ccb3 ee3b f121 9dbc d4eb 993c b2a3 a93d
00000280: 1741 afbd ddb5 29bd f46a 693d 4ba0 1fbc
00000290: 0542 0fbb dc47 213d 5637 83bd 3415 22bb
000002a0: a5fc a1bd c10f aebc a35d d6bd 14fa ca3d
000002b0: 7f5e 18be 1245 413d 565e a13c a18b 8e3d
000002c0: d2bc e1bc ca97 d5bd c35e 74bd 4868 bb3c
000002d0: 2ead 71bd 580b 10be 91b3 e9bc ed74 b2bd
000002e0: 132c 21bd 8d3b 823d b3cc b6bc ddba eb3d
000002f0: d6a3 fcbc b757 2fbd 20b9 aa3d f27c 8e3d
00000300: 90e4 ff3b 9c52 1fbe dbdf 67bd 00c1 ba3d
00000310: 7b10 623d c332 7abd 0d69 33bd 2474 debd
00000320: 22ec d33b cec7 dd3c 1419 9c3c e0f9 6ebc
00000330: 0c03 963d 82e1 59bd 4613 e6bb 38bf 9a3c
00000340: e683 fe3c f1d5 80bc 3e12 48bb 4b5a 98bd
00000350: 559e ee3d 4350 ebbc e8e7 de3d 679a c8bd
00000360: d621 b1bc 580b 1abb 9eb3 103e d0e8 fdbd
00000370: eca4 bbbd 105f f0bd f964 493d 4a9a 9abd
00000380: b09d 853d b82c a0bd 3a77 00bd 7a24 edbd
00000390: 9c92 3e3d 5fcd fb3b cc51 0a3e 739b 8eba
000003a0: 5412 963c a1e2 c9bd 6c64 84bd e39e dbbd
000003b0: 86ce babd b39a e9bd 4303 d33d 1452 e2bd
000003c0: 70f4 a93b 161f 963d 88da e03d 08e2 24bd
000003d0: 52a7 ff3d 8fc6 8bbd d9b3 9d3d d8a6 c2bd
000003e0: 15d9 3fbd d51a bd3d be80 4b3d 6f7a 353d
000003f0: baba 10bd 463a a03d 2a83 073e fd9d a4bc
0.051994763 -0.076719575 -0.031675965 0.09125042 0.043397337 0.04380261 0.08146398 -0.018132405
0.05543134 -0.034584504 -0.06580107 -0.020567765 -0.0073621385 0.09962394 0.081741326 -0.008461372
0.019508837 -0.11915337 0.08989792 -0.09468641 -0.04478178 0.008236144 0.07544714 -0.09720602
0.007794231 0.0067206626 0.07666617 0.0010758447 0.050249815 0.09713661 0.037514377 -0.05885059
0.042374115 0.04429584 -0.01538254 0.016925488 -0.06357094 -0.09449265 0.016283013 0.022493504
-0.081924416 0.035597906 0.076268464 0.0115403 -0.095590666 0.09037548 0.008691997 -0.06085098
-0.012566437 0.038874652 0.055989455 0.07554933 0.123717576 -0.061891858 0.016868662 -0.11050798
0.020820064 0.023138676 0.061272565 0.07284529 -0.10436866 0.02937477 0.05147046 -0.099588245
-0.13549455 -0.086168766 0.03151045 0.12754337 0.014984224 0.10368273 0.0840041 -0.011949987
0.0011875597 -0.036276843 0.14721693 0.084949546 -0.12591788 -0.0036224592 0.11922256 0.05950518
-0.09965035 -0.05196361 -0.0668895 -0.09446036 0.050770108 0.15480946 -0.0939356 -0.059822943
0.08307504 -0.06829764 -0.014674805 0.11733656 -0.15764213 -0.07946086 -0.12545528 -0.10955203
-0.034699295 -0.04958462 -0.14559713 0.09505479 0.070093095 0.07694749 0.10040376 0.03775055
0.009493882 -0.041125968 0.09156623 0.07625646 -0.048607886 0.08940202 -0.15196268 0.12652236
-0.08459268 0.13658167 0.07552969 0.010667538 -0.12596837 -0.102491036 0.059571218 0.11841179
-0.15596585 -0.14190029 0.13117272 0.106425986 0.17673594 0.04531822 -0.008991511 0.062021103
0.077093855 -0.098960266 -0.0074389065 0.09610577 0.034388535 0.05753007 -0.13562581 0.026017474
0.07673255 0.15518174 0.059367478 0.1268115 0.028375868 -0.04048352 -0.04249781 -0.088473976
-0.11507587 0.02713069 0.051677365 0.04486913 -0.04056555 0.03540609 -0.11089151 -0.016942207
-0.115988456 0.06266418 -0.055653073 0.045136765 0.007284617 -0.019181224 0.01878921 0.082831755
-0.08557337 -0.041433204 0.056986764 -0.009742807 -0.002185942 0.03937517 -0.06407039 -0.0024731876
-0.07909516 -0.021247746 -0.104670785 0.0991098 -0.14879797 0.04718501 0.019698303 0.06960226
-0.027555857 -0.10429342 -0.059660684 0.022876874 -0.059003048 -0.14066827 -0.028528007 -0.08713708
-0.039348673 0.06359015 -0.022314405 0.11510251 -0.030839842 -0.04280826 0.08336091 0.06957425
0.007809229 -0.15558857 -0.05660997 0.09118843 0.0551915 -0.061083566 -0.043801356 -0.10861996
0.006467358 0.027072813 0.019054927 -0.014585942 0.073248 -0.053193577 -0.0070213405 0.018890008
0.031068753 -0.015727015 -0.0030528451 -0.07439097 0.11651293 -0.028724795 0.10884076 -0.09795075
-0.02162258 -0.0023505297 0.14131019 -0.12397921 -0.09162316 -0.11736882 0.04916856 -0.075489596
0.06524217 -0.078210294 -0.031363703 -0.11579223 0.046526536 0.0076843943 0.13507766 -0.0010880068
0.018319286 -0.09857679 -0.064644665 -0.107236646 -0.091214225 -0.1140646 0.103033565 -0.110508114
0.00518661 0.07330148 0.109791815 -0.040254623 0.12483086 -0.068249814 0.07700319 -0.09504479
-0.046837885 0.092336334 0.049683325 0.044306215 -0.035334326 0.07823615 0.13233629 -0.020094866

tcn.network.0.net.4.bias f4 [32]
00000000: 9ccc c4bd bd09 043d fe84 c6bd 7a10 14ba
00000010: 2e1a 3ebd 4253 ef3d 5314 363d 0e84 6b3d
00000020: 0177 17bd 4294 c73d cdd0 b7bd 50bc 08be
00000030: 3c54 8fbd 0912 c53c e42f 75be 71cb 0ebe
00000040: 3cc4 b6bc ab7c 653d 3c40 a73d b0fe ea3c
00000050: 4595 45be 61be dd3c 7ff5 663d 81d5 d53d
00000060: bf2d 1dbc 88cc b53d ae64 54ba 06b1 13bd
00000070: 76ca 163b ff05 f9bd 51ba f63b 2e43 93bd
-0.09609339 0.03223585 -0.09693335 -0.0005648207 -0.046411686 0.11685802 0.044452976 0.057498984
-0.036978725 0.09745075 -0.089753725 -0.13353086 -0.06998488 0.024056451 -0.2394405 -0.13944794
-0.022310369 0.056027096 0.081665486 0.028685898 -0.19295223 0.027068319 0.056386467 0.10441113
-0.009593426 0.08876902 -0.00081021606 -0.036057495 0.002300886 -0.12159347 0.007529535 -0.07190548

tcn.network.0.net.4.weight_g f4 [32, 1, 1]
00000000: 3e7f 073f 541e 023f c0e2 0e3f 4bf0 223f
00000010: 66b7 053f 7929 093f 9409 123f f5b7 ef3e
00000020: 19a8 143f 8c22 fb3e 30b4 193f 8d3f 0d3f
00000030: f5c9 123f 747a 103f 256e 143f 9ed4 1d3f
00000040: 8ce2 fc3e 489c 073f d25b 113f 2f1c 233f
00000050: 7800 113f 4a5a 103f 4072 083f 932c 073f
00000060: 739e f33e 3ed1 0c3f cf56 1d3f 6056 063f
00000070: ac5f 123f 54d4 013f a15b 063f d845 123f
0.5292853 0.5082753 0.55814743 0.6364791 0.5223297 0.5357891 0.57045865 0.46820036
0.58068997 0.49049795 0.6004057 0.55175096 0.5733941 0.5643685 0.5798057 0.61652553
0.49391592 0.5297284 0.5678073 0.6371488 0.5664134 0.5638777 0.5329933 0.5280239
0.47581825 0.5500678 0.61460584 0.5247555 0.57177234 0.5071461 0.52483565 0.57137823

tcn.network.0.net.4.weight_v f4 [32, 32, 2]
00000000: ec6c 903c 80b0 9e3c 7f77 1ebd 3747 90bd
00000010: b671 e3bd 6603 c2bd 57a0 c83d 4cfd 9b3c
00000020: f8eb 173e 5e06 0fbe 8623 20be 3e07 323e
00000030: 1bd5 453d 8c76 b73d aef1 0a3e 1d17 b2bd
00000040: fecb 94bd 603a 2abe d3a1 a3bd 3c32 9ebd
00000050: 8a19 17be e23a 373e f4fd dc3b 194d 87bd
00000060: 36c7 b4bd a8f3 563d d415 143d bf95 13bd
00000070: 059f 1abe 0acc 09be 74aa 053e 0172 1ebe
00000080: 03cb 753c b877 cabd 6fb2 6e3d e503 943d
00000090: c6b0 ec3c a8fa 45bd 867e 7f3d 7969 e83d
000000a0: 48ff b7bd 8c22 f3bd 2031 4cbc d933 0bbe
000000b0: 2516 ab3d 214b a73d f193 bfbd 2393 783d
000000c0: 9ed4 04be 9272 0fbe d56d 61bd dd3c 39be
000000d0: ff6c a73d 0269 23be be5c 85bc 47b8 33bd
000000e0: 3615 a1bd e376 09be b0c5 4ebd 207e 10be
000000f0: 5663 313d 3090 163e 13e5 ac3a 817e 693c
00000100: 7817 f43d 2189 dabd 620f 923d a654 fc3c
00000110: 1c34 e83d 0a4c c7bd 1a16 0abe d597 23bc
00000120: d5ea 73bd 0e75 27be ab71 4cbd fd4c 05bd
00000130: e182 8bbc b138 d4bd 0bf8 b53d 8a74 173e
00000140: b5fd 45bd 2c9e 06be 4923 18bd cc6b 17be
00000150: 3f27 5ebd b8cf e4bc 7152 fa3d d07b 43bd
00000160: e50a c1bd bbb2 eb3d f0f7 cf3b be74 443c
00000170: b8c6 33be f1f8 ac3d 1f6e 0cbe a0b5 72be
00000180: f291 09bd 386e 593b 7dbd ecbd 964d 343d
00000190: 9c47 403d ddf6 4fbd ad6e cb3c 05f4 abbd
000001a0: 002b 613d e67f e93d 07bb e43d 729d 383c
000001b0: c56e e13c dfd7 5e3d e73a cdbc 8aae c83d
000001c0: 6051 d33d ad32 303c 46a6 be3d 9a17 af3d
000001d0: 8380 003e 8303 463d e0d0 b0bd c2f4 ac3c
000001e0: 6be1 013d 13ef d03d 7ed0 bd3c 04ea 993d
000001f0: 81a2 fabd 30c0 1abe 376f 593c 0c98 fe3d
00000200: ef19 cabd c23a 11be 67a0 873d 150c 66bd
00000210: 94d5 17be c4df 37bd 820f fabd 3495 09be
00000220: 3084 0ebe d421 09b1 5127 fe3d 04bd a93c
00000230: 8cd9 013d 9fd0 c3bd 4ae6 bd3d 65f4 663d
00000240: a714 4c3c 4692 99bd 4d47 133e 6cb7 e83d
00000250: 005b c53d 51dd 023e b568 24be f104 24be
00000260: fceb 4ebd 7799 3cbd 3f16 83bc 1f7b c83d
00000270: 2dc7 e43d 5143 513d a0e7 503d 1d0c f8bd
00000280: fc37 9abd 7d7f 8bbd f971 1fb9 978a f7bd
00000290: 2aeb 2bbc 3422 a4bd 5d09 f43d 81fb 89b9
000002a0: df0c e5bd f22f 143e ebe7 45be 305e 15be
000002b0: 6f69 7dbd 40b4 6bba d6f3 28be 681d 18be
000002c0: e6be 0c3e dd65 debd 1ff8 1f3d f8ce 8abd
000002d0: f33f eabc 6faf 4c3d a635 fc3c 531c 83bd
000002e0: d375 e8bd 374a 81bd 81fe 98bd bf0f f63c
000002f0: 7b68 c3bd 5dc6 8538 faf3 02be b933 c7bb
00000300: 0e0c b3bd 1eae b1bd 6804 36bd d00a 293d
00000310: 67f2 10bc f9f1 ed3c 1eb0 2d3d 0721 a1ba
00000320: 59bd b8bd 19ea 193c 3c10 2cbe 9d4d a73d
00000330: 4de5 22bc 6178 a83d a413 023d 26bd 253d
00000340: aa98 8c3d ca26 55bd ebff 5a3d c3e8 e0bc
00000350: 7d52 6c3d f36e 083d 9e7c 99bb 79f7 80bb
00000360: ceef b0bd ba49 a0bd e354 0fbe 9781 97bd
00000370: 28a5 debc 6960 a7bc 0aaa 0d3e 2f2e 00be
00000380: e660 563d 7868 15bd 80ba f4bc eebe 6cbd
00000390: b1d1 bfbc 5824 513d 76de 96bd 9cbd 30bd
000003a0: 524d 8cbd 73f7 4cbd 66ed 093c 0444 95bd
000003b0: dfc2 6a3c 35d0 613d a3b1 2f3d 0c69 9b3d
000003c0: d149 92bc f85a dc3c 7a87 e9bb 0ccf 1bbc
000003d0: 35ac c43c 3bed a4bd f6b8 65bd c13e 79bd
000003e0: 9354 803b f376 5bbd 9f30 eabc a812 0e3d
000003f0: ccf1 723d 4ebb ae3d 48e0 ec3c 56a8 a3bd
0.017630063 0.019371271 -0.03868818 -0.07044833 -0.11105673 -0.094733045 0.097962074 0.01904168
0.14836109 -0.13967273 -0.15638551 0.17385575 0.048298936 0.08958158 0.13568756 -0.08695815
-0.07265471 -0.16623831 -0.0798985 -0.07724425 -0.14755836 0.17893556 0.0067441408 -0.06606502
-0.08827059 0.052478462 0.03615363 -0.03603148 -0.15099724 -0.13456741 0.13053304 -0.15473177
0.015002015 -0.09886116 0.058275636 0.07227305 0.028892886 -0.048334748 0.06237652 0.11348242
-0.08984238 -0.11871824 -0.012462884 -0.13593997 0.08353833 0.081686266 -0.093543895 0.060687196
-0.12971732 -0.14008549 -0.055036385 -0.18089624 0.08175086 -0.15958026 -0.016279574 -0.043876912
-0.07865374 -0.13424258 -0.0504815 -0.14110613 0.043307625 0.1470344 0.0013190828 0.014251352
0.11918539 -0.106706865 0.0713184 0.030802082 0.11338064 -0.097313 -0.13484994 -0.00998493
-0.059550125 -0.16353247 -0.04991309 -0.032544125 -0.017030181 -0.103623755 0.08885201 0.1479055
-0.048337657 -0.13146275 -0.037143026 -0.14787215 -0.054236647 -0.02793108 0.12222756 -0.0477255
-0.09425906 0.115086995 0.006346695 0.011990724 -0.17556274 0.08445919 -0.13713883 -0.23702097
-0.03358645 0.0033177268 -0.115595795 0.044019304 0.046943292 -0.050772537 0.024833048 -0.083961524
0.05497265 0.11401348 0.11168485 0.011268007 0.02751864 0.05440509 -0.0250525 0.09798916
0.103182554 0.01075427 0.09309058 0.085494235 0.12549023 0.048343193 -0.0863359 0.021112803
0.031709116 0.1020185 0.023170706 0.07515338 -0.122380264 -0.15112376 0.013271145 0.124313444
-0.09868228 -0.1418257 0.06622391 -0.056163866 -0.14827567 -0.044891134 -0.12209989 -0.13435823
-0.13917613 -1.9955353e-09 0.12409843 0.020720012 0.03170161 -0.09561276 0.0927244 0.056385417
0.012456096 -0.074986026 0.14382668 0.1136311 0.096364975 0.12779738 -0.16055568 -0.1601751
-0.05051802 -0.046044793 -0.016001819 0.097891085 0.11170802 0.05108959 0.051002145 -0.121116854
-0.075302094 -0.06811426 -0.0001520588 -0.12086981 -0.010493079 -0.08014336 0.119158484 -0.0002631806
-0.111840956 0.14471415 -0.19326751 -0.14586711 -0.061868127 -0.0008991398 -0.16499266 -0.14854968
0.13744697 -0.10859273 0.039054986 -0.067777574 -0.028594946 0.049971994 0.0307873 -0.06401887
-0.11350598 -0.063129835 -0.07470418 0.030036805 -0.095414124 6.378882e-05 -0.12788382 -0.006079164
-0.087425336 -0.08675788 -0.044437796 0.041270077 -0.008846856 0.029046046 0.042404287 -0.0012293168
-0.0902049 0.009394192 -0.16803068 0.081691004 -0.009942365 0.082260855 0.031757012 0.04046359
0.06865056 -0.052038945 0.05346672 -0.02745474 0.057695854 0.033308934 -0.004684045 -0.003935751
-0.08639489 -0.07826562 -0.13997225 -0.07397764 -0.027178362 -0.020431714 0.13834396 -0.12517618
0.052338503 -0.036476582 -0.029874086 -0.057799272 -0.023415418 0.05106005 -0.0736665 -0.043149576
-0.06850685 -0.050040673 0.008418417 -0.072883636 0.014328687 0.055130202 0.042894017 0.075883955
-0.017857464 0.026898846 -0.007126746 -0.009509813 0.024007896 -0.080530606 -0.056084596 -0.060850862
0.003916332 -0.053580236 -0.028587637 0.03468576 0.059312627 0.08531819 0.02891554 -0.07991092

tcn.network.0.downsample.weight f4 [32, 32, 1]
00000000: e7fa 683e 32c1 05be 0d15 0bbd d105 983d
00000010: 26ed 44bd e9aa c7bd a913 c03d 5f22 993e
00000020: 11b7 07bd e47b 15be f950 09be ff37 3abe
00000030: 220d 1dbe 129d 723c c96c f7bd e0af 503e
00000040: c24a 3ebe f5e8 1abe 8cae 863e 400b 72be
00000050: 37f3 38be 0730 493e e242 f93d 4ac6 8c3c
00000060: 65a8 24bd aa39 6dbe 0747 f73d 84be a0bd
00000070: 545e 5ebe c022 2abc 8c6f ddba e1c8 c0bd
00000080: f732 903d a17f 9a3c 6891 2abc 89e7 40bd
00000090: 4b68 39be c356 98be a09c 3fbe 9ddd 503e
000000a0: 5e2f f63d f8f6 ba3d 68ec 30be 1bce 09be
000000b0: 57d5 f13b cfaf 4ebe 6bb6 f03d 9387 bcbd
000000c0: d517 7dbd cdf2 05bd abeb 193e 64fc d0bd
000000d0: 1d08 c83d 2390 113e 3368 dc3d 7bea 83be
000000e0: 9760 22bd 70ba 7dbd 3607 533e e0cd 3dbb
000000f0: e5ed 0abe b879 28be a89d b63d 0fc1 8abe
00000100: 6203 4abd 7b86 ddbd bf3f 18bd 141b da3d
00000110: 9e3e 21be 0e71 a43e d5ff f23d 9ae8 eebd
00000120: 5805 51be 01b7 583e 36d8 973d de16 7f3d
00000130: 0ad3 133d 4c29 4b3e 7c5a 2a3d 40bb 013e
00000140: e98a e63d ba90 843e 07c2 37be 76ac 68bd
00000150: 9e01 333e 1053 81be 2a48 9bbe 0dd6 983d
00000160: f8d9 32be 353f 9e3e 3291 a13d f377 7b3e
00000170: 2936 093e e3f0 c73d 8cce 1cbd 1d1c 6a3e
00000180: 61a4 9dbe b96b 84bd a43a 6bbe e344 e6bd
00000190: 2788 42bd 1202 673e 9a20 b33c a188 69be
000001a0: 13e8 bcbd 6640 cb3d 8f4c 733e 6cbf c33b
000001b0: 3b83 bdbd 7ef6 363e 4a94 55bd c1d2 0c3e
000001c0: f042 8c3d 330d e03d fc50 6cbe 4bbb 573d
000001d0: 728f cdbd 9aa1 edbd ed5a efba 02b6 3d3e
000001e0: 56fc 82be 4ab5 953e e37b 7dbe 0e4d 8ebc
000001f0: 94ea 983e 90f5 a3bb 33ed 7fbe 3af3 a63e
00000200: 2e0a cb3d b55e fd3c f936 f5bd 5b94 84bd
00000210: 776d 443e 01e2 0ebe c5f8 143e 8108 47bd
00000220: 7bfc 57be c71b fcbd 8aec 223e d9c9 61bd
00000230: 5d78 f3bd 30a4 c0bd 0932 35bd 99ec a1bd
00000240: 6f21 aabd a50c 193e 7aba fb3c 2e6e 203e
00000250: ce6d 613d 525c dc3d 106d cabd fff0 5f3d
00000260: 5754 23bc ad8f 51bd beda 2d3e c398 b73d
00000270: 5858 0b3e 539b 11be 8dd6 d4bd 9dc0 3d3e
00000280: 77fa 84be b3e7 81bb 9755 f9bd 40a9 c4bd
00000290: 528e 01bd ebd0 1f3e 7eda b8ba 3c64 0d3d
000002a0: ea15 08be 4ae5 dd3d 3942 4c3d f737 26be
000002b0: d9a6 e6bd 9c15 833e 93bc 0cbe d93c 72bd
000002c0: ce8e 8d3c 2563 0f3e 55f9 5abe a587 4c3e
000002d0: 94f5 073e 81be 2fbe 1c84 ffbd b8ef 43bd
000002e0: 701d 4abd 77a8 1f3e b941 29be 80d9 8bbd
000002f0: bc10 9bbd 06ec cd3c f582 e6bc 6117 043c
00000300: b642 3bbe b412 333e 9d5e 2e3e f57c cebd
00000310: 352f b8bd 4087 25be cf9d 223c 145a c13d
00000320: 2b7f af3d f897 a73c 9d92 e33d b6d8 b23d
00000330: 972f c43d f433 2d3e f67b c6bd 8bf0 ad3d
00000340: f0ce 6cbd 0247 1ebe 22a1 38be 6f97 093e
00000350: 0fcd f73d edcb f73c 0925 5e3c 4b54 a83c
00000360: 9367 e13d 976e 56bb 3820 22be 6ceb b1bd
00000370: b6ff 163e 25c5 ce3d a1e5 993d 8c4c 713c
00000380: 3c61 cc3d b4be b4bc f4e3 a43d df3e d1bc
00000390: 5c82 a1bd 8e97 b7bd 7557 213d 9a14 153e
000003a0: d02e 243e f7a4 80bd 1b45 513c cc42 4cbe
000003b0: 3edd ebbd be21 403d b0c6 03be 317b 833e
000003c0: 6c0f e4bd 9084 66be 007a 413e af0d 26bd
000003d0: 20a1 9ebe 67e9 093d 7061 9abd feb6 51be
000003e0: 0307 02bc a755 7ebd a9c7 903e 115c eebd
000003f0: a6eb 3dbe 23d5 423e 7fdc 393e f91a c3bc
0.22751962 -0.1306198 -0.033955622 0.074229844 -0.048077725 -0.097493954 0.0937875 0.29909036
-0.03313357 -0.14598042 -0.13409795 -0.18185423 -0.15337041 0.014807956 -0.12081296 0.20379591
-0.18583205 -0.15127929 0.26305044 -0.23637104 -0.18061529 0.19647227 0.1217096 0.017184395
-0.040199656 -0.23166528 0.12074094 -0.07848838 -0.21715671 -0.010384262 -0.0016894205 -0.094133146
0.07040971 0.018859686 -0.010410644 -0.04709581 -0.18106191 -0.29753694 -0.18712091 0.20397039
0.12020753 0.09129137 -0.17277682 -0.13457529 0.0073801684 -0.20184253 0.117535435 -0.09205546
-0.061790306 -0.032702256 0.15031306 -0.1020439 0.097671725 0.1421514 0.10762062 -0.25764832
-0.039642897 -0.06194538 0.2060822 -0.0028961822 -0.13567312 -0.16452682 0.08916789 -0.27100417
-0.049319632 -0.10816666 -0.037170168 0.10649696 -0.15746543 0.32117504 0.11865202 -0.11665459
-0.20412195 0.2116356 0.07414286 0.062277667 0.036089934 0.19839972 0.0415902 0.12669086
0.11256964 0.25891668 -0.1794511 -0.056805097 0.17481086 -0.25258684 -0.30328494 0.07462702
-0.17465961 0.30907598 0.07889022 0.24557476 0.13399567 0.09762742 -0.038282916 0.22862287
-0.30789474 -0.06465859 -0.22971588 -0.11243608 -0.047493126 0.22559384 0.021866132 -0.22806026
-0.09223952 0.099243924 0.23759674 0.005973747 -0.09253546 0.17867467 -0.052143373 0.13752271
0.06848705 0.109400176 -0.23077768 0.05266885 -0.10037126 -0.11603089 -0.0018261351 0.18526462
-0.25583142 0.29239875 -0.2475429 -0.017370727 0.2986647 -0.0050036386 -0.24992828 0.32607442
0.09914051 0.030928949 -0.11973376 -0.06473609 0.19182383 -0.13953401 0.14548023 -0.048592094
-0.21092407 -0.123099856 0.15910545 -0.055124138 -0.11888192 -0.09406316 -0.04423717 -0.079064555
-0.08307158 0.1494623 0.030728567 0.1566703 0.05503636 0.10759796 -0.09884083 0.05467319
-0.009968839 -0.05116241 0.16977975 0.08964684 0.13607919 -0.14219408 -0.10392485 0.18530507
-0.2597234 -0.0039643883 -0.12174528 -0.096025944 -0.031629868 0.1560704 -0.0014103202 0.03451942
-0.1328961 0.10834749 0.049867842 -0.16232286 -0.112622924 0.25602424 -0.1374381 -0.05914006
0.017280009 0.14002664 -0.21384175 0.1997362 0.13277274 -0.17162515 -0.1247637 -0.047836035
-0.04934448 0.15591608 -0.16528977 -0.06828594 -0.07571551 0.025136959 -0.028138617 0.008062215
-0.18287167 0.17487603 0.1702828 -0.100824274 -0.08993379 -0.16164875 0.00992532 0.09441009
0.08569177 0.020458207 0.11111949 0.087327406 0.095793895 0.1691435 -0.096916124 0.084931456
-0.05781454 -0.15456775 -0.18030217 0.13436674 0.12099659 0.030248607 0.013558635 0.020548007
0.11006083 -0.0032719725 -0.15832603 -0.08687481 0.14745983 0.10096196 0.07514501 0.014727723
0.099794835 -0.02206359 0.08051291 -0.025542675 -0.07886192 -0.08964454 0.039390046 0.1455864
0.16033483 -0.062814645 0.012772824 -0.19947356 -0.11516808 0.04690718 -0.12868762 0.25679925
-0.11135754 -0.22511506 0.18894196 -0.040540393 -0.30982304 0.033669855 -0.07538116 -0.20479962
-0.007936242 -0.062093403 0.2827733 -0.11638654 -0.18546924 0.19026618 0.18150519 -0.023816573

tcn.network.0.downsample.bias f4 [32]
00000000: 6340 2bbd 479b 4b3e 5e08 e7bd 1879 8abd
00000010: 0f7f 9bbd d1ea cc3d 2a85 e03d 859e 033e
00000020: 1dc7 4cbe 08f7 a63a 6ef9 81bd 0c9d c2bd
00000030: 0708 d4bd bb5b 10be 7b61 8cbd 8bd7 8cbc
00000040: 57e6 e8bc df3e 9b3c a816 adbd 5492 4dbe
00000050: e69f 6ebc 287d f3bd 7ef0 82bb bcfd 7bbd
00000060: 4d9a bebc 9c3d 3c3e dc79 a5bd a1af 9c3c
00000070: b735 b93c 9067 603d bbc6 c63c 5ba3 0d3e
-0.04180945 0.19883452 -0.11280893 -0.06761378 -0.07592594 0.10005725 0.10962899 0.12853439
-0.1999783 0.0012738416 -0.06346403 -0.095026106 -0.103530936 -0.14097492 -0.068545304 -0.017192623
-0.028430147 0.018950878 -0.08451587 -0.20075351 -0.01456449 -0.11889106 -0.003995954 -0.061521277
-0.023266936 0.18382877 -0.080798835 0.019126715 0.022608621 0.054786265 0.024264684 0.13831846

tcn.network.1.conv1.bias f4 [32]
00000000: ea96 023e b097 8abc 00ca 1e3d 63bc 2cbd
00000010: d9d6 a73d 103b 983c c471 de3d d36a 6d3d
00000020: dc3d 58be 6834 e73c 940a b93d 4df4 4fbd
00000030: e4ee 7d3d 86d7 0c3d b55d c83d a64d c33d
00000040: bcde 1f3d 3ba6 873e 3445 2abd 0b61 863d
00000050: 512a 273d a4db 75bc 3c90 a43d a29f 2038
00000060: 2eed 453d a94d ab3b ff7a 45bd 602b a439
00000070: e188 2e3e 1c67 36bd 11ca ca3d 736c fcbb
0.12752882 -0.016918033 0.03876686 -0.042171847 0.08195276 0.01858285 0.10861543 0.057963204
-0.21117347 0.028223231 0.09035221 -0.050770093 0.061995402 0.034385227 0.09783498 0.09536295
0.039030775 0.2649401 -0.041569903 0.06561478 0.04081184 -0.01500598 0.08035323 3.8295642e-05
0.048321895 0.0052277637 -0.048213 0.00031312834 0.17044403 -0.044531927 0.09901822 -0.007703358

tcn.network.1.conv1.weight_g f4 [32, 1, 1]
00000000: 4421 2a3f d4d7 243f 44d9 3c3f 1ae7 163f
00000010: 343e 2b3f cda0 fc3e 3412 313f 5976 203f
00000020: 0032 193f 7fc0 033f 3f2d 0f3f 3303 4b3f
00000030: 3b29 1b3f 870d 193f d8e3 013f 0b6f 233f
00000040: 1942 0e3f e5e2 483f 6542 143f aa50 fe3e
00000050: 0ac4 093f 70da 183f 7bfe 3b3f 3f21 043f
00000060: 3440 f33e 90ca 1c3f 4cfb 2c3f f2d0 0d3f
00000070: a1f3 223f 7710 193f 562a e53e b7a3 223f
0.6645701 0.6439183 0.7376902 0.58946383 0.6689179 0.4934143 0.691684 0.62680584
0.5984192 0.514656 0.55928415 0.79301757 0.6060979 0.59786266 0.50738287 0.63841313
0.55569607 0.78471214 0.5791381 0.49670917 0.53814757 0.5970831 0.7343518 0.5161323
0.4750992 0.61246586 0.6757095 0.5539695 0.63653 0.5979075 0.44758862 0.6353106

tcn.network.1.conv1.weight_v f4 [32, 32, 2]
00000000: 20c9 663d f0d2 94bd 20da ce3d 825e c4bd
00000010: 4ea9 fabb c549 39bd fb11 e7bc 320d 7ebd
00000020: ba6c fb36 0995 7ab6 e42f 2cbc 1829 0c3d
00000030: 71a3 9e3c 7aac 013d e02d 323d d28f b4bd
00000040: 2cc4 86bd 26a0 2dbd d5d0 cabd 5420 bbbd
00000050: 988b 003e 4d04 35bd dac2 f5ba 4843 033d
00000060: e481 683e 977d ecbd f26a ce3d 8c7a a4bc
00000070: 78c4 62bc 3f6b 3b3d 7238 133e 9d52 6dbb
00000080: 4b14 023e e4c0 41bc 36da 063e 37cc e7bd
00000090: 4ab8 103e 16f0 07be c37c f2bb 12ce d0bb
000000a0: 1287 113d 7805 ef3d c4c4 c13d 73d6 aabd
000000b0: a043 ae3d 1719 0bbe de81 6cbb b860 13be
000000c0: c7ff fabd b736 443d f9d9 883c dd57 d83c
000000d0: f6e2 ccbb b2ac 9cbc 94dc ac3d 14f9 7bbd
000000e0: 0581 abbc 43de 55bd a33c 633e c6da 12be
000000f0: e545 68bd e63f 0ebe a6a9 4d3d 137c 653d
00000100: e659 90bd 6266 8f3c a937 ebbd 111a 743d
00000110: 3794 e23c 27ba aabd 27c2 b2bd 9dda d9bd
00000120: 79d4 8fac d044 21bd 72f9 483d 6944 a1bd
00000130: cd5b 813d a526 9fbd f51b f8bd 7d1a 873d
00000140: d902 a9ba fc12 553c 5fea 413e c98e 19bd
00000150: 4aa7 01be f613 9c3c fe4a 8d3c b63c f6bc
00000160: 56e0 10be 1cca 2abd 5a52 86bd efb5 853d
00000170: e1da 26bc 0638 2bbd cf8a cb3c f9c9 1a3e
00000180: a078 3c3d 0511 5d3d 19ad efbd 59d7 6d3c
00000190: 78ec 1b3d aaad a03d 7602 203e 9f36 8ebd
000001a0: a2f9 843d 76e4 d93c d3d9 05be 656d bcbd
000001b0: 2c76 6abd bba8 233d a55b f9bd 9ed3 5ebc
000001c0: ae70 593e c08d d83d fa78 c7bd f787 0d3d
000001d0: 22d9 bf3d 8d9b cbbd 0069 9c3d 96ae 58bd
000001e0: 2b85 5b3e bea8 59bd d2e2 35be 9e38 903c
000001f0: 5d8d b5bc 6f76 83ba c7b8 5b3d ff26 1d3c
00000200: 5f1d 4f3d 06f3 17be a613 073e fbf7 dc3b
00000210: 03c5 cebd 0547 f13d 7006 9dbd 0dd4 d43d
00000220: e267 8d38 8450 1538 83a0 b5bc 605a 493d
00000230: b642 bf3b 6614 8fbc 6571 b63d aa81 14be
00000240: a277 49bc 201f 93bd 61b4 1dbe 7025 ea3b
00000250: 280c dc3d 2af8 adbd 958f f5bd 4376 193e
00000260: 3834 843e b392 8bbd 7d25 f33d 0706 89bd
00000270: 8208 bf3c dee7 133e 3487 b43d 1a25 00be
00000280: def3 733c 3870 bbbd 0d88 8d3d 94be 2abe
00000290: fd69 2f3d ff8c 5dbc 5f67 f3bd 4ca9 ca3d
000002a0: ecdc 74bd a54e 083e 9fc0 d03d c16b e8bd
000002b0: b9ba 153e 04c4 98bd a33d 373e b9f1 06bd
000002c0: 3ad5 193c ed2e 7d3d 91ad 48bb 0f4f 93bd
000002d0: 9d9f c3bc 2e47 033e 133e ed3c 7a8c 8dbd
000002e0: 0313 1bbe 923d d83d babf 7a3e 3005 1cbe
000002f0: 7312 3bbd ffd5 febb 2614 163d ae15 b23c
00000300: 217c 803d a271 9dbd 5c1e 3cbe 883d 9dbd
00000310: 59a1 6d3c 0f6a 703b 44aa ddbb 8e37 3dbd
00000320: 02d8 ae3d 4c2a 6a3d 2475 1b3d d350 87bd
00000330: 51d6 3d3e a5d2 b03d abf2 50bd 3731 f0bd
00000340: 7693 273d 7c9a c838 4d61 c63d b72a a13c
00000350: c5ae 97bc 0102 e33d b881 883d fa39 ed3d
00000360: edf2 d83c 41ce 563d 8ed4 e8bd 8f96 afbd
00000370: 3026 28be e74d 1dbe 0bda 43bd 1fd0 82bc
00000380: e2d1 8ebd d47b 0dbe a479 c2bd b3ad d4bd
00000390: 4fdf 5bbe 5b61 30be 6a82 143e 9535 cc3c
000003a0: a88c 263d 3c78 d23d 82ce 4a3d 6ae3 863b
000003b0: e656 a0bd 8f25 ebbd bb03 9abd 478e e63b
000003c0: 53a2 8bbd 260f a23c 1f8d 00be 45d8 92bd
000003d0: 506e 863d 3590 e6bc 5b02 3abd 4484 00bd
000003e0: de8f af3d 23d6 a3bd 178e 533d 97c6 183d
000003f0: e857 d1bd 1c90 e23d abc0 223e bc58 873d
0.05634415 -0.07266796 0.10100198 -0.095883384 -0.007649577 -0.045236368 -0.028206816 -0.062024303
7.4930404e-06 -3.7339653e-06 -0.010509465 0.034218878 0.019365044 0.031658627 0.04350078 -0.08816494
-0.065803856 -0.042389058 -0.09903113 -0.091370255 0.12553251 -0.044193555 -0.0018750087 0.032046586
0.227058 -0.11547392 0.10078992 -0.020077966 -0.013840787 0.045756575 0.14377001 -0.0036212571
0.12703054 -0.011825774 0.13169178 -0.11318248 0.141328 -0.1327518 -0.0074001267 -0.0063722217
0.035529204 0.11670965 0.09461358 -0.08341684 0.08508992 -0.1358379 -0.003608815 -0.14392364
-0.12255817 0.047903743 0.0167055 0.026409084 -0.006252642 -0.019125316 0.084405094 -0.061516836
-0.020935545 -0.05221392 0.221911 -0.14341268 -0.05670728 -0.13891563 0.050210617 0.05602653
-0.07048397 0.017504875 -0.11485226 0.05959517 0.027658565 -0.08336287 -0.08728438 -0.106374
-4.0878937e-12 -0.039372265 0.049066015 -0.07874376 0.06316338 -0.07771043 -0.121147074 0.06596849
-0.0012894525 0.0130050145 0.18937062 -0.037489686 -0.12661472 0.019052487 0.017247673 -0.030058246
-0.14148077 -0.041696653 -0.06558676 0.06528842 -0.010184021 -0.041801475 0.024846463 0.15116109
0.046013474 0.05397131 -0.11702938 0.014516675 0.03806731 0.07845624 0.15625939 -0.06944012
0.06492926 0.026598196 -0.13071375 -0.09200553 -0.057241604 0.039955836 -0.12175683 -0.013600258
0.2123439 0.10573912 -0.09739871 0.034553494 0.09367587 -0.09941778 0.07637215 -0.052900873
0.21437518 -0.05313944 -0.17762306 0.017605122 -0.022162134 -0.0010029803 0.053643014 0.009591817
0.05056512 -0.148388 0.13191089 0.0067434288 -0.10096171 0.11781124 -0.076672435 0.10392008
6.7427536e-05 3.5599354e-05 -0.022171265 0.049158454 0.00583681 -0.017465781 0.08908347 -0.14502588
-0.012296589 -0.07183671 -0.1540084 0.007145576 0.10744506 -0.08494599 -0.11990277 0.1498652
0.2582109 -0.0681509 0.11872385 -0.06690603 0.023319487 0.14443919 0.088148504 -0.12514153
0.014889685 -0.091522634 0.06910715 -0.16674262 0.042825688 -0.013522386 -0.11884951 0.09895572
-0.059781 0.1331125 0.101929896 -0.113486774 0.1462201 -0.07459262 0.17894606 -0.03294537
0.009389216 0.06181233 -0.0030621032 -0.071928136 -0.02387982 0.12820122 0.028960263 -0.069115594
-0.15143971 0.105586186 0.244872 -0.15236354 -0.04567189 -0.007776975 0.03664031 0.021738853
0.06273676 -0.07687689 -0.18370956 -0.07677752 0.0145038 0.003668431 -0.006764682 -0.04619556
0.08537294 0.057169244 0.03795351 -0.06607213 0.18538786 0.08633927 -0.051012676 -0.11728137
0.040912114 9.565518e-05 0.096865274 0.019673688 -0.018515954 0.110843666 0.06665367 0.11583324
0.026483024 0.052442793 -0.113686666 -0.08573639 -0.16420817 -0.15361749 -0.047815364 -0.01596838
-0.06973626 -0.13816768 -0.09495857 -0.10384693 -0.21471904 -0.17224638 0.14502874 0.024927894
0.040661484 0.10276839 0.049513347 0.0041164653 -0.078290746 -0.11481773 -0.07520243 0.0070360037
-0.0681807 0.019782614 -0.12553833 -0.071701564 0.06564009 -0.028144935 -0.045412403 -0.03137614
0.08572362 -0.07999828 0.05164918 0.037298765 -0.10221845 0.11062643 0.1589381 0.066087216

tcn.network.1.conv2.bias f4 [32]
00000000: 9847 ab3d 744f 913d 0ae0 433d f01d f73d
00000010: 6af5 63bd 8708 33bc 57ba 2c3e 078b dc3a
00000020: 9e2f d5bc eab3 27bd a37d c63c 79ce 093e
00000030: 3b72 523d 6263 793d 2a58 c43d 4e85 d63c
00000040: 921b 393d 04c5 a0bc 8a35 9f3b a403 1c3e
00000050: b0ac f4bd b10d 05be 9d4e 78bd 8fd5 c03d
00000060: 9717 8e3d b70f e53b 2044 aa3d 5631 00be
00000070: a48e 33be 5d66 67be 5f4f a73d 9642 4cbd
0.08363265 0.070952326 0.047821082 0.12066257 -0.055653967 -0.010927326 0.16867958 0.0016826101
-0.026023682 -0.040943064 0.02422983 0.1345767 0.05137847 0.060885794 0.095871285 0.026186612
0.04519231 -0.019625194 0.0048586773 0.15235764 -0.11947 -0.12993504 -0.060621846 0.09415733
0.06938093 0.0069903987 0.08313775 -0.1251882 -0.17534882 -0.22597642 0.08169436 -0.04986819

tcn.network.1.conv2.weight_g f4 [32, 1, 1]
00000000: 2405 063f edf1 f23e 2040 4b3f 70fe 113f
00000010: bc8f 403f 3078 283f 3152 113f 1db5 283f
00000020: 3806 123f 6082 393f 2233 183f 547c 163f
00000030: 9537 143f 85e3 163f 98e3 143f a797 133f
00000040: 5789 f83e 7363 0e3f fbe2 073f 5224 143f
00000050: 7cf6 093f 7bc8 053f 45cf 133f 2824 f93e
00000060: 4816 173f 7f79 053f 7816 293f 564e 303f
00000070: c221 3d3f ea93 363f 4a64 1a3f 1542 0f3f
0.52351594 0.474502 0.7939472 0.57028866 0.7521932 0.6580839 0.5676604 0.65901357
0.5704074 0.7246456 0.5945302 0.5878346 0.5789731 0.5894092 0.5815978 0.5765328
0.48542282 0.556205 0.5308072 0.5786792 0.5389173 0.52259034 0.57738143 0.48660398
0.59018373 0.52138513 0.6604991 0.6886953 0.73879635 0.7131945 0.6030928 0.5596021
