models/prototyping6/tcn_fold_7/best.pth (torch, 224151 bytes, 130 tensors)

tcn.d_reduce.weight f4 [32, 1, 1]
000000 2f 01 56 bf 87 d6 9b be 39 9f e0 3e be ae ee 3d
       -0.83595556 -0.3043711 0.43871477 0.11654423
000010 54 3b ad be 40 fb 4e bf 65 43 41 bf 47 43 ee bd
       -0.33834326 -0.8085213 -0.7549346 -0.11633926
000020 c4 8e ab 3e b0 dc aa 3e 97 34 a0 bd ef a0 3a bf
       0.3350736 0.33371496 -0.07822531 -0.72901815
000030 b7 9a 06 3f bf 92 ac bd 79 61 16 3f 6e c1 a1 be
       0.52579826 -0.08426427 0.5874248 -0.31592888
000040 1e d4 80 3e 6f f6 5f bf 60 b4 30 3f 47 b0 8b 3e
       0.25161833 -0.874854 0.6902523 0.27282926
000050 0d 1d c2 be 82 3b 5e bf 9b fd ec 3e 91 79 02 bf
       -0.3791279 -0.8680955 0.46287236 -0.50966746
000060 d1 e0 57 3f 43 78 01 3f 94 c0 dd be 6c c6 21 bf
       0.8432742 0.5057413 -0.43310988 -0.6319339
000070 41 ff 61 3f 5f 42 43 bf 75 d4 31 3f da 24 a4 3e
       0.8828011 -0.7627315 0.6946481 0.32059366

tcn.d_reduce.bias f4 [32]
000000 59 04 42 3f 58 c2 ae bd 02 04 af 3e 20 c3 5e 3f
       0.75787884 -0.08533162 0.34182745 0.8701649
000010 c8 a7 54 be a0 50 08 bf 97 02 7e be e5 1c aa 3e
       -0.20767128 -0.53248024 -0.24805675 0.3322517
000020 6b 9b db 3e 70 d8 19 3e 4c f5 13 bd 9f 63 82 3e
       0.42892012 0.1502397 -0.036122605 0.2546663
000030 89 1b 2c 3f 3b 8d 19 3f a4 12 1b be 2b 3e 2c bf
       0.67229515 0.59981126 -0.1514383 -0.6728236
000040 5b ba 2d bf 92 5c 35 3e 6f 0d 90 3e 19 f5 95 be
       -0.6786248 0.17711094 0.2813525 -0.29288557
000050 9b 95 ae be e0 3b 1e 3e 9a 46 7c be 53 c8 f9 3e
       -0.34098515 0.15452528 -0.24636307 0.48785648
000060 97 07 0a bf 94 d7 64 bf d2 d0 c4 3b b7 96 51 3f
       -0.5391783 -0.89391446 0.0060063386 0.818706
000070 92 1c c6 3e 6a 90 4b 3f a0 e4 6c 3f a6 04 49 3f
       0.38693672 0.79517233 0.92536354 0.7852272

tcn.network.0.conv1.bias f4 [32]
000000 00 5d 06 bb 9a 0c 19 bd b4 3f aa 3b f2 64 e4 3c
       -0.002050221 -0.037365533 0.0051955823 0.027880166
000010 c7 f6 5e 3d 5f c1 1e bc 94 cf 18 bd 51 b7 12 3d
       0.054434564 -0.009689658 -0.037307337 0.035819355
000020 3e 4c e6 bd a7 a4 de bd 8a 3e 1e be fe 07 3c bc
       -0.11245011 -0.10871249 -0.15453544 -0.011476515
000030 d0 b2 ab bc c6 e4 3a be a4 ae 35 3d bc 62 33 bd
       -0.020959288 -0.18251333 0.044356003 -0.043795332
000040 b6 3f d7 bd 1a 7c d9 bd d9 6e fa bd d6 a3 3c be
       -0.10510199 -0.106193736 -0.12228174 -0.18421873
000050 5d d9 68 3d 14 3a f2 bd b8 d7 05 be 7f 63 be 3c
       0.05684792 -0.11827484 -0.13070571 0.023240803
000060 5a 11 b7 bc ed 7d 2f bd 1b 5f aa 3d 86 09 4b 3d
       -0.022347141 -0.0428447 0.08318921 0.04956963
000070 29 28 4a be 0c 85 62 3d 6b 4c 39 3d 0c 14 0c be
       -0.19741882 0.055302665 0.045238893 -0.13679522

tcn.network.0.conv1.weight_g f4 [32, 1, 1]
000000 da 69 1a 3f de 67 12 3f 73 77 d5 3e f0 4c 08 3f
       0.60317767 0.5718974 0.41692695 0.532424
000010 b0 e7 12 3f c3 bc 17 3f ef 84 fa 3e 1e 7e 26 3f
       0.5738478 0.592724 0.48929545 0.6503619
000020 1f 0f 14 3f 85 00 11 3f 67 6e 0e 3f cc b5 0e 3f
       0.5783557 0.5664142 0.5563721 0.5574615
000030 5d a1 04 3f 93 aa 10 3f 38 d8 02 3f 3b 6c 0f 3f
       0.5180872 0.56510276 0.51111174 0.5602452
000040 9c 86 fd 3e 08 71 fa 3e 39 10 0d 3f 83 07 1a 3f
       0.4951676 0.4891436 0.5510288 0.6016771
000050 6b 03 25 3f 61 86 0a 3f 00 6c 08 3f 7c 5a e2 3e
       0.6445834 0.54111296 0.53289795 0.4420966
000060 de 05 03 3f f5 89 f9 3e de 5b 01 3f d6 3b ed 3e
       0.5118083 0.48738065 0.50530803 0.46334714
000070 6e 30 09 3f 38 32 0f 3f 5b 65 03 3f ab cb 02 3f
       0.5358952 0.55936 0.5132653 0.5109202

tcn.network.0.conv1.weight_v f4 [32, 32, 2]
000000 d8 20 b1 3d 98 53 c4 bc ae e9 b3 3c d4 8f 8a bd
       0.086488426 -0.023965642 0.021962013 -0.06765714
000010 2f 5e f8 bd 62 a1 8b bd 47 a7 da bd c5 a7 e9 bd
       -0.12127339 -0.06817891 -0.10676437 -0.114089526
000020 0f 02 d6 3c df ab 55 3d 3a 59 9d bd 4d d1 5e 3a
       0.026124028 0.052165862 -0.07683034 0.0008499816
000030 11 13 e0 bd f1 9c 9f bd 27 8c d1 3a df d0 bc 3c
       -0.10941137 -0.07793606 0.0015987203 0.023048816
000040 65 11 15 3c 23 02 23 3d 66 0f f8 3d 7b 45 ea 3d
       0.009098385 0.03979696 0.12112312 0.114390336
000050 4a b1 63 bd ed 98 c4 3d 97 c8 90 3c 8b 6e 81 3d
       -0.055588998 0.09599481 0.017673774 0.063199125
000060 76 cd 00 3e 84 ff eb bd d0 a8 af bd 0b ce 49 bc
       0.12578377 -0.11523345 -0.0857712 -0.012317191
000070 a9 3b c3 3d 19 bc 14 3d 4f fc e8 3d 81 9e a9 3d
       0.09532864 0.036312196 0.11376249 0.08282185
000080 4f 25 d0 3d f3 65 9d 3d 2b 46 eb 3d 4b 0d 07 3b
       0.10163366 0.07685461 0.11487993 0.0020607288
000090 cb 22 b8 3c 50 dd 91 bd 64 1b 2f bd 67 9a c5 3c
       0.022477528 -0.0712229 -0.04275073 0.024121476
0000a0 b2 18 32 bc 76 3c 54 bd 4d 07 83 bd 38 9c db 3d
       -0.010870146 -0.051815473 -0.06397877 0.10723156
0000b0 15 26 cb 3d ac 3e c9 3d dc f7 1c bd 68 7b 3e bd
       0.09919373 0.09826407 -0.038322315 -0.046504408
0000c0 58 5f ac bd 76 89 f0 bd 4b e1 f5 3d ee 39 bb 3d
       -0.08416623 -0.117449686 0.12005862 0.091419086
0000d0 e0 c4 c3 3d d0 e3 eb bd 42 d1 32 bc 18 15 70 3d
       0.09559035 -0.11518061 -0.010914149 0.058613867
0000e0 66 a1 9f bc 0c 1e 26 bd f7 4f 5b 3d f8 f7 81 bd
       -0.01948614 -0.040556 0.053543057 -0.063461244
0000f0 87 f8 41 3a c5 3c 82 3d fc 8d 22 3d 03 11 b9 bd
       0.0007399399 0.06359247 0.039686188 -0.09036448
000100 89 31 e0 bd 71 28 9d bd 8e ee 28 3e ea 96 14 3d
       -0.10946948 -0.07673729 0.16497251 0.036276735
000110 b2 fe 00 bd 2a 5a ac 3b 68 7a cd bd 2d fb 04 be
       -0.031492896 0.005259772 -0.10033113 -0.12986441
000120 ba cb 32 bd bc 8d bf bc 0d 65 66 3e 7b 98 a8 3a
       -0.04365132 -0.023383014 0.22499485 0.0012862826
000130 45 99 16 bc f2 f3 9a 3d 67 c7 37 3d 36 79 13 be
       -0.009191816 0.0756606 0.0448679 -0.14401707
000140 c7 07 10 be 28 9f ee bd d1 14 2b be 22 b5 31 bd
       -0.14065467 -0.116514504 -0.1670716 -0.043385632
000150 8b 59 7a 3d 0c 7a f4 3d 07 b5 05 3e 22 8e b6 3b
       0.06112055 0.11937341 0.13057338 0.005571143
000160 e3 4c 22 3d dd 55 26 3d f1 24 b3 3d 0b cf e9 3c
       0.039624106 0.04060923 0.087472804 0.028541109
000170 b3 10 60 be 07 f0 a9 bd e1 68 d7 3c 2b 1f b0 3d
       -0.2188137 -0.08297735 0.026295127 0.08599695
000180 b6 25 85 bd 07 90 cd bd a9 d6 16 3d 59 0f 4b bd
       -0.065013334 -0.10037237 0.03682581 -0.049575184
000190 f9 4c 4c be d1 de bb bd e2 7c 60 3d 35 30 8b bc
       -0.19951238 -0.09173358 0.054806598 -0.01699076
0001a0 13 5e ec 3b 44 3f 08 3e 86 d6 38 3e 06 84 0a 3e
       0.007213363 0.13305384 0.18050584 0.13526925
0001b0 b7 49 aa bd 5b 0c 5b 3d 8a 68 b7 3c 51 e0 c8 3c
       -0.08314841 0.05347858 0.022388715 0.024521025
0001c0 ed 11 69 bd d3 81 09 3c ff 21 c6 3d 08 0a 19 bd
       -0.05690186 0.008392769 0.09674453 -0.037363082
0001d0 12 fe 95 bd 18 0a 7b bd f9 74 3d 3d 88 c7 1a bd
       -0.07323851 -0.061288923 0.046254132 -0.037787944
0001e0 d0 00 4f bc 47 e3 69 3c 25 84 14 3e 86 4c b4 3d
       -0.012634471 0.014275379 0.14503534 0.08803658
0001f0 c0 18 a4 bd 95 21 94 3d 41 62 12 be be 60 80 3d
       -0.08012533 0.07232968 -0.14295293 0.06268452
000200 03 67 d1 3d 5a b7 80 bc 0b 57 c7 3c 79 da 0d be
       0.10224726 -0.015712429 0.024333498 -0.13852872
000210 40 8e 71 bc 38 1c dc 3d ea b3 8c bd 70 65 23 be
       -0.014743388 0.1074757 -0.068702534 -0.15956664
000220 c5 6d a2 3d 17 1e 52 3d 54 79 aa 3d 2d 8f 63 bd
       0.07931093 0.051298227 0.08323923 -0.055556465
000230 b7 2d 95 3d de 8e ae 3d d9 2b e6 ba 1f 7d 01 be
       0.0728411 0.085233435 -0.0017560675 -0.12645386
000240 6c 0b 9e bd 73 a7 b3 3d 5f c7 13 be ea 0d 09 be
       -0.07717022 0.08772173 -0.14431523 -0.13384214
000250 1d 3e 59 be b7 e3 c1 3a 42 cf ea 3d ce 69 f8 3d
       -0.212151 0.0014792596 0.114653125 0.12129556
000260 54 bc 9a 3c 1d d9 bc 3d b0 a8 dc 3b a2 e4 89 bc
       0.01888863 0.092210986 0.0067339763 -0.016832653
000270 7b e0 a4 3d d4 39 fb 3d eb 0b 92 3d b5 28 92 bd
       0.08050629 0.12266889 0.071311794 -0.071366705
000280 3e 37 83 bd 83 82 5b 3d b8 88 da bd 1c d2 77 bd
       -0.06407021 0.053591263 -0.10670608 -0.06050311
000290 8f 57 06 be 23 34 18 3d ab 6c 4a 3b 8f 92 f0 3b
       -0.13119338 0.037159096 0.0030887525 0.00734169
0002a0 24 69 e1 3d 41 28 8e bd 5a b4 d2 3d 64 20 ee 3c
       0.11006382 -0.069412716 0.102883056 0.02906818
0002b0 4a ae 99 3d aa ba 31 3d 0e 24 8c 3d 1f 5f c6 bd
       0.07503946 0.043390907 0.068428144 -0.09686112
0002c0 fa 89 ca 3d 17 1f 89 bd 32 4f 50 3c 78 0c 49 3d
       0.09889598 -0.06695383 0.012714194 0.049084157
0002d0 e0 45 07 3e 9b 64 8a bd 90 d5 55 3b b4 9c e3 bc
       0.13210249 -0.0675747 0.0032628514 -0.027784683
0002e0 90 41 71 3d 80 70 99 3d a3 b4 8d bd ad ba c0 bc
       0.058900416 0.07492161 -0.06919219 -0.023526514
0002f0 c3 be 1f be 6e d0 d0 3c 16 13 09 be 21 1b 84 bd
       -0.15600114 0.025490012 -0.13386187 -0.06450487
000300 d3 33 03 be 3b 46 ac 3d 83 44 7b bb 2b 68 49 3d
       -0.12812738 0.08411833 -0.0038340397 0.049171608
000310 95 2f cb 3c 9e e3 0f 3d 7a 7a bc 3d 2c 75 06 be
       0.024802962 0.035129182 0.09203048 -0.13130635
000320 41 b3 0f be 46 9f f0 3d f5 ad e6 bd 76 1c 15 3e
       -0.14033224 0.11749129 -0.112636484 0.14561638
000330 1f bc 09 bc 0d 1d 69 bd d7 a9 8e bd c6 0d d7 3d
       -0.008406668 -0.05691247 -0.06965988 0.10500674
000340 13 3d 92 3d 21 bb 29 3d 06 7b ea bd d7 c0 03 3d
       0.07140555 0.041438226 -0.11449246 0.03216633
000350 95 7b 08 3e e6 de 61 bc f3 1c 88 bd d2 8a eb bb
       0.13328393 -0.013786053 -0.066461466 -0.0071881795
000360 cf 92 1c 3d 03 89 eb bc 33 6d 17 3c 80 5c c1 bd
       0.038225945 -0.028751856 0.009242344 -0.09441471
000370 56 64 21 3c 66 9d 45 3d 86 bb 53 3d a9 d0 1b 3e
       0.009850582 0.04824581 0.05169251 0.15216316
000380 8d ae 12 3e 91 ac b7 bd 58 0d d1 bd 4c 92 ea 3d
       0.14324398 -0.08968461 -0.10207623 0.11453685
000390 a1 f7 ac 3b 1e b8 0e be 2c 21 a4 bd cd 50 55 bc
       0.005278543 -0.13937423 -0.080141395 -0.013019753
0003a0 24 4d 24 be 82 4c b3 bd 96 54 64 bd 27 49 87 bd
       -0.16045052 -0.08754827 -0.05574473 -0.066057496
0003b0 38 14 05 3e 4e fa cb bc e9 4c 5c bc 42 dc ee 3c
       0.12995994 -0.024899628 -0.013446071 0.029157761
0003c0 57 d6 6a bd 72 af 26 bd 10 fa 2f 3d 02 c8 87 3d
       -0.057333317 -0.04069466 0.042963088 0.06629945
0003d0 0d bf 08 be ee 67 f1 3d 89 c8 b7 bd 98 39 e9 3b
       -0.1335413 0.11787401 -0.08973796 0.0071174614
0003e0 5c 8f 17 3e ff ed cb bd 55 cd 4f 3d 90 f5 27 bc
       0.14800781 -0.099575035 0.05073293 -0.010251418
0003f0 30 4e 86 bc ba e3 0b bd 99 5a ae 3d 3f 3d b2 bd
       -0.016394705 -0.034152724 0.08513374 -0.08703088

tcn.network.0.conv2.bias f4 [32]
000000 f8 af 94 3d c6 a3 d1 bc f2 83 af 3a c3 6b 01 be
       0.07260126 -0.025590789 0.0013390763 -0.12638764
000010 ee a3 0a bc e2 eb ad 3c 76 1b 83 bd bb a4 4f bd
       -0.008461935 0.021230642 -0.06401722 -0.05069421
000020 8d 8c 66 3d 29 a6 e0 bd ca a7 c5 bd 81 eb a4 3d
       0.056286383 -0.109691925 -0.09651144 0.08052731
000030 1b 89 6b bd 4e 73 b5 bd 10 0c 0d bd 91 f5 98 3d
       -0.0575038 -0.08859883 -0.03443533 0.07468713
000040 80 b1 34 3d ac ed 86 bd d2 4e dc bd f8 e9 03 3e
       0.04411459 -0.06588301 -0.10757221 0.12882221
000050 71 c9 dc 3c 11 ec a6 3c 74 ad 8a bd 7e 5f 03 be
       0.026951523 0.020376237 -0.06771365 -0.12829396
000060 c3 e5 b7 bd 27 51 09 be 3f 23 7a bd 37 ce 0a be
       -0.089793704 -0.13409863 -0.06106877 -0.13555227
000070 58 39 3b 3d 39 52 0f be ff 1c ba bd 8f e3 3f 3d
       0.045708984 -0.13996209 -0.09087562 0.046847876

tcn.network.0.conv2.weight_g f4 [32, 1, 1]
000000 f2 fc 09 3f d2 26 0b 3f 2f b7 de 3e 06 16 28 3f
       0.5390159 0.5435611 0.43499133 0.65658605
000010 06 8b 08 3f 90 90 12 3f fb c9 12 3f cf 9a 0e 3f
       0.5333713 0.57251835 0.5733945 0.5570497
000020 c0 5f 03 3f 99 7e 0e 3f 6a 69 fd 3e 46 13 15 3f
       0.5131798 0.5566192 0.49494487 0.58232534
000030 70 58 03 3f 2b 95 06 3f 3d 22 04 3f 4d 46 2c 3f
       0.5130682 0.5257136 0.51614743 0.6729477
000040 1e 32 09 3f 85 34 0d 3f e9 f6 09 3f b7 a9 03 3f
       0.535921 0.55158263 0.5389238 0.5143084
000050 97 93 f3 3e 7f 5f 1b 3f 68 2e 18 3f 20 1c 17 3f
       0.4757354 0.6069259 0.5944581 0.5902729
000060 a6 68 04 3f 70 b3 08 3f e3 0c 06 3f b0 47 1e 3f
       0.5172218 0.533988 0.52363414 0.61828136
000070 d2 0e 04 3f c4 ac 1c 3f 9d cf 0a 3f 0a 3f 12 3f
       0.51585114 0.6120112 0.5422304 0.5712744

tcn.network.0.conv2.weight_v f4 [32, 32, 2]
000000 bf 0c e4 bd 8a 23 00 3e f3 bb 33 3e 4e c9 26 be
       -0.111352436 0.12513557 0.17552166 -0.16287729
000010 c6 13 04 be c5 d0 a7 bd 94 48 aa 3d 8d 2b 31 bd
       -0.12898168 -0.081941165 0.083146244 -0.043254424
000020 c0 dd 35 3e 78 98 48 36 66 c2 be bd 39 73 83 3d
       0.17760372 2.989107e-06 -0.09314422 0.06418461
000030 44 e1 d5 3d ef e7 c9 bd 72 8a 57 bc 6e 07 cf bd
       0.10443357 -0.09858691 -0.0131555665 -0.10108839
000040 8a 4e d2 3d 8c 8d 06 3d 3a 92 52 3d 34 a8 0b be
       0.102688864 0.032849833 0.051408984 -0.13638383
000050 15 8e 0b 3e 4e 5e f7 3c 63 69 29 3e 44 f4 e5 bd
       0.13628419 0.030196335 0.16544108 -0.112282306
000060 50 15 10 3e 03 72 2d be c3 e6 16 be 03 0e 28 3e
       0.1407063 -0.16938023 -0.14736466 0.16411595
000070 88 62 2e be 6b f8 38 3d 49 5e 15 be 5d 1e eb bd
       -0.17029774 0.045158785 -0.14586748 -0.11480401
000080 28 f8 21 3e 49 c2 be 3d c5 1a 15 be f6 58 90 3d
       0.1581732 0.09314401 -0.14560993 0.07048218
000090 66 25 13 be 7a 44 b5 3d 59 33 0c be 6a d0 25 be
       -0.14369735 0.088509515 -0.13691463 -0.16192785
0000a0 01 cb 34 3d 6b 53 d4 3d ab 15 31 be 16 98 17 be
       0.044138912 0.10367473 -0.17293422 -0.1480411
0000b0 a0 30 29 3e dd f8 f4 3d 4b 4c cb bd 2a 46 dc bd
       0.16522455 0.119615294 -0.09926661 -0.1075557
0000c0 81 d7 3f be 97 51 fc bd ab 4e 0b 3e e1 90 8c bd
       -0.18734552 -0.123202495 0.13604228 -0.06863571
0000d0 fa b8 49 be 44 9f 1a be 6d b8 58 be 4f 22 10 3e
       -0.19699469 -0.15099818 -0.21164103 0.14075588
0000e0 aa 64 cf bd 46 95 fa 3d d9 ef 71 bc 7e 85 1a bd
       -0.10126622 0.12235503 -0.014766657 -0.037724964
0000f0 7b 25 cf 3c ef 67 dc bc b7 4b 01 3d 2b e6 b6 bd
       0.025286427 -0.026905028 0.031566348 -0.0893062
000100 b7 c1 a9 bd b3 3e a6 3d d5 65 b0 3d 7b f6 f8 3d
       -0.08288901 0.08117428 0.08613173 0.121563874
000110 dd ce 53 bd 0a 9b e7 bd 23 88 27 3e 9e bb a6 bd
       -0.051710952 -0.11308868 0.16360526 -0.08141254
000120 0f 4f df bd d3 c5 3a 3d 6a 11 fe bd 4b 68 68 bd
       -0.10903751 0.045598816 -0.12405665 -0.056740087
000130 1b d7 17 bd d2 ca f4 3d f0 df 61 3d 89 e2 1f be
       -0.037070375 0.119527474 0.055145204 -0.1561376
000140 7a 05 ff bd df 60 45 bd 86 cd ce bd a1 43 9b 3d
       -0.124522164 -0.048188087 -0.10097794 0.075812586
000150 09 ae fa bd 16 11 a0 3d 2d 1a ee bd ea 9c 9f bd
       -0.12240226 0.07815759 -0.116260864 -0.07793601
000160 65 b8 0c 3e 53 95 d1 bd 6f ae 1f 3e 1c 1e 24 3e
       0.13742216 -0.102335595 0.15593885 0.16027111
000170 0c e6 fb 3d bc 5b 91 3d 45 e3 1b be 7a 40 03 be
       0.12299737 0.07097575 -0.15223415 -0.12817565
000180 c9 e8 e2 3d 4e 41 ba bd 32 bf d1 bd 3c c5 03 be
       0.110795565 -0.09094487 -0.10241546 -0.12868208
000190 b5 ff 0d be 5c e2 97 bd 25 ea 1a 3e 07 4e b8 bd
       -0.13867076 -0.074162215 0.15128382 -0.089992575
0001a0 17 3e c1 bd 15 4f a4 bb eb 1b e2 bd 7a 5f 28 3e
       -0.09435671 -0.00501431 -0.11040481 0.16442671
0001b0 bc 87 b6 3d 01 3b 7d bd 04 af 03 bd 60 de d2 3d
       0.08912608 -0.06182385 -0.03214933 0.10296321
0001c0 45 9b 99 bd 30 87 45 3d ce fe b8 bd 39 f9 04 be
       -0.075003184 0.048224628 -0.09032975 -0.12985696
0001d0 ca 9a a3 3d 55 72 05 3e 37 12 0d 3e e4 ef b1 bc
       0.07988508 0.13031895 0.1377648 -0.021720834
0001e0 13 79 e0 bd 20 e6 f7 3d 40 9c c1 3d 9c 95 36 3d
       -0.10960593 0.1210444 0.094536304 0.044576272
0001f0 71 1d b7 bd 39 86 2d bd b1 0e 9d 3d fb 54 ec bd
       -0.089411624 -0.042364333 0.07668818 -0.11539646
000200 c7 b2 12 be b5 aa 13 3e 7c 37 06 bd 54 42 91 bd
       -0.1432601 0.14420588 -0.032767758 -0.07092729
000210 ea 11 fd 3d 6e 24 8d bd 61 9f f5 bd f3 85 06 bd
       0.123569325 -0.06891714 -0.1199329 -0.032842588
000220 23 88 1a be 5e cc 88 3d 21 35 29 be 91 e6 9e 3d
       -0.15090995 0.06679605 -0.16524173 0.07758821
000230 6a d7 e2 bd 96 ec a7 bc 79 1a f5 3c 1f b1 4a 3d
       -0.11076243 -0.020498555 0.02991985 0.049485322
000240 ee 2f 82 bd 2c 50 4b bc e8 06 8d bd ed 75 96 3d
       -0.06356798 -0.012409251 -0.06886083 0.07346711
000250 64 99 07 3d 9f a8 1d bd 9d a8 3b 3e 29 c7 44 3e
       0.03310527 -0.038490888 0.1832604 0.19216599
000260 e0 f5 2f be 0b 31 88 3d 6d 3a 81 bd 22 71 a6 3d
       -0.17183638 0.06649979 -0.06309972 0.08127047
000270 0b cf 8d bd d0 4f de 3d 4b 61 0f be b0 2c 39 be
       -0.06924256 0.10855067 -0.14001958 -0.18083453
000280 dd 7e e6 3d 51 a7 19 3d bd 4a 9a 3d af 11 da 3d
       0.11254666 0.03751308 0.075337864 0.10647904
000290 fb 26 d8 bd 48 9f 0d 3e 7a 77 b5 3d 37 4a 0c be
       -0.1055431 0.13830292 0.08860679 -0.13700186
0002a0 b1 a0 3d bc 4a 92 19 be 45 68 6f 3e 48 b2 24 3d
       -0.011573956 -0.14997211 0.2337962 0.040209085
0002b0 df 07 15 3e e7 e1 0e be 6b bd 16 bd 01 c6 cd 3d
       0.14553784 -0.13953362 -0.036801737 0.10047532
0002c0 c3 6d 0f bd 2b 7b 21 3d ea d0 fc bc e9 3b e9 3d
       -0.035016786 0.039424103 -0.030861337 0.1138838
0002d0 c6 a2 ac 3d 4c 17 8e 3d 49 6a 9e bc ba 3a 1e bd
       0.08429484 0.06938037 -0.01933779 -0.038630225
0002e0 73 ba 02 3e 2b ea 59 3d ea 1b 2c bd 98 c6 1d 3d
       0.12766437 0.053201836 -0.04201881 0.038519472
0002f0 79 72 45 be 87 8f 06 3c 28 b3 f7 3d 89 a5 6a bd
       -0.19281949 0.0082129305 0.12094718 -0.057286773
000300 4d c4 25 37 3d e5 27 2a eb 7b c3 bd 2b cb 50 bd
       9.880471e-06 1.4912113e-13 -0.0954512 -0.050975006
000310 19 47 4d bd 58 82 d1 3b eb a2 aa 3d 08 03 27 3d
       -0.050116632 0.006393712 0.083318554 0.040774375
000320 96 0d c8 3d 75 66 b9 3c 17 07 50 3e c9 4a 59 3d
       0.09768216 0.022631863 0.20315205 0.053049836
000330 74 bb 82 3e 56 f3 6d 3d 30 c8 67 3e 3f 84 32 3e
       0.2553364 0.05809339 0.22634959 0.1743326
000340 7f 40 74 3c be f6 9a bd 46 8e 70 3e 9b 7f 47 3e
       0.014907955 -0.075665936 0.23491773 0.19482271
000350 ab 71 6d 3e ce 13 3d 3e 57 73 3d bd 74 25 f4 bb
       0.23187892 0.18464586 -0.046252575 -0.007450754
000360 91 7d 2a 3d 96 70 bb 3b c8 00 90 ba 7c f3 81 3b
       0.041623656 0.0057202084 -0.0010986561 0.003965793
000370 87 7a a7 3d ca 3f e5 3d 19 b7 a6 39 90 ba dd 2c
       0.08177667 0.111938074 0.00031798406 6.3019104e-12
000380 17 50 a4 bc 9d 15 c9 bd 18 5d 45 3d f9 20 27 3c
       -0.020057721 -0.098185755 0.048184484 0.010200732
000390 9f 71 4d b9 99 8e 9e bc 6c 6c 3e 3c 90 7f 8a bc
       -0.0001959265 -0.019355105 0.0116225295 -0.01690653
0003a0 84 c8 66 3e ec 53 0b 3e cd 14 a4 3d f5 d2 2a bd
       0.22537428 0.13606232 0.0801178 -0.04170509
0003b0 e5 20 67 3a 97 0e 26 b9 57 55 de 3d eb f0 9c 3c
       0.00088168524 -0.00015836429 0.10856121 0.019157847
0003c0 00 e5 8d 3d 52 86 7a bd 3e 6d 78 3b 19 8e f6 bc
       0.06928444 -0.061163254 0.003790691 -0.030097054
0003d0 95 de c1 3b a1 90 21 bd d2 fa 16 bd 0d 0c 9d 3b
       0.0059164264 -0.03944457 -0.036860295 0.0047926963
0003e0 85 12 ff 3c 39 df bd bc 43 e3 97 bc 34 13 82 39
       0.03113676 -0.02317773 -0.018540984 0.0002480984
0003f0 51 f5 26 3e df 05 8d 3d 5c ef 3c 3e d3 a2 3b 3e
       0.16304518 0.068858854 0.18450683 0.18323831

tcn.network.0.net.0.bias f4 [32]
000000 00 5d 06 bb 9a 0c 19 bd b4 3f aa 3b f2 64 e4 3c
       -0.002050221 -0.037365533 0.0051955823 0.027880166
000010 c7 f6 5e 3d 5f c1 1e bc 94 cf 18 bd 51 b7 12 3d
       0.054434564 -0.009689658 -0.037307337 0.035819355
000020 3e 4c e6 bd a7 a4 de bd 8a 3e 1e be fe 07 3c bc
       -0.11245011 -0.10871249 -0.15453544 -0.011476515
000030 d0 b2 ab bc c6 e4 3a be a4 ae 35 3d bc 62 33 bd
       -0.020959288 -0.18251333 0.044356003 -0.043795332
000040 b6 3f d7 bd 1a 7c d9 bd d9 6e fa bd d6 a3 3c be
       -0.10510199 -0.106193736 -0.12228174 -0.18421873
000050 5d d9 68 3d 14 3a f2 bd b8 d7 05 be 7f 63 be 3c
       0.05684792 -0.11827484 -0.13070571 0.023240803
000060 5a 11 b7 bc ed 7d 2f bd 1b 5f aa 3d 86 09 4b 3d
       -0.022347141 -0.0428447 0.08318921 0.04956963
000070 29 28 4a be 0c 85 62 3d 6b 4c 39 3d 0c 14 0c be
       -0.19741882 0.055302665 0.045238893 -0.13679522

tcn.network.0.net.0.weight_g f4 [32, 1, 1]
000000 da 69 1a 3f de 67 12 3f 73 77 d5 3e f0 4c 08 3f
       0.60317767 0.5718974 0.41692695 0.532424
000010 b0 e7 12 3f c3 bc 17 3f ef 84 fa 3e 1e 7e 26 3f
       0.5738478 0.592724 0.48929545 0.6503619
000020 1f 0f 14 3f 85 00 11 3f 67 6e 0e 3f cc b5 0e 3f
       0.5783557 0.5664142 0.5563721 0.5574615
000030 5d a1 04 3f 93 aa 10 3f 38 d8 02 3f 3b 6c 0f 3f
       0.5180872 0.56510276 0.51111174 0.5602452
000040 9c 86 fd 3e 08 71 fa 3e 39 10 0d 3f 83 07 1a 3f
       0.4951676 0.4891436 0.5510288 0.6016771
000050 6b 03 25 3f 61 86 0a 3f 00 6c 08 3f 7c 5a e2 3e
       0.6445834 0.54111296 0.53289795 0.4420966
000060 de 05 03 3f f5 89 f9 3e de 5b 01 3f d6 3b ed 3e
       0.5118083 0.48738065 0.50530803 0.46334714
000070 6e 30 09 3f 38 32 0f 3f 5b 65 03 3f ab cb 02 3f
       0.5358952 0.55936 0.5132653 0.5109202

tcn.network.0.net.0.weight_v f4 [32, 32, 2]
000000 d8 20 b1 3d 98 53 c4 bc ae e9 b3 3c d4 8f 8a bd
       0.086488426 -0.023965642 0.021962013 -0.06765714
000010 2f 5e f8 bd 62 a1 8b bd 47 a7 da bd c5 a7 e9 bd
       -0.12127339 -0.06817891 -0.10676437 -0.114089526
000020 0f 02 d6 3c df ab 55 3d 3a 59 9d bd 4d d1 5e 3a
       0.026124028 0.052165862 -0.07683034 0.0008499816
000030 11 13 e0 bd f1 9c 9f bd 27 8c d1 3a df d0 bc 3c
       -0.10941137 -0.07793606 0.0015987203 0.023048816
000040 65 11 15 3c 23 02 23 3d 66 0f f8 3d 7b 45 ea 3d
       0.009098385 0.03979696 0.12112312 0.114390336
000050 4a b1 63 bd ed 98 c4 3d 97 c8 90 3c 8b 6e 81 3d
       -0.055588998 0.09599481 0.017673774 0.063199125
000060 76 cd 00 3e 84 ff eb bd d0 a8 af bd 0b ce 49 bc
       0.12578377 -0.11523345 -0.0857712 -0.012317191
000070 a9 3b c3 3d 19 bc 14 3d 4f fc e8 3d 81 9e a9 3d
       0.09532864 0.036312196 0.11376249 0.08282185
000080 4f 25 d0 3d f3 65 9d 3d 2b 46 eb 3d 4b 0d 07 3b
       0.10163366 0.07685461 0.11487993 0.0020607288
000090 cb 22 b8 3c 50 dd 91 bd 64 1b 2f bd 67 9a c5 3c
       0.022477528 -0.0712229 -0.04275073 0.024121476
0000a0 b2 18 32 bc 76 3c 54 bd 4d 07 83 bd 38 9c db 3d
       -0.010870146 -0.051815473 -0.06397877 0.10723156
0000b0 15 26 cb 3d ac 3e c9 3d dc f7 1c bd 68 7b 3e bd
       0.09919373 0.09826407 -0.038322315 -0.046504408
0000c0 58 5f ac bd 76 89 f0 bd 4b e1 f5 3d ee 39 bb 3d
       -0.08416623 -0.117449686 0.12005862 0.091419086
0000d0 e0 c4 c3 3d d0 e3 eb bd 42 d1 32 bc 18 15 70 3d
       0.09559035 -0.11518061 -0.010914149 0.058613867
0000e0 66 a1 9f bc 0c 1e 26 bd f7 4f 5b 3d f8 f7 81 bd
       -0.01948614 -0.040556 0.053543057 -0.063461244
0000f0 87 f8 41 3a c5 3c 82 3d fc 8d 22 3d 03 11 b9 bd
       0.0007399399 0.06359247 0.039686188 -0.09036448
000100 89 31 e0 bd 71 28 9d bd 8e ee 28 3e ea 96 14 3d
       -0.10946948 -0.07673729 0.16497251 0.036276735
000110 b2 fe 00 bd 2a 5a ac 3b 68 7a cd bd 2d fb 04 be
       -0.031492896 0.005259772 -0.10033113 -0.12986441
000120 ba cb 32 bd bc 8d bf bc 0d 65 66 3e 7b 98 a8 3a
       -0.04365132 -0.023383014 0.22499485 0.0012862826
000130 45 99 16 bc f2 f3 9a 3d 67 c7 37 3d 36 79 13 be
       -0.009191816 0.0756606 0.0448679 -0.14401707
000140 c7 07 10 be 28 9f ee bd d1 14 2b be 22 b5 31 bd
       -0.14065467 -0.116514504 -0.1670716 -0.043385632
000150 8b 59 7a 3d 0c 7a f4 3d 07 b5 05 3e 22 8e b6 3b
       0.06112055 0.11937341 0.13057338 0.005571143
000160 e3 4c 22 3d dd 55 26 3d f1 24 b3 3d 0b cf e9 3c
       0.039624106 0.04060923 0.087472804 0.028541109
000170 b3 10 60 be 07 f0 a9 bd e1 68 d7 3c 2b 1f b0 3d
       -0.2188137 -0.08297735 0.026295127 0.08599695
000180 b6 25 85 bd 07 90 cd bd a9 d6 16 3d 59 0f 4b bd
       -0.065013334 -0.10037237 0.03682581 -0.049575184
000190 f9 4c 4c be d1 de bb bd e2 7c 60 3d 35 30 8b bc
       -0.19951238 -0.09173358 0.054806598 -0.01699076
0001a0 13 5e ec 3b 44 3f 08 3e 86 d6 38 3e 06 84 0a 3e
       0.007213363 0.13305384 0.18050584 0.13526925
0001b0 b7 49 aa bd 5b 0c 5b 3d 8a 68 b7 3c 51 e0 c8 3c
       -0.08314841 0.05347858 0.022388715 0.024521025
0001c0 ed 11 69 bd d3 81 09 3c ff 21 c6 3d 08 0a 19 bd
       -0.05690186 0.008392769 0.09674453 -0.037363082
0001d0 12 fe 95 bd 18 0a 7b bd f9 74 3d 3d 88 c7 1a bd
       -0.07323851 -0.061288923 0.046254132 -0.037787944
0001e0 d0 00 4f bc 47 e3 69 3c 25 84 14 3e 86 4c b4 3d
       -0.012634471 0.014275379 0.14503534 0.08803658
0001f0 c0 18 a4 bd 95 21 94 3d 41 62 12 be be 60 80 3d
       -0.08012533 0.07232968 -0.14295293 0.06268452
000200 03 67 d1 3d 5a b7 80 bc 0b 57 c7 3c 79 da 0d be
       0.10224726 -0.015712429 0.024333498 -0.13852872
000210 40 8e 71 bc 38 1c dc 3d ea b3 8c bd 70 65 23 be
       -0.014743388 0.1074757 -0.068702534 -0.15956664
000220 c5 6d a2 3d 17 1e 52 3d 54 79 aa 3d 2d 8f 63 bd
       0.07931093 0.051298227 0.08323923 -0.055556465
000230 b7 2d 95 3d de 8e ae 3d d9 2b e6 ba 1f 7d 01 be
       0.0728411 0.085233435 -0.0017560675 -0.12645386
000240 6c 0b 9e bd 73 a7 b3 3d 5f c7 13 be ea 0d 09 be
       -0.07717022 0.08772173 -0.14431523 -0.13384214
000250 1d 3e 59 be b7 e3 c1 3a 42 cf ea 3d ce 69 f8 3d
       -0.212151 0.0014792596 0.114653125 0.12129556
000260 54 bc 9a 3c 1d d9 bc 3d b0 a8 dc 3b a2 e4 89 bc
       0.01888863 0.092210986 0.0067339763 -0.016832653
000270 7b e0 a4 3d d4 39 fb 3d eb 0b 92 3d b5 28 92 bd
       0.08050629 0.12266889 0.071311794 -0.071366705
000280 3e 37 83 bd 83 82 5b 3d b8 88 da bd 1c d2 77 bd
       -0.06407021 0.053591263 -0.10670608 -0.06050311
000290 8f 57 06 be 23 34 18 3d ab 6c 4a 3b 8f 92 f0 3b
       -0.13119338 0.037159096 0.0030887525 0.00734169
0002a0 24 69 e1 3d 41 28 8e bd 5a b4 d2 3d 64 20 ee 3c
       0.11006382 -0.069412716 0.102883056 0.02906818
0002b0 4a ae 99 3d aa ba 31 3d 0e 24 8c 3d 1f 5f c6 bd
       0.07503946 0.043390907 0.068428144 -0.09686112
0002c0 fa 89 ca 3d 17 1f 89 bd 32 4f 50 3c 78 0c 49 3d
       0.09889598 -0.06695383 0.012714194 0.049084157
0002d0 e0 45 07 3e 9b 64 8a bd 90 d5 55 3b b4 9c e3 bc
       0.13210249 -0.0675747 0.0032628514 -0.027784683
0002e0 90 41 71 3d 80 70 99 3d a3 b4 8d bd ad ba c0 bc
       0.058900416 0.07492161 -0.06919219 -0.023526514
0002f0 c3 be 1f be 6e d0 d0 3c 16 13 09 be 21 1b 84 bd
       -0.15600114 0.025490012 -0.13386187 -0.06450487
000300 d3 33 03 be 3b 46 ac 3d 83 44 7b bb 2b 68 49 3d
       -0.12812738 0.08411833 -0.0038340397 0.049171608
000310 95 2f cb 3c 9e e3 0f 3d 7a 7a bc 3d 2c 75 06 be
       0.024802962 0.035129182 0.09203048 -0.13130635
000320 41 b3 0f be 46 9f f0 3d f5 ad e6 bd 76 1c 15 3e
       -0.14033224 0.11749129 -0.112636484 0.14561638
000330 1f bc 09 bc 0d 1d 69 bd d7 a9 8e bd c6 0d d7 3d
       -0.008406668 -0.05691247 -0.06965988 0.10500674
000340 13 3d 92 3d 21 bb 29 3d 06 7b ea bd d7 c0 03 3d
       0.07140555 0.041438226 -0.11449246 0.03216633
000350 95 7b 08 3e e6 de 61 bc f3 1c 88 bd d2 8a eb bb
       0.13328393 -0.013786053 -0.066461466 -0.0071881795
000360 cf 92 1c 3d 03 89 eb bc 33 6d 17 3c 80 5c c1 bd
       0.038225945 -0.028751856 0.009242344 -0.09441471
000370 56 64 21 3c 66 9d 45 3d 86 bb 53 3d a9 d0 1b 3e
       0.009850582 0.04824581 0.05169251 0.15216316
000380 8d ae 12 3e 91 ac b7 bd 58 0d d1 bd 4c 92 ea 3d
       0.14324398 -0.08968461 -0.10207623 0.11453685
000390 a1 f7 ac 3b 1e b8 0e be 2c 21 a4 bd cd 50 55 bc
       0.005278543 -0.13937423 -0.080141395 -0.013019753
0003a0 24 4d 24 be 82 4c b3 bd 96 54 64 bd 27 49 87 bd
       -0.16045052 -0.08754827 -0.05574473 -0.066057496
0003b0 38 14 05 3e 4e fa cb bc e9 4c 5c bc 42 dc ee 3c
       0.12995994 -0.024899628 -0.013446071 0.029157761
0003c0 57 d6 6a bd 72 af 26 bd 10 fa 2f 3d 02 c8 87 3d
       -0.057333317 -0.04069466 0.042963088 0.06629945
0003d0 0d bf 08 be ee 67 f1 3d 89 c8 b7 bd 98 39 e9 3b
       -0.1335413 0.11787401 -0.08973796 0.0071174614
0003e0 5c 8f 17 3e ff ed cb bd 55 cd 4f 3d 90 f5 27 bc
       0.14800781 -0.099575035 0.05073293 -0.010251418
0003f0 30 4e 86 bc ba e3 0b bd 99 5a ae 3d 3f 3d b2 bd
       -0.016394705 -0.034152724 0.08513374 -0.08703088

tcn.network.0.net.4.bias f4 [32]
000000 f8 af 94 3d c6 a3 d1 bc f2 83 af 3a c3 6b 01 be
       0.07260126 -0.025590789 0.0013390763 -0.12638764
000010 ee a3 0a bc e2 eb ad 3c 76 1b 83 bd bb a4 4f bd
       -0.008461935 0.021230642 -0.06401722 -0.05069421
000020 8d 8c 66 3d 29 a6 e0 bd ca a7 c5 bd 81 eb a4 3d
       0.056286383 -0.109691925 -0.09651144 0.08052731
000030 1b 89 6b bd 4e 73 b5 bd 10 0c 0d bd 91 f5 98 3d
       -0.0575038 -0.08859883 -0.03443533 0.07468713
000040 80 b1 34 3d ac ed 86 bd d2 4e dc bd f8 e9 03 3e
       0.04411459 -0.06588301 -0.10757221 0.12882221
000050 71 c9 dc 3c 11 ec a6 3c 74 ad 8a bd 7e 5f 03 be
       0.026951523 0.020376237 -0.06771365 -0.12829396
000060 c3 e5 b7 bd 27 51 09 be 3f 23 7a bd 37 ce 0a be
       -0.089793704 -0.13409863 -0.06106877 -0.13555227
000070 58 39 3b 3d 39 52 0f be ff 1c ba bd 8f e3 3f 3d
       0.045708984 -0.13996209 -0.09087562 0.046847876

tcn.network.0.net.4.weight_g f4 [32, 1, 1]
000000 f2 fc 09 3f d2 26 0b 3f 2f b7 de 3e 06 16 28 3f
       0.5390159 0.5435611 0.43499133 0.65658605
000010 06 8b 08 3f 90 90 12 3f fb c9 12 3f cf 9a 0e 3f
       0.5333713 0.57251835 0.5733945 0.5570497
000020 c0 5f 03 3f 99 7e 0e 3f 6a 69 fd 3e 46 13 15 3f
       0.5131798 0.5566192 0.49494487 0.58232534
000030 70 58 03 3f 2b 95 06 3f 3d 22 04 3f 4d 46 2c 3f
       0.5130682 0.5257136 0.51614743 0.6729477
000040 1e 32 09 3f 85 34 0d 3f e9 f6 09 3f b7 a9 03 3f
       0.535921 0.55158263 0.5389238 0.5143084
000050 97 93 f3 3e 7f 5f 1b 3f 68 2e 18 3f 20 1c 17 3f
       0.4757354 0.6069259 0.5944581 0.5902729
000060 a6 68 04 3f 70 b3 08 3f e3 0c 06 3f b0 47 1e 3f
       0.5172218 0.533988 0.52363414 0.61828136
000070 d2 0e 04 3f c4 ac 1c 3f 9d cf 0a 3f 0a 3f 12 3f
       0.51585114 0.6120112 0.5422304 0.5712744

tcn.network.0.net.4.weight_v f4 [32, 32, 2]
000000 bf 0c e4 bd 8a 23 00 3e f3 bb 33 3e 4e c9 26 be
       -0.111352436 0.12513557 0.17552166 -0.16287729
000010 c6 13 04 be c5 d0 a7 bd 94 48 aa 3d 8d 2b 31 bd
       -0.12898168 -0.081941165 0.083146244 -0.043254424
000020 c0 dd 35 3e 78 98 48 36 66 c2 be bd 39 73 83 3d
       0.17760372 2.989107e-06 -0.09314422 0.06418461
000030 44 e1 d5 3d ef e7 c9 bd 72 8a 57 bc 6e 07 cf bd
       0.10443357 -0.09858691 -0.0131555665 -0.10108839
000040 8a 4e d2 3d 8c 8d 06 3d 3a 92 52 3d 34 a8 0b be
       0.102688864 0.032849833 0.051408984 -0.13638383
000050 15 8e 0b 3e 4e 5e f7 3c 63 69 29 3e 44 f4 e5 bd
       0.13628419 0.030196335 0.16544108 -0.112282306
000060 50 15 10 3e 03 72 2d be c3 e6 16 be 03 0e 28 3e
       0.1407063 -0.16938023 -0.14736466 0.16411595
000070 88 62 2e be 6b f8 38 3d 49 5e 15 be 5d 1e eb bd
       -0.17029774 0.045158785 -0.14586748 -0.11480401
000080 28 f8 21 3e 49 c2 be 3d c5 1a 15 be f6 58 90 3d
       0.1581732 0.09314401 -0.14560993 0.07048218
000090 66 25 13 be 7a 44 b5 3d 59 33 0c be 6a d0 25 be
       -0.14369735 0.088509515 -0.13691463 -0.16192785
0000a0 01 cb 34 3d 6b 53 d4 3d ab 15 31 be 16 98 17 be
       0.044138912 0.10367473 -0.17293422 -0.1480411
0000b0 a0 30 29 3e dd f8 f4 3d 4b 4c cb bd 2a 46 dc bd
       0.16522455 0.119615294 -0.09926661 -0.1075557
0000c0 81 d7 3f be 97 51 fc bd ab 4e 0b 3e e1 90 8c bd
       -0.18734552 -0.123202495 0.13604228 -0.06863571
0000d0 fa b8 49 be 44 9f 1a be 6d b8 58 be 4f 22 10 3e
       -0.19699469 -0.15099818 -0.21164103 0.14075588
0000e0 aa 64 cf bd 46 95 fa 3d d9 ef 71 bc 7e 85 1a bd
       -0.10126622 0.12235503 -0.014766657 -0.037724964
0000f0 7b 25 cf 3c ef 67 dc bc b7 4b 01 3d 2b e6 b6 bd
       0.025286427 -0.026905028 0.031566348 -0.0893062
000100 b7 c1 a9 bd b3 3e a6 3d d5 65 b0 3d 7b f6 f8 3d
       -0.08288901 0.08117428 0.08613173 0.121563874
000110 dd ce 53 bd 0a 9b e7 bd 23 88 27 3e 9e bb a6 bd
       -0.051710952 -0.11308868 0.16360526 -0.08141254
000120 0f 4f df bd d3 c5 3a 3d 6a 11 fe bd 4b 68 68 bd
       -0.10903751 0.045598816 -0.12405665 -0.056740087
000130 1b d7 17 bd d2 ca f4 3d f0 df 61 3d 89 e2 1f be
       -0.037070375 0.119527474 0.055145204 -0.1561376
000140 7a 05 ff bd df 60 45 bd 86 cd ce bd a1 43 9b 3d
       -0.124522164 -0.048188087 -0.10097794 0.075812586
000150 09 ae fa bd 16 11 a0 3d 2d 1a ee bd ea 9c 9f bd
       -0.12240226 0.07815759 -0.116260864 -0.07793601
000160 65 b8 0c 3e 53 95 d1 bd 6f ae 1f 3e 1c 1e 24 3e
       0.13742216 -0.102335595 0.15593885 0.16027111
000170 0c e6 fb 3d bc 5b 91 3d 45 e3 1b be 7a 40 03 be
       0.12299737 0.07097575 -0.15223415 -0.12817565
000180 c9 e8 e2 3d 4e 41 ba bd 32 bf d1 bd 3c c5 03 be
       0.110795565 -0.09094487 -0.10241546 -0.12868208
000190 b5 ff 0d be 5c e2 97 bd 25 ea 1a 3e 07 4e b8 bd
       -0.13867076 -0.074162215 0.15128382 -0.089992575
0001a0 17 3e c1 bd 15 4f a4 bb eb 1b e2 bd 7a 5f 28 3e
       -0.09435671 -0.00501431 -0.11040481 0.16442671
0001b0 bc 87 b6 3d 01 3b 7d bd 04 af 03 bd 60 de d2 3d
       0.08912608 -0.06182385 -0.03214933 0.10296321
0001c0 45 9b 99 bd 30 87 45 3d ce fe b8 bd 39 f9 04 be
       -0.075003184 0.048224628 -0.09032975 -0.12985696
0001d0 ca 9a a3 3d 55 72 05 3e 37 12 0d 3e e4 ef b1 bc
       0.07988508 0.13031895 0.1377648 -0.021720834
0001e0 13 79 e0 bd 20 e6 f7 3d 40 9c c1 3d 9c 95 36 3d
       -0.10960593 0.1210444 0.094536304 0.044576272
0001f0 71 1d b7 bd 39 86 2d bd b1 0e 9d 3d fb 54 ec bd
       -0.089411624 -0.042364333 0.07668818 -0.11539646
000200 c7 b2 12 be b5 aa 13 3e 7c 37 06 bd 54 42 91 bd
       -0.1432601 0.14420588 -0.032767758 -0.07092729
000210 ea 11 fd 3d 6e 24 8d bd 61 9f f5 bd f3 85 06 bd
       0.123569325 -0.06891714 -0.1199329 -0.032842588
000220 23 88 1a be 5e cc 88 3d 21 35 29 be 91 e6 9e 3d
       -0.15090995 0.06679605 -0.16524173 0.07758821
000230 6a d7 e2 bd 96 ec a7 bc 79 1a f5 3c 1f b1 4a 3d
       -0.11076243 -0.020498555 0.02991985 0.049485322
000240 ee 2f 82 bd 2c 50 4b bc e8 06 8d bd ed 75 96 3d
       -0.06356798 -0.012409251 -0.06886083 0.07346711
000250 64 99 07 3d 9f a8 1d bd 9d a8 3b 3e 29 c7 44 3e
       0.03310527 -0.038490888 0.1832604 0.19216599
000260 e0 f5 2f be 0b 31 88 3d 6d 3a 81 bd 22 71 a6 3d
       -0.17183638 0.06649979 -0.06309972 0.08127047
000270 0b cf 8d bd d0 4f de 3d 4b 61 0f be b0 2c 39 be
       -0.06924256 0.10855067 -0.14001958 -0.18083453
000280 dd 7e e6 3d 51 a7 19 3d bd 4a 9a 3d af 11 da 3d
       0.11254666 0.03751308 0.075337864 0.10647904
000290 fb 26 d8 bd 48 9f 0d 3e 7a 77 b5 3d 37 4a 0c be
       -0.1055431 0.13830292 0.08860679 -0.13700186
0002a0 b1 a0 3d bc 4a 92 19 be 45 68 6f 3e 48 b2 24 3d
       -0.011573956 -0.14997211 0.2337962 0.040209085
0002b0 df 07 15 3e e7 e1 0e be 6b bd 16 bd 01 c6 cd 3d
       0.14553784 -0.13953362 -0.036801737 0.10047532
0002c0 c3 6d 0f bd 2b 7b 21 3d ea d0 fc bc e9 3b e9 3d
       -0.035016786 0.039424103 -0.030861337 0.1138838
0002d0 c6 a2 ac 3d 4c 17 8e 3d 49 6a 9e bc ba 3a 1e bd
       0.08429484 0.06938037 -0.01933779 -0.038630225
0002e0 73 ba 02 3e 2b ea 59 3d ea 1b 2c bd 98 c6 1d 3d
       0.12766437 0.053201836 -0.04201881 0.038519472
0002f0 79 72 45 be 87 8f 06 3c 28 b3 f7 3d 89 a5 6a bd
       -0.19281949 0.0082129305 0.12094718 -0.057286773
000300 4d c4 25 37 3d e5 27 2a eb 7b c3 bd 2b cb 50 bd
       9.880471e-06 1.4912113e-13 -0.0954512 -0.050975006
000310 19 47 4d bd 58 82 d1 3b eb a2 aa 3d 08 03 27 3d
       -0.050116632 0.006393712 0.083318554 0.040774375
000320 96 0d c8 3d 75 66 b9 3c 17 07 50 3e c9 4a 59 3d
       0.09768216 0.022631863 0.20315205 0.053049836
000330 74 bb 82 3e 56 f3 6d 3d 30 c8 67 3e 3f 84 32 3e
       0.2553364 0.05809339 0.22634959 0.1743326
000340 7f 40 74 3c be f6 9a bd 46 8e 70 3e 9b 7f 47 3e
       0.014907955 -0.075665936 0.23491773 0.19482271
000350 ab 71 6d 3e ce 13 3d 3e 57 73 3d bd 74 25 f4 bb
       0.23187892 0.18464586 -0.046252575 -0.007450754
000360 91 7d 2a 3d 96 70 bb 3b c8 00 90 ba 7c f3 81 3b
       0.041623656 0.0057202084 -0.0010986561 0.003965793
000370 87 7a a7 3d ca 3f e5 3d 19 b7 a6 39 90 ba dd 2c
       0.08177667 0.111938074 0.00031798406 6.3019104e-12
000380 17 50 a4 bc 9d 15 c9 bd 18 5d 45 3d f9 20 27 3c
       -0.020057721 -0.098185755 0.048184484 0.010200732
000390 9f 71 4d b9 99 8e 9e bc 6c 6c 3e 3c 90 7f 8a bc
       -0.0001959265 -0.019355105 0.0116225295 -0.01690653
0003a0 84 c8 66 3e ec 53 0b 3e cd 14 a4 3d f5 d2 2a bd
       0.22537428 0.13606232 0.0801178 -0.04170509
0003b0 e5 20 67 3a 97 0e 26 b9 57 55 de 3d eb f0 9c 3c
       0.00088168524 -0.00015836429 0.10856121 0.019157847
0003c0 00 e5 8d 3d 52 86 7a bd 3e 6d 78 3b 19 8e f6 bc
       0.06928444 -0.061163254 0.003790691 -0.030097054
0003d0 95 de c1 3b a1 90 21 bd d2 fa 16 bd 0d 0c 9d 3b
       0.0059164264 -0.03944457 -0.036860295 0.0047926963
0003e0 85 12 ff 3c 39 df bd bc 43 e3 97 bc 34 13 82 39
       0.03113676 -0.02317773 -0.018540984 0.0002480984
0003f0 51 f5 26 3e df 05 8d 3d 5c ef 3c 3e d3 a2 3b 3e
       0.16304518 0.068858854 0.18450683 0.18323831

tcn.network.0.downsample.weight f4 [32, 32, 1]
000000 f0 d5 55 be ee a8 30 be 70 96 00 3e 34 54 cd bd
       -0.20882392 -0.17251942 0.12557387 -0.10025826
000010 06 db 0b 3d 21 5a 56 bc 8b 1d 89 bd 9f 98 82 bd
       0.034144424 -0.013083012 -0.06695088 -0.063767664
000020 e7 5f d4 3c a6 b6 2c 3e af dc 12 be 43 65 88 be
       0.025924636 0.1686655 -0.14341997 -0.26639757
000030 15 2c 22 3e a1 e4 1c 3d 7f 3c ed 3d 96 42 dc ba
       0.15837128 0.038303975 0.11583804 -0.0016804512
000040 ae be 93 3d 2a ab 19 be e2 00 96 3e be 1b 69 3e
       0.07214104 -0.150067 0.2929755 0.22764489
000050 0c 75 b1 bd 75 6e 43 be 77 5c a2 3d 19 82 77 be
       -0.08664903 -0.19085105 0.079277925 -0.24170722
000060 bb 93 98 3e 2b 71 ec 3d 63 3e 57 bd 59 13 82 be
       0.2980021 0.115450226 -0.05254973 -0.25405386
000070 e7 4f 7e 3e 22 c3 24 be f4 eb 5a 3e d6 40 e7 bd
       0.24835168 -0.16090062 0.21379071 -0.11291663
000080 1e 97 40 bd 5f 86 ec bd e8 0d 6a 3e 70 d1 f0 3d
       -0.047019117 -0.11549067 0.22856867 0.11758697
000090 c9 29 51 be cb 43 3f be 0c 44 3e be 19 ee b9 3d
       -0.20426096 -0.18678205 -0.18580645 0.09078617
0000a0 50 fc 08 3e 5e 73 f0 bc c0 e7 00 3e 2f f0 dd bd
       0.133775 -0.029351886 0.12588406 -0.10836827
0000b0 77 64 23 3e b2 3f b7 3c 77 97 f2 bc f0 fe 31 be
       0.15956293 0.02236924 -0.02961324 -0.17382407
0000c0 0c 32 f9 3c 8b eb 2e be 5e fa 1d 3e 5b 5d 59 bd
       0.030419372 -0.1708204 0.15427539 -0.053067546
0000d0 c6 99 57 be bc e2 83 be cc 69 6c 3e d3 a4 35 be
       -0.21054754 -0.25758922 0.23087233 -0.17738657
0000e0 d6 5d 2f 3e 37 c6 0a 3d 3f 36 4d bd 9a 4d 44 be
       0.1712564 0.03388044 -0.05010056 -0.19170228
0000f0 6b 14 53 bc fa 28 e8 bc 3d dc 57 3e 8b 6a d4 3d
       -0.012883286 -0.028339852 0.21080108 0.10371884
000100 d2 12 bd bd 6b b6 ac bd 08 6d d5 3d 3e 25 23 3e
       -0.09232105 -0.08433231 0.10421187 0.15932176
000110 8b e7 72 be f2 15 38 be 6f f5 16 bc 57 b3 c9 3d
       -0.23721139 -0.17977121 -0.009213789 0.098486595
000120 a5 e4 1e 3e c8 b3 8b 3e 9e ee 1e be 5a a0 12 be
       0.15516908 0.272856 -0.15520713 -0.14318982
000130 4e bd 8e bd 03 0e e8 3b 8e 5d df bb db 2d 67 bd
       -0.06969701 0.0070817485 -0.0068165725 -0.056440216
000140 0b df 92 3c 91 d8 c8 bd 7b 2a 00 3e bd a7 3b 3e
       0.01792862 -0.09806932 0.12516205 0.18325706
000150 96 80 b1 bc cb b9 85 be 12 2c f4 3d 92 a4 42 3d
       -0.02166776 -0.2611831 0.11922468 0.047520228
000160 87 0d 7d 3c c2 40 a2 3d 43 03 39 be ba 4e 0b bd
       0.01544512 0.07922508 -0.1806765 -0.034010626
000170 a1 a6 27 3e cd 7e 42 bd 95 54 a7 bd 52 0c 48 3e
       0.16372158 -0.047484208 -0.081704296 0.1953595
000180 a0 7a 1b be 5d e4 bb 3c 0e 2d f6 bd f7 6d 11 be
       -0.15183496 0.02293604 -0.12020312 -0.14202105
000190 7f 3c 59 bc 5c b7 95 3e 14 87 90 3e 3b d3 7d bd
       -0.013259052 0.29241455 0.28228056 -0.061969023
0001a0 ec cd 1d bd 78 a9 29 be c7 5f ec 3d 64 ef 47 3e
       -0.03852646 -0.16568553 0.115417056 0.19524914
0001b0 12 4d 84 3d ea c9 11 be 35 3a 6c be 95 7c 53 3e
       0.064600125 -0.1423718 -0.23069079 0.20652993
0001c0 12 c2 e6 3c 1d 94 14 3e 2d a5 6b bc 10 2a 17 be
       0.028168712 0.14509626 -0.014382643 -0.1476214
0001d0 71 18 a9 3d 8b 2f b5 3d 1c 10 34 be 7d d3 b1 3d
       0.08256615 0.08846959 -0.1758427 0.08682916
0001e0 aa 3e b0 3d b9 f5 1d be a1 b9 b7 3d c6 8c 5d bd
       0.08605702 -0.15425767 0.08970953 -0.05408933
0001f0 4b a8 79 be 21 5f 5f bd 60 17 b2 bd ca 86 cf bd
       -0.24380605 -0.05453408 -0.08695865 -0.10133131
000200 6d 07 14 3d 8b de 43 be 52 89 53 3e fa 29 ff bd
       0.036139894 -0.19127862 0.20657852 -0.12459178
000210 15 1c 35 be c3 fa 88 be f0 b5 85 be 03 54 0a be
       -0.17686494 -0.26753816 -0.2611537 -0.1350861
000220 b3 94 96 bd 55 98 74 3e 9b e8 5b 3d fc 4a 55 bc
       -0.07352581 0.23886235 0.053688627 -0.013018366
000230 89 4f 8b 3e 87 e3 f2 bd d4 6b a1 3e 85 c7 03 be
       0.27209118 -0.11859804 0.3152758 -0.1286908
000240 21 f1 ee bc f1 bd 1d bd 0f ec 82 ba 33 97 cb 3d
       -0.029167714 -0.03851122 -0.0009988564 0.09940948
000250 4a 85 87 bd a2 78 31 be 99 02 2d 3e dc cb c5 bd
       -0.0661722 -0.17331174 0.16895522 -0.09658024
000260 ab 2f d1 3d 9a f5 ee 3d d9 0d b2 be 10 a0 1b be
       0.1021417 0.116679385 -0.3477619 -0.15197778
000270 f2 87 ea 3d a6 ce eb bd 47 8e 32 bd 7b 26 6f 3e
       0.11451711 -0.115140244 -0.043592717 0.23354523
000280 cb bb 56 3c e3 9f d0 3d b1 6a 9d 3c da b9 c1 bd
       0.013106297 0.10186746 0.019215913 -0.094592765
000290 cd 80 f4 3d 64 ec 89 3d b4 60 2c 3d c9 a3 1a bd
       0.11938629 0.06734541 0.04208441 -0.037753854
0002a0 06 3c 36 be 3c 03 96 bd 02 ac 3d bd fd 0f 22 be
       -0.17796335 -0.07324836 -0.046306618 -0.15826412
0002b0 1f 33 27 3d b5 31 e9 bd 28 fb fb 3d 57 9f a5 bd
       0.040820237 -0.11386434 0.12303764 -0.08087032
0002c0 1a 80 1c 3e 57 f3 41 bd 6a d2 53 3d ed b3 42 3d
       0.15283242 -0.047351208 0.05171434 0.04753487
0002d0 e1 7d 8e bd 31 99 37 be 56 82 95 3d 40 04 13 be
       -0.06957603 -0.17929532 0.0730025 -0.1435709
0002e0 25 0b 12 3e d8 14 3e 3e c6 2a f4 3d ec e6 6a be
       0.14262064 0.18562639 0.11922221 -0.22939652
0002f0 95 00 30 3e d5 ec 84 bd 6b 3f a1 bd 91 de 46 3d
       0.17187722 -0.064904846 -0.07873424 0.0485521
000300 cf 1f e1 bd 0c c8 16 be 68 6d 78 39 ba fc 84 3d
       -0.10992395 -0.1472475 0.0002369188 0.06493516
000310 e3 b0 0e be 3d bd 89 be ba 5f 12 be 1c 34 06 3e
       -0.13934664 -0.2690219 -0.1429433 0.13105816
000320 94 b1 43 bd 0a 3e 9c 3e a9 a2 55 be be 67 40 be
       -0.047776774 0.30516082 -0.20862831 -0.18789575
000330 dd a2 09 bd 99 de b3 bd c9 bc 4b 3e d6 52 0d be
       -0.033602584 -0.087826915 0.19896235 -0.1380113
000340 dc 15 77 3d da 91 8b bd 10 3c 87 3e 45 f8 13 3d
       0.06032358 -0.06814928 0.26413012 0.03612544
000350 9a 36 41 be 01 e8 76 bd 58 96 8f bb 22 a2 12 3e
       -0.18868485 -0.06027985 -0.004381936 0.14319661
000360 97 8b 9c 3d db 7e 65 3c e1 a4 74 be 57 f4 b4 3d
       0.07643812 0.0140072955 -0.23891021 0.088356666
000370 e5 71 20 3e 15 61 33 be 6d 28 06 bd e7 ca 08 3d
       0.15668447 -0.17517503 -0.032753397 0.033396628
000380 3b e7 3a 3e 3b 23 67 be 19 33 0e bd c2 3d d2 3d
       0.1825227 -0.22572033 -0.0347167 0.102656856
000390 d3 06 06 be b2 6d f3 bd c8 61 65 be 2f 14 35 3e
       -0.1308854 -0.11886157 -0.22400582 0.1768348
0003a0 40 6f 75 bd a5 87 60 3e 5a ea 31 3d 00 9e ce bd
       -0.05992055 0.21926744 0.043436386 -0.1008873
0003b0 86 44 cf 3b 27 6e bd 3d 78 5b 0e bd 18 1e 62 be
       0.0063253073 0.092495255 -0.0347552 -0.22081792
0003c0 ba 0b 05 bd 41 f5 98 bd bc 66 c1 bd e9 37 bc 3d
       -0.032481886 -0.074686535 -0.09443423 0.091903515
0003d0 32 ed 77 be b1 25 cb bd 44 75 1a 3e d0 03 1f be
       -0.24211577 -0.099192984 0.15083796 -0.15528798
0003e0 30 38 0c bd c4 20 c5 bd 23 c5 19 bd bd 92 b1 bb
       -0.034233272 -0.0962539 -0.03754152 -0.005419104
0003f0 31 f6 45 3e 43 c8 7f 3d 85 44 87 3d 09 97 71 3d
       0.19332196 0.062446844 0.06604866 0.05898193

tcn.network.0.downsample.bias f4 [32]
000000 2c 78 1a 3e 3c 04 17 3e 59 3e 82 bd dc 1c df bd
       0.15084904 0.14747709 -0.06359548 -0.10894176
000010 12 37 8e 3d ab 1d 54 be 00 9b 57 3e fc 3c 5b 3e
       0.069440976 -0.20714442 0.21055222 0.21409982
000020 b2 8b 21 be 67 23 39 bb ab db ed 3d 86 6c b7 bd
       -0.15775946 -0.0028249861 0.11614164 -0.08956246
000030 ae b3 82 3d 9f 9b 34 3e 71 cb cd 3d 4d 96 ca bd
       0.063819274 0.1763749 0.10048569 -0.09891949
000040 f9 66 17 3e 14 44 2b 3d f6 74 36 be 2b 02 eb bd
       0.14785375 0.04181297 -0.17818055 -0.11475023
000050 ec 4a da bd 67 e1 cf bd 3e 0d 62 be 28 ba 83 bd
       -0.106588215 -0.10150414 -0.22075364 -0.06431991
000060 5c 7b 9b 3d e4 f3 6c 3d 8e cf ca bc 3a d9 88 3d
       0.07591888 0.05784978 -0.024757173 0.06682058
000070 bb 6c 3f 3e 31 6e 9f 3d 75 d0 18 3c 56 97 61 be
       0.18693821 0.07784689 0.009327044 -0.22030386

tcn.network.1.conv1.bias f4 [32]
000000 06 b4 8d bd 34 95 91 bd 56 70 4b 3c 8b 13 5f bd
       -0.06919102 -0.07108536 0.01241692 -0.054461997
000010 9c 9f 32 3d 17 43 9a bd 59 e4 07 be 3b 1b a1 bd
       0.043609247 -0.075323276 -0.13270701 -0.07866522
000020 82 21 28 bd 62 ca 54 bd 9e f2 d8 bc b8 ce d0 bd
       -0.04104758 -0.05195082 -0.026482876 -0.101956785
000030 5f 63 57 bd c6 d4 2b 3c d3 f6 55 3d b3 0c cb 3c
       -0.052585002 0.010487741 0.052237343 0.024786329
000040 1e 68 9c 3c a3 bf 8c 3d 54 bb ef 3c 03 b6 ce 3d
       0.019092616 0.06872489 0.02926413 0.1009331
000050 c1 e5 15 3d c4 35 a9 bc 07 1b 6d bc 40 b4 a0 bd
       0.036596064 -0.02065552 -0.014471776 -0.0784688
000060 b0 89 73 bd ba c8 5a 3d 12 75 ad 3d 20 f9 e9 bd
       -0.05945748 0.053414084 0.08469595 -0.1142447
000070 4e 22 bc 3d 40 ad f3 bd 1b 12 8c 3d 9e 7d 5f 3d
       0.091862306 -0.11898279 0.06839391 0.054563157

tcn.network.1.conv1.weight_g f4 [32, 1, 1]
000000 5e d1 0d 3f 84 4d 4b 3f d5 76 63 3f dc cd 0d 3f
       0.55397594 0.79415154 0.888532 0.5539224
000010 ce 5c 06 3f 7c 44 0d 3f 15 a3 1f 3f 00 a3 18 3f
       0.5248536 0.55182624 0.6235822 0.5962372
000020 9a 71 3d 3f ab 4a 1b 3f b7 21 24 3f b1 c9 18 3f
       0.7400147 0.6066081 0.64113945 0.59682757
000030 1c 08 00 3f 27 ef 2b 3f 04 ee 2d 3f c6 aa 2b 3f
       0.50012374 0.6716179 0.6794131 0.67057455
000040 40 1f 56 3f 62 ad 16 3f 27 d5 10 3f 7b 0b 12 3f
       0.83641434 0.5885831 0.56575245 0.5704877
000050 ef c8 38 3f cd 40 0d 3f 1e 96 15 3f 86 36 15 3f
       0.721816 0.55177003 0.58432186 0.5828632
000060 14 0e 10 3f 3d 83 2a 3f e2 21 10 3f 93 44 08 3f
       0.5627148 0.66606504 0.563017 0.53229636
000070 28 87 35 3f 0b 11 1d 3f 83 ea 1e 3f 9a 3b 27 3f
       0.7090936 0.6135413 0.62076586 0.6532532
