models/prototyping6/tcn_fold_2/best.pth (torch, 224151 bytes, 130 tensors)

tcn.d_reduce.weight f4 [32, 1, 1]
-0.6260558 -1.104853 -0.49087185 0.6838545 -0.15556939 1.1530181 0.9401664 0.7528107
-0.27952707 0.46466246 -0.385457 0.3968742 0.88103414 -0.27769566 0.21221429 0.17248997
0.16673024 -0.5865696 -0.18362314 0.58872354 -0.8452348 1.0874422 0.9438714 1.082868
0.5751509 0.990639 0.5417044 0.5979891 -0.3850221 -1.0075252 -0.7897975 0.711279
00000000: 3145 20bf d36b 8dbf 8e53 fbbe 1711 2f3f
00000010: 954d 1fbe 1996 933f bfae 703f 34b8 403f
00000020: 2c1e 8fbe 3de8 ed3e 9f5a c5be 1833 cb3e
00000030: 748b 613f 202e 8ebe b44e 593e 36a1 303e
00000040: 55bb 2a3e 6d29 16bf b407 3cbe 96b6 163f
00000050: 4f61 58bf 4e31 8b3f 8ea1 713f 6b9b 8a3f
00000060: 173d 133f 849a 7d3f 24ad 0a3f d015 193f
00000070: 9e21 c5be 96f6 80bf 2b30 4abf 6116 363f

tcn.d_reduce.bias f4 [32]
0.696356 0.11422251 0.04771056 -0.8479739 -0.8883124 0.3316511 0.85932976 0.36107296
-0.28840944 -0.73922336 0.05431562 0.6855559 -0.25625843 -0.9034495 -0.54244816 -0.9289536
-0.6627073 -0.13872033 0.6054866 -0.6587331 -0.61370593 -0.5702661 -0.55688494 0.80330473
0.16747653 0.77799606 -0.19251408 -0.10325448 -0.6818485 0.26474577 0.11076491 -0.00406892
00000000: 6344 323f 7eed e93d 266c 433d d114 59bf
00000010: 7168 63bf 2cce a93e 09fd 5b3f 8ede b83e
00000020: 67aa 93be be3d 3dbf 0e7a 5e3d 9780 2f3f
00000030: 4e34 83be 7748 67bf e2dd 0abf e7cf 6dbf
00000040: 30a7 29bf b40c 0ebe 2b01 1b3f bca2 28bf
00000050: d51b 1dbf f6fc 11bf 0390 0ebf 61a5 4d3f
00000060: f87e 2b3e c02a 473f 6922 45be 1677 d3bd
00000070: a08d 2ebf c28c 873e b7d8 e23d 9354 85bb

tcn.network.0.conv1.bias f4 [32]
-0.17366433 -0.0852829 -0.106060915 0.044085007 0.034059294 -0.030050535 0.093091615 -0.12202331
-0.018212374 -0.06545429 -0.047646947 -0.08366435 0.054388724 -0.12231113 -0.026293037 -0.016858164
-0.01750824 0.059389785 -0.11352662 -0.119641185 0.00301184 0.027497154 -0.0335816 0.05510476
-0.12372221 -0.018289058 -0.0035577412 -0.010650976 0.03535202 -0.07491493 0.09597645 -0.06763565
00000000: 10d5 31be cda8 aebd 7736 d9bd 7b92 343d
00000010: c281 0b3d 8a2c f6bc d1a6 be3d 5be7 f9bd
00000020: 1e32 95bc e60c 86bd 7229 43bd 3758 abbd
00000030: b6c6 5e3d 427e fabd 7f64 d7bc 221a 8abc
00000040: 716d 8fbc b442 733d a580 e8bd 7006 f5bd
00000050: 4a62 453b b641 e13c dc8c 09bd 87b5 613d
00000060: 1262 fdbd efd2 95bc fe28 69bb 6e81 2ebc
00000070: 48cd 103d 006d 99bd 4d8f c43d 8f84 8abd

tcn.network.0.conv1.weight_g f4 [32, 1, 1]
0.5310402 0.57410246 0.54007226 0.5445714 0.47627422 0.48919964 0.6211716 0.50822514
0.5504732 0.5295814 0.49580273 0.5143695 0.61217004 0.5961289 0.49051678 0.59208137
0.66816056 0.5791992 0.57537746 0.58018714 0.5643187 0.5509726 0.63485444 0.58933556
0.4998715 0.7045452 0.6053969 0.49786487 0.5683438 0.5366919 0.4690834 0.7025631
00000000: 40f2 073f 61f8 123f 2d42 0a3f 0869 0b3f
00000010: 37da f33e 6078 fa3e 1a05 1f3f 0b1b 023f
00000020: d0eb 0c3f a692 073f dbd9 fd3e b8ad 033f
00000030: 2db7 1c3f e79b 183f 0425 fb3e a592 173f
00000040: 920c 2b3f 6646 143f f04b 133f 2587 143f
00000050: 3177 103f 8a0c 0d3f d285 223f b2de 163f
00000060: 28ef ff3e 135d 343f 4bfb 1a3f 25e8 fe3e
00000070: fb7e 113f a464 093f b32b f03e 2ddb 333f

tcn.network.0.conv1.weight_v f4 [32, 32, 2]
-8.179653e-05 -0.054768484 -0.07076859 -0.11265082 -0.010533267 0.032315027 -0.033361536 -0.040939856
0.014662546 0.11252848 0.022665527 -0.1008201 -0.089079306 -0.12583783 0.10704551 0.053411867
-0.030220289 0.12213873 -0.008107536 0.1384436 -0.06818958 -0.08536351 0.014859608 -0.13887888
0.0031753688 0.07130901 -0.01187408 0.0070904666 0.12805246 -0.05776759 0.051017966 0.17218174
0.10406721 0.02792956 0.10527866 0.119138494 -0.12749597 0.003922393 0.09453408 0.07210068
-0.019671112 0.12185756 0.12110403 -0.009987263 0.07467192 -0.09706043 -0.041937765 -0.039186057
-0.049991917 -0.05401977 -0.13140543 0.0717452 0.10377091 -0.10303233 0.11148692 0.03351915
-0.035089936 0.022621201 0.09824388 -0.009614073 0.060280997 0.092026755 0.066620335 0.059309743
-0.08682397 0.10438812 -0.098702304 -0.0111811375 0.04021027 0.061562303 -0.017359776 0.07789391
-0.04861573 0.12240349 0.02791982 0.06084809 0.016061235 0.047445133 -0.13855457 -0.081968
0.0933978 -0.083626375 0.017808221 -0.047289845 0.10914996 -0.037247397 -0.05103153 -0.14298734
0.054585103 -0.0043039797 0.12578343 0.06774307 0.09225159 0.105447486 0.0013143108 -0.06306655
0.1098342 0.1302997 -0.10428439 0.044704776 0.030630816 0.11374607 -0.10045538 -0.03380537
0.03630976 0.062185105 0.083064355 -0.080518745 -0.02966062 0.011393157 0.03351341 -0.114044294
-0.11374053 0.10348779 0.05453455 0.09156538 -0.020638611 0.05090134 0.05176966 0.039045982
0.015136302 -0.0019770593 -0.031235086 -0.0911526 0.07831621 -0.0695468 -0.08953332 -0.024059163
-0.029183127 -0.10483871 -0.053711466 0.061073627 -0.058291513 0.015831329 0.018719858 0.11698754
0.041498043 0.13422453 -0.047219425 0.10129084 0.08452475 0.046698283 0.074643016 0.06216173
-0.039729137 0.07432628 0.03748928 0.07480051 0.12421031 0.07438816 0.005994516 -0.050362527
0.007654204 0.117984965 -0.037056733 0.13522436 0.0107413735 0.029633326 0.024511639 -0.048621994
-0.06847526 0.11676584 0.12548885 0.11508581 0.072074436 0.062120423 -0.09462202 -0.034569982
0.112648435 0.038128845 0.0038769008 0.03264323 0.077013776 0.09060371 -0.09480626 -0.091665566
0.03197393 -0.047014818 -0.005525889 -0.09135939 -0.06782487 0.038540363 -0.092152365 0.03348823
0.08761765 0.038496133 -0.056886688 0.014690393 0.08896437 -0.12129082 -0.11365803 0.06966229
0.021451637 -0.06212841 -0.118582085 0.0159565 -0.08249873 -0.0033783827 0.006975888 0.0060195546
-0.071209654 -0.027760122 -0.03977475 -0.032147493 -0.10928639 -0.035597056 -0.042715527 -0.04439741
0.020459807 -0.06927576 0.0041485257 -0.047205716 -0.13047244 0.090674534 0.023822742 0.062931255
0.09542786 0.11769449 0.13088699 0.014742643 0.1266793 0.11883469 -0.056823723 0.12672032
0.13128886 0.047325753 -0.04063945 0.06484379 0.005954592 0.006143053 0.12293217 -0.027616331
-0.09030268 0.08338707 -0.011851663 0.006054546 -0.062037095 -0.06400499 -0.13409409 -0.034224443
0.050887756 0.023064524 0.049850486 0.091672726 -0.072173 0.063909866 0.11111812 -0.007575912
-0.0076573426 -0.06257329 0.10453625 -0.051309973 -0.008456715 0.10483983 -0.015757037 -0.08787181
00000000: 2d8a abb8 eb54 60bd 1fef 90bd 79b5 e6bd
00000010: b993 2cbc c35c 043d 1ba6 08bd 8db0 27bd
00000020: 2d3b 703c 5575 e63d 0ead b93c c57a cebd
00000030: 366f b6bd a2db 00be ad3a db3d 67c6 5a3d
00000040: 8a90 f7bc df23 fa3d 78d5 04bc 29c4 0d3e
00000050: fba6 8bbd 10d3 aebd b775 733c 4436 0ebe
00000060: d919 503b 750a 923d 808b 42bc 2557 e83b
00000070: 2f20 033e b59d 6cbd 37f8 503d 6950 303e
00000080: 3021 d53d 88cc e43c 579c d73d e2fe f33d
00000090: 4e8e 02be 6b87 803b 159b c13d 85a9 933d
000000a0: 5025 a1bc 7590 f93d 6405 f83d 9ea1 23bc
000000b0: 97ed 983d 9ec7 c6bd efc6 2bbd 8f81 20bd
000000c0: 53c4 4cbd d643 5dbd 258f 06be 26ef 923d
000000d0: d885 d43d 9d02 d3bd 4153 e43d 604b 093d
000000e0: 77ba 0fbd 1950 b93c 1634 c93d 5884 1dbc
000000f0: 35e9 763d 8678 bc3d 3e70 883d c6ee 723d
00000100: c4d0 b1bd 70c9 d53d 6f24 cabd 1731 37bc
00000110: 86b3 243d c128 7c3d 1736 8ebc d886 9f3d
00000120: 4a21 47bd aeae fa3d 1bb8 e43c d93b 793d
00000130: da92 833c d455 423d 40e1 0dbe d7de a7bd
00000140: 5947 bf3d 4e44 abbd 8ce2 913c ffb2 41bd
00000150: 048a df3d ba90 18bd 7006 51bd 466b 12be
00000160: a194 5f3d 6608 8dbb 5fcd 003e e1bc 8a3d
00000170: 67ee bc3d daf4 d73d f444 ac3a 0929 81bd
00000180: c1f0 e03d 496d 053e 0e93 d5bd 5b1c 373d
00000190: 7aed fa3c b3f3 e83d 8dbb cdbd 8077 0abd
000001a0: 8bb9 143d cfb5 7e3d a51d aa3d 03e7 a4bd
000001b0: d4fa f2bc 5daa 3a3c 5b45 093d 0e90 e9bd
000001c0: ccf0 e8bd 68f1 d33d 9f5f 5f3d a186 bb3d
000001d0: 4e12 a9bc ec7d 503d 6c0c 543d aeee 1f3d
000001e0: 41fe 773c 8d91 01bb b9e0 ffbc 37ae babd
000001f0: 4064 a03d 8d6e 8ebd 3f5d b7bd b917 c5bc
00000200: 7411 efbc adb5 d6bd 8e00 5cbd 5728 7a3d
00000210: 15c3 6ebd b4b0 813c 635a 993c 2a97 ef3d
00000220: daf9 293d 2872 093e 2869 41bd 9271 cf3d
00000230: 501b ad3d b346 3f3d 70de 983d 4c9d 7e3d
00000240: 05bb 22bd 6038 983d 5c8e 193d 0331 993d
00000250: fa61 fe3d d258 983d a56d c43b f048 4ebd
00000260: 1ed0 fa3b 1aa2 f13d cdc8 17bd 4178 0a3e
00000270: 96fc 2f3c 97c1 f23c a2cc c83c db27 47bd
00000280: c23c 8cbd ee22 ef3d 2680 003e 1cb2 eb3d
00000290: c39b 933d fc71 7e3d 31c9 c1bd 4199 0dbd
000002a0: 39b4 e63d fe2c 1c3d 9a13 7e3b e8b4 053d
000002b0: 66b9 9d3d 708e b93d c929 c2bd 28bb bbbd
000002c0: 18f7 023d 9c92 40bd 8412 b5bb a21a bbbd
000002d0: c4e7 8abd 80dc 1d3d 61ba bcbd f42a 093d
000002e0: e270 b33d 1fae 1d3d 0402 69bd f9af 703c
000002f0: f432 b63d 5267 f8bd 8bc5 e8bd 1aab 8e3d
00000300: 58bb af3c 5c7a 7ebd 2adb f2bd 35b7 823c
00000310: 18f5 a8bd db67 5dbb fd95 e43b af3f c53b
00000320: 5ed6 91bd 3269 e3bc d9ea 22bd 17ad 03bd
00000330: 8bd1 dfbd 38ce 11bd 7af6 2ebd 0fda 35bd
00000340: 539b a73c 73e0 8dbd 5bf0 873b c85a 41bd
00000350: 919a 05be 92b3 b93d e927 c33c 1ae2 803d
00000360: af6f c33d cf09 f13d 3d07 063e 208b 713c
00000370: 38b8 013e 9a5f f33d febf 68bd f9c2 013e
00000380: 9670 063e a6d8 413d 8d75 26bd d2cc 843d
00000390: bd1e c33b aa4b c93b ddc3 fb3d a53b e2bc
000003a0: 9df0 b8bd d7c6 aa3d 7a2d 42bc 3765 c63b
000003b0: 9c1a 7ebd 0c15 83bd f64f 09be ee2e 0cbd
000003c0: ae6f 503d d0f1 bc3c 0630 4c3d e9be bb3d
000003d0: 70cf 93bd 2de3 823d e691 e33d 5b3f f8bb
000003e0: 72ea fabb 6d26 80bd 1a17 d63d 682a 52bd
000003f0: 098e 0abc 44b6 d63d e714 81bc 23f6 b3bd

tcn.network.0.conv2.bias f4 [32]
0.055498052 0.048047367 -0.13857462 -0.03180349 0.099369034 0.09253031 0.0047817617 0.07633628
0.052649166 -0.094012365 0.04132284 0.023300905 -0.0031035542 -0.039938997 -0.10127413 0.05137078
-0.22485784 -0.06953484 -0.19259708 0.07837926 -0.096288726 0.015948763 -0.14190778 -0.14859182
-0.12011344 -0.09557646 -0.10277287 -0.01899818 -0.106824115 -0.040788922 -0.06735578 -0.14640528
00000000: ed51 633d 51cd 443d 81e6 0dbe 6044 02bd
00000010: fe81 cb3d 8880 bd3d 53b0 9c3b 3256 9c3d
00000020: a7a6 573d 8e89 c0bd 2342 293d 8ae1 be3c
00000030: 0065 4bbb 1397 23bd d068 cfbd 2b6a 523d
00000040: 2241 66be 4868 8ebd 2b38 45be 4e85 a03d
00000050: 0633 c5bd fba6 823c 4650 11be 7428 18be
00000060: 09fe f5bd 97bd c3bd 957a d2bd 12a2 9bbc
00000070: 9ac6 dabd 4912 27bd d4f1 89bd 44eb 15be

tcn.network.0.conv2.weight_g f4 [32, 1, 1]
0.6741984 0.5666047 0.62441826 0.5062434 0.6062261 0.45239377 0.4749546 0.67779183
0.53827524 0.56186 0.6191515 0.5582789 0.52126235 0.4749156 0.48694915 0.5522694
0.58302945 0.54991215 0.51121926 0.5156177 0.5648036 0.53028214 0.59973806 0.5952523
0.5801885 0.6044967 0.5000835 0.49828142 0.551725 0.55192894 0.6029818 0.5880873
00000000: 4498 2c3f 010d 113f e0d9 1f3f 2b99 013f
00000010: a231 1b3f 28a0 e73e 402d f33e c483 2d3f
00000020: 68cc 093f 0fd6 0f3f b680 1e3f 5eeb 0e3f
00000030: 7371 053f 2328 f33e 6651 f93e 8761 0d3f
00000040: 6b41 153f 0bc7 0c3f 44df 023f 86ff 033f
00000050: f896 103f 92c0 073f 6f88 193f 7462 183f
00000060: 3c87 143f 4cc0 1a3f 7905 003f be1e ff3e
00000070: d93d 0d3f 374b 0d3f 045d 1a3f e48c 163f

tcn.network.0.conv2.weight_v f4 [32, 32, 2]
-0.06236891 -0.058923047 0.03413589 0.037494708 -0.004331393 0.058146402 0.023172978 -0.0016347278
-0.06599373 -0.09948595 -0.0002251792 0.032377735 0.0068608085 -0.20188706 7.280063e-05 -0.06715927
-0.025949396 -0.023934964 0.118737146 -0.03197202 0.039845508 -0.046667643 0.012681271 -0.025065042
0.001012319 -0.06473565 -0.021313544 0.0067922203 -0.026108686 -0.08062196 -0.0074403076 -0.030666282
0.030681603 0.036921386 -0.03779536 -0.039641164 -0.12667058 -0.13303414 -0.0018372145 -0.05895382
-0.047958557 -0.06785083 -0.036640745 -0.114188835 0.06603346 0.04971988 0.03665873 -0.15007754
-0.021372877 -0.0047472804 0.12482954 0.1271422 0.17759748 0.041930404 0.12000477 -0.1532396
0.049647707 0.053392105 0.13192117 -0.09008534 0.21116643 0.052286 -0.07417603 -0.064970344
-0.12934367 -0.013742755 0.029506011 -6.895101e-05 -0.045734063 -0.08502575 -0.0036597075 0.09108102
-0.041831598 0.06989361 -0.010110801 -0.09053568 0.01837922 -0.11526291 -0.07793785 -0.091901444
0.065671936 -0.040946092 -0.08961247 0.017773401 -0.053149257 0.06434526 -0.03297273 -6.1149794e-06
-0.093332574 -0.090536736 -0.09856704 0.03770021 0.08207142 0.026976192 -0.048542954 -0.008206326
-0.10771148 -0.049633175 -0.12555172 -0.02761969 0.11298356 -0.0048798164 0.087564215 -0.09763202
0.10845537 0.020278383 0.07417557 -0.086180635 0.068896525 -0.098817825 0.039388634 -0.06432034
0.0036708098 -0.067421004 -0.13159807 -0.10967623 -0.036365997 -0.11544155 0.019216014 0.02430106
-0.032657664 -0.032439366 -0.08891132 -0.004375343 -0.063154586 -0.06367971 -0.21000104 -0.12668763
-0.037794758 -0.008491235 -0.01087396 0.018208772 0.019201512 -0.009522025 -0.0015322882 -0.10165945
0.002100719 0.124153145 0.04734182 -0.049961094 0.00016388278 -0.06414716 -0.08539729 0.07238743
0.019742409 0.08254469 -0.075148016 -0.053419404 -0.07259757 0.14398798 -0.00924089 0.17998613
-2.0923175e-13 -0.038245562 0.08335864 -0.059070528 0.024375396 0.1177797 -0.030475281 0.1020817
-0.009142528 -0.025066027 -0.055535953 -0.024662498 -0.051602073 0.17927417 -0.08583427 0.031745315
0.102473885 0.21541245 0.058081977 -7.968001e-08 -0.07162506 -0.07593314 -0.050179716 0.09138374
-0.020107012 0.00937674 0.083331086 0.06941249 0.04473653 -0.09630252 -0.022558918 -1.9560267e-07
8.2974926e-05 0.05485736 -0.028084708 0.021830795 -0.10461922 0.0007979564 0.13205174 0.3239284
-0.11497027 0.022605905 0.053472374 -0.054872926 0.12186163 -0.13170247 0.14707913 -0.069723606
0.11635834 0.04287965 0.06900333 0.045687865 -0.028631669 -0.10187294 0.029996755 0.0682164
-0.0744128 0.11495558 -0.21256107 -0.21294947 -0.088598885 -0.042129163 -0.06083235 0.14651634
0.11814604 0.026925147 -0.011128603 0.008567421 -0.040569093 0.06262259 0.08766467 0.12414835
0.10688014 -0.05418166 -0.0693148 0.078940906 -0.082549036 -0.065089576 -0.012464985 0.083928116
-0.1163778 -0.040215228 0.10005408 -0.14834787 -0.082705736 0.15530056 -0.161821 0.15110269
-0.063718 -0.010247758 -0.10986736 -0.11495631 -0.17971645 -0.023237098 0.08984522 0.07553743
-0.11176666 0.031740613 0.018322904 -0.021615196 -0.20132734 -0.08785451 0.028212167 0.120124094
00000000: 8b76 7fbd 4b59 71bd 13d2 0b3d 0d94 193d
00000010: 5cee 8dbb ec2a 6e3d 42d5 bd3c 5d44 d6ba
00000020: b927 87bd 4abf cbbd 151e 6cb9 849e 043d
00000030: a2d0 e03b 7bbb 4ebe 8aac 9838 cd8a 89bd
00000040: d493 d4bc 4213 c4bc 762c f33d 18f5 02bd
00000050: 0b35 233d 9226 3fbd 1bc5 4f3c 3455 cdbc
00000060: caaf 843a 2094 84bd be99 aebc 4691 de3b
00000070: e2e1 d5bc 201d a5bd d3cd f3bb db37 fbbc
00000080: fc57 fb3c e13a 173d 4fcf 1abd c65e 22bd
00000090: efb5 01be 1a3a 08be b0ce f0ba 9079 71bd
000000a0: 3170 44bd 60f5 8abd 9b14 16bd d6db e9bd
000000b0: 8d3c 873d 13a7 4b3d 7727 163d edad 19be
000000c0: 2c16 afbc 138f 9bbb a1a6 ff3d 9131 023e
000000d0: 1ddc 353e 37bf 2b3d 10c5 f53d d7ea 1cbe
000000e0: 655b 4b3d aeb1 5a3d 5816 073e aa7e b8bd
000000f0: 033c 583e d829 563d 9ae9 97bd 2c0f 85bd
00000100: ab72 04be 4b29 61bc 97b6 f13c cb99 90b8
00000110: a453 3bbd fb21 aebd b4d7 6fbb b088 ba3d
00000120: 9c57 2bbd 6224 8f3d c6a7 25bc c56a b9bd
00000130: 0590 963c f60e ecbd e19d 9fbd d336 bcbd
00000140: 027f 863d 17b7 27bd be86 b7bd 8699 913c
00000150: 09b3 59bd 73c7 833d 6a0e 07bd 462f cdb6
00000160: 2625 bfbd 536b b9bd 84dd c9bd 896b 1a3d
00000170: 1015 a83d 2dfd dc3c fad4 46bd d373 06bc
00000180: d697 dcbd 284c 4bbd a190 00be b042 e2bc
00000190: ed63 e73d dee6 9fbb de54 b33d 4cf3 c7bd
000001a0: d91d de3d da1e a63c 5ce9 973d 797f b0bd
000001b0: 9f19 8d3d 0061 cabd fa55 213d 62ba 83bd
000001c0: f891 703b 0614 8abd a5c1 06be ee9d e0bd
000001d0: 83f4 14bd 9f6c ecbd e76a 9d3c 0413 c73c
000001e0: 0bc4 05bd 24df 04bd 2317 b6bd 0a5f 8fbb
000001f0: 3157 81bd 826a 82bd 830a 57be 67ba 01be
00000200: adce 1abd d21e 0bbc b228 32bc 902a 953c
00000210: 7d4c 9d3c 4402 1cbc 0fd7 c8ba d432 d0bd
00000220: 37ac 093b 0144 fe3d 7fe9 413d 01a4 4cbd
00000230: f3d7 2b39 965f 83bd c6e4 aebd dc3f 943d
00000240: d5ba a13c 310d a93d 34e7 99bd 4ece 5abd
00000250: 09ae 94bd 9671 133e 1a67 17bc 494e 383e
00000260: f292 6baa 61a7 1cbd efb7 aa3d f0f3 71bd
00000270: e9ae c73c 7c36 f13d 4ca7 f9bc 3610 d13d
00000280: 8bca 15bc 4557 cdbc ab79 63bd 0209 cabc
00000290: b25c 53bd a693 373e e1c9 afbd 6007 023d
000002a0: d4dd d13d 1595 5c3e 5ee7 6d3d 8c1c abb3
000002b0: 29b0 92bd d682 9bbd 3f89 4dbd 6627 bb3d
000002c0: 76b7 a4bc e6a0 193c 7da9 aa3d 2328 8e3d
000002d0: a73d 373d 413a c5bd 7bcd b8bc da06 52b4
000002e0: d302 ae38 1cb2 603d e711 e6bc 7fd6 b23c
000002f0: 9a42 d6bd f32d 513a 9238 073e f1d9 a53e
00000300: 8875 ebbd 0530 b93c d905 5b3d 6fc2 60bd
00000310: 9792 f93d 03dd 06be e99b 163e 40cb 8ebd
00000320: 484d ee3d 92a2 2f3d 9e51 8d3d 3323 3b3d
00000330: f68c eabc c3a2 d0bd c1bb f53c 0ab5 8b3d
00000340: bd65 98bd d56d eb3d 9ca9 59be 6d0f 5abe
00000350: 5573 b5bd a18f 2cbd 582b 79bd 6108 163e
00000360: 8df6 f13d 2092 dc3c be54 36bc 5e5e 0c3c
00000370: c72b 26bd 4640 803d 8989 b33d 7d41 fe3d
00000380: fae3 da3d 97ed 5dbd ebf4 8dbd c5ab a13d
00000390: 780f a9bd af4d 85bd f039 4cbc 81e2 ab3d
000003a0: 7c57 eebd b9b8 24bd 27e9 cc3d 81e8 17be
000003b0: a061 a9bd 1c07 1f3e 67b4 25be aaba 1a3e
000003c0: 957e 82bd 36e6 27bc 2302 e1bd 376e ebbd
000003d0: 9707 38be ba5b bebc c500 b83d 5eb3 9a3d
000003e0: ebe5 e4bd 7202 023d ea19 963c 5a12 b1bc
000003f0: c128 4ebe 11ed b3bd 341d e73c 9f03 f63d

tcn.network.0.net.0.bias f4 [32]
-0.17366433 -0.0852829 -0.106060915 0.044085007 0.034059294 -0.030050535 0.093091615 -0.12202331
-0.018212374 -0.06545429 -0.047646947 -0.08366435 0.054388724 -0.12231113 -0.026293037 -0.016858164
-0.01750824 0.059389785 -0.11352662 -0.119641185 0.00301184 0.027497154 -0.0335816 0.05510476
-0.12372221 -0.018289058 -0.0035577412 -0.010650976 0.03535202 -0.07491493 0.09597645 -0.06763565
00000000: 10d5 31be cda8 aebd 7736 d9bd 7b92 343d
00000010: c281 0b3d 8a2c f6bc d1a6 be3d 5be7 f9bd
00000020: 1e32 95bc e60c 86bd 7229 43bd 3758 abbd
00000030: b6c6 5e3d 427e fabd 7f64 d7bc 221a 8abc
00000040: 716d 8fbc b442 733d a580 e8bd 7006 f5bd
00000050: 4a62 453b b641 e13c dc8c 09bd 87b5 613d
00000060: 1262 fdbd efd2 95bc fe28 69bb 6e81 2ebc
00000070: 48cd 103d 006d 99bd 4d8f c43d 8f84 8abd

tcn.network.0.net.0.weight_g f4 [32, 1, 1]
0.5310402 0.57410246 0.54007226 0.5445714 0.47627422 0.48919964 0.6211716 0.50822514
0.5504732 0.5295814 0.49580273 0.5143695 0.61217004 0.5961289 0.49051678 0.59208137
0.66816056 0.5791992 0.57537746 0.58018714 0.5643187 0.5509726 0.63485444 0.58933556
0.4998715 0.7045452 0.6053969 0.49786487 0.5683438 0.5366919 0.4690834 0.7025631
00000000: 40f2 073f 61f8 123f 2d42 0a3f 0869 0b3f
00000010: 37da f33e 6078 fa3e 1a05 1f3f 0b1b 023f
00000020: d0eb 0c3f a692 073f dbd9 fd3e b8ad 033f
00000030: 2db7 1c3f e79b 183f 0425 fb3e a592 173f
00000040: 920c 2b3f 6646 143f f04b 133f 2587 143f
00000050: 3177 103f 8a0c 0d3f d285 223f b2de 163f
00000060: 28ef ff3e 135d 343f 4bfb 1a3f 25e8 fe3e
00000070: fb7e 113f a464 093f b32b f03e 2ddb 333f

tcn.network.0.net.0.weight_v f4 [32, 32, 2]
-8.179653e-05 -0.054768484 -0.07076859 -0.11265082 -0.010533267 0.032315027 -0.033361536 -0.040939856
0.014662546 0.11252848 0.022665527 -0.1008201 -0.089079306 -0.12583783 0.10704551 0.053411867
-0.030220289 0.12213873 -0.008107536 0.1384436 -0.06818958 -0.08536351 0.014859608 -0.13887888
0.0031753688 0.07130901 -0.01187408 0.0070904666 0.12805246 -0.05776759 0.051017966 0.17218174
0.10406721 0.02792956 0.10527866 0.119138494 -0.12749597 0.003922393 0.09453408 0.07210068
-0.019671112 0.12185756 0.12110403 -0.009987263 0.07467192 -0.09706043 -0.041937765 -0.039186057
-0.049991917 -0.05401977 -0.13140543 0.0717452 0.10377091 -0.10303233 0.11148692 0.03351915
-0.035089936 0.022621201 0.09824388 -0.009614073 0.060280997 0.092026755 0.066620335 0.059309743
-0.08682397 0.10438812 -0.098702304 -0.0111811375 0.04021027 0.061562303 -0.017359776 0.07789391
-0.04861573 0.12240349 0.02791982 0.06084809 0.016061235 0.047445133 -0.13855457 -0.081968
0.0933978 -0.083626375 0.017808221 -0.047289845 0.10914996 -0.037247397 -0.05103153 -0.14298734
0.054585103 -0.0043039797 0.12578343 0.06774307 0.09225159 0.105447486 0.0013143108 -0.06306655
0.1098342 0.1302997 -0.10428439 0.044704776 0.030630816 0.11374607 -0.10045538 -0.03380537
0.03630976 0.062185105 0.083064355 -0.080518745 -0.02966062 0.011393157 0.03351341 -0.114044294
-0.11374053 0.10348779 0.05453455 0.09156538 -0.020638611 0.05090134 0.05176966 0.039045982
0.015136302 -0.0019770593 -0.031235086 -0.0911526 0.07831621 -0.0695468 -0.08953332 -0.024059163
-0.029183127 -0.10483871 -0.053711466 0.061073627 -0.058291513 0.015831329 0.018719858 0.11698754
0.041498043 0.13422453 -0.047219425 0.10129084 0.08452475 0.046698283 0.074643016 0.06216173
-0.039729137 0.07432628 0.03748928 0.07480051 0.12421031 0.07438816 0.005994516 -0.050362527
0.007654204 0.117984965 -0.037056733 0.13522436 0.0107413735 0.029633326 0.024511639 -0.048621994
-0.06847526 0.11676584 0.12548885 0.11508581 0.072074436 0.062120423 -0.09462202 -0.034569982
0.112648435 0.038128845 0.0038769008 0.03264323 0.077013776 0.09060371 -0.09480626 -0.091665566
0.03197393 -0.047014818 -0.005525889 -0.09135939 -0.06782487 0.038540363 -0.092152365 0.03348823
0.08761765 0.038496133 -0.056886688 0.014690393 0.08896437 -0.12129082 -0.11365803 0.06966229
0.021451637 -0.06212841 -0.118582085 0.0159565 -0.08249873 -0.0033783827 0.006975888 0.0060195546
-0.071209654 -0.027760122 -0.03977475 -0.032147493 -0.10928639 -0.035597056 -0.042715527 -0.04439741
0.020459807 -0.06927576 0.0041485257 -0.047205716 -0.13047244 0.090674534 0.023822742 0.062931255
0.09542786 0.11769449 0.13088699 0.014742643 0.1266793 0.11883469 -0.056823723 0.12672032
0.13128886 0.047325753 -0.04063945 0.06484379 0.005954592 0.006143053 0.12293217 -0.027616331
-0.09030268 0.08338707 -0.011851663 0.006054546 -0.062037095 -0.06400499 -0.13409409 -0.034224443
0.050887756 0.023064524 0.049850486 0.091672726 -0.072173 0.063909866 0.11111812 -0.007575912
-0.0076573426 -0.06257329 0.10453625 -0.051309973 -0.008456715 0.10483983 -0.015757037 -0.08787181
00000000: 2d8a abb8 eb54 60bd 1fef 90bd 79b5 e6bd
00000010: b993 2cbc c35c 043d 1ba6 08bd 8db0 27bd
00000020: 2d3b 703c 5575 e63d 0ead b93c c57a cebd
00000030: 366f b6bd a2db 00be ad3a db3d 67c6 5a3d
00000040: 8a90 f7bc df23 fa3d 78d5 04bc 29c4 0d3e
00000050: fba6 8bbd 10d3 aebd b775 733c 4436 0ebe
00000060: d919 503b 750a 923d 808b 42bc 2557 e83b
00000070: 2f20 033e b59d 6cbd 37f8 503d 6950 303e
00000080: 3021 d53d 88cc e43c 579c d73d e2fe f33d
00000090: 4e8e 02be 6b87 803b 159b c13d 85a9 933d
000000a0: 5025 a1bc 7590 f93d 6405 f83d 9ea1 23bc
000000b0: 97ed 983d 9ec7 c6bd efc6 2bbd 8f81 20bd
000000c0: 53c4 4cbd d643 5dbd 258f 06be 26ef 923d
000000d0: d885 d43d 9d02 d3bd 4153 e43d 604b 093d
000000e0: 77ba 0fbd 1950 b93c 1634 c93d 5884 1dbc
000000f0: 35e9 763d 8678 bc3d 3e70 883d c6ee 723d
00000100: c4d0 b1bd 70c9 d53d 6f24 cabd 1731 37bc
00000110: 86b3 243d c128 7c3d 1736 8ebc d886 9f3d
00000120: 4a21 47bd aeae fa3d 1bb8 e43c d93b 793d
00000130: da92 833c d455 423d 40e1 0dbe d7de a7bd
00000140: 5947 bf3d 4e44 abbd 8ce2 913c ffb2 41bd
00000150: 048a df3d ba90 18bd 7006 51bd 466b 12be
00000160: a194 5f3d 6608 8dbb 5fcd 003e e1bc 8a3d
00000170: 67ee bc3d daf4 d73d f444 ac3a 0929 81bd
00000180: c1f0 e03d 496d 053e 0e93 d5bd 5b1c 373d
00000190: 7aed fa3c b3f3 e83d 8dbb cdbd 8077 0abd
000001a0: 8bb9 143d cfb5 7e3d a51d aa3d 03e7 a4bd
000001b0: d4fa f2bc 5daa 3a3c 5b45 093d 0e90 e9bd
000001c0: ccf0 e8bd 68f1 d33d 9f5f 5f3d a186 bb3d
000001d0: 4e12 a9bc ec7d 503d 6c0c 543d aeee 1f3d
000001e0: 41fe 773c 8d91 01bb b9e0 ffbc 37ae babd
000001f0: 4064 a03d 8d6e 8ebd 3f5d b7bd b917 c5bc
00000200: 7411 efbc adb5 d6bd 8e00 5cbd 5728 7a3d
00000210: 15c3 6ebd b4b0 813c 635a 993c 2a97 ef3d
00000220: daf9 293d 2872 093e 2869 41bd 9271 cf3d
00000230: 501b ad3d b346 3f3d 70de 983d 4c9d 7e3d
00000240: 05bb 22bd 6038 983d 5c8e 193d 0331 993d
00000250: fa61 fe3d d258 983d a56d c43b f048 4ebd
00000260: 1ed0 fa3b 1aa2 f13d cdc8 17bd 4178 0a3e
00000270: 96fc 2f3c 97c1 f23c a2cc c83c db27 47bd
00000280: c23c 8cbd ee22 ef3d 2680 003e 1cb2 eb3d
00000290: c39b 933d fc71 7e3d 31c9 c1bd 4199 0dbd
000002a0: 39b4 e63d fe2c 1c3d 9a13 7e3b e8b4 053d
000002b0: 66b9 9d3d 708e b93d c929 c2bd 28bb bbbd
000002c0: 18f7 023d 9c92 40bd 8412 b5bb a21a bbbd
000002d0: c4e7 8abd 80dc 1d3d 61ba bcbd f42a 093d
000002e0: e270 b33d 1fae 1d3d 0402 69bd f9af 703c
000002f0: f432 b63d 5267 f8bd 8bc5 e8bd 1aab 8e3d
00000300: 58bb af3c 5c7a 7ebd 2adb f2bd 35b7 823c
00000310: 18f5 a8bd db67 5dbb fd95 e43b af3f c53b
00000320: 5ed6 91bd 3269 e3bc d9ea 22bd 17ad 03bd
00000330: 8bd1 dfbd 38ce 11bd 7af6 2ebd 0fda 35bd
00000340: 539b a73c 73e0 8dbd 5bf0 873b c85a 41bd
00000350: 919a 05be 92b3 b93d e927 c33c 1ae2 803d
00000360: af6f c33d cf09 f13d 3d07 063e 208b 713c
00000370: 38b8 013e 9a5f f33d febf 68bd f9c2 013e
00000380: 9670 063e a6d8 413d 8d75 26bd d2cc 843d
00000390: bd1e c33b aa4b c93b ddc3 fb3d a53b e2bc
000003a0: 9df0 b8bd d7c6 aa3d 7a2d 42bc 3765 c63b
000003b0: 9c1a 7ebd 0c15 83bd f64f 09be ee2e 0cbd
000003c0: ae6f 503d d0f1 bc3c 0630 4c3d e9be bb3d
000003d0: 70cf 93bd 2de3 823d e691 e33d 5b3f f8bb
000003e0: 72ea fabb 6d26 80bd 1a17 d63d 682a 52bd
000003f0: 098e 0abc 44b6 d63d e714 81bc 23f6 b3bd

tcn.network.0.net.4.bias f4 [32]
0.055498052 0.048047367 -0.13857462 -0.03180349 0.099369034 0.09253031 0.0047817617 0.07633628
0.052649166 -0.094012365 0.04132284 0.023300905 -0.0031035542 -0.039938997 -0.10127413 0.05137078
-0.22485784 -0.06953484 -0.19259708 0.07837926 -0.096288726 0.015948763 -0.14190778 -0.14859182
-0.12011344 -0.09557646 -0.10277287 -0.01899818 -0.106824115 -0.040788922 -0.06735578 -0.14640528
00000000: ed51 633d 51cd 443d 81e6 0dbe 6044 02bd
00000010: fe81 cb3d 8880 bd3d 53b0 9c3b 3256 9c3d
00000020: a7a6 573d 8e89 c0bd 2342 293d 8ae1 be3c
00000030: 0065 4bbb 1397 23bd d068 cfbd 2b6a 523d
00000040: 2241 66be 4868 8ebd 2b38 45be 4e85 a03d
00000050: 0633 c5bd fba6 823c 4650 11be 7428 18be
00000060: 09fe f5bd 97bd c3bd 957a d2bd 12a2 9bbc
00000070: 9ac6 dabd 4912 27bd d4f1 89bd 44eb 15be

tcn.network.0.net.4.weight_g f4 [32, 1, 1]
0.6741984 0.5666047 0.62441826 0.5062434 0.6062261 0.45239377 0.4749546 0.67779183
0.53827524 0.56186 0.6191515 0.5582789 0.52126235 0.4749156 0.48694915 0.5522694
0.58302945 0.54991215 0.51121926 0.5156177 0.5648036 0.53028214 0.59973806 0.5952523
0.5801885 0.6044967 0.5000835 0.49828142 0.551725 0.55192894 0.6029818 0.5880873
00000000: 4498 2c3f 010d 113f e0d9 1f3f 2b99 013f
00000010: a231 1b3f 28a0 e73e 402d f33e c483 2d3f
00000020: 68cc 093f 0fd6 0f3f b680 1e3f 5eeb 0e3f
00000030: 7371 053f 2328 f33e 6651 f93e 8761 0d3f
00000040: 6b41 153f 0bc7 0c3f 44df 023f 86ff 033f
00000050: f896 103f 92c0 073f 6f88 193f 7462 183f
00000060: 3c87 143f 4cc0 1a3f 7905 003f be1e ff3e
00000070: d93d 0d3f 374b 0d3f 045d 1a3f e48c 163f

tcn.network.0.net.4.weight_v f4 [32, 32, 2]
-0.06236891 -0.058923047 0.03413589 0.037494708 -0.004331393 0.058146402 0.023172978 -0.0016347278
-0.06599373 -0.09948595 -0.0002251792 0.032377735 0.0068608085 -0.20188706 7.280063e-05 -0.06715927
-0.025949396 -0.023934964 0.118737146 -0.03197202 0.039845508 -0.046667643 0.012681271 -0.025065042
0.001012319 -0.06473565 -0.021313544 0.0067922203 -0.026108686 -0.08062196 -0.0074403076 -0.030666282
0.030681603 0.036921386 -0.03779536 -0.039641164 -0.12667058 -0.13303414 -0.0018372145 -0.05895382
-0.047958557 -0.06785083 -0.036640745 -0.114188835 0.06603346 0.04971988 0.03665873 -0.15007754
-0.021372877 -0.0047472804 0.12482954 0.1271422 0.17759748 0.041930404 0.12000477 -0.1532396
0.049647707 0.053392105 0.13192117 -0.09008534 0.21116643 0.052286 -0.07417603 -0.064970344
-0.12934367 -0.013742755 0.029506011 -6.895101e-05 -0.045734063 -0.08502575 -0.0036597075 0.09108102
-0.041831598 0.06989361 -0.010110801 -0.09053568 0.01837922 -0.11526291 -0.07793785 -0.091901444
0.065671936 -0.040946092 -0.08961247 0.017773401 -0.053149257 0.06434526 -0.03297273 -6.1149794e-06
-0.093332574 -0.090536736 -0.09856704 0.03770021 0.08207142 0.026976192 -0.048542954 -0.008206326
-0.10771148 -0.049633175 -0.12555172 -0.02761969 0.11298356 -0.0048798164 0.087564215 -0.09763202
0.10845537 0.020278383 0.07417557 -0.086180635 0.068896525 -0.098817825 0.039388634 -0.06432034
0.0036708098 -0.067421004 -0.13159807 -0.10967623 -0.036365997 -0.11544155 0.019216014 0.02430106
-0.032657664 -0.032439366 -0.08891132 -0.004375343 -0.063154586 -0.06367971 -0.21000104 -0.12668763
-0.037794758 -0.008491235 -0.01087396 0.018208772 0.019201512 -0.009522025 -0.0015322882 -0.10165945
0.002100719 0.124153145 0.04734182 -0.049961094 0.00016388278 -0.06414716 -0.08539729 0.07238743
0.019742409 0.08254469 -0.075148016 -0.053419404 -0.07259757 0.14398798 -0.00924089 0.17998613
-2.0923175e-13 -0.038245562 0.08335864 -0.059070528 0.024375396 0.1177797 -0.030475281 0.1020817
-0.009142528 -0.025066027 -0.055535953 -0.024662498 -0.051602073 0.17927417 -0.08583427 0.031745315
0.102473885 0.21541245 0.058081977 -7.968001e-08 -0.07162506 -0.07593314 -0.050179716 0.09138374
-0.020107012 0.00937674 0.083331086 0.06941249 0.04473653 -0.09630252 -0.022558918 -1.9560267e-07
8.2974926e-05 0.05485736 -0.028084708 0.021830795 -0.10461922 0.0007979564 0.13205174 0.3239284
-0.11497027 0.022605905 0.053472374 -0.054872926 0.12186163 -0.13170247 0.14707913 -0.069723606
0.11635834 0.04287965 0.06900333 0.045687865 -0.028631669 -0.10187294 0.029996755 0.0682164
-0.0744128 0.11495558 -0.21256107 -0.21294947 -0.088598885 -0.042129163 -0.06083235 0.14651634
0.11814604 0.026925147 -0.011128603 0.008567421 -0.040569093 0.06262259 0.08766467 0.12414835
0.10688014 -0.05418166 -0.0693148 0.078940906 -0.082549036 -0.065089576 -0.012464985 0.083928116
-0.1163778 -0.040215228 0.10005408 -0.14834787 -0.082705736 0.15530056 -0.161821 0.15110269
-0.063718 -0.010247758 -0.10986736 -0.11495631 -0.17971645 -0.023237098 0.08984522 0.07553743
-0.11176666 0.031740613 0.018322904 -0.021615196 -0.20132734 -0.08785451 0.028212167 0.120124094
00000000: 8b76 7fbd 4b59 71bd 13d2 0b3d 0d94 193d
00000010: 5cee 8dbb ec2a 6e3d 42d5 bd3c 5d44 d6ba
00000020: b927 87bd 4abf cbbd 151e 6cb9 849e 043d
00000030: a2d0 e03b 7bbb 4ebe 8aac 9838 cd8a 89bd
00000040: d493 d4bc 4213 c4bc 762c f33d 18f5 02bd
00000050: 0b35 233d 9226 3fbd 1bc5 4f3c 3455 cdbc
00000060: caaf 843a 2094 84bd be99 aebc 4691 de3b
00000070: e2e1 d5bc 201d a5bd d3cd f3bb db37 fbbc
00000080: fc57 fb3c e13a 173d 4fcf 1abd c65e 22bd
00000090: efb5 01be 1a3a 08be b0ce f0ba 9079 71bd
000000a0: 3170 44bd 60f5 8abd 9b14 16bd d6db e9bd
000000b0: 8d3c 873d 13a7 4b3d 7727 163d edad 19be
000000c0: 2c16 afbc 138f 9bbb a1a6 ff3d 9131 023e
000000d0: 1ddc 353e 37bf 2b3d 10c5 f53d d7ea 1cbe
000000e0: 655b 4b3d aeb1 5a3d 5816 073e aa7e b8bd
000000f0: 033c 583e d829 563d 9ae9 97bd 2c0f 85bd
00000100: ab72 04be 4b29 61bc 97b6 f13c cb99 90b8
00000110: a453 3bbd fb21 aebd b4d7 6fbb b088 ba3d
00000120: 9c57 2bbd 6224 8f3d c6a7 25bc c56a b9bd
00000130: 0590 963c f60e ecbd e19d 9fbd d336 bcbd
00000140: 027f 863d 17b7 27bd be86 b7bd 8699 913c
00000150: 09b3 59bd 73c7 833d 6a0e 07bd 462f cdb6
00000160: 2625 bfbd 536b b9bd 84dd c9bd 896b 1a3d
00000170: 1015 a83d 2dfd dc3c fad4 46bd d373 06bc
00000180: d697 dcbd 284c 4bbd a190 00be b042 e2bc
00000190: ed63 e73d dee6 9fbb de54 b33d 4cf3 c7bd
000001a0: d91d de3d da1e a63c 5ce9 973d 797f b0bd
000001b0: 9f19 8d3d 0061 cabd fa55 213d 62ba 83bd
000001c0: f891 703b 0614 8abd a5c1 06be ee9d e0bd
000001d0: 83f4 14bd 9f6c ecbd e76a 9d3c 0413 c73c
000001e0: 0bc4 05bd 24df 04bd 2317 b6bd 0a5f 8fbb
000001f0: 3157 81bd 826a 82bd 830a 57be 67ba 01be
00000200: adce 1abd d21e 0bbc b228 32bc 902a 953c
00000210: 7d4c 9d3c 4402 1cbc 0fd7 c8ba d432 d0bd
00000220: 37ac 093b 0144 fe3d 7fe9 413d 01a4 4cbd
00000230: f3d7 2b39 965f 83bd c6e4 aebd dc3f 943d
00000240: d5ba a13c 310d a93d 34e7 99bd 4ece 5abd
00000250: 09ae 94bd 9671 133e 1a67 17bc 494e 383e
00000260: f292 6baa 61a7 1cbd efb7 aa3d f0f3 71bd
00000270: e9ae c73c 7c36 f13d 4ca7 f9bc 3610 d13d
00000280: 8bca 15bc 4557 cdbc ab79 63bd 0209 cabc
00000290: b25c 53bd a693 373e e1c9 afbd 6007 023d
000002a0: d4dd d13d 1595 5c3e 5ee7 6d3d 8c1c abb3
000002b0: 29b0 92bd d682 9bbd 3f89 4dbd 6627 bb3d
000002c0: 76b7 a4bc e6a0 193c 7da9 aa3d 2328 8e3d
000002d0: a73d 373d 413a c5bd 7bcd b8bc da06 52b4
000002e0: d302 ae38 1cb2 603d e711 e6bc 7fd6 b23c
000002f0: 9a42 d6bd f32d 513a 9238 073e f1d9 a53e
00000300: 8875 ebbd 0530 b93c d905 5b3d 6fc2 60bd
00000310: 9792 f93d 03dd 06be e99b 163e 40cb 8ebd
00000320: 484d ee3d 92a2 2f3d 9e51 8d3d 3323 3b3d
00000330: f68c eabc c3a2 d0bd c1bb f53c 0ab5 8b3d
00000340: bd65 98bd d56d eb3d 9ca9 59be 6d0f 5abe
00000350: 5573 b5bd a18f 2cbd 582b 79bd 6108 163e
00000360: 8df6 f13d 2092 dc3c be54 36bc 5e5e 0c3c
00000370: c72b 26bd 4640 803d 8989 b33d 7d41 fe3d
00000380: fae3 da3d 97ed 5dbd ebf4 8dbd c5ab a13d
00000390: 780f a9bd af4d 85bd f039 4cbc 81e2 ab3d
000003a0: 7c57 eebd b9b8 24bd 27e9 cc3d 81e8 17be
000003b0: a061 a9bd 1c07 1f3e 67b4 25be aaba 1a3e
000003c0: 957e 82bd 36e6 27bc 2302 e1bd 376e ebbd
000003d0: 9707 38be ba5b bebc c500 b83d 5eb3 9a3d
000003e0: ebe5 e4bd 7202 023d ea19 963c 5a12 b1bc
000003f0: c128 4ebe 11ed b3bd 341d e73c 9f03 f63d

tcn.network.0.downsample.weight f4 [32, 32, 1]
-0.094070986 0.13215162 -0.10690232 0.08810201 0.09386888 0.041345865 -0.026711667 0.059095643
-0.09376186 -0.15778829 -0.017158201 0.037689466 0.1287782 -0.21331394 -0.09388043 -0.14675729
0.10941846 0.027791234 -0.005026052 0.06047287 -0.13854544 0.061847825 0.037842665 0.037222043
-0.023258422 -0.08070818 -0.16959801 0.11435946 -0.13184045 -0.097419634 0.12847994 0.20954683
0.15979697 0.15578163 -0.016252687 -0.10046214 -0.0041233255 -0.061945893 -0.18226188 0.014304786
-0.09847617 0.055445217 0.07338485 -0.16750298 -0.080783635 0.119720675 -0.117587 0.061293792
-0.04431356 0.09079771 -0.04172402 0.07614438 -0.07061836 -0.1127323 0.082992196 -0.0968587
-0.045439802 -0.21727121 -0.21748886 -0.111622676 0.013183377 0.1439611 -0.010749429 -0.034517296
0.092793256 -0.0050555994 0.12448588 -0.15454465 -0.06483759 -0.2033271 -0.048893783 -0.15552315
0.024792269 0.0321101 -0.0920081 -0.22830936 0.074337356 0.2032395 0.03628546 0.21360807
0.013289051 0.0082560815 -0.10984595 0.026400266 0.08786469 0.17308457 -0.027012913 -0.18677384
0.08984148 -0.047855366 0.107716784 -0.06469405 0.049905382 0.13266978 -0.15033804 0.01113129
-0.10675125 0.20239986 0.01873031 0.0130537655 -0.027150305 -0.13277765 -0.17775346 -0.3648735
0.298928 0.12545219 0.119893976 0.038608123 -0.19383967 0.057946566 -0.08198399 0.22802012
0.1463229 0.0421541 -0.034051385 -0.1300593 0.40768912 0.0013081284 -0.07395878 -0.36459646
-0.08871046 -0.3327313 -0.01734958 -0.14799017 0.021136627 0.18663508 0.13199775 -0.1855136
0.026988225 0.10395031 0.15346476 0.07074253 0.121603616 -0.013913011 0.07587642 -0.059963338
-0.1225708 -0.16315879 -0.11082029 0.061363388 -0.13372989 0.16567963 -0.14094074 0.11755477
-0.13490759 0.089561224 0.049086705 0.1585644 0.0519136 -0.08478877 -0.16407858 0.07207195
0.020955883 -0.07541118 -0.063315965 -0.15914622 0.17053561 0.12040725 0.21128073 0.01186234
0.15535241 0.055754308 -0.10234924 -0.056053 -0.06027861 0.08152131 -0.043972086 -0.066323355
0.020633893 0.11479657 0.16754547 0.15003404 0.059629507 0.09350375 -0.15053885 0.048825875
0.0059229457 -0.006678128 -0.047226995 0.010310602 -0.070284605 -0.23408967 -0.20769306 0.07701729
-0.1556437 -0.077484585 -0.21740799 -0.026157796 -0.0657074 -0.02564038 0.15251118 0.09085737
0.00607396 0.008563246 0.14248866 -0.12853657 -0.040057916 -0.19491261 -0.08648476 -0.22795396
-0.14450365 0.10588085 0.17827705 -0.08533678 -0.14031605 -0.122571684 0.06858318 0.09970794
0.018840473 -0.09362881 -0.13295002 -0.0021743658 -0.107802376 -0.19550811 -0.14395969 -0.085781954
-0.20990896 -0.22242166 0.065326676 -0.11725598 0.08982007 0.07914394 0.11398067 0.0011226793
0.10159925 0.024518771 -0.09781751 0.14259519 -0.084589645 0.0011732879 -0.1760699 -0.0817543
-0.071126565 -0.08784031 0.08466234 -0.08710078 0.17553233 -0.0040358473 0.16526605 0.19187273
0.17817412 0.09479272 0.044311576 0.07194801 0.11494475 -0.0853081 0.008255087 -0.0786201
-0.03172724 -0.13348573 -0.14044876 0.09969929 0.17281169 0.0525215 0.09736644 -0.11633534
00000000: 4aa8 c0bd c152 073e 9bef dabd d46e b43d
00000010: 543e c03d 485a 293d 6dd2 dabc 460e 723d
00000020: 3806 c0bd 4193 21be 5b8f 8cbc 4560 1a3d
00000030: 6fde 033e f86e 5abe 6244 c0bd 8b47 16be
00000040: c916 e03d 71aa e33c 94b1 a4bb 66b2 773d
00000050: dbde 0dbe 2554 7d3d e900 1b3d 2476 183d
00000060: 7288 bebc 554a a5bd 1aab 2dbe 4b35 ea3d
00000070: 2f01 07be f283 c7bd 3f90 033e 7293 563e
00000080: d1a1 233e 3885 1f3e 5b24 85bc 18bf cdbd
00000090: f61c 87bb faba 7dbd dca2 3abe 9f5e 6a3c
000000a0: e0ad c9bd 861a 633d cc4a 963d e785 2bbe
000000b0: e471 a5bd 1d30 f53d 74d1 f0bd 330f 7b3d
000000c0: 2382 35bd 26f4 b93d cee6 2abd 96f1 9b3d
000000d0: 5ca0 90bd 31e0 e6bd d0f7 a93d db5d c6bd
000000e0: 161f 3abd 587c 5ebe 66b5 5ebe 6e9a e4bd
000000f0: 17ff 573c 8a6a 133e 601e 30bc 0262 0dbd
00000100: 640a be3d 71a9 a5bb 74f2 fe3d f440 1ebe
00000110: 92c9 84bd fb34 50be d944 48bd 7641 1fbe
00000120: 2819 cb3c e185 033d be6e bcbd eec9 69be
00000130: 2f3e 983d 041e 503e 10a0 143d 13bc 5a3e
00000140: 52ba 593c 8444 073c eaf6 e0bd 5f45 d83c
00000150: 67f2 b33d 153d 313e 2f4a ddbc a441 3fbe
00000160: cffe b73d fd03 44bd 9e9a dc3d 507e 84bd
00000170: 9669 4c3d 96da 073e 37f2 19be 0460 363c
00000180: 66a0 dabd e941 4f3e 4f70 993c 76df 553c
00000190: 516a debc ddf6 07be 0105 36be b3d0 babe
000001a0: 170d 993e 8a76 003e f98a f53d 8d23 1e3d
000001b0: e87d 46be 6159 6d3d 39e7 a7bd 1b7e 693e
000001c0: acd5 153e c7a9 2c3d 7779 0bbd 442e 05be
000001d0: a1bc d03e 8175 ab3a b377 97bd 63ac babe
000001e0: d4ad b5bd c25b aabe b520 8ebc bc8a 17be
000001f0: b826 ad3c 441d 3f3e 6b2a 073e 47f7 3dbe
00000200: 6916 dd3c e6e3 d43d de25 1d3e 76e1 903d
00000210: 510b f93d 66f3 63bc 1965 9b3d 1e9c 75bd
00000220: 6606 fbbd 1913 27be c0f5 e2bd 2d58 7b3d
00000230: 7df0 08be eca7 293e c552 10be 8ec0 f03d
00000240: 3725 0abe e06b b73d 240f 493d b55e 223e
00000250: 5ba3 543d bca5 adbd 3704 28be 759a 933d
00000260: acab ab3c 2d71 9abd cdab 81bd 3af7 22be
00000270: e3a0 2e3e 1498 f63d fa59 583e 435a 423c
00000280: b414 1f3e a15e 643d 7a9c d1bd d597 65bd
00000290: b4e6 76bd a5f4 a63d 131c 34bd 8ad4 87bd
000002a0: 6908 a93c 771a eb3d 0a91 2b3e 86a2 193e
000002b0: 123e 743d e57e bf3d db26 1abe a4fd 473d
000002c0: 4515 c23b 33d4 dabb 1871 41bd cded 283c
000002d0: 60f1 8fbd 34b5 6fbe 7dad 54be 3ebb 9d3d
000002e0: 1061 1fbe 3db0 9ebd 33a0 5ebe e048 d6bc
000002f0: 9a91 86bd c60b d2bc e42b 1c3e 6e13 ba3d
00000300: 1208 c73b db4c 0c3c 8ce8 113e 179f 03be
00000310: c513 24bd 2c97 47be ec1e b1bd c36c 69be
00000320: c4f8 13be 0fd8 d83d 428e 363e 0dc5 aebd
00000330: 03af 0fbe dd06 fbbd 5775 8c3d ad33 cc3d
00000340: 5657 9a3c 76c0 bfbd 0d24 08be ce7f 0ebb
00000350: 7ec7 dcbd 4733 48be 2b6a 13be 73ae afbd
00000360: 60f2 56be 81c2 63be fec9 853d e723 f0bd
00000370: 96f3 b73d 3816 a23d b36e e93d de26 933a
00000380: 4513 d03d 97db c83c 8c54 c8bd 7904 123e
00000390: 563d adbd 02c9 993a ab4b 34be cc6e a7bd
000003a0: ceaa 91bd 9fe5 b3bd 7363 ad3d e561 b2bd
000003b0: bfbe 333e 243f 84bb 813b 293e 497a 443e
000003c0: 4773 363e b022 c23d 0e80 353d 7a59 933d
000003d0: 2768 eb3d 03b6 aebd 5840 073c 9303 a1bd
000003e0: 6cf4 01bd 7cb0 08be cdd1 0fbe 242f cc3d
000003f0: 8cf5 303e c920 573d 0e68 c73d 3941 eebd

tcn.network.0.downsample.bias f4 [32]
0.123479046 0.045492265 0.08440317 0.080185965 0.11141113 0.13304782 -0.05464715 0.077347346
0.17083341 -0.006256893 -0.16470034 -0.070808776 0.06757959 0.086235724 -0.042124618 0.1520305
-0.023842776 -0.060721844 0.08329321 -0.07717055 -0.039305687 0.13752006 0.016441938 0.151284
-0.07623225 -0.038500275 0.13803306 0.061449014 0.10179963 0.09217421 0.038253292 -0.03661567
00000000: 95e2 fc3d 1956 3a3d 92db ac3d 8a38 a43d
00000010: 852b e43d b03d 083e b1d5 5fbd 4968 9e3d
00000020: f4ee 2e3e 9f06 cdbb 35a7 28be 3104 91bd
00000030: 2b67 8a3d 5b9c b03d dd8a 2cbd e2ad 1b3e
00000040: ed51 c3bc 78b7 78bd a195 aa3d 980b 9ebd
00000050: 00ff 20bd 0fd2 0c3e 3eb1 863c 31ea 1a3e
00000060: a71f 9cbd 77b2 1dbd 8a58 0d3e f6b1 7b3d
00000070: 537c d03d d5c5 bc3d 7caf 1c3d 50fa 15bd

tcn.network.1.conv1.bias f4 [32]
-0.0050431634 0.11133983 -0.07091842 -0.14083327 -0.078851864 0.08956485 -0.09742392 -0.008241672
-0.016889023 0.05084644 0.118026435 0.07644745 -0.065359406 0.033890594 -0.06021705 0.11458059
-0.1098 0.082631394 -0.009026855 -0.050071914 -0.023673872 -0.02128832 0.09903702 0.03744668
0.10257967 0.002241461 0.0067979763 0.0005689637 0.07789701 0.074804984 -0.059510604 0.055898514
00000000: 1f41 a5bb 2306 e43d ad3d 91bd 9936 10be
00000010: 167d a1bd c76d b73d 3186 c7bd 1408 07bc
00000020: d95a 8abc 5b44 503d d8b7 f13d 7b90 9c3d
00000030: 27db 85bd ddd0 0a3d 27a6 76bd 3aa9 ea3d
00000040: d3de e0bd a63a a93d 60e5 13bc 3518 4dbd
00000050: b5ef c1bc d864 aebc ecd3 ca3d b161 193d
00000060: 4a15 d23d 7ae5 123b 8fc1 de3b 8226 153a
00000070: 7888 9f3d 5b33 993d 64c1 73bd d7f5 643d

tcn.network.1.conv1.weight_g f4 [32, 1, 1]
0.5898581 0.7181921 0.49656206 0.6429698 0.52666795 0.6776011 0.5797041 0.5667622
0.53232783 0.58569044 0.6695604 0.57514447 0.6729267 0.585481 0.48272437 0.6186513
0.6133192 0.7534009 0.4975774 0.56449085 0.58354884 0.8672254 0.5682104 0.53023946
0.6724264 0.62879366 0.56942874 0.69336057 0.557382 0.6453582 0.5635944 0.5639329
00000000: f100 173f 70db 373f 623d fe3e ab99 243f
00000010: b6d3 063f 4477 2d3f 7d67 143f 5417 113f
00000020: a346 083f cfef 153f 4f68 2b3f ab3c 133f
00000030: ed44 2c3f 15e2 153f a627 f73e ee5f 1e3f
00000040: 7d02 1d3f e2de 403f 77c2 fe3e 7982 103f
00000050: 7563 153f 7c02 5e3f 3d76 113f c6bd 073f
00000060: 2324 2c3f 9ff8 203f 15c6 113f 1480 313f
00000070: 96b0 0e3f 3236 253f b947 103f e85d 103f

tcn.network.1.conv1.weight_v f4 [32, 32, 2]
0.035938557 -0.0461901 -0.06692819 0.015743036 -0.00021610626 -0.036958415 0.06674389 -0.01879367
0.060358107 0.08895734 0.11338882 -0.035668902 -0.04868781 0.033248045 -0.031215662 0.079732046
0.10078308 0.0798441 -0.08747086 -0.035424188 -0.076460205 -0.027476473 0.0036664947 -0.020051599
0.30933225 -0.054347366 0.10369386 -0.0821711 0.12942137 -0.053940244 -0.039169453 -0.01235248
-0.098360114 -0.24354197 0.05106063 0.05234361 -0.1074745 0.0477271 -0.06946543 -0.078411214
-0.028674703 0.0018434576 -0.033298735 -0.05814172 0.042062577 -0.059016507 0.02384169 -0.12314381
0.24752527 -0.0042820694 -0.0039971257 0.10177994 0.16146776 -0.12814018 0.03647937 0.014350815
-0.014724241 0.047918994 -0.018895281 -0.03536484 0.06507849 -0.14375192 -0.0869298 0.010068053
0.02097572 -0.06168604 -0.0810007 -0.0016649007 -0.014727613 -0.0577707 -0.09489066 -0.18455568
0.080122285 0.12597404 -0.035468534 -0.036807317 -0.07581455 -0.037311185 -0.15881455 -0.076496564
-0.08644847 -0.059444014 -0.024718123 -0.11193967 -0.15611237 0.040774252 -0.061740138 -0.09263061
0.18013331 -0.055544313 -0.01006986 -0.06184986 0.15398292 -0.16290238 0.036425564 0.035424683
-0.098211624 -0.15645829 -0.06754384 0.06846359 -0.005124916 -0.011952977 -0.076387934 -0.0142618725
0.0430181 0.07309251 -0.011197666 0.1047438 0.105185464 -0.0644728 0.20622729 0.04587131
0.15171684 -0.092193246 -0.017390104 0.015420179 0.10781833 -0.10582605 0.08121649 -0.11200376
0.19420502 -0.06977131 0.06446248 -0.03172143 0.1518945 -0.05622669 -0.015863378 0.12697569
0.011466846 0.0018904983 -0.03353358 0.04102719 -0.14240937 -0.16980188 -0.01448189 0.096433386
-0.07745679 0.10602798 0.010140262 -0.015043102 -0.044350833 -0.040249787 -0.04900124 -0.12462435
0.01724633 0.034572657 0.08844529 -0.13215403 0.15843558 0.13139571 -0.04688612 -0.060964897
-0.11132866 -0.14386222 0.06408465 -0.10637332 -0.08563394 0.031247837 0.07854795 -0.07351935
-0.01775287 -0.060050633 0.039363198 -0.03723749 0.011733953 0.116482906 0.07530217 0.08591234
-0.10922769 0.08388245 0.0068040495 -0.021126982 -0.1393299 -0.11812357 -0.23675205 -0.13633122
-0.0035328765 0.07661961 -0.11198237 -0.032244854 -0.17290737 -0.07759574 -0.13232161 -0.053461514
-0.13154839 -0.09653183 0.14104906 -0.10385859 0.04625521 -0.081477046 -0.002219277 -0.07766091
-0.07003314 -0.17132677 0.016882118 0.16633101 -0.09477856 0.032026883 -0.08565897 0.17667001
-0.17242531 0.123711094 0.008222065 0.06528891 -0.14318772 0.034134746 -0.14891903 -0.07255607
0.022387585 -0.017752249 -0.028137185 0.03893633 -0.06374308 0.20376387 -0.15805613 -0.090848364
0.06644943 -0.015107512 -0.017540349 -0.08650261 -0.07766858 -0.086145565 -0.02540573 -0.039771482
-0.07319244 0.03839972 -0.09936495 -0.010109326 0.0036588633 0.07346366 0.023784151 -0.04583366
-0.119020574 -0.010626377 -0.09891671 0.078718126 -0.07458578 -0.06238591 -0.19822687 -0.07223142
-0.03306965 0.044754043 -0.026824594 0.07713179 0.020645164 0.076120906 -0.06194771 -0.02762472
-0.21761246 -0.114425495 0.02721205 -0.081873834 0.0874948 0.0782174 -0.13169047 0.13727169
00000000: 4f34 133d d531 3dbd a611 89bd 8af7 803c
00000010: 959a 62b9 b561 17bd 05b1 883d 2ff5 99bc
00000020: 103a 773d 442f b63d 6638 e83d 8e19 12bd
00000030: de6c 47bd 1a2f 083d fdb7 ffbc 8e4a a33d
00000040: 5c67 ce3d 4e85 a33d ec23 b3bd f418 11bd
00000050: 2b97 9cbd 5716 e1bc 9349 703b 4043 a4bc
00000060: cc60 9e3e 589b 5ebd 725d d43d 5249 a8bd
00000070: 0987 043e 72f0 5cbd 2670 20bd 0e62 4abc
00000080: 0771 c9bd 1163 79be f324 513d 4166 563d
00000090: 971b dcbd 7e7d 433d e443 8ebd 0f96 a0bd
000000a0: 36e7 eabc 2ca0 f13a 4164 08bd 0326 6ebd
000000b0: cf49 2c3d 4bbb 71bd a64f c33c d232 fcbd
000000c0: 4477 7d3e 9a50 8cbb 52fa 82bb 0072 d03d
000000d0: ce57 253e 2e37 03be 646b 153d ae1f 6b3c
000000e0: f13d 71bc b546 443d 47ca 9abc b9da 10bd
000000f0: df47 853d b433 13be 4008 b2bd 7af4 243c
00000100: 46d5 ab3c 80aa 7cbd b2e3 a5bd cc38 daba
00000110: 164c 71bc f8a0 6cbd 0956 c2bd 2afc 3cbe
00000120: 2717 a43d 57ff 003e 7447 11bd 45c3 16bd
00000130: a944 9bbd 9dd3 18bd 48a0 22be 3baa 9cbd
00000140: e50b b1bd 917b 73bd a97d cabc a040 e5bd
00000150: ecdb 1fbe e702 273d 3ae3 7cbd 1eb5 bdbd
00000160: de74 383e 6f82 63bd 0efc 24bc 4756 7dbd
00000170: b3ad 1d3e e2cf 26be f932 153d 7919 113d
00000180: 2d23 c9bd 9a36 20be 6d54 8abd a436 8c3d
00000190: e9ee a7bb 6bd6 43bc 4771 9cbd a1aa 69bc
000001a0: bf33 303d 87b1 953d 6a76 37bc eb83 d63d
000001b0: 7a6b d73d 510a 84bd 3f2d 533e 8ee3 3b3d
000001c0: a95b 1b3e d0cf bcbd b175 8ebc eba4 7c3c
000001d0: dbcf dc3d 54bb d8bd d554 a63d 3a62 e5bd
000001e0: aedd 463e 43e4 8ebd e804 843d 55ee 01bd
000001f0: 3b8a 1b3e f54d 66bd eaf3 81bc ea05 023e
00000200: 70df 3b3c 99ca f73a 825a 09bd 200c 283d
00000210: c3d3 11be 8be0 2dbe 7345 6dbc de7e c53d
00000220: aaa1 9ebd 3325 d93d 5723 263c 5877 76bc
00000230: 38a9 35bd f6dc 24bd 86b5 48bd 0d3b ffbd
00000240: 2d48 8d3c 0f9c 0d3d ce22 b53d 6353 07be
00000250: f03c 223e 998c 063e a90b 40bd 54b6 79bd
00000260: 4800 e4bd 9e50 13be d03e 833d 41da d9bd
00000270: d960 afbd 77fb ff3c bfdd a03d 5091 96bd
00000280: 786e 91bc a7f7 75bd 4e3b 213d 5786 18bd
00000290: c43f 403c 978e ee3d 0638 9a3d cff2 af3d
000002a0: c4b2 dfbd 90ca ab3d 81f4 de3b 7e12 adbc
000002b0: 7fac 0ebe c5ea f1bd 216f 72be 699a 0bbe
000002c0: d587 67bb beea 9c3d 0357 e5bd 2e13 04bd
000002d0: a10e 31be 84ea 9ebd 517f 07be 76fa 5abd
000002e0: 9fb4 06be 7bb2 c5bd 2a6f 103e d0b3 d4bd
000002f0: 1a76 3d3d 70dd a6bd 4a71 11bb af0c 9fbd
00000300: 896d 8fbd 4970 2fbe 5e4c 8a3c ad52 2a3e
00000310: 431b c2bd 9f2e 033d f86d afbd fce8 343e
00000320: 4390 30be 3e5c fd3d d7b5 063c 31b6 853d
00000330: cd9f 12be e0d0 0b3d 3b7e 18be 4798 94bd
00000340: 2b66 b73c 2a6d 91bc f47f e6bc b37b 1f3d
00000350: bb8b 82bd 7aa7 503e 77d9 21be b50e babd
00000360: a416 883d 7f85 77bc c7b0 8fbc 4828 b1bd
00000370: b410 9fbd 166d b0bd ad1f d0bc 6ce7 22bd
00000380: ebe5 95bd 0649 1d3d da7f cbbd 96a1 25bc
00000390: 8ac9 6f3b 1e74 963d fbd6 c23c 13bc 3bbd
000003a0: 0fc1 f3bd 411a 2ebc d894 cabd f836 a13d
000003b0: 6ec0 98bd 5e88 7fbd fcfb 4abe 11ee 93bd
000003c0: 0b74 07bd 0450 373d 40bf dbbc 46f7 9d3d
000003d0: 0c20 a93c 47e5 9b3d e2bc 7dbd 3d4d e2bc
000003e0: cdd5 5ebe ea57 eabd ceeb de3c 78ad a7bd
000003f0: 7930 b33d 7230 a03d ded9 06be f390 0c3e

tcn.network.1.conv2.bias f4 [32]
0.13927531 0.061097566 0.06402165 0.039078318 0.08385613 0.12800185 0.03811601 -0.13625492
0.022384841 0.03139502 0.06894452 -0.13118817 0.09451983 -0.07058505 -0.014653272 0.12309266
0.07401762 -0.069666706 0.115122184 0.015877375 -0.109254345 -0.08915328 0.039035622 -0.017177865
-0.034319326 -0.03883624 0.084141605 0.13968895 0.10003574 -0.12451009 0.16963676 -0.06748101
00000000: 309e 0e3e 7141 7a3d c81d 833d 9610 203d
00000010: c3bc ab3d eb12 033e 891f 1c3d 6986 0bbe
00000020: 6a60 b73c 1198 003d c932 8d3d 3156 06be
00000030: 9d93 c13d e58e 90bd 4714 70bc 0118 fc3d
00000040: 8d96 973d 6bad 8ebd 2ec5 eb3d 4511 823c
00000050: bec0 dfbd ff95 b6bd d1e3 1f3d 98b8 8cbc
00000060: 6c92 0cbd c012 1fbd 6f52 ac3d 9f0a 0f3e
00000070: 8adf cc3d 25ff febd 42b5 2d3e 7c33 8abd

tcn.network.1.conv2.weight_g f4 [32, 1, 1]
0.5802299 0.5465346 0.85234594 0.534663 0.6909886 0.54267687 0.6439552 0.51476395
0.6355077 0.79972106 0.5506412 0.5950791 0.58338875 0.6615799 0.65452 0.46451315
0.7749361 0.620547 0.5487589 0.5177884 0.5247143 0.57304394 0.5357438 0.8206905
0.559296 0.5409464 0.63470954 0.6843259 0.6379879 0.52747595 0.7823082 0.6073424
00000000: f289 143f b1e9 0b3f 5833 5a3f addf 083f
00000010: a1e4 303f dfec 0a3f 3fda 243f 92c7 033f
00000020: a2b0 223f 85ba 4c3f d2f6 0c3f 1b57 183f
00000030: f758 153f 4d5d 293f 9f8e 273f abd4 ed3e
00000040: 3662 463f 2bdc 1e3f 777b 0c3f c88d 043f
00000050: ad53 063f 02b3 123f 8126 093f c618 523f
00000060: 062e 0f3f 777b 0a3f 537c 223f fb2f 2f3f
00000070: 2d53 233f aa08 073f 5a45 483f cb7a 1b3f
