models/prototyping6/tcn_fold_2/best.pth (torch, 224151 bytes, 130 tensors)

tcn.d_reduce.weight f4 [32, 1, 1]
0	0xbdc56b2d	-0.09639583
1	0x3f3cbc87	0.7372517
2	0xbe6a3154	-0.2287038
3	0x3ee05acf	0.4381928
4	0xbec2e853	-0.38067874
5	0x3f11eb2c	0.5699947
6	0xbf1278d3	-0.57215613
7	0x3ec2725e	0.3797788
8	0x3f4c6e62	0.7985593
9	0x3eaf59ea	0.34248286
10	0xbf610198	-0.87893057
11	0xbf28a9b7	-0.65883964
12	0x3e4e4854	0.20144778
13	0xbf005668	-0.50131845
14	0xbf5b4d2e	-0.8566464
15	0x3f4ee15b	0.80812615
16	0x3ea7e2e5	0.32790294
17	0x3f3502c3	0.7070734
18	0x3eb80673	0.3594242
19	0x3d9e941f	0.077430956
20	0x3f32c0ea	0.69825613
21	0x3ee0af42	0.4388371
22	0x3f04f937	0.5194277
23	0x3f180b62	0.5939237
24	0xbe431c43	-0.1905375
25	0xbecddd4f	-0.40207908
26	0x3f008ea9	0.5021768
27	0xbf05f6f1	-0.5232993
28	0xbe8479f9	-0.25874308
29	0xbf419039	-0.7561069
30	0x3eb1032b	0.3457273
31	0xbf4701e4	-0.7773726

tcn.d_reduce.bias f4 [32]
0	0x3d405c1a	0.046962835
1	0xbf70ffe2	-0.94140446
2	0xbed39d0d	-0.41330758
3	0x3c272e97	0.010203979
4	0x3e2ae8e6	0.16690406
5	0x3f652113	0.8950359
6	0xbefcbe50	-0.49363947
7	0xbefccddf	-0.49375817
8	0x3ecd04a6	0.4004261
9	0x3f0983d0	0.53716755
10	0xbf17a1a8	-0.5923104
11	0x3ef792ee	0.48354286
12	0x3ea4076f	0.3203692
13	0x3f597e37	0.84958214
14	0x3f0d4927	0.55189747
15	0x3f4a8186	0.7910389
16	0xbe8457ca	-0.25848228
17	0x3cb792cd	0.022408867
18	0x3eeef6b4	0.46672595
19	0xbe8bbc16	-0.27291936
20	0xbde1dce8	-0.11028463
21	0xbf4733a1	-0.77813154
22	0x3f6cdde7	0.92526096
23	0xbe86774b	-0.26262888
24	0x3f16491e	0.5870532
25	0xbe2e5be8	-0.17027247
26	0x3c545f2f	0.012962147
27	0xbec10973	-0.37702522
28	0xbf147977	-0.5799784
29	0xbf0dcaaa	-0.55387366
30	0x3f1a213d	0.6020697
31	0x3e24b2a7	0.16083775

tcn.network.0.conv1.bias f4 [32]
0	0xbd99e3db	-0.07514163
1	0xbc6e8a42	-0.01455933
2	0xbd8b32a2	-0.06796767
3	0xbdec15b8	-0.1152758
4	0x3d941f06	0.0723248
5	0x3b60cde2	0.0034302403
6	0xbdd85d05	-0.10564617
7	0x3cdced27	0.026968552
8	0xbe063b0e	-0.13108465
9	0xbe04f50b	-0.12984101
10	0x3c4d1147	0.012516326
11	0xbe48e660	-0.19619131
12	0xbcdf81bc	-0.027283542
13	0xbd012a14	-0.03153427
14	0xbdb25889	-0.08708293
15	0xbe25d958	-0.16196191
16	0xbcbf3262	-0.023339454
17	0xbd9b37f0	-0.075790286
18	0x3bc9a7ea	0.00615405
19	0xbdb74e05	-0.08950428
20	0xbdbed8c0	-0.093186855
21	0xbdf402de	-0.119146094
22	0xbd9add86	-0.075617835
23	0x3d6a21e9	0.057161245
24	0xbe0c7280	-0.13715553
25	0x3ba8ddb0	0.0051533803
26	0xbc57113c	-0.013126668
27	0x3dec7b77	0.115469866
28	0x3dab6736	0.08369295
29	0xbcb07b65	-0.021543214
30	0xbc502ef9	-0.012706512
31	0x3ddc64f8	0.10761446

tcn.network.0.conv1.weight_g f4 [32, 1, 1]
0	0x3f14e06f	0.5815496
1	0x3f05707e	0.52124774
2	0x3f080a3c	0.53140616
3	0x3f0bc3f6	0.5459589
4	0x3ee8fb5c	0.45504272
5	0x3f07c632	0.530368
6	0x3f0d07d0	0.55090046
7	0x3f1de06c	0.61670566
8	0x3f02da91	0.51114756
9	0x3f17bd3e	0.59273136
10	0x3f1a5331	0.6028319
11	0x3f14d69f	0.58139986
12	0x3f1d89d8	0.6153846
13	0x3f0aa019	0.5415054
14	0x3f024a75	0.5089486
15	0x3f02d4fa	0.51106226
16	0x3f1a4b64	0.60271287
17	0x3f14ce7a	0.5812756
18	0x3f01a6b4	0.50644994
19	0x3f0a6e3d	0.5407446
20	0x3f0e1ed2	0.5551578
21	0x3f043a69	0.51651627
22	0x3f134846	0.57532156
23	0x3f0b28a7	0.54358906
24	0x3f12c5b7	0.5733294
25	0x3ef3b429	0.4759839
26	0x3f0dd08f	0.5539636
27	0x3ee5708a	0.44812423
28	0x3f139dae	0.57662475
29	0x3f05c704	0.522568
30	0x3f1b9091	0.60767466
31	0x3f01de5f	0.50729936

tcn.network.0.conv1.weight_v f4 [32, 32, 2]
0	0xbb45c5cc	-0.003017771
1	0xbdb746aa	-0.08949025
2	0xbd974c11	-0.073875554
3	0xbdad13d1	-0.08451045
4	0x3d8beb92	0.06832041
5	0xbd466b7f	-0.04844236
6	0xbd9e4174	-0.07727328
7	0x3c062459	0.008187377
8	0xbe19c85e	-0.1501784
9	0xbcf71317	-0.03016047
10	0x3daf0da9	0.08547527
11	0xbcfdafab	-0.030967554
12	0xbd6c661a	-0.05771456
13	0xbd9f5e1e	-0.07781623
14	0xbc5e03e1	-0.0135507295
15	0x3d9b5ea0	0.07586408
16	0xbdc9ce7d	-0.09853838
17	0xbd4ddc6a	-0.05025903
18	0xbd5b9b29	-0.05361477
19	0xbddb3ebd	-0.10705326
20	0xbdf2d7ed	-0.11857591
21	0xbd05ea89	-0.032694373
22	0xbc989981	-0.018627884
23	0xbe0faa84	-0.1402989
24	0x3d875646	0.06608252
25	0xbe1c7b75	-0.1528147
26	0x3d317f89	0.043334518
27	0xbcbd729c	-0.02312594
28	0xbdf2817f	-0.11841106
29	0xbd05a7cf	-0.032630738
30	0xbbdd229d	-0.006748511
31	0x3dbcddb8	0.09221977
32	0xbaecb02a	-0.0018057872
33	0x3d9e035e	0.07715486
34	0x3dac3bff	0.08409881
35	0xbd8176c9	-0.063214846
36	0x3d2072cc	0.03917198
37	0xbcbcddec	-0.02305504
38	0x3d3f3ace	0.04668694
39	0xbdfdba07	-0.123889975
40	0xbd536783	-0.05161239
41	0x3ddc94a1	0.10770536
42	0x3d7a304f	0.061081227
43	0xbdabaf99	-0.08383102
44	0x3db05755	0.08610407
45	0xbe2164ba	-0.1576108
46	0x3df088ed	0.117448665
47	0xbc384833	-0.011247682
48	0xbd1359ff	-0.0359745
49	0x3c2126f2	0.009835945
50	0x3e0c8ac5	0.13724811
51	0x3aed6f4a	0.0018114832
52	0xbd619fa9	-0.055083904
53	0xbdf1763c	-0.117901295
54	0x3c7ca9ec	0.015421372
55	0xbce453cb	-0.027871987
56	0x3e0563f2	0.13026407
57	0xbd19decb	-0.037565988
58	0x3dd189d6	0.10231368
59	0x3d0b4190	0.033998072
60	0x3cdd6606	0.027026188
61	0xbdcdc1c4	-0.100467235
62	0x3da1a03a	0.07891889
63	0x3dad73e6	0.084693715
64	0x3caa5ab5	0.020795206
65	0xbd6d2eb3	-0.057905864
66	0xbd46a387	-0.048495796
67	0xbd73c8a5	-0.05951752
68	0x3e1844e1	0.14870025
69	0xbcd848a1	-0.02640182
70	0xbdb0dd64	-0.08635977
71	0xbdac6e1a	-0.08419438
72	0xbd3e91dc	-0.04652582
73	0xbe044554	-0.12917072
74	0xbc4bcf8a	-0.012439618
75	0xbe175348	-0.14777863
76	0x3dca4380	0.09876156
77	0x3dc0be63	0.094113134
78	0xbdc9dd95	-0.098567165
79	0x3dbec41a	0.09314747
80	0xbdb19c3e	-0.08672379
81	0xbe2deb6a	-0.16984335
82	0xbe32ee63	-0.1747375
83	0xbdfb07b3	-0.12257328
84	0x3d9caea2	0.07650496
85	0x3dcad4bb	0.09903856
86	0xbd91395d	-0.07091019
87	0xba9d9339	-0.0012022025
88	0xbe0a217a	-0.13489333
89	0xbd4e5b7a	-0.050380208
90	0x3ca8dd5f	0.02061337
91	0x3cf7d106	0.030251037
92	0x3d00d07b	0.031448822
93	0xbe0f62cd	-0.14002533
94	0xbb9f3987	-0.0048591527
95	0xbdf33caf	-0.11876809
96	0x3d69322f	0.056932624
97	0xbd0d5618	-0.034505934
98	0xbc01ec1e	-0.00792983
99	0x3da863ba	0.08222146
100	0xbd2012cd	-0.03908043
101	0xbe43f33d	-0.19135757
102	0x3d0666f0	0.032813013
103	0x3dd50581	0.104014404
104	0x3ca5861d	0.020205552
105	0x3cc4a924	0.024006434
106	0x3e0166f3	0.12636928
107	0xbd597ae6	-0.05309572
108	0xbe380700	-0.1797142
109	0xbe1b9e27	-0.15197049
110	0x3ddcbfdc	0.10778782
111	0xbd9c728a	-0.07639034
112	0xbd87c232	-0.06628837
113	0xbc9a692e	-0.018848982
114	0x3e48f88b	0.19626062
115	0x3dc07080	0.09396458
116	0x3d7b99e9	0.061426077
117	0xbd162174	-0.036652997
118	0xbcbd58fc	-0.02311372
119	0x3d90f4a5	0.07077912
120	0x3ad5ee82	0.0016321691
121	0x3b9ff172	0.0048810774
122	0x3e4f897b	0.20267288
123	0xbd12d4c8	-0.035847455
124	0xbd83f568	-0.06443292
125	0x3dc22714	0.0948011
126	0x3d7f9abb	0.06240342
127	0xbdee9a6b	-0.11650547
128	0xbd956c1e	-0.07296012
129	0x3dc389e2	0.095477834
130	0x3b488547	0.0030597018
131	0x3dbec5c0	0.093150616
132	0xbd809d3b	-0.06279989
133	0x3d7a2a13	0.06107528
134	0x3dec881f	0.115494005
135	0x3bd82ce4	0.0065971483
136	0x3dca58c8	0.09880215
137	0x3caba4f9	0.020952689
138	0xbe0dfd37	-0.13866125
139	0x3c6f91b8	0.014622144
140	0x3dc51d61	0.09624744
141	0x3e8cdd8a	0.2751277
142	0x3c85ac0c	0.01631739
143	0xbd4d1f5f	-0.050078746
144	0xbc52b9df	-0.012861698
145	0xbcde0bcf	-0.02710524
146	0x3c53a399	0.012917423
147	0xbe12e4c5	-0.14345081
148	0x3e2f23a7	0.17103444
149	0x3dce0cda	0.10061045
150	0xbd37e7a8	-0.04489866
151	0x3e0b2b30	0.13590693
152	0xbd025234	-0.031816676
153	0xbe0422f1	-0.12903954
154	0xbd9c5f80	-0.07635403
155	0x3e096684	0.13418013
156	0x3dea5b12	0.114431515
157	0xbd290f4f	-0.041274365
158	0xbe261959	-0.16220607
159	0xbe20b9cb	-0.15695874
160	0xbda0b05c	-0.07846138
161	0xbde863fc	-0.113471955
162	0xbe06bc3e	-0.13157746
163	0x3da395d9	0.079875655
164	0xbe0f2079	-0.13977231
165	0xbe3971db	-0.18109839
166	0x3d278e0d	0.040906955
167	0x3dba0b9f	0.09084248
168	0xbde2bead	-0.11071525
169	0x3df63d74	0.1202344
170	0xbd73483e	-0.059395067
171	0x3dbdef41	0.0927415
172	0xbdcb1935	-0.09916917
173	0x3e0ba06d	0.13635416
174	0x3c243d01	0.01002431
175	0x3dfa1741	0.122114666
176	0xbdeb0869	-0.114762135
177	0x3cdb7299	0.026788043
178	0xbd014e58	-0.031568855
179	0xbc820777	-0.0158727
180	0xbd17b5c6	-0.037038587
181	0x3dd36cd3	0.10323491
182	0xbdcb026c	-0.09912571
183	0xbc8b8111	-0.017029317
184	0xbdfc5370	-0.12320602
185	0xbd6f834e	-0.05847483
186	0x3d1de73a	0.038550593
187	0x3de56806	0.112014815
188	0xbe23cbac	-0.15995663
189	0xbdb91128	-0.090364754
190	0xbc76fd38	-0.0150750205
191	0x3d5adf14	0.0534354
192	0x3e2147ee	0.15750095
193	0x3e25652d	0.16151877
194	0xbdc6f2f9	-0.09714312
195	0x3cdc2fb6	0.02687822
196	0x3d67c294	0.05658205
197	0x3dc7e3e7	0.09760266
198	0xbe91e37e	-0.28493875
199	0xbd386bb0	-0.045024574
200	0x3cbc7a23	0.023007458
201	0x3c8c6188	0.01713635
202	0xbe09bd2f	-0.13451074
203	0xbdc3f353	-0.09567895
204	0x3e77bf40	0.2419405
205	0x3dae7d43	0.085199855
206	0x3dda14f4	0.10648528
207	0xbd2045a8	-0.03912893
208	0xbe3f930a	-0.18708435
209	0xbd15b014	-0.036544874
210	0xbdff08f0	-0.124528766
211	0xba79861f	-0.0009518582
212	0x3dbff921	0.093736894
213	0x3d8653c2	0.06558944
214	0xbd8c46e9	-0.068494625
215	0xbd2a0a58	-0.04151377
216	0xbdde18c7	-0.1084457
217	0x3d8c0c8d	0.06838331
218	0xbdabdb77	-0.08391469
219	0x3ca00a3c	0.01953613
220	0x3d495bc0	0.049159765
221	0xbd70cbcb	-0.058788102
222	0xbc609ecb	-0.013709734
223	0x3d15f88b	0.036613982
224	0xbdce3f74	-0.100706965
225	0xbcc62d90	-0.024191648
226	0xbd9d054d	-0.07667027
227	0x3d088999	0.03333435
228	0xbde1f5cb	-0.110332094
229	0xbd19e1f2	-0.037568994
230	0xbdc6c947	-0.09706359
231	0xbd42bc6c	-0.047542974
232	0x3d9eae2a	0.07748063
233	0xbca4bc18	-0.020109221
234	0x3d3e8abb	0.046519022
235	0xbd3a9e6b	-0.045561235
236	0xbdfaad6c	-0.12240109
237	0x3defccea	0.11709006
238	0xbe16ec47	-0.1473857
239	0xbd8553bd	-0.065101124
240	0x3dc12691	0.09431184
241	0xbc694279	-0.01423704
242	0x3e979df6	0.29612702
243	0x3e61cc64	0.22050625
244	0x3cd0e3ad	0.02549919
245	0x3dbaa66d	0.091137744
246	0xbd56dea4	-0.05245842
247	0x3d94ac6e	0.07259451
248	0x3c185530	0.009297654
249	0xbde0e39f	-0.10980915
250	0x3ea3e0cc	0.32007444
251	0x3e49540b	0.19660966
252	0xbe1eb14a	-0.15497318
253	0xbd5587d7	-0.0521315
254	0xbc510bbd	-0.012759146
255	0x3df5d7cd	0.12004051

tcn.network.0.conv2.bias f4 [32]
0	0xbdf55f2b	-0.119810425
1	0xbd7cf272	-0.06175465
2	0xbcd4145b	-0.025888612
3	0xbd4d3fa4	-0.05010952
4	0xbe1d245c	-0.15345901
5	0x3d5367f8	0.051612824
6	0xbd45a1d2	-0.048250027
7	0xbdfbeb2e	-0.12300716
8	0x3caacd17	0.020849748
9	0xbb5a367f	-0.0033296642
10	0xbda9bd6b	-0.08288082
11	0xbe375998	-0.17905271
12	0xbd5db2ab	-0.05412547
13	0x3cd3dba5	0.02586157
14	0xbc426999	-0.011865997
15	0x3d671517	0.056416597
16	0xbd21b493	-0.03947885
17	0x3c4f9f19	0.012672209
18	0x3bef7259	0.0073073325
19	0xbda1fb82	-0.079092994
20	0xbd98cda7	-0.074611
21	0x3d61ca87	0.055124786
22	0x3c8e9450	0.017404705
23	0xbdc0da3c	-0.09416625
24	0xbc3bdc61	-0.011466117
25	0xbd04064d	-0.03223257
26	0x3caf3512	0.02138761
27	0xbd29754a	-0.04137162
28	0xbc43c502	-0.011948826
29	0xbe1932fa	-0.14960852
30	0x3cd6c472	0.02621672
31	0xbc858aee	-0.016301598

tcn.network.0.conv2.weight_g f4 [32, 1, 1]
0	0x3f0bd166	0.5461639
1	0x3f135f26	0.5756706
2	0x3f07e9f7	0.5309138
3	0x3f1b20e2	0.6059705
4	0x3f157fda	0.5839821
5	0x3f0cd3d1	0.55010706
6	0x3f1c7a7c	0.61124396
7	0x3f0e2c50	0.55536366
8	0x3f0783ea	0.5293566
9	0x3f1e4d4d	0.618367
10	0x3f09b9cb	0.5379912
11	0x3ee87403	0.4540101
12	0x3f06d952	0.52675354
13	0x3f0980e7	0.53712314
14	0x3f044433	0.51666564
15	0x3ef86848	0.4851706
16	0x3f07eb82	0.5309373
17	0x3efa90e6	0.48938674
18	0x3f1d356d	0.61409646
19	0x3f1ee147	0.62062496
20	0x3f151b35	0.5824464
21	0x3f169df1	0.5883475
22	0x3f0a6805	0.5406497
23	0x3f0b0a0d	0.5431221
24	0x3f11e9ab	0.56997174
25	0x3f0f15c3	0.5589258
26	0x3f037289	0.5134664
27	0x3f027065	0.5095275
28	0x3f0368fe	0.5133208
29	0x3f09ed35	0.53877574
30	0x3ed26fdc	0.41100967
31	0x3f0e6ea3	0.5563757

tcn.network.0.conv2.weight_v f4 [32, 32, 2]
0	0xbe11f97b	-0.14255325
1	0xbdb059cf	-0.0861088
2	0x3dbbe8dc	0.09175274
3	0xbd926b24	-0.07149342
4	0xbd96d522	-0.073648706
5	0x3d8327dd	0.06404088
6	0xbd2e11b9	-0.04249737
7	0xbd4593a8	-0.04823652
8	0x3c4579b1	0.012052939
9	0xbdc6c45c	-0.09705421
10	0x3daac3f0	0.08338153
11	0x3db79ad0	0.08965075
12	0xba8597f4	-0.001019238
13	0xbdfaafe4	-0.1224058
14	0xbd93af72	-0.07211198
15	0x3d7dbd26	0.061947964
16	0x3d37ec55	0.04490312
17	0x3da405b2	0.08008899
18	0xbe067a0d	-0.13132496
19	0xbc511b0b	-0.012762795
20	0x3db5148d	0.088418104
21	0x3ddbc0b4	0.107301146
22	0x3e21a08c	0.157839
23	0x3dc13bce	0.09435235
24	0xbdd0f241	-0.10202456
25	0x3daa73a1	0.08322836
26	0x3c80b0e8	0.015709355
27	0x3da1baf4	0.078969866
28	0xbdb047de	-0.086074576
29	0xbcf67bca	-0.030088324
30	0xbb25519c	-0.0025225645
31	0xbde72078	-0.1128549
32	0xbdffa059	-0.12481756
33	0x3d90c17f	0.070681565
34	0x3904ac7e	0.0001265276
35	0xbdcb0f53	-0.09915032
36	0x3d6ccaa9	0.05781046
37	0xbd5c688d	-0.053810645
38	0x3d806ab2	0.062703505
39	0xbb9e6e0a	-0.004834895
40	0x3df1152c	0.11771616
41	0x3c8fffd3	0.017578041
42	0x3a175014	0.00057721254
43	0x3d7418f8	0.059594125
44	0x3de541a7	0.11194163
45	0xbddff9b1	-0.10936297
46	0x3d58aafb	0.052897435
47	0xbddf8657	-0.10914295
48	0xbcf1badd	-0.029508049
49	0x3e028de9	0.12749447
50	0xbda46480	-0.08026981
51	0x3d6fbfa2	0.058532365
52	0xbdd80f56	-0.105498
53	0xbd9e9d89	-0.07744891
54	0xbe01ef65	-0.12688978
55	0xbdb3dc60	-0.087822676
56	0xbe21efb6	-0.15814099
57	0x3d8ccb9b	0.06874772
58	0x3c820646	0.015872132
59	0xbd6273e0	-0.05528629
60	0xbc2bca64	-0.010485265
61	0x3c589349	0.013218709
62	0xbd625d47	-0.055264737
63	0xbdd15ae9	-0.10222418
64	0xbdf1fa6e	-0.11815344
65	0xbdbe8715	-0.093031086
66	0x3dca1b3d	0.098684765
67	0x3cd2bd6b	0.025725087
68	0xbb28bcab	-0.002574722
69	0xbde074dd	-0.1095979
70	0x3d59d60f	0.053182658
71	0xbe009d5d	-0.1256003
72	0x3dd15ffb	0.10223385
73	0xbd6c06f5	-0.057623822
74	0x3db7222f	0.08942067
75	0xbd1d2351	-0.03836376
76	0xbde07cbc	-0.10961291
77	0xbd9ebc58	-0.077507675
78	0x3df74d8e	0.12075339
79	0xbd58f662	-0.052969344
80	0xbd1f503e	-0.038894884
81	0x3dff2e34	0.124599844
82	0xbd4058d7	-0.046959724
83	0x3c673900	0.014112711
84	0xbdba173c	-0.09086463
85	0xbd505737	-0.050864425
86	0x3d55d59a	0.05220566
87	0xbe0dc6ca	-0.13845363
88	0x3d31e7fa	0.04343412
89	0x3d93d1e5	0.072177686
90	0x3d961643	0.07328465
91	0x3c0d0f63	0.0086096255
92	0x3d965846	0.073410556
93	0xbdb14f19	-0.08657665
94	0x3da65024	0.08120754
95	0x3ce3dfb2	0.027816627
96	0x3d8f60ef	0.070009105
97	0xbdbfb73c	-0.09361121
98	0x3d885f94	0.06658855
99	0xbd8205c2	-0.063487545
100	0xbe0398ad	-0.1285121
101	0xbca1da44	-0.019757397
102	0xbde3c35a	-0.11121245
103	0x3de0108c	0.10940656
104	0xbd87fdf6	-0.06640236
105	0x3caa6ce5	0.020803878
106	0xbe01d467	-0.12678681
107	0xbd3ed3e0	-0.04658878
108	0xbdb7c8ff	-0.08973884
109	0x3d752dff	0.05985832
110	0xbdb4f167	-0.08835106
111	0x3d5a77f1	0.05333704
112	0x3de732a8	0.11288959
113	0x3de8516a	0.113436535
114	0x3d4e3757	0.050345745
115	0xbcb255fe	-0.02176952
116	0xbdf4c87f	-0.11952304
117	0xbdb85931	-0.09001387
118	0x3d4b5c08	0.049648315
119	0x3cc7b49f	0.024378119
120	0xbe0a2976	-0.13492379
121	0xbd9b932e	-0.07596432
122	0xbd810a26	-0.06300764
123	0xbd4e5bb1	-0.050380412
124	0xbce9239c	-0.028459363
125	0x3cbf121e	0.023324069
126	0xbc422171	-0.011848793
127	0x3dc1a087	0.09454446
128	0xbd5ea3bb	-0.054355364
129	0xbdd7639c	-0.10517046
130	0xbd8086bd	-0.06275699
131	0x3db1b657	0.08677357
132	0x3dfeff47	0.12451034
133	0x3dfa2d90	0.122157216
134	0xbca2dbc4	-0.019880183
135	0x3e0ef27e	0.13959691
136	0x3c65225c	0.013985243
137	0x3e066976	0.13126168
138	0xbde5bcb3	-0.11217632
139	0xbd35aae5	-0.04435243
140	0xbe165cd8	-0.14683855
141	0xbd1e1134	-0.038590625
142	0xbe06d0d9	-0.13165607
143	0xbdd2ba50	-0.102894425
144	0x3d97e408	0.074165404
145	0xbdd220e8	-0.102601826
146	0x3db032c8	0.08603436
147	0x3cd81eb7	0.026381833
148	0x3e0a1793	0.13485555
149	0x3d36b3cd	0.044605065
150	0xbca83102	-0.020531181
151	0xbcfb833d	-0.030702228
152	0x3daf3c47	0.08556419
153	0xbd6b7d14	-0.05749233
154	0xbdcfa4f8	-0.10138887
155	0x3d279160	0.040910125
156	0xbdac8e13	-0.08425536
157	0xbdef2c47	-0.11678367
158	0xbd7bed11	-0.06150538
159	0xbe0432f8	-0.12910068
160	0xbdf11b6a	-0.11772807
161	0x3e5294a0	0.20564508
162	0x3e1855cf	0.14876483
163	0xb56cb043	-8.8173346e-07
164	0x3db55367	0.08853798
165	0xbe007178	-0.12543285
166	0x3d8666f5	0.06562606
167	0xbb3880bb	-0.0028152901
168	0x3ccafc71	0.024778577
169	0x3db805c6	0.08985476
170	0x3d01559c	0.031575784
171	0x3e21669d	0.157618
172	0x3cef2d7d	0.029196495
173	0x3d041fd6	0.032256924
174	0x3db6e1c7	0.08929782
175	0xbd8fb27a	-0.070164636
176	0xbdef6ee9	-0.11691076
177	0xbdb57718	-0.08860606
178	0xbda1fe02	-0.07909776
179	0xbc5f350f	-0.01362349
180	0x3db9c5a2	0.090708986
181	0x3d91b634	0.071148306
182	0xbd9ae43d	-0.07563064
183	0x3d0586f0	0.03259939
184	0x3da91f44	0.082579166
185	0x3d24adf5	0.04020496
186	0xbde310fe	-0.110872254
187	0x3d2a725b	0.041612964
188	0xbc533c75	-0.012892832
189	0xbe2d631c	-0.16932338
190	0x3cb69a6e	0.022290435
191	0x3d4bdf24	0.04977335
192	0x3d3a8e6c	0.04554598
193	0x3c80ca61	0.015721502
194	0xbdd78911	-0.1052419
195	0xbdb9fd0a	-0.090814665
196	0xbd3e4064	-0.046448126
197	0xbd4e39c2	-0.05034805
198	0x3d0208a5	0.031746525
199	0xbb6796af	-0.0035337617
200	0x3d9fe60b	0.07807549
201	0xbd8370a2	-0.064179674
202	0xbdb1503c	-0.086578816
203	0x3d5ca16e	0.05386489
204	0x3a2bf68f	0.00065598724
205	0x3c3d7c71	0.011565314
206	0x3d908110	0.07055867
207	0x3d6afba8	0.057368904
208	0x3b4e76ab	0.0031503837
209	0xbd03b1a3	-0.03215183
210	0xbbb89ff8	-0.005634304
211	0x3cbfa0c8	0.023392096
212	0xbe04631b	-0.1292843
213	0xbe2589cf	-0.16165851
214	0xbdcb9828	-0.09941131
215	0xbcc6d18e	-0.024269845
216	0x3e08bcd0	0.13353276
217	0xbc8323b8	-0.016008243
218	0x3b2992a5	0.002587476
219	0x3c64f357	0.013974032
220	0xbddbac21	-0.1072619
221	0xbdbbf652	-0.09177841
222	0x3d7185a7	0.05896535
223	0x3d174adc	0.036936626
224	0x3e44f65e	0.19234607
225	0x3d928f7a	0.07156272
226	0xb931668a	-0.00016918234
227	0xbcfa0d4d	-0.03052392
228	0x3d9ed131	0.07754744
229	0xbdb2fe81	-0.08739949
230	0x3dab3e6d	0.08361516
231	0xbc11bfe1	-0.008895845
232	0xbd83750a	-0.06418808
233	0x3dfc19bf	0.12309598
234	0x3dd91d95	0.106013454
235	0xbd8583c5	-0.06519274
236	0xbd7a1e83	-0.061064254
237	0xbdbd5a55	-0.09245745
238	0xbe12c1ee	-0.14331791
239	0xbd4869c7	-0.048929002
240	0x3dc683bf	0.09693097
241	0xbd0eb31a	-0.034838773
242	0x3c3648e7	0.01112578
243	0xbd478abe	-0.0487163
244	0xbd405bb6	-0.046962462
245	0x3a88c84a	0.0010435667
246	0x3dd5c301	0.10437585
247	0x3d84feb0	0.0649389
248	0x3d9232b2	0.071385756
249	0xbe0a5a46	-0.13510999
250	0x3e0acd9e	0.13554999
251	0x3d819448	0.063271105
252	0x3e711fb5	0.23547252
253	0x3dc0ebfd	0.09420011
254	0x3e76a701	0.24087144
255	0xbcd179fa	-0.025570858

tcn.network.0.net.0.bias f4 [32]
0	0xbd99e3db	-0.07514163
1	0xbc6e8a42	-0.01455933
2	0xbd8b32a2	-0.06796767
3	0xbdec15b8	-0.1152758
4	0x3d941f06	0.0723248
5	0x3b60cde2	0.0034302403
6	0xbdd85d05	-0.10564617
7	0x3cdced27	0.026968552
8	0xbe063b0e	-0.13108465
9	0xbe04f50b	-0.12984101
10	0x3c4d1147	0.012516326
11	0xbe48e660	-0.19619131
12	0xbcdf81bc	-0.027283542
13	0xbd012a14	-0.03153427
14	0xbdb25889	-0.08708293
15	0xbe25d958	-0.16196191
16	0xbcbf3262	-0.023339454
17	0xbd9b37f0	-0.075790286
18	0x3bc9a7ea	0.00615405
19	0xbdb74e05	-0.08950428
20	0xbdbed8c0	-0.093186855
21	0xbdf402de	-0.119146094
22	0xbd9add86	-0.075617835
23	0x3d6a21e9	0.057161245
24	0xbe0c7280	-0.13715553
25	0x3ba8ddb0	0.0051533803
26	0xbc57113c	-0.013126668
27	0x3dec7b77	0.115469866
28	0x3dab6736	0.08369295
29	0xbcb07b65	-0.021543214
30	0xbc502ef9	-0.012706512
31	0x3ddc64f8	0.10761446

tcn.network.0.net.0.weight_g f4 [32, 1, 1]
0	0x3f14e06f	0.5815496
1	0x3f05707e	0.52124774
2	0x3f080a3c	0.53140616
3	0x3f0bc3f6	0.5459589
4	0x3ee8fb5c	0.45504272
5	0x3f07c632	0.530368
6	0x3f0d07d0	0.55090046
7	0x3f1de06c	0.61670566
8	0x3f02da91	0.51114756
9	0x3f17bd3e	0.59273136
10	0x3f1a5331	0.6028319
11	0x3f14d69f	0.58139986
12	0x3f1d89d8	0.6153846
13	0x3f0aa019	0.5415054
14	0x3f024a75	0.5089486
15	0x3f02d4fa	0.51106226
16	0x3f1a4b64	0.60271287
17	0x3f14ce7a	0.5812756
18	0x3f01a6b4	0.50644994
19	0x3f0a6e3d	0.5407446
20	0x3f0e1ed2	0.5551578
21	0x3f043a69	0.51651627
22	0x3f134846	0.57532156
23	0x3f0b28a7	0.54358906
24	0x3f12c5b7	0.5733294
25	0x3ef3b429	0.4759839
26	0x3f0dd08f	0.5539636
27	0x3ee5708a	0.44812423
28	0x3f139dae	0.57662475
29	0x3f05c704	0.522568
30	0x3f1b9091	0.60767466
31	0x3f01de5f	0.50729936

tcn.network.0.net.0.weight_v f4 [32, 32, 2]
0	0xbb45c5cc	-0.003017771
1	0xbdb746aa	-0.08949025
2	0xbd974c11	-0.073875554
3	0xbdad13d1	-0.08451045
4	0x3d8beb92	0.06832041
5	0xbd466b7f	-0.04844236
6	0xbd9e4174	-0.07727328
7	0x3c062459	0.008187377
8	0xbe19c85e	-0.1501784
9	0xbcf71317	-0.03016047
10	0x3daf0da9	0.08547527
11	0xbcfdafab	-0.030967554
12	0xbd6c661a	-0.05771456
13	0xbd9f5e1e	-0.07781623
14	0xbc5e03e1	-0.0135507295
15	0x3d9b5ea0	0.07586408
16	0xbdc9ce7d	-0.09853838
17	0xbd4ddc6a	-0.05025903
18	0xbd5b9b29	-0.05361477
19	0xbddb3ebd	-0.10705326
20	0xbdf2d7ed	-0.11857591
21	0xbd05ea89	-0.032694373
22	0xbc989981	-0.018627884
23	0xbe0faa84	-0.1402989
24	0x3d875646	0.06608252
25	0xbe1c7b75	-0.1528147
26	0x3d317f89	0.043334518
27	0xbcbd729c	-0.02312594
28	0xbdf2817f	-0.11841106
29	0xbd05a7cf	-0.032630738
30	0xbbdd229d	-0.006748511
31	0x3dbcddb8	0.09221977
32	0xbaecb02a	-0.0018057872
33	0x3d9e035e	0.07715486
34	0x3dac3bff	0.08409881
35	0xbd8176c9	-0.063214846
36	0x3d2072cc	0.03917198
37	0xbcbcddec	-0.02305504
38	0x3d3f3ace	0.04668694
39	0xbdfdba07	-0.123889975
40	0xbd536783	-0.05161239
41	0x3ddc94a1	0.10770536
42	0x3d7a304f	0.061081227
43	0xbdabaf99	-0.08383102
44	0x3db05755	0.08610407
45	0xbe2164ba	-0.1576108
46	0x3df088ed	0.117448665
47	0xbc384833	-0.011247682
48	0xbd1359ff	-0.0359745
49	0x3c2126f2	0.009835945
50	0x3e0c8ac5	0.13724811
51	0x3aed6f4a	0.0018114832
52	0xbd619fa9	-0.055083904
53	0xbdf1763c	-0.117901295
54	0x3c7ca9ec	0.015421372
55	0xbce453cb	-0.027871987
56	0x3e0563f2	0.13026407
57	0xbd19decb	-0.037565988
58	0x3dd189d6	0.10231368
59	0x3d0b4190	0.033998072
60	0x3cdd6606	0.027026188
61	0xbdcdc1c4	-0.100467235
62	0x3da1a03a	0.07891889
63	0x3dad73e6	0.084693715
64	0x3caa5ab5	0.020795206
65	0xbd6d2eb3	-0.057905864
66	0xbd46a387	-0.048495796
67	0xbd73c8a5	-0.05951752
68	0x3e1844e1	0.14870025
69	0xbcd848a1	-0.02640182
70	0xbdb0dd64	-0.08635977
71	0xbdac6e1a	-0.08419438
72	0xbd3e91dc	-0.04652582
73	0xbe044554	-0.12917072
74	0xbc4bcf8a	-0.012439618
75	0xbe175348	-0.14777863
76	0x3dca4380	0.09876156
77	0x3dc0be63	0.094113134
78	0xbdc9dd95	-0.098567165
79	0x3dbec41a	0.09314747
80	0xbdb19c3e	-0.08672379
81	0xbe2deb6a	-0.16984335
82	0xbe32ee63	-0.1747375
83	0xbdfb07b3	-0.12257328
84	0x3d9caea2	0.07650496
85	0x3dcad4bb	0.09903856
86	0xbd91395d	-0.07091019
87	0xba9d9339	-0.0012022025
88	0xbe0a217a	-0.13489333
89	0xbd4e5b7a	-0.050380208
90	0x3ca8dd5f	0.02061337
91	0x3cf7d106	0.030251037
92	0x3d00d07b	0.031448822
93	0xbe0f62cd	-0.14002533
94	0xbb9f3987	-0.0048591527
95	0xbdf33caf	-0.11876809
96	0x3d69322f	0.056932624
97	0xbd0d5618	-0.034505934
98	0xbc01ec1e	-0.00792983
99	0x3da863ba	0.08222146
100	0xbd2012cd	-0.03908043
101	0xbe43f33d	-0.19135757
102	0x3d0666f0	0.032813013
103	0x3dd50581	0.104014404
104	0x3ca5861d	0.020205552
105	0x3cc4a924	0.024006434
106	0x3e0166f3	0.12636928
107	0xbd597ae6	-0.05309572
108	0xbe380700	-0.1797142
109	0xbe1b9e27	-0.15197049
110	0x3ddcbfdc	0.10778782
111	0xbd9c728a	-0.07639034
112	0xbd87c232	-0.06628837
113	0xbc9a692e	-0.018848982
114	0x3e48f88b	0.19626062
115	0x3dc07080	0.09396458
116	0x3d7b99e9	0.061426077
117	0xbd162174	-0.036652997
118	0xbcbd58fc	-0.02311372
119	0x3d90f4a5	0.07077912
120	0x3ad5ee82	0.0016321691
121	0x3b9ff172	0.0048810774
122	0x3e4f897b	0.20267288
123	0xbd12d4c8	-0.035847455
124	0xbd83f568	-0.06443292
125	0x3dc22714	0.0948011
126	0x3d7f9abb	0.06240342
127	0xbdee9a6b	-0.11650547
128	0xbd956c1e	-0.07296012
129	0x3dc389e2	0.095477834
130	0x3b488547	0.0030597018
131	0x3dbec5c0	0.093150616
132	0xbd809d3b	-0.06279989
133	0x3d7a2a13	0.06107528
134	0x3dec881f	0.115494005
135	0x3bd82ce4	0.0065971483
136	0x3dca58c8	0.09880215
137	0x3caba4f9	0.020952689
138	0xbe0dfd37	-0.13866125
139	0x3c6f91b8	0.014622144
140	0x3dc51d61	0.09624744
141	0x3e8cdd8a	0.2751277
142	0x3c85ac0c	0.01631739
143	0xbd4d1f5f	-0.050078746
144	0xbc52b9df	-0.012861698
145	0xbcde0bcf	-0.02710524
146	0x3c53a399	0.012917423
147	0xbe12e4c5	-0.14345081
148	0x3e2f23a7	0.17103444
149	0x3dce0cda	0.10061045
150	0xbd37e7a8	-0.04489866
151	0x3e0b2b30	0.13590693
152	0xbd025234	-0.031816676
153	0xbe0422f1	-0.12903954
154	0xbd9c5f80	-0.07635403
155	0x3e096684	0.13418013
156	0x3dea5b12	0.114431515
157	0xbd290f4f	-0.041274365
158	0xbe261959	-0.16220607
159	0xbe20b9cb	-0.15695874
160	0xbda0b05c	-0.07846138
161	0xbde863fc	-0.113471955
162	0xbe06bc3e	-0.13157746
163	0x3da395d9	0.079875655
164	0xbe0f2079	-0.13977231
165	0xbe3971db	-0.18109839
166	0x3d278e0d	0.040906955
167	0x3dba0b9f	0.09084248
168	0xbde2bead	-0.11071525
169	0x3df63d74	0.1202344
170	0xbd73483e	-0.059395067
171	0x3dbdef41	0.0927415
172	0xbdcb1935	-0.09916917
173	0x3e0ba06d	0.13635416
174	0x3c243d01	0.01002431
175	0x3dfa1741	0.122114666
176	0xbdeb0869	-0.114762135
177	0x3cdb7299	0.026788043
178	0xbd014e58	-0.031568855
179	0xbc820777	-0.0158727
180	0xbd17b5c6	-0.037038587
181	0x3dd36cd3	0.10323491
182	0xbdcb026c	-0.09912571
183	0xbc8b8111	-0.017029317
184	0xbdfc5370	-0.12320602
185	0xbd6f834e	-0.05847483
186	0x3d1de73a	0.038550593
187	0x3de56806	0.112014815
188	0xbe23cbac	-0.15995663
189	0xbdb91128	-0.090364754
190	0xbc76fd38	-0.0150750205
191	0x3d5adf14	0.0534354
192	0x3e2147ee	0.15750095
193	0x3e25652d	0.16151877
194	0xbdc6f2f9	-0.09714312
195	0x3cdc2fb6	0.02687822
196	0x3d67c294	0.05658205
197	0x3dc7e3e7	0.09760266
198	0xbe91e37e	-0.28493875
199	0xbd386bb0	-0.045024574
200	0x3cbc7a23	0.023007458
201	0x3c8c6188	0.01713635
202	0xbe09bd2f	-0.13451074
203	0xbdc3f353	-0.09567895
204	0x3e77bf40	0.2419405
205	0x3dae7d43	0.085199855
206	0x3dda14f4	0.10648528
207	0xbd2045a8	-0.03912893
208	0xbe3f930a	-0.18708435
209	0xbd15b014	-0.036544874
210	0xbdff08f0	-0.124528766
211	0xba79861f	-0.0009518582
212	0x3dbff921	0.093736894
213	0x3d8653c2	0.06558944
214	0xbd8c46e9	-0.068494625
215	0xbd2a0a58	-0.04151377
216	0xbdde18c7	-0.1084457
217	0x3d8c0c8d	0.06838331
218	0xbdabdb77	-0.08391469
219	0x3ca00a3c	0.01953613
220	0x3d495bc0	0.049159765
221	0xbd70cbcb	-0.058788102
222	0xbc609ecb	-0.013709734
223	0x3d15f88b	0.036613982
224	0xbdce3f74	-0.100706965
225	0xbcc62d90	-0.024191648
226	0xbd9d054d	-0.07667027
227	0x3d088999	0.03333435
228	0xbde1f5cb	-0.110332094
229	0xbd19e1f2	-0.037568994
230	0xbdc6c947	-0.09706359
231	0xbd42bc6c	-0.047542974
232	0x3d9eae2a	0.07748063
233	0xbca4bc18	-0.020109221
234	0x3d3e8abb	0.046519022
235	0xbd3a9e6b	-0.045561235
236	0xbdfaad6c	-0.12240109
237	0x3defccea	0.11709006
238	0xbe16ec47	-0.1473857
239	0xbd8553bd	-0.065101124
240	0x3dc12691	0.09431184
241	0xbc694279	-0.01423704
242	0x3e979df6	0.29612702
243	0x3e61cc64	0.22050625
244	0x3cd0e3ad	0.02549919
245	0x3dbaa66d	0.091137744
246	0xbd56dea4	-0.05245842
247	0x3d94ac6e	0.07259451
248	0x3c185530	0.009297654
249	0xbde0e39f	-0.10980915
250	0x3ea3e0cc	0.32007444
251	0x3e49540b	0.19660966
252	0xbe1eb14a	-0.15497318
253	0xbd5587d7	-0.0521315
254	0xbc510bbd	-0.012759146
255	0x3df5d7cd	0.12004051

tcn.network.0.net.4.bias f4 [32]
0	0xbdf55f2b	-0.119810425
1	0xbd7cf272	-0.06175465
2	0xbcd4145b	-0.025888612
3	0xbd4d3fa4	-0.05010952
4	0xbe1d245c	-0.15345901
5	0x3d5367f8	0.051612824
6	0xbd45a1d2	-0.048250027
7	0xbdfbeb2e	-0.12300716
8	0x3caacd17	0.020849748
9	0xbb5a367f	-0.0033296642
10	0xbda9bd6b	-0.08288082
11	0xbe375998	-0.17905271
12	0xbd5db2ab	-0.05412547
13	0x3cd3dba5	0.02586157
14	0xbc426999	-0.011865997
15	0x3d671517	0.056416597
16	0xbd21b493	-0.03947885
17	0x3c4f9f19	0.012672209
18	0x3bef7259	0.0073073325
19	0xbda1fb82	-0.079092994
20	0xbd98cda7	-0.074611
21	0x3d61ca87	0.055124786
22	0x3c8e9450	0.017404705
23	0xbdc0da3c	-0.09416625
24	0xbc3bdc61	-0.011466117
25	0xbd04064d	-0.03223257
26	0x3caf3512	0.02138761
27	0xbd29754a	-0.04137162
28	0xbc43c502	-0.011948826
29	0xbe1932fa	-0.14960852
30	0x3cd6c472	0.02621672
31	0xbc858aee	-0.016301598

tcn.network.0.net.4.weight_g f4 [32, 1, 1]
0	0x3f0bd166	0.5461639
1	0x3f135f26	0.5756706
2	0x3f07e9f7	0.5309138
3	0x3f1b20e2	0.6059705
4	0x3f157fda	0.5839821
5	0x3f0cd3d1	0.55010706
6	0x3f1c7a7c	0.61124396
7	0x3f0e2c50	0.55536366
8	0x3f0783ea	0.5293566
9	0x3f1e4d4d	0.618367
10	0x3f09b9cb	0.5379912
11	0x3ee87403	0.4540101
12	0x3f06d952	0.52675354
13	0x3f0980e7	0.53712314
14	0x3f044433	0.51666564
15	0x3ef86848	0.4851706
16	0x3f07eb82	0.5309373
17	0x3efa90e6	0.48938674
18	0x3f1d356d	0.61409646
19	0x3f1ee147	0.62062496
20	0x3f151b35	0.5824464
21	0x3f169df1	0.5883475
22	0x3f0a6805	0.5406497
23	0x3f0b0a0d	0.5431221
24	0x3f11e9ab	0.56997174
25	0x3f0f15c3	0.5589258
26	0x3f037289	0.5134664
27	0x3f027065	0.5095275
28	0x3f0368fe	0.5133208
29	0x3f09ed35	0.53877574
30	0x3ed26fdc	0.41100967
31	0x3f0e6ea3	0.5563757

tcn.network.0.net.4.weight_v f4 [32, 32, 2]
0	0xbe11f97b	-0.14255325
1	0xbdb059cf	-0.0861088
2	0x3dbbe8dc	0.09175274
3	0xbd926b24	-0.07149342
4	0xbd96d522	-0.073648706
5	0x3d8327dd	0.06404088
6	0xbd2e11b9	-0.04249737
7	0xbd4593a8	-0.04823652
8	0x3c4579b1	0.012052939
9	0xbdc6c45c	-0.09705421
10	0x3daac3f0	0.08338153
11	0x3db79ad0	0.08965075
12	0xba8597f4	-0.001019238
13	0xbdfaafe4	-0.1224058
14	0xbd93af72	-0.07211198
15	0x3d7dbd26	0.061947964
16	0x3d37ec55	0.04490312
17	0x3da405b2	0.08008899
18	0xbe067a0d	-0.13132496
19	0xbc511b0b	-0.012762795
20	0x3db5148d	0.088418104
21	0x3ddbc0b4	0.107301146
22	0x3e21a08c	0.157839
23	0x3dc13bce	0.09435235
24	0xbdd0f241	-0.10202456
25	0x3daa73a1	0.08322836
26	0x3c80b0e8	0.015709355
27	0x3da1baf4	0.078969866
28	0xbdb047de	-0.086074576
29	0xbcf67bca	-0.030088324
30	0xbb25519c	-0.0025225645
31	0xbde72078	-0.1128549
32	0xbdffa059	-0.12481756
33	0x3d90c17f	0.070681565
34	0x3904ac7e	0.0001265276
35	0xbdcb0f53	-0.09915032
36	0x3d6ccaa9	0.05781046
37	0xbd5c688d	-0.053810645
38	0x3d806ab2	0.062703505
39	0xbb9e6e0a	-0.004834895
40	0x3df1152c	0.11771616
41	0x3c8fffd3	0.017578041
42	0x3a175014	0.00057721254
43	0x3d7418f8	0.059594125
44	0x3de541a7	0.11194163
45	0xbddff9b1	-0.10936297
46	0x3d58aafb	0.052897435
47	0xbddf8657	-0.10914295
48	0xbcf1badd	-0.029508049
49	0x3e028de9	0.12749447
50	0xbda46480	-0.08026981
51	0x3d6fbfa2	0.058532365
52	0xbdd80f56	-0.105498
53	0xbd9e9d89	-0.07744891
54	0xbe01ef65	-0.12688978
55	0xbdb3dc60	-0.087822676
56	0xbe21efb6	-0.15814099
57	0x3d8ccb9b	0.06874772
58	0x3c820646	0.015872132
59	0xbd6273e0	-0.05528629
60	0xbc2bca64	-0.010485265
61	0x3c589349	0.013218709
62	0xbd625d47	-0.055264737
63	0xbdd15ae9	-0.10222418
64	0xbdf1fa6e	-0.11815344
65	0xbdbe8715	-0.093031086
66	0x3dca1b3d	0.098684765
67	0x3cd2bd6b	0.025725087
68	0xbb28bcab	-0.002574722
69	0xbde074dd	-0.1095979
70	0x3d59d60f	0.053182658
71	0xbe009d5d	-0.1256003
72	0x3dd15ffb	0.10223385
73	0xbd6c06f5	-0.057623822
74	0x3db7222f	0.08942067
75	0xbd1d2351	-0.03836376
76	0xbde07cbc	-0.10961291
77	0xbd9ebc58	-0.077507675
78	0x3df74d8e	0.12075339
79	0xbd58f662	-0.052969344
80	0xbd1f503e	-0.038894884
81	0x3dff2e34	0.124599844
82	0xbd4058d7	-0.046959724
83	0x3c673900	0.014112711
84	0xbdba173c	-0.09086463
85	0xbd505737	-0.050864425
86	0x3d55d59a	0.05220566
87	0xbe0dc6ca	-0.13845363
88	0x3d31e7fa	0.04343412
89	0x3d93d1e5	0.072177686
90	0x3d961643	0.07328465
91	0x3c0d0f63	0.0086096255
92	0x3d965846	0.073410556
93	0xbdb14f19	-0.08657665
94	0x3da65024	0.08120754
95	0x3ce3dfb2	0.027816627
96	0x3d8f60ef	0.070009105
97	0xbdbfb73c	-0.09361121
98	0x3d885f94	0.06658855
99	0xbd8205c2	-0.063487545
100	0xbe0398ad	-0.1285121
101	0xbca1da44	-0.019757397
102	0xbde3c35a	-0.11121245
103	0x3de0108c	0.10940656
104	0xbd87fdf6	-0.06640236
105	0x3caa6ce5	0.020803878
106	0xbe01d467	-0.12678681
107	0xbd3ed3e0	-0.04658878
108	0xbdb7c8ff	-0.08973884
109	0x3d752dff	0.05985832
110	0xbdb4f167	-0.08835106
111	0x3d5a77f1	0.05333704
112	0x3de732a8	0.11288959
113	0x3de8516a	0.113436535
114	0x3d4e3757	0.050345745
115	0xbcb255fe	-0.02176952
116	0xbdf4c87f	-0.11952304
117	0xbdb85931	-0.09001387
118	0x3d4b5c08	0.049648315
119	0x3cc7b49f	0.024378119
120	0xbe0a2976	-0.13492379
121	0xbd9b932e	-0.07596432
122	0xbd810a26	-0.06300764
123	0xbd4e5bb1	-0.050380412
124	0xbce9239c	-0.028459363
125	0x3cbf121e	0.023324069
126	0xbc422171	-0.011848793
127	0x3dc1a087	0.09454446
128	0xbd5ea3bb	-0.054355364
129	0xbdd7639c	-0.10517046
130	0xbd8086bd	-0.06275699
131	0x3db1b657	0.08677357
132	0x3dfeff47	0.12451034
133	0x3dfa2d90	0.122157216
134	0xbca2dbc4	-0.019880183
135	0x3e0ef27e	0.13959691
136	0x3c65225c	0.013985243
137	0x3e066976	0.13126168
138	0xbde5bcb3	-0.11217632
139	0xbd35aae5	-0.04435243
140	0xbe165cd8	-0.14683855
141	0xbd1e1134	-0.038590625
142	0xbe06d0d9	-0.13165607
143	0xbdd2ba50	-0.102894425
144	0x3d97e408	0.074165404
145	0xbdd220e8	-0.102601826
146	0x3db032c8	0.08603436
147	0x3cd81eb7	0.026381833
148	0x3e0a1793	0.13485555
149	0x3d36b3cd	0.044605065
150	0xbca83102	-0.020531181
151	0xbcfb833d	-0.030702228
152	0x3daf3c47	0.08556419
153	0xbd6b7d14	-0.05749233
154	0xbdcfa4f8	-0.10138887
155	0x3d279160	0.040910125
156	0xbdac8e13	-0.08425536
157	0xbdef2c47	-0.11678367
158	0xbd7bed11	-0.06150538
159	0xbe0432f8	-0.12910068
160	0xbdf11b6a	-0.11772807
161	0x3e5294a0	0.20564508
162	0x3e1855cf	0.14876483
163	0xb56cb043	-8.8173346e-07
164	0x3db55367	0.08853798
165	0xbe007178	-0.12543285
166	0x3d8666f5	0.06562606
167	0xbb3880bb	-0.0028152901
168	0x3ccafc71	0.024778577
169	0x3db805c6	0.08985476
170	0x3d01559c	0.031575784
171	0x3e21669d	0.157618
172	0x3cef2d7d	0.029196495
173	0x3d041fd6	0.032256924
174	0x3db6e1c7	0.08929782
175	0xbd8fb27a	-0.070164636
176	0xbdef6ee9	-0.11691076
177	0xbdb57718	-0.08860606
178	0xbda1fe02	-0.07909776
179	0xbc5f350f	-0.01362349
180	0x3db9c5a2	0.090708986
181	0x3d91b634	0.071148306
182	0xbd9ae43d	-0.07563064
183	0x3d0586f0	0.03259939
184	0x3da91f44	0.082579166
185	0x3d24adf5	0.04020496
186	0xbde310fe	-0.110872254
187	0x3d2a725b	0.041612964
188	0xbc533c75	-0.012892832
189	0xbe2d631c	-0.16932338
190	0x3cb69a6e	0.022290435
191	0x3d4bdf24	0.04977335
192	0x3d3a8e6c	0.04554598
193	0x3c80ca61	0.015721502
194	0xbdd78911	-0.1052419
195	0xbdb9fd0a	-0.090814665
196	0xbd3e4064	-0.046448126
197	0xbd4e39c2	-0.05034805
198	0x3d0208a5	0.031746525
199	0xbb6796af	-0.0035337617
200	0x3d9fe60b	0.07807549
201	0xbd8370a2	-0.064179674
202	0xbdb1503c	-0.086578816
203	0x3d5ca16e	0.05386489
204	0x3a2bf68f	0.00065598724
205	0x3c3d7c71	0.011565314
206	0x3d908110	0.07055867
207	0x3d6afba8	0.057368904
208	0x3b4e76ab	0.0031503837
209	0xbd03b1a3	-0.03215183
210	0xbbb89ff8	-0.005634304
211	0x3cbfa0c8	0.023392096
212	0xbe04631b	-0.1292843
213	0xbe2589cf	-0.16165851
214	0xbdcb9828	-0.09941131
215	0xbcc6d18e	-0.024269845
216	0x3e08bcd0	0.13353276
217	0xbc8323b8	-0.016008243
218	0x3b2992a5	0.002587476
219	0x3c64f357	0.013974032
220	0xbddbac21	-0.1072619
221	0xbdbbf652	-0.09177841
222	0x3d7185a7	0.05896535
223	0x3d174adc	0.036936626
224	0x3e44f65e	0.19234607
225	0x3d928f7a	0.07156272
226	0xb931668a	-0.00016918234
227	0xbcfa0d4d	-0.03052392
228	0x3d9ed131	0.07754744
229	0xbdb2fe81	-0.08739949
230	0x3dab3e6d	0.08361516
231	0xbc11bfe1	-0.008895845
232	0xbd83750a	-0.06418808
233	0x3dfc19bf	0.12309598
234	0x3dd91d95	0.106013454
235	0xbd8583c5	-0.06519274
236	0xbd7a1e83	-0.061064254
237	0xbdbd5a55	-0.09245745
238	0xbe12c1ee	-0.14331791
239	0xbd4869c7	-0.048929002
240	0x3dc683bf	0.09693097
241	0xbd0eb31a	-0.034838773
242	0x3c3648e7	0.01112578
243	0xbd478abe	-0.0487163
244	0xbd405bb6	-0.046962462
245	0x3a88c84a	0.0010435667
246	0x3dd5c301	0.10437585
247	0x3d84feb0	0.0649389
248	0x3d9232b2	0.071385756
249	0xbe0a5a46	-0.13510999
250	0x3e0acd9e	0.13554999
251	0x3d819448	0.063271105
252	0x3e711fb5	0.23547252
253	0x3dc0ebfd	0.09420011
254	0x3e76a701	0.24087144
255	0xbcd179fa	-0.025570858

tcn.network.0.downsample.weight f4 [32, 32, 1]
0	0xbe182682	-0.1485844
1	0x3d0b9f40	0.03408742
2	0xbdeeb35e	-0.11655305
3	0xbde2b495	-0.110695995
4	0x3d0bfefd	0.034178723
5	0x3d088c5e	0.03333699
6	0x3d0671f6	0.032823525
7	0xbe38815a	-0.18018094
8	0x3de2f6e2	0.110822454
9	0xbc6b40e4	-0.014358733
10	0xbe09a55c	-0.13441986
11	0x3e16bfaf	0.14721559
12	0x3dca3934	0.09874192
13	0x3d0bde02	0.03414727
14	0xbe04b3ae	-0.12959167
15	0xbc0af8fc	-0.008482214
16	0x3da51865	0.080612935
17	0x3cf72c42	0.030172471
18	0x3c9538bb	0.018215528
19	0xbc5657eb	-0.013082485
20	0x3de8af24	0.113615304
21	0xbcabec19	-0.020986604
22	0xbc02148d	-0.00793947
23	0xbe23e25e	-0.16004321
24	0x3d3a5137	0.04548761
25	0xbe5cc3c5	-0.21559055
26	0x3e4e2255	0.20130284
27	0x3d51f680	0.05126047
28	0xbce45995	-0.027874747
29	0x3d2dd5a6	0.04244008
30	0x3d34c66a	0.044134535
31	0xbd8c432a	-0.06848748
32	0xbe068abf	-0.13138865
33	0x3de7ea81	0.11324025
34	0x3d03d3ab	0.032184284
35	0xbd8a229e	-0.06744884
36	0xbddf4f2a	-0.10903771
37	0x3dd6aa68	0.10481721
38	0x3e427f5c	0.18993896
39	0x3e2ad308	0.16682065
40	0xbdcc5ef3	-0.099790476
41	0x3d7530a2	0.059860833
42	0x3e34adfd	0.17644496
43	0xbde93de4	-0.11388758
44	0xbe572883	-0.21011548
45	0xbda0f401	-0.0785904
46	0xbe3d6375	-0.18494971
47	0xbe6a8d5f	-0.22905491
48	0x3e27c2e8	0.16382945
49	0x3cc3d2ad	0.023904169
50	0x3daa90b5	0.08328382
51	0x3dd0497a	0.101702645
52	0xbdb133f6	-0.08652489
53	0xbd69bc3b	-0.057064276
54	0xbd9046be	-0.07044743
55	0xbd8df4dc	-0.06931469
56	0xbe2aca62	-0.16678765
57	0xbd67107f	-0.056412216
58	0x3d1c4517	0.038151827
59	0xbdd6d95d	-0.104906775
60	0xbd7b7aaa	-0.06139628
61	0x3e0e149b	0.13875048
62	0x3c15dd13	0.0091469465
63	0xbe12f567	-0.14351426
64	0xbdb5fe4c	-0.08886394
65	0x3e2f488a	0.17117515
66	0xbd909720	-0.07060075
67	0x3decffe0	0.11572242
68	0xbe34a413	-0.17640714
69	0x3e5bbd9c	0.21459049
70	0xbe3b1148	-0.18268311
71	0xbe006c4d	-0.12541313
72	0x3e378f89	0.17925848
73	0xbdcfe2c6	-0.101506755
74	0x3bb98221	0.0056612645
75	0x3c469c13	0.012122172
76	0xbd2696f3	-0.0406713
77	0x3c6e0fea	0.014530161
78	0xbe3bc8a0	-0.18338251
79	0x3e411df0	0.18859076
80	0x3e132c39	0.14372338
81	0x3e489cd0	0.19591069
82	0x3de94ea9	0.11391956
83	0xbe1570f8	-0.14593875
84	0x3e54f47d	0.2079639
85	0xbd9759fb	-0.07390209
86	0x3d802aa3	0.06258132
87	0x3e69f4d6	0.22847304
88	0xbe15e2cd	-0.14637299
89	0xbcc5ada6	-0.024130654
90	0x3e6e7828	0.23288023
91	0xbe29ba66	-0.16575012
92	0x3dd42984	0.10359481
93	0xbe0089f9	-0.12552632
94	0x3d90df43	0.07073834
95	0xbdd2eb71	-0.10298813
96	0x3dcc8e91	0.0998813
97	0xbe002a43	-0.12516122
98	0xbde48d46	-0.11159758
99	0xbe0ae7fa	-0.13565055
100	0x3e2bce1b	0.16777842
101	0x3d14ea3f	0.036356207
102	0x3e3b39f8	0.18283832
103	0xbd8f3299	-0.069920726
104	0xbd8e522f	-0.06949269
105	0xbe13072a	-0.14358202
106	0x3c5c68fd	0.0134527655
107	0xbd90ef83	-0.07076933
108	0x3e015411	0.12629725
109	0xbdf47e53	-0.11938157
110	0xbe01be3d	-0.12670226
111	0x3dd567a3	0.10420158
112	0x3ba444cb	0.0050130836
113	0xbe077b04	-0.1323052
114	0xbdfcf810	-0.12352002
115	0xbd6af413	-0.057361674
116	0x3e035509	0.12825407
117	0xbe10a539	-0.14125527
118	0x3d66bd3b	0.056332808
119	0xbe11801a	-0.14209023
120	0x3e0ca5ac	0.13735074
121	0x3e1d3207	0.15351115
122	0x3dc8513b	0.097811185
123	0xbd53acb5	-0.051678378
124	0xbdd8c756	-0.10584895
125	0x3e3026bf	0.1720228
126	0xbe1495b4	-0.14510232
127	0x3c3be585	0.011468296
128	0xbe61178c	-0.21981639
129	0x3e3d8b91	0.18510272
130	0xbd3d1a8f	-0.046167906
131	0x3d1f6f85	0.038924713
132	0xbe3d7af4	-0.18503934
133	0x3c0cc4f9	0.008591884
134	0xbe09faf9	-0.13474645
135	0x3e049701	0.12948228
136	0x3e1d34bf	0.15352152
137	0xbacbe6c9	-0.001555645
138	0x3dcd5ab2	0.100270644
139	0xbe45b13e	-0.19305894
140	0xbd7d62a1	-0.061861638
141	0xbe7d48f7	-0.24734865
142	0xbddf9d54	-0.1091868
143	0x3e37db30	0.17954707
144	0xbb4e0cbb	-0.0031440693
145	0x3eae8806	0.34088153
146	0xbd3218f9	-0.043480847
147	0x3c7730c9	0.015087315
148	0x3e70ffb4	0.23535043
149	0xbc084a54	-0.008318502
150	0x3dcf122a	0.101108864
151	0xbb3607fd	-0.0027775757
152	0xbe1d3d29	-0.15355362
153	0x3d8bfbe8	0.06835157
154	0x3e652c35	0.22380145
155	0x3d0295c4	0.03188111
156	0xbe1c99e0	-0.15293074
157	0xbe1e8409	-0.15480055
158	0x3ca53f7a	0.02017187
159	0xbe2a8a55	-0.16654332
160	0x3d5add88	0.053433925
161	0xbda9ca31	-0.08290518
162	0x3d9a44a1	0.07532621
163	0xbe538b24	-0.20658547
164	0x3db00d1a	0.08596249
165	0xbe32831c	-0.17432827
166	0x3e1b1324	0.1514402
167	0x3e4b70a8	0.19867194
168	0xbe8bef38	-0.27330947
169	0xbe67392d	-0.22580405
170	0x3d6a284b	0.057167333
171	0xbdfcb66a	-0.1233948
172	0x3d113eb9	0.035460208
173	0xbe3bbe06	-0.18334207
174	0x3cacb59b	0.02108269
175	0xbe3628f8	-0.17789066
176	0x3d1bdcf8	0.03805253
177	0xbdd5e5cd	-0.10444222
178	0x3d3c8913	0.04602916
179	0x3e274307	0.16334163
180	0xbe36d031	-0.17852856
181	0x3c45e328	0.012078084
182	0xbe11a98f	-0.14224838
183	0x3e1d9ae1	0.15391113
184	0xbe01dbd0	-0.12681508
185	0x3db8aa5f	0.09016871
186	0xbe4a3dde	-0.19750163
187	0x3cef0c0c	0.02918055
188	0xbd8879c5	-0.06663851
189	0x3e1aca0a	0.15116134
190	0xbc679f8f	-0.014137163
191	0x3d7e670a	0.062109984
192	0x3ce9fbf0	0.028562516
193	0xbc970307	-0.01843406
194	0xbc9b34dc	-0.018946104
195	0x3decbf63	0.115599416
196	0xbe7181d3	-0.2358468
197	0xbe35f26f	-0.17768262
198	0x3d8b7ff7	0.06811517
199	0xbcd98de8	-0.026556924
200	0x3e414b0d	0.18876286
201	0x3d965c0e	0.07341777
202	0xbda9a3a3	-0.08283164
203	0xbdd6bd78	-0.10485357
204	0x3e10d9b5	0.14145549
205	0xbd890a9a	-0.06691475
206	0x3caa5e7e	0.02079701
207	0xbceb1fd9	-0.02870171
208	0x3e4c9f7e	0.19982716
209	0x3e349be0	0.17637587
210	0xbdf7d230	-0.12100637
211	0xbd18aaa0	-0.037272096
212	0x3e68b480	0.22725105
213	0x3e23d65e	0.15999743
214	0x3e184510	0.14870095
215	0x3d6dd5ea	0.058065332
216	0xbd6a3c54	-0.05718644
217	0xbdc6ddf0	-0.097103
218	0x3d5c2820	0.053749204
219	0xbc40b0f2	-0.011760937
220	0x3d682c0f	0.056682643
221	0xbdce0df8	-0.10061258
222	0x3c2d7e57	0.010589204
223	0x3b97b375	0.0046295472
224	0xbe324c32	-0.17411879
225	0x3dc0b90b	0.09410294
226	0xbcdfcfe6	-0.027320813
227	0x3e28acef	0.16472219
228	0x3d78f45d	0.060779918
229	0x3d514115	0.051087458
230	0x3d9651cb	0.073398195
231	0xbda1e3c8	-0.07904774
232	0x3db421f7	0.08795541
233	0x3e311e97	0.17296825
234	0xbe3a9729	-0.18221726
235	0x3d0a420d	0.033754397
236	0x3d74cf02	0.05976773
237	0xbe2d287b	-0.16909973
238	0x3d53a291	0.051668707
239	0x3dd99a41	0.10625125
240	0x3df3fb64	0.11913183
241	0xbcc590b4	-0.024116851
242	0xbdd5d248	-0.104404986
243	0x3c2a834c	0.01040728
244	0x3d3a0eed	0.04542439
245	0xbdcbf721	-0.099592455
246	0x3e27ad14	0.16374618
247	0x3df56d4e	0.11983739
248	0xbdd7dafb	-0.10539814
249	0xbe5be3cb	-0.21473615
250	0x3e0ef75b	0.13961546
251	0xbcecc480	-0.028902292
252	0x3d1b9540	0.037984133
253	0xbe3f4034	-0.18676835
254	0x3d675269	0.056475077
255	0x3dc14f1b	0.09438916

tcn.network.0.downsample.bias f4 [32]
0	0xbe06a1fe	-0.13147733
1	0xbe0c2109	-0.13684477
2	0x3e290d87	0.16509067
3	0xbd8708a9	-0.06593449
4	0x3d3e9a81	0.046534065
5	0xbe7347de	-0.23757884
6	0xbe5d224c	-0.21595114
7	0x3e0ae79e	0.13564917
8	0xbd94cd6f	-0.07265746
9	0xbda3b6f6	-0.079938814
10	0xbe5e60b7	-0.21716581
11	0xbd9e8340	-0.07739878
12	0x3dd348b4	0.103166014
13	0xbdf0d865	-0.11760024
14	0xbc859a1b	-0.016308835
15	0x3e83ff12	0.2578054
16	0x3e32aefa	0.17449561
17	0xbdaf9cf6	-0.0857486
18	0xbda1882e	-0.07887302
19	0xbe7646e7	-0.24050485
20	0x3dc86214	0.09784332
21	0x3cab86ba	0.020938266
22	0x3d911af3	0.07085218
23	0xbe08ac5a	-0.13346997
24	0x3d328a0d	0.043588687
25	0x3d8453e4	0.06461313
26	0x3da8a68b	0.082348906
27	0xbe03525f	-0.12824391
28	0xbe17ea40	-0.14835453
29	0xbb9b84f9	-0.004746076
30	0x3de484d6	0.11158149
31	0xbd230a04	-0.039804474

tcn.network.1.conv1.bias f4 [32]
0	0x3dda9072	0.10672082
1	0xbd9e9fab	-0.07745298
2	0x3da94075	0.08264247
3	0xbd8bac73	-0.068200015
4	0xbd9e2fa1	-0.07723928
5	0x3cc19f14	0.023635425
6	0xbdb5d639	-0.0887875
7	0xbe09d0d6	-0.13458571
8	0xbe209950	-0.15683484
9	0xbe0525a1	-0.13002636
10	0xbd7e5da0	-0.062101007
11	0xbd2af6e6	-0.041739367
12	0x3d82c2d9	0.063848205
13	0x3d7308a1	0.0593344
14	0xbde3be1e	-0.11120246
15	0xbd737928	-0.059441715
16	0xbd5ded8a	-0.054181613
17	0xbdfca946	-0.12336974
18	0xbca8106d	-0.020515645
19	0xbd2b9575	-0.04189058
20	0xbdc50456	-0.09619968
21	0xbc8f7aed	-0.01751467
22	0x3d8bea2d	0.06831775
23	0x3d2de312	0.04245288
24	0xbda690e9	-0.08133108
25	0xbe09c27f	-0.134531
26	0x3d47227d	0.048616875
27	0xba89ded8	-0.0010518683
28	0xbe0cd029	-0.13751282
29	0x3cf55461	0.029947462
30	0x3ceb3f7d	0.028716797
31	0xbdb21a03	-0.086963676

tcn.network.1.conv1.weight_g f4 [32, 1, 1]
0	0x3f31aafe	0.6940154
1	0x3f2e306c	0.68042636
2	0x3f3eb9c2	0.74502194
3	0x3f069548	0.52571535
4	0x3f2c0d7b	0.6720807
5	0x3f2a34e0	0.6648693
6	0x3f009df5	0.50241023
7	0x3f0a9848	0.5413861
8	0x3f08c365	0.5342315
9	0x3f15d30c	0.58525157
10	0x3f334cbd	0.7003897
11	0x3f2f0ea2	0.683817
12	0x3f20ecd5	0.62861377
13	0x3f15b291	0.58475596
14	0x3f2bdb84	0.6713183
15	0x3f06cb08	0.5265355
16	0x3f2cacbb	0.67451066
17	0x3f01119b	0.5041749
18	0x3f1ccd7b	0.6125104
19	0x3eff451b	0.4985741
20	0x3f38dc25	0.72210914
21	0x3f17a3bf	0.5923423
22	0x3f1910e3	0.5979139
23	0x3f1050aa	0.56373084
24	0x3f242b62	0.64128697
25	0x3f209510	0.6272745
26	0x3f0a47db	0.5401589
27	0x3f0491bc	0.51784873
28	0x3f202a06	0.6256412
29	0x3f01e8ff	0.5074615
30	0x3f187ba6	0.5956367
31	0x3f085b62	0.5326444
