models/prototyping6/tcn_fold_5/best.pth (torch, 224151 bytes, 130 tensors)

tcn.d_reduce.weight f4 [32, 1, 1]
00000000: 4a88 ccbe c086 223f 3e0e 50bf f977 013f
00000010: 71cc 29be c68d f1be bbb4 813f 2fd9 12bf
00000020: c862 ddbe 4c2f 353f 5b8b e3be ce96 89bf
00000030: 7d96 683e dceb 413f 1c7a e53e 27c8 103f
00000040: a8fe 4fbf 9d7c b1be 8f58 82bf af8c f8be
00000050: 738c 673e ecd1 a93e 68bc 2cbf 596c 25be
00000060: e201 073f d813 22bf 79b5 5e3e a49a 723f
00000070: 08a8 1cbf fb52 7fbf cc43 193f d553 d4be
-0.3994773 0.6348686 -0.8127173 0.5057369 -0.16581894 -0.47178477 1.013328 -0.57362646
-0.43239427 0.70775294 -0.44442257 -1.0749147 0.22713657 0.7575052 0.44819725 0.5655541
-0.8124795 -0.34665385 -1.0183276 -0.48544833 0.22612171 0.3316797 -0.67474985 -0.16154613
0.5273725 -0.6331153 0.21748914 0.9476721 -0.61193895 -0.99735993 0.59869075 -0.4147021

tcn.d_reduce.bias f4 [32]
00000000: ed34 dcbd 4397 b6bc a6c1 183e a047 e73c
00000010: ff3f 9ebe 4d83 81be 6f72 2a3f 17cb 0ebf
00000020: 7cae 07be 5950 0cbf 835a 633f c782 3bbf
00000030: e7e8 40bf eed0 013f ee98 14bf b5dc 2f3f
00000040: c3e7 163f 8b13 4b3a 10fa 39bd aeff 6e3f
00000050: 2d32 cb3e 9a2f 683f 7ab4 643f 9c1f 6cbf
00000060: 2d52 e63d 90f3 04bd 30d5 923e 5885 02bf
00000070: ed32 f53d 4d4e 72bf 88dd 64bf 3223 ab3e
-0.10752282 -0.022288924 0.14917621 0.028232396 -0.309082 -0.25295487 0.6658086 -0.5577864
-0.13250154 -0.548101 0.88809985 -0.73246425 -0.7535538 0.50709426 -0.5804585 0.6869615
0.5894739 0.00077467476 -0.045404494 0.93358886 0.3968672 0.90697634 0.89337885 -0.9223573
0.112461425 -0.03245884 0.28678274 -0.50984716 0.11972604 -0.9465073 -0.8940053 0.3342529

tcn.network.0.conv1.bias f4 [32]
00000000: 3c92 b8bd bc07 6a3e cebf 533c ce2a d53c
00000010: 6407 bd3d f50a e53b e6cb 00bd eb37 06be
00000020: 0d85 a4bd 5584 fbbd 809a 95bc ba55 0dbe
00000030: ad79 edbd 06bb 25bd c35f 833d 6ec2 88bc
00000040: aa5a 453d 18ce 43bd dc48 91be 6310 b93d
00000050: 2d22 dbbc d1d0 d93d 4218 873c 4d20 d43d
00000060: 8708 eabd 3ad5 e1bd c7f7 a33d 3e0d bb3c
00000070: 2370 b13d 39a5 84bd 372c 80bd f961 063c
-0.09012267 0.22854513 0.012924148 0.026021387 0.09229925 0.0069898316 -0.031444453 -0.13107269
-0.0803319 -0.122811 -0.018262148 -0.13802233 -0.115954734 -0.040461563 0.064147495 -0.016694274
0.048182167 -0.04780397 -0.283759 0.09036329 -0.026749695 0.10635532 0.01649106 0.103577234
-0.11427408 -0.11026998 0.08006244 0.022833463 0.086639665 -0.06476826 -0.06258433 0.008202069

tcn.network.0.conv1.weight_g f4 [32, 1, 1]
00000000: 32af 133f d94d f73e 53e1 0f3f 1168 033f
00000010: 4d2e 093f fe4e ed3e 8041 023f aa42 193f
00000020: cb6e 133f ed8b 063f ec3e 163f 7102 123f
00000030: 0187 0a3f 2f99 233f a357 0e3f 4364 fe3e
00000040: 67e0 023f f8a0 df3e 38f3 253f 0db8 f43e
00000050: 3745 0e3f d978 113f 94ad 013f dabd 183f
00000060: 3458 093f 3db3 1b3f bda2 da3e 866f f53e
00000070: f21a f53e 8693 fb3e c6c1 dc3e e5ba 133f
0.576892 0.4830158 0.5620319 0.5133067 0.53586274 0.4634933 0.50881195 0.59867346
0.5759093 0.5255726 0.5868976 0.57034975 0.5411225 0.63905615 0.55602473 0.4968587
0.5112366 0.43677497 0.6482425 0.4779667 0.55574363 0.56825024 0.50655484 0.5966469
0.5365021 0.6082037 0.42702284 0.47936648 0.4787212 0.4913599 0.43116587 0.57707053

tcn.network.0.conv1.weight_v f4 [32, 32, 2]
00000000: 6b3b 7b3d a939 96bd 2c44 ce3d a0bf 923d
00000010: 53d8 7bbc 7713 ad3d 8579 e23d 4fce 013e
00000020: d746 50bc 59e3 f03d a309 22bd 3902 88bd
00000030: 8fd1 813a 6447 e1bc 0c21 b63d 9c3b 6aba
00000040: ffa7 803d 5ff0 88bd a4a8 a23d 730f a83d
00000050: 6a60 51bc 4869 6abd 36e6 bfbc ae56 e1bd
00000060: c974 333d c687 b4bd fba4 b9bd 7d72 4abc
00000070: db60 b43d 6e7c a0bd 670f f1bd 5d11 4bbd
00000080: 205e 893d 5de8 173d ee7b 20bd a2a8 22bd
00000090: 7211 3f3d 01ca c43b 3b77 c6bd 7538 293d
000000a0: 0823 933d 4fe4 dabd 0e86 ddbd 33c7 133d
000000b0: 199e 8bbc 2896 f8bd cf04 38bd 30c4 923d
000000c0: 2a2d 393d c732 cabd 5d68 88bd c5f9 ab3d
000000d0: bf34 513d aedb dfbc a8ad 27bd acaf 9abd
000000e0: 46c7 033d 4627 5bbd f80e b5bc 5624 d43d
000000f0: 51c6 bebd 581d b83d 7ea0 e1bd d636 b73d
00000100: c609 adbd 74d7 363d bd84 363d 3d53 72bc
00000110: 33d5 003e ac46 2539 7846 c9bc 1132 86bd
00000120: dd48 f9bb a5bf ba3d 1db6 3dbe fa2d df3b
00000130: c2c2 8d3d eade 013b 83c9 843c e101 853d
00000140: 4a3d 0e3d 8f3b 063e 99b4 fa3c cc25 b6bd
00000150: e319 57bd dbaf 81bd ac27 0c3d 0035 82bd
00000160: 268b 053d 21f1 04be 7559 503d 92ee 743e
00000170: 4780 583d 97fa f23d 5106 8cbd be2a 543d
00000180: 5606 bebd 5a2a 89bd 3c3d 34be 0af9 293d
00000190: fb54 04be b517 1dbd dc95 cf3d e39e 28bc
000001a0: f9aa e93d 5f17 c73d 71fc 4d3e bffd b2bc
000001b0: 5334 93bd 7ab1 063e e8c5 85bc 49aa 90bd
000001c0: 22f5 a8bd 74c7 903c 6b85 663c f00c fd3b
000001d0: 4d2a c0bd 82ee 6a3e d933 f23c 1ad8 e23c
000001e0: 3330 dbbb 1153 66be d8e5 913b fb63 ba3c
000001f0: 28a9 acbc 6288 5f3d f75e cfbd e7be c0bd
00000200: 6387 d9bc b535 63bd 2122 e93d fd58 053d
00000210: 1347 1ebb 0e4e edbd 745a 17bc 79f5 adbd
00000220: 9872 033e c2f2 4bbd 57d6 563d 9c77 94bc
00000230: 3b6f 11bd d3bb f0bb 7be7 bcbd 6901 fe3d
00000240: c007 7e3c 41c0 c73d 094b a63d b93a 05bd
00000250: a18a fbbd f688 b1bc 4112 babc 7a02 f53d
00000260: 78ec cc3d 985f 723d be79 a4bd 46b1 b43d
00000270: 1c70 9cbd fcf9 293d 757a 41bd 7e3f 843d
00000280: 0a1f ad3c 6392 aa3d 3b21 df3d 2af4 2b3d
00000290: 6cce 3c3b 07b5 b2bd 7033 a43d 562b 3a3d
000002a0: ea49 8dbd cb59 43bc b498 bb3d cc59 dc3d
000002b0: fae7 56bd b889 e1bc 6aea 3a3d 9c5b 013e
000002c0: c994 0cbd db74 cfbd 5fb0 173d c0c4 713b
000002d0: 4f0d 80bd 8d0b a03d cbce 93bd f78b 39bd
000002e0: 0750 6ebd 345f e23d ba64 54bd ff2d 9cbd
000002f0: ec78 173d ab96 833d 961f a13c 06e0 54bd
00000300: fb80 0e3e e068 aa3d 3252 1abd c36a 963b
00000310: 7aaa 473d 70a3 983d 533f 85bd 5efb c63d
00000320: 910e 143e 8bf4 a4bc 1fed 3c3d a2cd d2bc
00000330: 966c 863c 8525 5fbb c337 e23d 162c 3d3d
00000340: 26f0 0b3d aa37 e9bd 0a7c a7bb 8693 c83d
00000350: 2825 74bd 95d6 8bbc 8833 79bd 7008 e63c
00000360: 7b4b 453d 1d03 74bd 06af e5bc ea61 853c
00000370: 7ec0 de3c 5cc1 283e b24f 19be 2314 d13c
00000380: 6496 2dbe 33ba ddbb fe51 51bc e7f5 b1bd
00000390: 9f71 bf3d 1edd bfbd bb46 e7bd 83b4 49bd
000003a0: 8700 29be 3147 15be 6b0e a6bd 833e c53c
000003b0: 1f2c 1dbd 15ed 0c3d 2478 b03d 9ff8 a8bc
000003c0: da61 2ebd c466 febd 3f48 b43d 355d cfbd
000003d0: dbc4 d33d f757 d7bd f029 8fbd 6f9a 7b3d
000003e0: c6a8 07be 4456 d73b 8180 243e 8b23 2f3d
000003f0: da8a 1a3c 8b8d 1f3e 4032 03be 33b6 743d
0.061335962 -0.073352166 0.100715965 0.07165456 -0.0153714 0.08450978 0.11058334 0.12676357
-0.012712202 0.11762113 -0.03955997 -0.06641049 0.0009904372 -0.027499862 0.08893022 -0.0008935274
0.06282043 -0.06686472 0.07942322 0.08206072 -0.012779335 -0.05722931 -0.023425203 -0.11002861
0.043812547 -0.08814959 -0.09064671 -0.012356398 0.08807536 -0.07836233 -0.11770516 -0.049577106
0.06707406 0.037086833 -0.03918069 -0.039711602 0.046647497 0.006005526 -0.0969071 0.041313607
0.07184416 -0.10688078 -0.108165845 0.036078643 -0.01704316 -0.12138015 -0.04492646 0.07166326
0.045209087 -0.09872966 -0.06660531 0.08397249 0.051075693 -0.027326431 -0.040937096 -0.07553038
0.032172464 -0.05350425 -0.022101864 0.10358493 -0.093151696 0.08989972 -0.110169396 0.08946006
-0.0844913 0.044639066 0.044560183 -0.014790353 0.12581329 0.00015761954 -0.024569735 -0.06552518
-0.007607563 0.091185845 -0.18526502 0.0068109008 0.06921913 0.0019816705 0.01620937 0.06494499
0.03472642 0.13108657 0.030603694 -0.08893928 -0.052514922 -0.0633237 0.03421752 -0.06357765
0.032603405 -0.12982608 0.050866563 0.23919132 0.05285671 0.118642025 -0.06837142 0.051798575
-0.09278552 -0.06697531 -0.17601484 0.041497268 -0.12923042 -0.038352687 0.10136005 -0.010291788
0.114095636 0.097212546 0.2011583 -0.021849511 -0.071877144 0.1315364 -0.01632972 -0.07063729
-0.082498804 0.017673232 0.014069895 0.0077224895 -0.09383068 0.22942546 0.029565739 0.027690936
-0.0066890954 -0.22492625 0.0044524483 0.022752753 -0.021076754 0.054573424 -0.10125535 -0.09411412
-0.026553815 -0.05547114 0.11383463 0.03255557 -0.002415125 -0.115871534 -0.009237874 -0.08494086
0.12836683 -0.04979206 0.052450504 -0.01812344 -0.03550647 -0.007346609 -0.09223839 0.12402613
0.015504777 0.097534664 0.081197806 -0.032526705 -0.12282301 -0.021671753 -0.022713782 0.11963363
0.1000604 0.059173197 -0.08031033 0.08822875 -0.07638571 0.04149817 -0.047235925 0.06457423
0.021132965 0.08328702 0.1089501 0.0419809 0.002880956 -0.087259345 0.080176234 0.045451485
-0.068988636 -0.011923264 0.09159985 0.10759315 -0.052467324 -0.02753149 0.04563371 0.12632602
-0.03432158 -0.1012971 0.037033435 0.0036890954 -0.062525384 0.07814703 -0.07217177 -0.045299497
-0.05818179 0.11053315 -0.051853873 -0.076259606 0.036980554 0.06425222 0.019668382 -0.051971458
0.1391639 0.083207846 -0.037676044 0.0045903637 0.048746563 0.07453048 -0.06506219 0.09715913
0.14458682 -0.020136138 0.046124574 -0.025732819 0.0164092 -0.0034049463 0.11045792 0.04618462
0.03416457 -0.1138757 -0.005111222 0.09793763 -0.059605747 -0.017070094 -0.06084016 0.028080195
0.048167687 -0.05957328 -0.02803756 0.01628204 0.027191397 0.16480011 -0.14971808 0.025522297
-0.169519 -0.0067665814 -0.012775896 -0.0868948 0.093478434 -0.09368347 -0.11292788 -0.049244415
-0.16504107 -0.14577939 -0.08108219 0.02407766 -0.038372155 0.034405787 0.08616665 -0.020626364
-0.042573787 -0.12421945 0.08802842 -0.101252 0.103402816 -0.10514825 -0.06990421 0.061426576
-0.13247976 0.006571563 0.16064645 0.042758506 0.009432519 0.15581338 -0.12812138 0.05974407

tcn.network.0.conv2.bias f4 [32]
00000000: 32c1 d5bd d2ca eabc ef48 173d 975a bf3d
00000010: 1a69 f8bc f6d2 d7bd aace 113d f1b1 19be
00000020: 403b 7cbc 8aa3 aebd c4b3 fabd d2b3 38be
00000030: 4933 83bd 412c 96bc ce22 bebd 324d 49be
00000040: 0087 843d 8920 86bd 156b 213d 2aa1 c4bd
00000050: e573 313c 2e6c f7bd 8e6e a13c 4020 a33d
00000060: 42a0 b43d 8197 083e 14aa 013e d473 10be
00000070: 66a1 25bb d71e 443d 7a35 2b3c da4d 163d
-0.1043724 -0.028661165 0.03693479 0.093434505 -0.030323554 -0.105382845 0.03559748 -0.15009286
-0.015394986 -0.08527286 -0.12241319 -0.18037346 -0.06406266 -0.018331649 -0.09283982 -0.19658354
0.06471062 -0.06549174 0.039408762 -0.09601052 0.010830854 -0.120811805 0.019706037 0.079651356
0.08819629 0.13339044 0.12662536 -0.14106685 -0.0025273203 0.047880974 0.0104497615 0.03669534

tcn.network.0.conv2.weight_g f4 [32, 1, 1]
00000000: d08d 1a3f fdea ee3e 7e45 033f bce3 133f
00000010: 2ab3 173f c605 0a3f 6815 103f 2032 043f
00000020: 0f24 173f 2c3e 063f 34a8 0d3f e54d 0c3f
00000030: 5aa1 193f 84b7 f33e c81a 043f c2df 1e3f
00000040: 6810 173f 7ae7 1c3f df34 093f 552c 083f
00000050: 02c9 043f b76d 093f b899 043f 3d03 163f
00000060: abb6 163f 706f 093f ccad 133f 0f31 173f
00000070: 5830 013f 6a87 103f 8712 d13e af7e 0c3f
0.6037264 0.46663657 0.5127791 0.5776937 0.5925776 0.5391506 0.56282663 0.51638985
0.59039396 0.52438617 0.5533478 0.5480636 0.6001183 0.4760095 0.51603365 0.6206018
0.5900941 0.61290705 0.535963 0.53192645 0.51869214 0.53683037 0.51797056 0.5859869
0.5887248 0.53685665 0.5768707 0.5905923 0.5046439 0.56456625 0.40834448 0.54880804

tcn.network.0.conv2.weight_v f4 [32, 32, 2]
00000000: 1ff9 05be b90d 8fbd 49c7 9fbd b8f7 af3c
00000010: 82f5 f03d 49a4 d7bd 0491 43bd 4722 b3bb
00000020: a996 15bd cddc 01be b418 97bd d921 543d
00000030: e9a0 0c3e c084 11bd a889 eebd 8a1f babd
00000040: 3782 26be 63d7 2fbe 24aa 9fbd eb92 973d
00000050: 70ad 873d 798f 81bd 8566 9ebb 4f03 f63d
00000060: 1ac8 8cbc ae48 2abd 8b42 d43d d061 0c3c
00000070: 636a 9dbd 93a1 a73d 4223 4ebd 30c9 95bd
00000080: 45c7 9f3d d4da de3d ea7d 1f3d d228 cfbc
00000090: d3b5 553d a892 eabd 92d8 d9bd 6b76 debd
000000a0: 6699 ef3c 5422 03be df8e d2bd 1bc6 b43d
000000b0: 202c 063e 603d 1fbd ee07 bd3d b7c4 6ebc
000000c0: 07a8 d63d 5f14 b73d e968 a53d 72aa a9bd
000000d0: 2d64 c03d 8be4 b33d 45b2 543e 92f2 a4bc
000000e0: 17f0 a93d 5e3d a4bd 1d22 96bd 89a9 5f3d
000000f0: 0597 8dbd 985c e93d 728d 873c 88a9 eebd
00000100: 93fe 1a3a 7be0 033e dac8 673d 47a0 503d
00000110: 264e 03be 70c5 2a3e 0b3b 04be 16cc c53a
00000120: a27a 113e 7fff 523d 34d1 1b3d 17b6 9abd
00000130: f82a 4c3d df99 fcbd 94a7 41be 62b8 af3d
00000140: fbee f6bd eb60 22be fd8f 29be 123a f93d
00000150: 5820 32be 1d08 443e e096 093e 730b cc3c
00000160: 7be8 5abe e1ac 3b3d 8507 ff3d c34d 4c3d
00000170: a7a3 38bd 2a70 133e c2d1 363e 27f7 0b3e
00000180: b669 19be 6840 cd3d 8b15 acbd da9c 093e
00000190: 1ff7 df3d 03ad 1abe 7c8e d7bd 0487 a2bc
000001a0: 9314 41be 2f55 e9bd e0c8 0cbe f02b 883c
000001b0: 74a5 ff3d 5166 433e 639a b8bd cc3d 123e
000001c0: 9e27 5dbc f40a 9bbc a380 eabd b2ee bfb9
000001d0: 1504 9c3a 41db 5dbc ce58 db3c ed51 403d
000001e0: 01dd 0d3d be1a 98bc bde5 0ebe c5d5 ba3d
000001f0: a4a9 e33d c14a 8c3d d930 823d 9d3c c83d
00000200: 9cc6 16be 099e a7bd dd4c 633d 7ffc 4c3d
00000210: 09c9 2c3e 89e7 ca3d 8fb2 e1bd 6a3c 09be
00000220: 9c3b 5ebd 01da 583c 77cb febd d51c 013e
00000230: 2b6f 3b3c 3f95 273c 4f4c ff3a 8b86 2f3d
00000240: ae50 23be 18ca 4d3d 2ff2 40bd 33b2 07be
00000250: 718a a3bd 6a6e 693c af2a 84bd 88c1 d3bd
00000260: 227a 02bd 4227 cf3b 2a27 133e 5c56 b63d
00000270: ada8 e3bd 7a42 25be bf79 6abd a923 943d
00000280: 5bf2 d03d 3c36 edbd 139a d5bd 5a3c 093e
00000290: e092 d6bd 7b1a c53d 8280 c83d 3024 c53d
000002a0: 3014 e33d f9f0 d73d c1fe f53d 682a ee3c
000002b0: 803e 613d d49a 04be 50b0 48bd c5fc 803d
000002c0: 44d7 a2bd 198f 85ba 17bc 0dbe 3b7e 2a3e
000002d0: 5a7c 083c be64 a4bd b665 1abe ee7b dabd
000002e0: 224f af3c 1091 44bd 33c0 083e 53a1 93bd
000002f0: 762c 25be df53 8c3c 9cb6 0abe 3407 39bc
00000300: 7e89 17be 1cc2 9dbd 2e2b 08be 003c c0bc
00000310: dbaf 023e d693 92bd 1cd5 813d d442 25bd
00000320: ce8d e3bc abbf dd3d 86a9 28bd 4678 a33c
00000330: be77 ba3d f59c b2bd 704a 0b3e 977b ac3d
00000340: a77e 41be 86da a8bd cee0 bf3d 3769 823d
00000350: 42a7 e43c 043d 6a3d d772 1ebe 81e9 46be
00000360: a25a 0ebe 1691 89bc a804 38be 15d1 51be
00000370: bff2 013e ad47 d9bd 500a 043e 690d 88bd
00000380: 69f7 a3bd a65c 013e 28a1 42bd 8a84 95bd
00000390: 8ed8 0fbe 99b4 15be 6b64 c9bc 251d 21bd
000003a0: 3845 203d 2b3f 773d 23e3 a3bc 0e8b f8bd
000003b0: 88fe 3f3d 602b 00be 4654 b93d 3470 2e3c
000003c0: 8d8f 173e 9d4b 033c 2bc6 d6bd 3c5f 97bd
000003d0: db9e f1bd 0779 cd3d d2a9 d93c dd3f 7abd
000003e0: ff78 a7bc 14cf a93d affe fc3d c601 d2bd
000003f0: d13f 7d3d caf2 923d f0c5 01b8 f171 9fbd
-0.13083313 -0.06985039 -0.078016825 0.021480426 0.11765577 -0.10529382 -0.04774572 -0.0054667327
-0.036520634 -0.12681885 -0.073777586 0.051790092 0.13733257 -0.03552699 -0.116473496 -0.09088047
-0.1626061 -0.17172007 -0.077961236 0.07401069 0.066248775 -0.06326193 -0.0048339986 0.1201235
-0.01718526 -0.04157322 0.103642546 0.008568242 -0.07686307 0.08185115 -0.050326593 -0.07313764
0.078016795 0.10881582 0.03893844 -0.02528802 0.052175354 -0.11453754 -0.10637011 -0.1086243
0.02924795 -0.12806064 -0.10281157 0.08826848 0.1310277 -0.03887689 0.09230028 -0.014573268
0.104812674 0.08939432 0.08076651 -0.08284463 0.09394107 0.087838255 0.2077113 -0.020135198
0.08297747 -0.08019517 -0.07330725 0.05460504 -0.0691357 0.11394614 0.016546939 -0.11653429
0.00059125683 0.12878601 0.05658803 0.050934102 -0.1282278 0.16676879 -0.12913148 0.001509073
0.14206937 0.05151319 0.03804131 -0.07554262 0.049845666 -0.12334036 -0.18911582 0.0858009
-0.12057301 -0.15857284 -0.16558833 0.12169279 -0.1739515 0.1914372 0.1343646 0.024907803
-0.21377747 0.045819167 0.12452606 0.049878847 -0.045077946 0.14398256 0.17853454 0.136685
-0.14981732 0.1002205 -0.084025465 0.1343874 0.109358065 -0.15105061 -0.105252236 -0.019839771
-0.18855505 -0.113932006 -0.13748503 0.016622514 0.124827296 0.19082 -0.09013822 0.14281386
-0.013498215 -0.018926121 -0.11450317 -0.000366082 0.0011903072 -0.013541044 0.026775744 0.04695313
0.034634594 -0.01856744 -0.13954826 0.091228046 0.11116341 0.06850196 0.06356973 0.09777186
-0.14724201 -0.0818444 0.055493224 0.050045487 0.16873564 0.09907443 -0.110203855 -0.13401952
-0.054256067 0.01323557 -0.124411516 0.12608655 0.011440079 0.010228454 0.0019477698 0.04285292
-0.15948746 0.05024156 -0.047105964 -0.13251571 -0.0798539 0.014247516 -0.06453454 -0.103396475
-0.031854756 0.0063218186 0.14370409 0.089031905 -0.11116157 -0.1613864 -0.057245012 0.07233364
0.10202476 -0.1158261 -0.10429778 0.13401929 -0.10477233 0.096241914 0.09790136 0.09626043
0.11087835 0.10544009 0.12011481 0.029072955 0.054991245 -0.12949687 -0.04899627 0.06298212
-0.07951215 -0.0010189741 -0.13841282 0.16649716 0.008330429 -0.080270275 -0.15077862 -0.10668169
0.021400038 -0.047989905 0.13354568 -0.072085045 -0.16130242 0.017129837 -0.13546222 -0.011293221
-0.14798543 -0.07703039 -0.13297722 -0.02346611 0.12762396 -0.07157104 0.063394755 -0.040346935
-0.027777579 0.108275734 -0.041177295 0.019954812 0.0910487 -0.087213434 0.13602614 0.084220104
-0.1889597 -0.08244805 0.0936905 0.063677244 0.027911786 0.057187095 -0.15473495 -0.19425012
-0.13901761 -0.016792815 -0.17970526 -0.20489915 0.12690257 -0.10609374 0.12894559 -0.06643183
-0.08006174 0.12632999 -0.04751697 -0.073006704 -0.14047453 -0.14619674 -0.024584016 -0.039334435
0.039128512 0.060362976 -0.020005768 -0.121358976 0.0468736 -0.12516546 0.09049277 0.0106468685
0.14800854 0.008013633 -0.10487016 -0.073912114 -0.117978774 0.1003285 0.026570234 -0.06109606
-0.020443438 0.0829145 0.123532645 -0.102542445 0.06182844 0.071752146 -3.094034e-05 -0.077854045

tcn.network.0.net.0.bias f4 [32]
00000000: 3c92 b8bd bc07 6a3e cebf 533c ce2a d53c
00000010: 6407 bd3d f50a e53b e6cb 00bd eb37 06be
00000020: 0d85 a4bd 5584 fbbd 809a 95bc ba55 0dbe
00000030: ad79 edbd 06bb 25bd c35f 833d 6ec2 88bc
00000040: aa5a 453d 18ce 43bd dc48 91be 6310 b93d
00000050: 2d22 dbbc d1d0 d93d 4218 873c 4d20 d43d
00000060: 8708 eabd 3ad5 e1bd c7f7 a33d 3e0d bb3c
00000070: 2370 b13d 39a5 84bd 372c 80bd f961 063c
-0.09012267 0.22854513 0.012924148 0.026021387 0.09229925 0.0069898316 -0.031444453 -0.13107269
-0.0803319 -0.122811 -0.018262148 -0.13802233 -0.115954734 -0.040461563 0.064147495 -0.016694274
0.048182167 -0.04780397 -0.283759 0.09036329 -0.026749695 0.10635532 0.01649106 0.103577234
-0.11427408 -0.11026998 0.08006244 0.022833463 0.086639665 -0.06476826 -0.06258433 0.008202069

tcn.network.0.net.0.weight_g f4 [32, 1, 1]
00000000: 32af 133f d94d f73e 53e1 0f3f 1168 033f
00000010: 4d2e 093f fe4e ed3e 8041 023f aa42 193f
00000020: cb6e 133f ed8b 063f ec3e 163f 7102 123f
00000030: 0187 0a3f 2f99 233f a357 0e3f 4364 fe3e
00000040: 67e0 023f f8a0 df3e 38f3 253f 0db8 f43e
00000050: 3745 0e3f d978 113f 94ad 013f dabd 183f
00000060: 3458 093f 3db3 1b3f bda2 da3e 866f f53e
00000070: f21a f53e 8693 fb3e c6c1 dc3e e5ba 133f
0.576892 0.4830158 0.5620319 0.5133067 0.53586274 0.4634933 0.50881195 0.59867346
0.5759093 0.5255726 0.5868976 0.57034975 0.5411225 0.63905615 0.55602473 0.4968587
0.5112366 0.43677497 0.6482425 0.4779667 0.55574363 0.56825024 0.50655484 0.5966469
0.5365021 0.6082037 0.42702284 0.47936648 0.4787212 0.4913599 0.43116587 0.57707053

tcn.network.0.net.0.weight_v f4 [32, 32, 2]
00000000: 6b3b 7b3d a939 96bd 2c44 ce3d a0bf 923d
00000010: 53d8 7bbc 7713 ad3d 8579 e23d 4fce 013e
00000020: d746 50bc 59e3 f03d a309 22bd 3902 88bd
00000030: 8fd1 813a 6447 e1bc 0c21 b63d 9c3b 6aba
00000040: ffa7 803d 5ff0 88bd a4a8 a23d 730f a83d
00000050: 6a60 51bc 4869 6abd 36e6 bfbc ae56 e1bd
00000060: c974 333d c687 b4bd fba4 b9bd 7d72 4abc
00000070: db60 b43d 6e7c a0bd 670f f1bd 5d11 4bbd
00000080: 205e 893d 5de8 173d ee7b 20bd a2a8 22bd
00000090: 7211 3f3d 01ca c43b 3b77 c6bd 7538 293d
000000a0: 0823 933d 4fe4 dabd 0e86 ddbd 33c7 133d
000000b0: 199e 8bbc 2896 f8bd cf04 38bd 30c4 923d
000000c0: 2a2d 393d c732 cabd 5d68 88bd c5f9 ab3d
000000d0: bf34 513d aedb dfbc a8ad 27bd acaf 9abd
000000e0: 46c7 033d 4627 5bbd f80e b5bc 5624 d43d
000000f0: 51c6 bebd 581d b83d 7ea0 e1bd d636 b73d
00000100: c609 adbd 74d7 363d bd84 363d 3d53 72bc
00000110: 33d5 003e ac46 2539 7846 c9bc 1132 86bd
00000120: dd48 f9bb a5bf ba3d 1db6 3dbe fa2d df3b
00000130: c2c2 8d3d eade 013b 83c9 843c e101 853d
00000140: 4a3d 0e3d 8f3b 063e 99b4 fa3c cc25 b6bd
00000150: e319 57bd dbaf 81bd ac27 0c3d 0035 82bd
00000160: 268b 053d 21f1 04be 7559 503d 92ee 743e
00000170: 4780 583d 97fa f23d 5106 8cbd be2a 543d
00000180: 5606 bebd 5a2a 89bd 3c3d 34be 0af9 293d
00000190: fb54 04be b517 1dbd dc95 cf3d e39e 28bc
000001a0: f9aa e93d 5f17 c73d 71fc 4d3e bffd b2bc
000001b0: 5334 93bd 7ab1 063e e8c5 85bc 49aa 90bd
000001c0: 22f5 a8bd 74c7 903c 6b85 663c f00c fd3b
000001d0: 4d2a c0bd 82ee 6a3e d933 f23c 1ad8 e23c
000001e0: 3330 dbbb 1153 66be d8e5 913b fb63 ba3c
000001f0: 28a9 acbc 6288 5f3d f75e cfbd e7be c0bd
00000200: 6387 d9bc b535 63bd 2122 e93d fd58 053d
00000210: 1347 1ebb 0e4e edbd 745a 17bc 79f5 adbd
00000220: 9872 033e c2f2 4bbd 57d6 563d 9c77 94bc
00000230: 3b6f 11bd d3bb f0bb 7be7 bcbd 6901 fe3d
00000240: c007 7e3c 41c0 c73d 094b a63d b93a 05bd
00000250: a18a fbbd f688 b1bc 4112 babc 7a02 f53d
00000260: 78ec cc3d 985f 723d be79 a4bd 46b1 b43d
00000270: 1c70 9cbd fcf9 293d 757a 41bd 7e3f 843d
00000280: 0a1f ad3c 6392 aa3d 3b21 df3d 2af4 2b3d
00000290: 6cce 3c3b 07b5 b2bd 7033 a43d 562b 3a3d
000002a0: ea49 8dbd cb59 43bc b498 bb3d cc59 dc3d
000002b0: fae7 56bd b889 e1bc 6aea 3a3d 9c5b 013e
000002c0: c994 0cbd db74 cfbd 5fb0 173d c0c4 713b
000002d0: 4f0d 80bd 8d0b a03d cbce 93bd f78b 39bd
000002e0: 0750 6ebd 345f e23d ba64 54bd ff2d 9cbd
000002f0: ec78 173d ab96 833d 961f a13c 06e0 54bd
00000300: fb80 0e3e e068 aa3d 3252 1abd c36a 963b
00000310: 7aaa 473d 70a3 983d 533f 85bd 5efb c63d
00000320: 910e 143e 8bf4 a4bc 1fed 3c3d a2cd d2bc
00000330: 966c 863c 8525 5fbb c337 e23d 162c 3d3d
00000340: 26f0 0b3d aa37 e9bd 0a7c a7bb 8693 c83d
00000350: 2825 74bd 95d6 8bbc 8833 79bd 7008 e63c
00000360: 7b4b 453d 1d03 74bd 06af e5bc ea61 853c
00000370: 7ec0 de3c 5cc1 283e b24f 19be 2314 d13c
00000380: 6496 2dbe 33ba ddbb fe51 51bc e7f5 b1bd
00000390: 9f71 bf3d 1edd bfbd bb46 e7bd 83b4 49bd
000003a0: 8700 29be 3147 15be 6b0e a6bd 833e c53c
000003b0: 1f2c 1dbd 15ed 0c3d 2478 b03d 9ff8 a8bc
000003c0: da61 2ebd c466 febd 3f48 b43d 355d cfbd
000003d0: dbc4 d33d f757 d7bd f029 8fbd 6f9a 7b3d
000003e0: c6a8 07be 4456 d73b 8180 243e 8b23 2f3d
000003f0: da8a 1a3c 8b8d 1f3e 4032 03be 33b6 743d
0.061335962 -0.073352166 0.100715965 0.07165456 -0.0153714 0.08450978 0.11058334 0.12676357
-0.012712202 0.11762113 -0.03955997 -0.06641049 0.0009904372 -0.027499862 0.08893022 -0.0008935274
0.06282043 -0.06686472 0.07942322 0.08206072 -0.012779335 -0.05722931 -0.023425203 -0.11002861
0.043812547 -0.08814959 -0.09064671 -0.012356398 0.08807536 -0.07836233 -0.11770516 -0.049577106
0.06707406 0.037086833 -0.03918069 -0.039711602 0.046647497 0.006005526 -0.0969071 0.041313607
0.07184416 -0.10688078 -0.108165845 0.036078643 -0.01704316 -0.12138015 -0.04492646 0.07166326
0.045209087 -0.09872966 -0.06660531 0.08397249 0.051075693 -0.027326431 -0.040937096 -0.07553038
0.032172464 -0.05350425 -0.022101864 0.10358493 -0.093151696 0.08989972 -0.110169396 0.08946006
-0.0844913 0.044639066 0.044560183 -0.014790353 0.12581329 0.00015761954 -0.024569735 -0.06552518
-0.007607563 0.091185845 -0.18526502 0.0068109008 0.06921913 0.0019816705 0.01620937 0.06494499
0.03472642 0.13108657 0.030603694 -0.08893928 -0.052514922 -0.0633237 0.03421752 -0.06357765
0.032603405 -0.12982608 0.050866563 0.23919132 0.05285671 0.118642025 -0.06837142 0.051798575
-0.09278552 -0.06697531 -0.17601484 0.041497268 -0.12923042 -0.038352687 0.10136005 -0.010291788
0.114095636 0.097212546 0.2011583 -0.021849511 -0.071877144 0.1315364 -0.01632972 -0.07063729
-0.082498804 0.017673232 0.014069895 0.0077224895 -0.09383068 0.22942546 0.029565739 0.027690936
-0.0066890954 -0.22492625 0.0044524483 0.022752753 -0.021076754 0.054573424 -0.10125535 -0.09411412
-0.026553815 -0.05547114 0.11383463 0.03255557 -0.002415125 -0.115871534 -0.009237874 -0.08494086
0.12836683 -0.04979206 0.052450504 -0.01812344 -0.03550647 -0.007346609 -0.09223839 0.12402613
0.015504777 0.097534664 0.081197806 -0.032526705 -0.12282301 -0.021671753 -0.022713782 0.11963363
0.1000604 0.059173197 -0.08031033 0.08822875 -0.07638571 0.04149817 -0.047235925 0.06457423
0.021132965 0.08328702 0.1089501 0.0419809 0.002880956 -0.087259345 0.080176234 0.045451485
-0.068988636 -0.011923264 0.09159985 0.10759315 -0.052467324 -0.02753149 0.04563371 0.12632602
-0.03432158 -0.1012971 0.037033435 0.0036890954 -0.062525384 0.07814703 -0.07217177 -0.045299497
-0.05818179 0.11053315 -0.051853873 -0.076259606 0.036980554 0.06425222 0.019668382 -0.051971458
0.1391639 0.083207846 -0.037676044 0.0045903637 0.048746563 0.07453048 -0.06506219 0.09715913
0.14458682 -0.020136138 0.046124574 -0.025732819 0.0164092 -0.0034049463 0.11045792 0.04618462
0.03416457 -0.1138757 -0.005111222 0.09793763 -0.059605747 -0.017070094 -0.06084016 0.028080195
0.048167687 -0.05957328 -0.02803756 0.01628204 0.027191397 0.16480011 -0.14971808 0.025522297
-0.169519 -0.0067665814 -0.012775896 -0.0868948 0.093478434 -0.09368347 -0.11292788 -0.049244415
-0.16504107 -0.14577939 -0.08108219 0.02407766 -0.038372155 0.034405787 0.08616665 -0.020626364
-0.042573787 -0.12421945 0.08802842 -0.101252 0.103402816 -0.10514825 -0.06990421 0.061426576
-0.13247976 0.006571563 0.16064645 0.042758506 0.009432519 0.15581338 -0.12812138 0.05974407

tcn.network.0.net.4.bias f4 [32]
00000000: 32c1 d5bd d2ca eabc ef48 173d 975a bf3d
00000010: 1a69 f8bc f6d2 d7bd aace 113d f1b1 19be
00000020: 403b 7cbc 8aa3 aebd c4b3 fabd d2b3 38be
00000030: 4933 83bd 412c 96bc ce22 bebd 324d 49be
00000040: 0087 843d 8920 86bd 156b 213d 2aa1 c4bd
00000050: e573 313c 2e6c f7bd 8e6e a13c 4020 a33d
00000060: 42a0 b43d 8197 083e 14aa 013e d473 10be
00000070: 66a1 25bb d71e 443d 7a35 2b3c da4d 163d
-0.1043724 -0.028661165 0.03693479 0.093434505 -0.030323554 -0.105382845 0.03559748 -0.15009286
-0.015394986 -0.08527286 -0.12241319 -0.18037346 -0.06406266 -0.018331649 -0.09283982 -0.19658354
0.06471062 -0.06549174 0.039408762 -0.09601052 0.010830854 -0.120811805 0.019706037 0.079651356
0.08819629 0.13339044 0.12662536 -0.14106685 -0.0025273203 0.047880974 0.0104497615 0.03669534

tcn.network.0.net.4.weight_g f4 [32, 1, 1]
00000000: d08d 1a3f fdea ee3e 7e45 033f bce3 133f
00000010: 2ab3 173f c605 0a3f 6815 103f 2032 043f
00000020: 0f24 173f 2c3e 063f 34a8 0d3f e54d 0c3f
00000030: 5aa1 193f 84b7 f33e c81a 043f c2df 1e3f
00000040: 6810 173f 7ae7 1c3f df34 093f 552c 083f
00000050: 02c9 043f b76d 093f b899 043f 3d03 163f
00000060: abb6 163f 706f 093f ccad 133f 0f31 173f
00000070: 5830 013f 6a87 103f 8712 d13e af7e 0c3f
0.6037264 0.46663657 0.5127791 0.5776937 0.5925776 0.5391506 0.56282663 0.51638985
0.59039396 0.52438617 0.5533478 0.5480636 0.6001183 0.4760095 0.51603365 0.6206018
0.5900941 0.61290705 0.535963 0.53192645 0.51869214 0.53683037 0.51797056 0.5859869
0.5887248 0.53685665 0.5768707 0.5905923 0.5046439 0.56456625 0.40834448 0.54880804

tcn.network.0.net.4.weight_v f4 [32, 32, 2]
00000000: 1ff9 05be b90d 8fbd 49c7 9fbd b8f7 af3c
00000010: 82f5 f03d 49a4 d7bd 0491 43bd 4722 b3bb
00000020: a996 15bd cddc 01be b418 97bd d921 543d
00000030: e9a0 0c3e c084 11bd a889 eebd 8a1f babd
00000040: 3782 26be 63d7 2fbe 24aa 9fbd eb92 973d
00000050: 70ad 873d 798f 81bd 8566 9ebb 4f03 f63d
00000060: 1ac8 8cbc ae48 2abd 8b42 d43d d061 0c3c
00000070: 636a 9dbd 93a1 a73d 4223 4ebd 30c9 95bd
00000080: 45c7 9f3d d4da de3d ea7d 1f3d d228 cfbc
00000090: d3b5 553d a892 eabd 92d8 d9bd 6b76 debd
000000a0: 6699 ef3c 5422 03be df8e d2bd 1bc6 b43d
000000b0: 202c 063e 603d 1fbd ee07 bd3d b7c4 6ebc
000000c0: 07a8 d63d 5f14 b73d e968 a53d 72aa a9bd
000000d0: 2d64 c03d 8be4 b33d 45b2 543e 92f2 a4bc
000000e0: 17f0 a93d 5e3d a4bd 1d22 96bd 89a9 5f3d
000000f0: 0597 8dbd 985c e93d 728d 873c 88a9 eebd
00000100: 93fe 1a3a 7be0 033e dac8 673d 47a0 503d
00000110: 264e 03be 70c5 2a3e 0b3b 04be 16cc c53a
00000120: a27a 113e 7fff 523d 34d1 1b3d 17b6 9abd
00000130: f82a 4c3d df99 fcbd 94a7 41be 62b8 af3d
00000140: fbee f6bd eb60 22be fd8f 29be 123a f93d
00000150: 5820 32be 1d08 443e e096 093e 730b cc3c
00000160: 7be8 5abe e1ac 3b3d 8507 ff3d c34d 4c3d
00000170: a7a3 38bd 2a70 133e c2d1 363e 27f7 0b3e
00000180: b669 19be 6840 cd3d 8b15 acbd da9c 093e
00000190: 1ff7 df3d 03ad 1abe 7c8e d7bd 0487 a2bc
000001a0: 9314 41be 2f55 e9bd e0c8 0cbe f02b 883c
000001b0: 74a5 ff3d 5166 433e 639a b8bd cc3d 123e
000001c0: 9e27 5dbc f40a 9bbc a380 eabd b2ee bfb9
000001d0: 1504 9c3a 41db 5dbc ce58 db3c ed51 403d
000001e0: 01dd 0d3d be1a 98bc bde5 0ebe c5d5 ba3d
000001f0: a4a9 e33d c14a 8c3d d930 823d 9d3c c83d
00000200: 9cc6 16be 099e a7bd dd4c 633d 7ffc 4c3d
00000210: 09c9 2c3e 89e7 ca3d 8fb2 e1bd 6a3c 09be
00000220: 9c3b 5ebd 01da 583c 77cb febd d51c 013e
00000230: 2b6f 3b3c 3f95 273c 4f4c ff3a 8b86 2f3d
00000240: ae50 23be 18ca 4d3d 2ff2 40bd 33b2 07be
00000250: 718a a3bd 6a6e 693c af2a 84bd 88c1 d3bd
00000260: 227a 02bd 4227 cf3b 2a27 133e 5c56 b63d
00000270: ada8 e3bd 7a42 25be bf79 6abd a923 943d
00000280: 5bf2 d03d 3c36 edbd 139a d5bd 5a3c 093e
00000290: e092 d6bd 7b1a c53d 8280 c83d 3024 c53d
000002a0: 3014 e33d f9f0 d73d c1fe f53d 682a ee3c
000002b0: 803e 613d d49a 04be 50b0 48bd c5fc 803d
000002c0: 44d7 a2bd 198f 85ba 17bc 0dbe 3b7e 2a3e
000002d0: 5a7c 083c be64 a4bd b665 1abe ee7b dabd
000002e0: 224f af3c 1091 44bd 33c0 083e 53a1 93bd
000002f0: 762c 25be df53 8c3c 9cb6 0abe 3407 39bc
00000300: 7e89 17be 1cc2 9dbd 2e2b 08be 003c c0bc
00000310: dbaf 023e d693 92bd 1cd5 813d d442 25bd
00000320: ce8d e3bc abbf dd3d 86a9 28bd 4678 a33c
00000330: be77 ba3d f59c b2bd 704a 0b3e 977b ac3d
00000340: a77e 41be 86da a8bd cee0 bf3d 3769 823d
00000350: 42a7 e43c 043d 6a3d d772 1ebe 81e9 46be
00000360: a25a 0ebe 1691 89bc a804 38be 15d1 51be
00000370: bff2 013e ad47 d9bd 500a 043e 690d 88bd
00000380: 69f7 a3bd a65c 013e 28a1 42bd 8a84 95bd
00000390: 8ed8 0fbe 99b4 15be 6b64 c9bc 251d 21bd
000003a0: 3845 203d 2b3f 773d 23e3 a3bc 0e8b f8bd
000003b0: 88fe 3f3d 602b 00be 4654 b93d 3470 2e3c
000003c0: 8d8f 173e 9d4b 033c 2bc6 d6bd 3c5f 97bd
000003d0: db9e f1bd 0779 cd3d d2a9 d93c dd3f 7abd
000003e0: ff78 a7bc 14cf a93d affe fc3d c601 d2bd
000003f0: d13f 7d3d caf2 923d f0c5 01b8 f171 9fbd
-0.13083313 -0.06985039 -0.078016825 0.021480426 0.11765577 -0.10529382 -0.04774572 -0.0054667327
-0.036520634 -0.12681885 -0.073777586 0.051790092 0.13733257 -0.03552699 -0.116473496 -0.09088047
-0.1626061 -0.17172007 -0.077961236 0.07401069 0.066248775 -0.06326193 -0.0048339986 0.1201235
-0.01718526 -0.04157322 0.103642546 0.008568242 -0.07686307 0.08185115 -0.050326593 -0.07313764
0.078016795 0.10881582 0.03893844 -0.02528802 0.052175354 -0.11453754 -0.10637011 -0.1086243
0.02924795 -0.12806064 -0.10281157 0.08826848 0.1310277 -0.03887689 0.09230028 -0.014573268
0.104812674 0.08939432 0.08076651 -0.08284463 0.09394107 0.087838255 0.2077113 -0.020135198
0.08297747 -0.08019517 -0.07330725 0.05460504 -0.0691357 0.11394614 0.016546939 -0.11653429
0.00059125683 0.12878601 0.05658803 0.050934102 -0.1282278 0.16676879 -0.12913148 0.001509073
0.14206937 0.05151319 0.03804131 -0.07554262 0.049845666 -0.12334036 -0.18911582 0.0858009
-0.12057301 -0.15857284 -0.16558833 0.12169279 -0.1739515 0.1914372 0.1343646 0.024907803
-0.21377747 0.045819167 0.12452606 0.049878847 -0.045077946 0.14398256 0.17853454 0.136685
-0.14981732 0.1002205 -0.084025465 0.1343874 0.109358065 -0.15105061 -0.105252236 -0.019839771
-0.18855505 -0.113932006 -0.13748503 0.016622514 0.124827296 0.19082 -0.09013822 0.14281386
-0.013498215 -0.018926121 -0.11450317 -0.000366082 0.0011903072 -0.013541044 0.026775744 0.04695313
0.034634594 -0.01856744 -0.13954826 0.091228046 0.11116341 0.06850196 0.06356973 0.09777186
-0.14724201 -0.0818444 0.055493224 0.050045487 0.16873564 0.09907443 -0.110203855 -0.13401952
-0.054256067 0.01323557 -0.124411516 0.12608655 0.011440079 0.010228454 0.0019477698 0.04285292
-0.15948746 0.05024156 -0.047105964 -0.13251571 -0.0798539 0.014247516 -0.06453454 -0.103396475
-0.031854756 0.0063218186 0.14370409 0.089031905 -0.11116157 -0.1613864 -0.057245012 0.07233364
0.10202476 -0.1158261 -0.10429778 0.13401929 -0.10477233 0.096241914 0.09790136 0.09626043
0.11087835 0.10544009 0.12011481 0.029072955 0.054991245 -0.12949687 -0.04899627 0.06298212
-0.07951215 -0.0010189741 -0.13841282 0.16649716 0.008330429 -0.080270275 -0.15077862 -0.10668169
0.021400038 -0.047989905 0.13354568 -0.072085045 -0.16130242 0.017129837 -0.13546222 -0.011293221
-0.14798543 -0.07703039 -0.13297722 -0.02346611 0.12762396 -0.07157104 0.063394755 -0.040346935
-0.027777579 0.108275734 -0.041177295 0.019954812 0.0910487 -0.087213434 0.13602614 0.084220104
-0.1889597 -0.08244805 0.0936905 0.063677244 0.027911786 0.057187095 -0.15473495 -0.19425012
-0.13901761 -0.016792815 -0.17970526 -0.20489915 0.12690257 -0.10609374 0.12894559 -0.06643183
-0.08006174 0.12632999 -0.04751697 -0.073006704 -0.14047453 -0.14619674 -0.024584016 -0.039334435
0.039128512 0.060362976 -0.020005768 -0.121358976 0.0468736 -0.12516546 0.09049277 0.0106468685
0.14800854 0.008013633 -0.10487016 -0.073912114 -0.117978774 0.1003285 0.026570234 -0.06109606
-0.020443438 0.0829145 0.123532645 -0.102542445 0.06182844 0.071752146 -3.094034e-05 -0.077854045

tcn.network.0.downsample.weight f4 [32, 32, 1]
00000000: a165 64be 1490 15bc 5256 62be 03f4 903e
00000010: 912b b2bc 2d36 3dbe ccea 803e db3e 1ebe
00000020: c005 62be b870 02be c5eb f23d 2e63 2fbd
00000030: 62ed 003e a99f aabd 3b18 6abc 1721 8dba
00000040: cda5 003e 6eb6 c13c 2b69 d7bd 8569 2fbe
00000050: 1bb6 8b3d 8ac2 03be 53c5 30be 5626 063e
00000060: af70 973e 0dd4 dabd 1b1c be3d 28a5 ae3d
00000070: 8838 6fbe 3644 09be 1f78 a43c f2b4 343d
00000080: 0d50 223e d91a 75bd dae7 0c3d 1602 8bbe
00000090: 8fda 213d 804f 283e b3f1 11be 44c3 453e
000000a0: f4ec 9c3e 041b 9fbd c099 103d 2cc6 af3e
000000b0: 54cf 2d3e f66a 07be c5a7 85bd 46d9 7abe
000000c0: 6c37 203e f8f5 103e b098 4d3e 4a41 7f3d
000000d0: 214e 9bbd c124 3fbe 457d afbd 5027 503e
000000e0: aacb 05be 58c3 9a3e 4f64 c6ba 5e7f a03c
000000f0: 56ef 4d3e dec4 603e 2cef bfbd 2265 4b3e
00000100: 7728 01be 4cd7 893e 3e20 4abe db81 9c3e
00000110: becd 4cbd fd53 f3bd eb97 703e 4ad8 3bbe
00000120: 146e 23be fe1a 043e 6914 4b3c 6191 5bbc
00000130: 6e11 0b3e f385 563d b600 b63c 7c9b 3c3e
00000140: db43 bf3d a7e5 99bb a418 7ebe e76f 39bc
00000150: 5a2a 213c 7ad5 483e bccb e1bd 6c0a a3bd
00000160: 0f36 8b3e 41df 303c 80c8 693c 29ea 083e
00000170: c95d b13c 326e 3fbe 31c9 36be d264 25be
00000180: 2a08 26bd dd38 c6bd 4ce9 2a3e fd29 63be
00000190: ec57 0d3e d569 5fbd 8165 a4bc 7085 e9bd
000001a0: 9de9 4c3d 02f3 93bd 4079 14be 661c c53d
000001b0: b44e 13be 1b27 f93b 4e40 ed3d fa2f 69bd
000001c0: 704d 3c3e 982f fa3c d9d5 3c3e b1ae 5d3d
000001d0: d88c 443d 98ae a93c e6cf 0d3e a8b6 dc3d
000001e0: 0ded cfbd 0588 b8bd 9e37 1bbe 67d0 56be
000001f0: 5e9a 3fbd 80d1 debd 4467 a9bd 847f 0ebe
00000200: bd2e 8bbd c1ea 8d3e a60d b4bd 4bb0 963e
00000210: 8f47 51be 42f0 14be 67f1 1dbc 033e 2fbe
00000220: 1661 01be d095 653e b877 38bc afac 2abd
00000230: 188b 87bc 32e1 243e d638 30bd 54ce 223e
00000240: 6d09 09be 4915 a4be c7a0 c2be 82aa 5dbd
00000250: 32cc 6c3e 4441 bb3d 9084 2abe ac7f f33d
00000260: dc67 253e 156b 8abe 832d 2e3e adcf 873d
00000270: 5df6 a7be a103 aabd 543c cbbd e09b 20be
00000280: 37a6 e0bd ada4 1bbe 8a7b 08be 6e49 923d
00000290: 3ccf d6bd 02e2 73bd 7915 13be e42f b33c
000002a0: 5226 023e 853f 09be acc5 39bd 2705 c3bd
000002b0: 0306 1fbe ef98 20be 80c8 523d df6b 843b
000002c0: 7a12 03be 133d 0bbd 29d5 393e 26ac 243e
000002d0: 798b bbbc 0985 e7bd 0f4d 08be 631b c1bd
000002e0: 0e75 7ebd cdf2 03bd 3538 d5bc 9309 52bd
000002f0: 239b 2b3d 2630 233e 3eb2 25be 4a4b d53d
00000300: 85b0 83be 6090 fa3d 8a24 97be 897f 353e
00000310: c2a5 0e3e cfb0 26be b168 3b3e 8b8a 13bd
00000320: d265 fdbd 2fca 253e d524 063e 5fdb 47be
00000330: 6a13 003e 82bc 3a3e 0174 053d 1384 bf3d
00000340: c342 e83d 7601 2fbe e3a0 b7bd 6e13 ddbd
00000350: 5e9c f93d 2821 b93d 7511 913d 68a8 fdbd
00000360: ef5e 0bbc 5184 b6bc 1be9 1b3d c936 913d
00000370: a569 723c f329 83be 8e79 de3d 0d11 e63d
00000380: 0c68 743e 8d17 23be 1b23 5a3e 862e 20bd
00000390: 2a07 2d3d 07f7 7a3e 1bc9 8abd 1762 a63e
000003a0: 9084 4d3e 5874 c1bd 2b7b 34bd f498 113e
000003b0: 2bd5 35be 54de afbe 0304 f23c f0a4 9dbe
000003c0: 2fd6 c83d 38f2 253e 6c45 373e 8e50 2abc
000003d0: df86 00be 4bdb 5ebe fb49 5b3e c22e 443e
000003e0: 845e 1ebe ef2d b93d b04f 72be c8c6 e03c
000003f0: af75 043e 3af8 863e 86af b63d 64dc 1d3e
-0.22304393 -0.009128589 -0.22103241 0.28311166 -0.02174929 -0.18477698 0.25179136 -0.15453665
-0.22072506 -0.12738311 0.11861376 -0.042819194 0.12590554 -0.08331234 -0.014288004 -0.0010767308
0.12563248 0.02364656 -0.10518106 -0.17130096 0.06821843 -0.1286718 -0.17262773 0.13100561
0.29578158 -0.10684977 0.092827044 0.08527595 -0.23361409 -0.13404927 0.02007681 0.044117875
0.1585085 -0.059840057 0.0344008 -0.2715003 0.039515074 0.16436577 -0.14252357 0.19312769
0.3064953 -0.07768825 0.035302877 0.3433088 0.1697362 -0.13224396 -0.0652614 -0.24496946
0.15646142 0.1415633 0.20077777 0.062318124 -0.07583261 -0.18666364 -0.08568815 0.20327497
-0.13065973 0.3022716 -0.0015136095 0.019591983 0.2011083 0.21950099 -0.0937179 0.19862798
-0.12613092 0.2692207 -0.19738862 0.30567822 -0.0500009 -0.11881254 0.23495452 -0.18344226
-0.1595996 0.12900922 0.012395003 -0.01340136 0.13580868 0.052373838 0.022217136 0.18418688
0.09339114 -0.004696566 -0.24814087 -0.0113181835 0.009836758 0.19612685 -0.110251874 -0.07960972
0.2718968 0.010795415 0.014268994 0.13370575 0.021651166 -0.1869438 -0.17850186 -0.16151741
-0.04053513 -0.096788146 0.16690558 -0.22183986 0.13803071 -0.05454429 -0.020067932 -0.11402404
0.05002748 -0.072240844 -0.14499378 0.09624557 -0.14385492 0.0076035387 0.11584531 -0.05693052
0.18388915 0.030540273 0.18440951 0.054121677 0.04798588 0.020713136 0.13848838 0.107770264
-0.10152636 -0.09010319 -0.15157935 -0.20977937 -0.046778075 -0.10879803 -0.082716495 -0.13915831
-0.06796024 0.27718166 -0.08791666 0.29431376 -0.20437454 -0.14544776 -0.009640074 -0.171135
-0.12634692 0.2242043 -0.011259012 -0.04166859 -0.016545817 0.1610153 -0.043022953 0.1589902
-0.13382502 -0.3204749 -0.38013288 -0.054117687 0.2312477 0.09143308 -0.16652131 0.11889586
0.161529 -0.27034822 0.17009549 0.06631408 -0.32805148 -0.083014734 -0.09923616 -0.15684462
-0.10969203 -0.15199538 -0.13328376 0.07142912 -0.104887456 -0.05954171 -0.1436366 0.021873422
0.1270993 -0.13403137 -0.04535453 -0.09522467 -0.15529637 -0.1568334 0.051460743 0.0040411795
-0.12800017 -0.03399379 0.1814772 0.16081294 -0.022893654 -0.11304671 -0.13310646 -0.09429052
-0.06212335 -0.032213975 -0.026027778 -0.051278662 0.041895997 0.15936336 -0.16181275 0.10414751
-0.2572061 0.122345686 -0.29520065 0.17724432 0.13930419 -0.16278385 0.18301655 -0.036020797
-0.12372936 0.16190408 0.13099988 -0.19517277 0.12507406 0.18235973 0.032581333 0.09351363
0.11340859 -0.17090401 -0.089662336 -0.107947215 0.12188028 0.09039527 0.07083408 -0.123856366
-0.008506521 -0.02227989 0.038064104 0.070905276 0.014795695 -0.25617942 0.108630285 0.11233721
0.23867816 -0.15926953 0.21302454 -0.03910687 0.04224316 0.24508296 -0.06776639 0.32496712
0.200701 -0.09446019 -0.044062775 0.14218503 -0.17757098 -0.3434931 0.029542929 -0.307899
0.09806477 0.1620568 0.17897576 -0.010395182 -0.12551449 -0.21763341 0.2141494 0.19158462
-0.15465742 0.09041964 -0.23663211 0.027438536 0.12935518 0.26361257 0.08920197 0.15416104

tcn.network.0.downsample.bias f4 [32]
00000000: 4dfa f53d e4f9 983d aed3 ae3c c831 2f3e
00000010: 0782 8fbd 6db2 2a3e 11b1 a23d e611 76bd
00000020: d3ac 773d ee75 753e e7cd cf3d 4389 0b3e
00000030: 37d5 833d 3902 4abd dc1b 33be f548 d13d
00000040: 4977 1c3e 82c5 1a3e b91e 1c3e 69a8 0cbe
00000050: 968c fdbb e28b 4f3e d261 87bd e929 1abc
00000060: 1963 823c 5858 cd3d 4216 173e ded8 7c3d
00000070: 7c21 bdbd fd09 45be 5697 53bd 4230 50be
0.12010632 0.07469538 0.021341171 0.17108834 -0.070072226 0.16669627 0.07943929 -0.060075663
0.060467552 0.23970768 0.10146695 0.1362658 0.06437152 -0.049318526 -0.17491096 0.102189936
0.15279879 0.15114406 0.15246095 -0.13736118 -0.0077377064 0.20268205 -0.066104546 -0.009409406
0.015916394 0.10026616 0.14754584 0.06173026 -0.09234902 -0.19242091 -0.051657997 -0.20330909

tcn.network.1.conv1.bias f4 [32]
00000000: ef06 e43d 5bff acbc 3e81 f43d eb86 93be
00000010: b8b0 b73d 8379 623c 46ae 0ebe ceeb 403e
00000020: ac65 0cbe 87f6 16ba 4459 283d c73c 7fbb
00000030: 9000 06bd 3d97 43bd cb37 a3bc 9d02 9f3d
00000040: 1c50 8e3d f3fd 99bd a936 fc3c 118e cfbd
00000050: 39a3 29be 486c 40bd 6d00 533c ab13 233e
00000060: e596 e83c 56db fd3d 591c c0bd bbb0 5e3d
00000070: d963 f9bd 8b1d 25bc 258a e73b 89c8 bc3d
0.11134135 -0.021117857 0.119387135 -0.28813872 0.08969253 0.013822916 -0.13933668 0.18839952
-0.1371066 -0.00057587813 0.041100755 -0.0038946138 -0.03271538 -0.047751654 -0.019924065 0.0776417
0.069488734 -0.0751914 0.030787783 -0.10134519 -0.16566171 -0.046978265 0.0128785195 0.15925471
0.028392265 0.12395351 -0.09380407 0.054367762 -0.121772476 -0.010077844 0.0070660287 0.092179365

tcn.network.1.conv1.weight_g f4 [32, 1, 1]
00000000: 9fc9 323f 6f24 243f 04c3 073f 0716 303f
00000010: c172 0d3f d580 223f 450d 293f c255 033f
00000020: f622 283f 39c8 173f 7d89 3b3f 5583 1c3f
00000030: 0ee1 fc3e 470c 0e3f 54ad 103f f6e3 183f
00000040: 64e8 0f3f 64a0 183f 2b62 193f 7734 033f
00000050: f4cb 1e3f 9f42 0f3f 8603 163f 8c40 113f
00000060: d753 3a3f 5fb6 123f 1c05 4f3f 82db 3c3f
00000070: 24a2 163f 7420 063f fb3d 173f cc27 103f
0.698389 0.64118093 0.53031945 0.6878361 0.55253226 0.6347783 0.6603587 0.5130273
0.65678346 0.5928989 0.73256665 0.61137897 0.49390453 0.55487484 0.5651448 0.5972284
0.56213975 0.59619737 0.5991542 0.5125193 0.6202996 0.5596103 0.58599126 0.56739116
0.7278418 0.57309526 0.8086717 0.7377244 0.58841157 0.5239327 0.5907895 0.56310725

tcn.network.1.conv1.weight_v f4 [32, 32, 2]
00000000: 8b70 0d3e 59ef e5bd b26c 2fbe 578f e93d
00000010: 25f9 2b3e 07b1 043c 6c5a a9bd 3811 883d
00000020: 5b4e 503c 7d34 47be 9643 15be b75c 573d
00000030: 802b 033e 1f74 d4bd afee 1cbd c74f b13d
00000040: 9a76 13be fa71 de3b 7524 98bc 2e75 5abd
00000050: 9e6d 2abd 506e f23c 9a51 3f3d be13 13bd
00000060: abb5 ad3d b5fd 5bbd 111c 293e c131 41bd
00000070: 5ff5 ad37 a18a f038 e040 c3bd 74aa 80bd
00000080: 4d54 df3d aaec 88bc 73db 033e 2e67 debd
00000090: 4917 143d ce19 bdbd 6fcb 08be d138 253e
000000a0: 08f3 083e 11f8 e3bc dce2 1f3e ad99 b1bd
000000b0: 8884 bc3c bca4 843c 2a92 c53c 375d c73d
000000c0: 4c3a 453d ac28 4abe 0d80 e93d befa 21be
000000d0: 4a23 d73d 923a d1bd 388e 22bd 78d4 4dbd
000000e0: 0724 f83b 5ce6 f83c c7c8 1e3b 17c7 e93a
000000f0: 19fe 8f3d d861 823c 125f c5bb f662 24b9
00000100: 399f 033e 1147 90bd 7c21 b6bd 0eab e03c
00000110: 8e74 513e 634e 2fbd c7c5 7fbd 6a87 a1bd
00000120: 0c41 c33c 5703 74bd bbd3 10be 6545 1e3c
00000130: c467 0a3e 32cf d8bd 40e1 0cbc 727a d73d
00000140: 3000 86bd a17e 8d3d cdc7 273e 3d68 ffbd
00000150: 5ab9 103d 8d0b 2b3b 8d53 073e bcea a2bd
00000160: 4a29 4e3d c8cf a43d e722 cc3d 9c98 2abe
00000170: ed80 04bb 4f94 24b9 4ec6 1bbe 5e76 813d
00000180: 2e9a 53bd c13d 89bc a8e0 6f3d 6e60 c3bd
00000190: 7f13 bf3d 5794 8dbd 1ef3 fabc 1208 a43d
000001a0: efc6 193e 48cb 82bd 872b 333e 1409 31be
000001b0: df97 9bbd 3ad4 b4bd 2b89 e2bd c96d 62bd
000001c0: 1e76 a43d 50ff 63bc f969 7dbd 4c3b 0bbe
000001d0: 9a67 7abd 3442 e7bd 09a6 fbbc 8dcf 1cbd
000001e0: 1b3e 64bd 7ca1 c0bc f85c 133b 1e21 253b
000001f0: b72c 8e3e 893e 09be a3a2 69bb 0a13 aa39
00000200: dcc8 113e d282 503d 07b1 5dbe d434 c93d
00000210: 21aa 7f3d a7a4 3bbd a013 10be 8829 173d
00000220: 0a19 15bd f1a4 7fbd 6594 d9bd a88d 8d3d
00000230: 75b6 53bd 9530 15bd 8c4b 1ebe 9e9c 8f3d
00000240: c3f1 2fbd c35d 2cbe 48eb 5b3d 7693 9abd
00000250: 21cf adbd 11b6 403e 78cc 89bd 2a58 293d
00000260: c982 de3c 05d4 493d 0d28 d0bd 254c 20be
00000270: d8b7 023e b7fa a33d a8ff 963c c253 273e
00000280: 216e a73d 42fb 2a3d 9ec1 663d 6d52 bf3c
00000290: 9917 9d3d 2e9c 4fbd 3a8f 3bbe 419d 9bbd
000002a0: 310c fa3a 8c17 da3a cb4d 363d 94a2 13be
000002b0: 3be8 233e 5e3a 95bd 2a62 c2bc 972a 8dbd
000002c0: e19e 793d 796d e4bd eb13 03be 0fdf 65bd
000002d0: 8249 89bd f4d7 f1bd 1c82 ddbd 72bd 19be
000002e0: 4d45 d63d 21f5 f23d 32c4 af3d 57cd 7dbd
000002f0: 191f ba3d bc67 703d b843 ca3d fd35 113e
00000300: 4cc1 bc3c 3840 633e 4f99 2ebb f9fa 83b8
00000310: 252f ba3d c8e7 473e fd56 10bd f927 83bd
00000320: 741c 07bd aae6 253e 9785 313c 6b56 bebc
00000330: edf7 b0bc 9ab1 ebbc e3d6 e73c 9498 1cb9
00000340: 4e04 4eba 2e24 4bbb ba37 823c 156b b5bd
00000350: 9ae0 ffbd 4198 6bbe ea3d fcbd d58f 633d
00000360: a99c bbbd c164 e3bd 5a35 5abd b1b7 0e3e
00000370: 3b89 bebc 32ff 8dbb 8114 b3bd 1e7b b13a
00000380: 59e5 cb3d 47b7 253e dd09 963d c9d5 2a3e
00000390: 5e3f 36be 0587 17be fc91 c2bb 180b 963a
000003a0: d53d 62bd cb3f 7b3d 90c4 8ebc 3385 e83d
000003b0: 93ea 38be 40d1 d5bd bc7b a0bd 5c4e ebbd
000003c0: 7f2e b2bd 7d17 c33d 2fe4 b0bd f6d6 c63d
000003d0: b829 d03d 5f71 f53c 6be2 9f3d 6b79 bc3b
000003e0: cf72 353b 7873 e5bd b0d4 573d 29f7 75ba
000003f0: 0de3 c1bd b93c 323d 7542 ef3a 5151 c33d
0.13812463 -0.112272926 -0.17131308 0.11404293 0.1679426 0.008098847 -0.082692 0.06643909
0.012713994 -0.19453616 -0.14576563 0.052578654 0.12809563 -0.10373711 -0.038313564 0.086577944
-0.14400712 0.0067884894 -0.018572072 -0.053334408 -0.041608445 0.029593617 0.04670868 -0.0359075
0.08481916 -0.05370875 0.16514613 -0.04716659 2.0737467e-05 0.000114699134 -0.09533858 -0.06282511
0.10904751 -0.016714413 0.12876682 -0.10859524 0.03615502 -0.092334375 -0.13358854 0.16134955
0.13373959 -0.027828248 0.15613884 -0.086718895 0.023012415 0.016191833 0.024117548 0.09734576
0.0481513 -0.19742078 0.11401377 -0.15818307 0.10504778 -0.102162495 -0.03968641 -0.050251454
0.007572654 0.030383281 0.002422856 0.0017835823 0.07030887 0.015915796 -0.006023296 -0.00015677125
0.12853707 -0.07044805 -0.088931054 0.027425315 0.20454618 -0.042799365 -0.062444475 -0.07887156
0.023834728 -0.059573498 -0.14143269 0.0096601 0.13516146 -0.10586394 -0.008598626 0.105214015
-0.065430045 0.06908918 0.16384812 -0.12471054 0.035333015 0.0026099414 0.13215466 -0.07954928
0.050332345 0.08047444 0.099675946 -0.16659778 -0.0020218447 -0.00015695508 -0.15212366 0.06321405
-0.05166071 -0.01675308 0.05856386 -0.09539877 0.093298905 -0.06913059 -0.030633505 0.08009352
0.15017293 -0.06386429 0.17497073 -0.1728862 -0.075973265 -0.088295415 -0.11061319 -0.05528048
0.080303416 -0.013915852 -0.06186864 -0.13596839 -0.06113396 -0.11291924 -0.03071882 -0.038283873
-0.05572329 -0.023514502 0.0022485834 0.0025196741 0.2776849 -0.13402762 -0.0035649918 0.00032439112
0.14236778 0.05090601 -0.21649562 0.09824529 0.062418107 -0.04581132 -0.14069986 0.03690484
-0.036400832 -0.06241316 -0.10624007 0.069117844 -0.051687676 -0.036423285 -0.15458506 0.07012294
-0.04295517 -0.16832642 0.05369118 -0.07547657 -0.08486772 0.18819453 -0.067284524 0.041343845
0.027161973 0.049274463 -0.10163889 -0.15654047 0.12765443 0.080068044 0.018432453 0.16340545
0.08175302 0.041743524 0.05633699 0.023354733 0.076705165 -0.050686054 -0.18316355 -0.07598353
0.001907712 0.0016639098 0.044507783 -0.14417487 0.16006558 -0.07286523 -0.023728449 -0.06892889
0.060942534 -0.11153693 -0.12800567 -0.05612093 -0.06703474 -0.11808768 -0.10815832 -0.15013674
0.10462437 0.11863161 0.08582343 -0.061963405 0.09087963 0.05869268 0.098761976 0.14180751
0.02304139 0.22192466 -0.0026641672 -6.293314e-05 0.09091023 0.19522011 -0.03523921 -0.064041086
-0.03298612 0.16201273 0.010835073 -0.023234567 -0.021602595 -0.02877121 0.028300708 -0.00014934159
-0.0007858918 -0.0030996907 0.015895713 -0.08858315 -0.12494011 -0.23007299 -0.12316497 0.05555709
-0.0916074 -0.11103202 -0.053273536 0.1393726 -0.023258796 -0.0043334 -0.08744145 0.001354072
0.09955854 0.16183196 0.073261 0.16683115 -0.1779761 -0.147976 -0.005937813 0.0011447398
-0.05523475 0.061340135 -0.017427713 0.11353531 -0.18058233 -0.10440302 -0.078361005 -0.11489555
-0.08700275 0.095259644 -0.086372726 0.09708969 0.10164207 0.029961286 0.07806858 0.005751779
0.002768684 -0.112036645 0.05269307 -0.0009382838 -0.094671346 0.04351494 0.0018254059 0.09536994

tcn.network.1.conv2.bias f4 [32]
00000000: bf5f 23bd 4b96 4cbc b41b 3c3e c9c9 94bd
00000010: d170 1c3c 8c76 a2bd fb95 92bd 8ca6 c7bd
00000020: 549a cfbd 5978 a03c 2857 ed3d f97e 363e
00000030: dd2d 1e3c 0f07 763d 183a 2a3d d8d0 66bc
00000040: 3d4e 8e3d 86be a4bc dcb3 aa3c d764 64bd
00000050: 432a 133d d03a 1e3d d931 023e 1dec a23d
00000060: aba1 d3bd 6f88 44be 2a33 8cbd 1331 c6bd
00000070: 4e2b 3dbc 1ce8 f13d a9d2 753d d3d6 4cbc
-0.039886232 -0.0124870045 0.18369943 -0.0726505 0.009548382 -0.07932767 -0.07157513 -0.09748563
-0.10136858 0.019588636 0.11588889 0.17821874 0.009654489 0.060065325 0.04155931 -0.014087878
0.069485165 -0.02011038 0.020837717 -0.05576023 0.035928976 0.038630307 0.12714328 0.07955191
-0.1033357 -0.1919267 -0.06845696 -0.09677329 -0.011545969 0.118118495 0.060015354 -0.01250239

tcn.network.1.conv2.weight_g f4 [32, 1, 1]
00000000: 17f6 133f 4e77 0d3f 7588 1f3f 4000 0c3f
00000010: 6103 433f 8a33 033f e092 153f cc90 163f
00000020: 77c1 f63e 0df6 fa3e 71da 2a3f 9054 173f
00000030: 3d82 fc3e f6c6 123f 26c1 1b3f d8fe 313f
00000040: 0366 e83e c4e1 113f bda2 023f e33c 1f3f
00000050: df46 253f f626 043f be26 203f a42b 203f
00000060: e122 053f d9c2 473f 49b6 013f 7e53 0c3f
00000070: e213 1c3f b166 233f cc3a 273f 9552 073f
0.5779738 0.5526017 0.6231759 0.5468788 0.7617703 0.5125052 0.5842724 0.5881469
0.48194477 0.49015847 0.66739565 0.5911341 0.49318114 0.5733484 0.60841596 0.69529486
0.4539033 0.56985116 0.5102957 0.6220228 0.64561266 0.5162195 0.62559116 0.6256659
0.52006346 0.7803169 0.5066877 0.548149 0.6096784 0.6382857 0.6532409 0.52860385
