models/prototyping6/tcn_fold_5/best.pth (torch, 224151 bytes, 130 tensors)

tcn.d_reduce.weight f4 [32, 1, 1]
00000000: d39d 863f 2595 aa3e 4100 16bf 44d6 44bf
00000010: 6f30 7cbf 7e97 d7be 8ad4 3bbf 74f4 243f
00000020: d50c 843e 9b77 423f 8dff 173e 0350 f1be
00000030: 8daa 20bf 6bc9 fb3e ddb7 87bf 3ded 543f
00000040: 2b1d 8ebf af3e 693f 32f9 a9be 690e 6b3e
00000050: 49ab 8c3e 3ad6 c63d b0d6 853f fddd 0e3f
00000060: ffaa 723f 46f2 1bbf 7c68 cbbc 20c4 083f
00000070: 7129 00bf f461 11bf ec90 9e3c e2e3 2c3f
1.0516914 0.33316913 -0.5859414 -0.76889443 -0.98511404 -0.42107767 -0.73371184 0.64435506
0.2579104 0.75963753 0.14843579 -0.47131357 -0.6276024 0.49177107 -1.0602986 0.83174497
-1.1102651 0.9111127 -0.33197933 0.22954716 0.2747443 0.09708829 1.0456142 0.5580748
0.9479217 -0.60916555 -0.024830095 0.53424263 -0.50063235 -0.5679009 0.019356214 0.6753522

tcn.d_reduce.bias f4 [32]
00000000: b7d2 473f 94fc c9be 5b62 21bf 2439 3a3e
00000010: f584 5cbf 8c07 ff3e 7ffc 1d3f bb10 593f
00000020: 6183 ddbe 4871 183f 30de ce3e ba68 2dbf
00000030: 815d 7b3f 5b18 943e 28a6 0b3e 21af 02bf
00000040: 33a8 28be f0b4 7a3f 551c d13e 6481 fe3d
00000050: ca1e 5ebf 60dc 1cbf e678 3d3f d304 253f
00000060: 0d99 253f 3b5d 133f 59d2 623f eecd 1abf
00000070: b7a1 27bf 9a7e 193e 442f 16be 2e12 0cbf
0.780559 -0.39450514 -0.63040704 0.1818586 -0.86140376 0.49810445 0.61713403 0.84791154
-0.43264297 0.59547853 0.4040389 -0.67737925 0.9818955 0.28924832 0.13637602 -0.51048476
-0.16470413 0.9793234 0.40841928 0.12427023 -0.8676573 -0.61273766 0.740126 0.64460486
0.6468666 0.57564133 0.88602215 -0.60470474 -0.6548113 0.14989701 -0.14666468 -0.5471524

tcn.network.0.conv1.bias f4 [32]
00000000: 31bc e4bc 371d 4ebd 8f0e 593b a1a0 083e
00000010: 6a94 0abd ac47 8ebc c58b 843d a7dd c8bd
00000020: 673d 803c 5429 9e3c 0866 803d f8ca 6a3c
00000030: 635f cabd 22e7 debc 7316 3cbe 061e 9c3d
00000040: c012 83bd eb9d 533d 32da f9bc fec0 41bc
00000050: f111 13be 863b 233c 4cf8 223d 83f4 14be
00000060: 4838 01be 69e2 35be c25a e6bd 058f 78bd
00000070: dbeb 15be dedb 65bb 65b2 aebd e4bd a5bd
-0.027921768 -0.05032083 0.003312025 0.13342525 -0.033832945 -0.01736816 0.064719714 -0.09807902
0.015654279 0.019306816 0.06269461 0.014330618 -0.09881475 -0.027209822 -0.18367939 0.07622914
-0.06400061 0.051664274 -0.030499551 -0.011825798 -0.14362313 0.009962922 0.039787576 -0.14546399
-0.12619126 -0.1776215 -0.112477794 -0.06068327 -0.14640753 -0.0035073678 -0.0853012 -0.080928594

tcn.network.0.conv1.weight_g f4 [32, 1, 1]
00000000: 7428 1c3f 1233 013f 5887 133f 593b 133f
00000010: 31d2 e03e 41ac fa3e 84bb 123f 2472 1b3f
00000020: ba6d ea3e 753d 013f daa7 0a3f 2c34 0d3f
00000030: 0b3d fb3e 069b 0f3f 1d75 103f cab5 fa3e
00000040: 81b4 063f ab95 093f 789f 163f 5c61 1c3f
00000050: 005d 0c3f cbcb 2a3f b4f5 113f 1cb1 f83e
00000060: 0816 213f 33e8 1d3f 3e10 0d3f a20e e83e
00000070: c21f 153f e4b1 053f d561 113f 23bc 083f
0.60999227 0.5046855 0.57628393 0.5751243 0.43910363 0.48959544 0.57317376 0.6072104
0.4578684 0.504844 0.5416237 0.5515773 0.4907001 0.5609592 0.564287 0.4896682
0.5261918 0.53744 0.5883708 0.6108606 0.54829407 0.66717213 0.5701554 0.48572624
0.6292424 0.6168243 0.5510291 0.45323664 0.58251584 0.52224565 0.56789905 0.53412074

tcn.network.0.conv1.weight_v f4 [32, 32, 2]
00000000: 1448 fabc 2c47 be3d 3531 e53d 69ee c0bb
00000010: 31e9 f8bd 6dae 453c 4748 c5bc a68c 3a3d
00000020: 7469 ba3d 4fd4 f03d 9488 cabc 23c6 ab3d
00000030: b1b1 cfbd 4b5c aebd 9250 14bd a7c2 be3d
00000040: 143b 8c3b 4b7a 9f3d a1ea c5bd e1b2 7d3b
00000050: 4136 993d b6bf 8ebd e51a 79bd daa2 59bd
00000060: 6d1f a2bd de01 f6bd 889c 3f3d 719f 00be
00000070: 9c06 f6bd 05b5 cfbd 6631 ecbd 5de9 1cbd
00000080: 1b3a b9bd 0cf4 ba3d 35d0 8fbb de34 473d
00000090: 5184 8dbc 01a1 21bd 937a f3bd 8e7e ee3b
000000a0: c1c6 a2bd d463 da3d e3e6 aebb 3cd7 323d
000000b0: 3828 cfbc f5bf d63b 2d97 a7bd a7d2 fbbd
000000c0: 342d 99bd 309c 2cbd 2d34 d6bd f9ac 17bd
000000d0: 2202 253d f84d 753d e732 d5bd b423 b73d
000000e0: 556b 583d b81e c33d d14f fe3d 5e4e 663c
000000f0: 597f 823d e59f 9cbd e42c a7bd 3372 613b
00000100: 7d54 c3bd bab9 1abd 1dd3 2b3e d6e3 2fbd
00000110: 825a e23c 4d15 19b9 eb3f a2bd d15c 5dbd
00000120: 3bfd 263d 2ca5 f13c 0844 973d 4cfa 19be
00000130: 242c 113d c1bb f4bd 41d5 2a3d 14be 67bd
00000140: d464 1a3e 26d1 243e 866e a13d bec8 c1bd
00000150: 5d56 16be 5bb4 013d b2c9 6e3d 882e 95bd
00000160: c3cb 983c 7d2c cabd f0b9 ab3c 5cd1 f9bd
00000170: 881f afbd 520d 673d d6bb cdbc e822 c13d
00000180: cd42 733d b743 b3bc 73d8 c4bc 7704 babd
00000190: cb34 38bd 3e16 bdbd 259e a53c 94e2 3cbd
000001a0: 38eb 923d 499c c5bb 5d37 1b3e ad1f 66bc
000001b0: bbc3 213d 1d80 ba3a fad2 6bbd 4fef 60bd
000001c0: 1e21 753c d977 393d 798b 6a3d 02d0 aebd
000001d0: 5568 acbd 571b ed3c e75f b4bd cdcf 583c
000001e0: 5e6f cdbc 37c7 f03d 0271 a7bd 75e6 03bc
000001f0: d291 92bc 776b bc3d d2b6 8ebd e1d4 8b3c
00000200: 3fa4 e83c fdf1 883d 8772 ffbc ca3b 85bd
00000210: e631 eebd 05e1 5e3b 0446 053d 616e cfbd
00000220: 3663 fd3c e669 8dbd 5b3c 17bd 33e3 c0bc
00000230: 0589 9d3d 6b6d b6bc 7bf9 dabd 64f6 d6bd
00000240: 8b73 653d 5828 da3d 716c a9bd 4f13 5b3d
00000250: bf24 ba3c b6b9 87bd 5298 8abc 29e2 bb3d
00000260: 25c1 833d cfe7 99bd 08b0 783d eb4f 85bd
00000270: 2e6a 15be 7b5a 7d3d 9060 103e 8e3f c8bd
00000280: 82bf 34bb d4b5 823d 3aa8 f7bd e42d 373d
00000290: 98f2 4f3d b13c 8fbc 83a1 c8bd 5c0c d9bd
000002a0: 8815 c83d 8472 1a3e dfde 903d 76b9 103e
000002b0: 0ee2 053d d999 b83c c315 993d ed28 0dbe
000002c0: 0899 553d 11b2 03be ec8b cabc 8839 053d
000002d0: 10d6 3b3c 2ec5 a43d b0c6 fd3d 10ed f6bb
000002e0: ed72 c8bb 1f37 babd fd3b 7e3d 3acf d93d
000002f0: d107 723d 3f94 893d 3d11 b9bd e923 d1bb
00000300: 4706 04bd 6d23 483e 52b0 9abd 6f45 2b3e
00000310: c047 a63d f2d1 693d 1fb7 28bd c073 dabd
00000320: 2c75 043e d94c 43bd 7c86 2fbd e9b6 aabd
00000330: 2111 d2bd 9454 15be 598e 6fbd 8572 d8bc
00000340: a47b 123e 10f8 82bd 9731 bdbd 7f11 45bd
00000350: b8b5 9cbb a53b 6f3d 8c59 efbc ee8c 77bd
00000360: 2a84 dabd 5190 323d 864d adbd 0979 d03c
00000370: c700 ec3c cf17 a8bb b50f 1abb 8d3d a23d
00000380: 96c4 093e 8740 abbd 48ca cbbd 52a7 3a3e
00000390: 00cc 6d3c 9235 663d 260d 823d f512 3b3d
000003a0: 708b 1a3c 22c8 213e b959 d73c 3f73 07be
000003b0: d26e 65ba 9bc6 713d 5316 26be 4577 84bd
000003c0: ee4f f7bd bdcf 073e be9b 813b 4850 8d3b
000003d0: eaf2 9c3c 1f25 c5bd ec61 06be f904 493e
000003e0: c953 ce3d 34e2 7bbd 6775 b53d 6de5 dabd
000003f0: 830f 713d 4248 b4bd 57e2 81bd 1c66 f13d
-0.030551948 0.09290919 0.11191026 -0.0058877957 -0.12153853 0.012065512 -0.024082316 0.04554429
0.09102145 0.11759245 -0.024723329 0.08387401 -0.10141314 -0.08513697 -0.03620965 0.09314471
0.0042795036 0.077869974 -0.096638925 0.0038711356 0.07481051 -0.0697016 -0.060816664 -0.053133823
-0.0791615 -0.12012075 0.04678014 -0.12560822 -0.120129794 -0.101419486 -0.115328595 -0.03830849
-0.09044286 0.091285795 -0.004388834 0.048634402 -0.017275007 -0.039460186 -0.118886136 0.00727827
-0.079480655 0.10663572 -0.0053375824 0.043662295 -0.025287732 0.006553645 -0.08183131 -0.12296038
-0.07479325 -0.04214114 -0.104591705 -0.037030194 0.040285237 0.05988881 -0.104100995 0.08942357
0.052836735 0.095273435 0.124175675 0.01405677 0.06371946 -0.07647685 -0.08162859 0.0034400343
-0.09537599 -0.03777478 0.16779752 -0.04294189 0.027631048 -0.00014599152 -0.07922348 -0.054043595
0.040768843 0.029497705 0.07386023 -0.15036887 0.035442486 -0.11949874 0.04170728 -0.056577757
0.15077525 0.16095409 0.07882409 -0.09462117 -0.14681382 0.03166614 0.05829782 -0.07284266
0.018651849 -0.09871767 0.020962685 -0.12198135 -0.08550936 0.056409188 -0.025113981 0.09430486
0.059389878 -0.021882875 -0.024028992 -0.09082883 -0.044972222 -0.09232758 0.02021701 -0.04611452
0.07173771 -0.0060305935 0.15157838 -0.014045638 0.039493304 0.0014228855 -0.05757425 -0.054915722
0.014961509 0.04528031 0.057261918 -0.08535768 -0.08418337 0.0289437 -0.088073544 0.013233137
-0.025077518 0.11756747 -0.081758514 -0.008050551 -0.017891798 0.09200185 -0.06968464 0.017069282
0.028398631 0.066867806 -0.03118254 -0.065055445 -0.11630611 0.0034008634 0.032537475 -0.10128475
0.030931097 -0.06904964 -0.036922794 -0.023545837 0.0769215 -0.022268971 -0.10692116 -0.10496214
0.056018393 0.10652226 -0.08272637 0.05348521 0.0227226 -0.066272184 -0.016918335 0.09173996
0.06433324 -0.07514917 0.06071475 -0.06509384 -0.14591286 0.061853867 0.14099336 -0.09777747
-0.0027579968 0.06382337 -0.120926335 0.0447215 0.050768465 -0.017484995 -0.09796431 -0.105980605
0.09769732 0.15082747 0.07073759 0.14133248 0.032686286 0.022534298 0.07474854 -0.13785143
0.052147895 -0.12860896 -0.024724923 0.03252557 0.011464611 0.080454215 0.12391412 -0.0075355843
-0.006117216 -0.09092545 0.062068928 0.106352285 0.059089486 0.06717729 -0.09036491 -0.0063824547
-0.03223255 0.19544764 -0.07553162 0.16725706 0.08119154 0.057084985 -0.041190263 -0.10666609
0.12935323 -0.04768071 -0.042852864 -0.083356686 -0.10257173 -0.14583045 -0.058485363 -0.026421795
0.14304978 -0.063949704 -0.09237974 -0.04811239 -0.0047824048 0.05840649 -0.029217504 -0.060437135
-0.106697395 0.043594662 -0.08462052 0.025448339 0.028808964 -0.0051297913 -0.0023507897 0.07921896
0.13453898 -0.08361917 -0.099506915 0.1822789 0.014513969 0.056203432 0.06350164 0.045672376
0.009432659 0.15799001 0.0262879 -0.13227557 -0.000875217 0.059027296 -0.16219454 -0.06468061
-0.12075792 0.1326284 0.0039553335 0.004312549 0.0191588 -0.09626221 -0.13123292 0.19630803
0.100745745 -0.06149502 0.08860283 -0.10688291 0.058852684 -0.088028446 -0.06341999 0.11787054

tcn.network.0.conv2.bias f4 [32]
00000000: a7e2 2f3d 05be 2ebd 7aa4 253c d46f 95bd
00000010: 8540 073d 59be 9c3d 1364 e43d d91a adbc
00000020: 47dd 7e3c dc05 74bd 6493 d9bd ca77 8cbc
00000030: f4f7 dfbd 7bfc 793c bf2c 9cbc a1ae 0abb
00000040: fc92 453a 0933 8bbd 92d1 e7bd ce53 a2bd
00000050: 1ac0 00be cc1c 3fbe dacc 7fbd cac8 fbbc
00000060: c522 763b c8c5 07bd 2a46 853d 480f 08be
00000070: 709a f3ba 19cb 7dbc 6f1d a6bd 8200 65bd
0.042940762 -0.042661685 0.010110015 -0.0729672 0.033020515 0.076534934 0.111519 -0.021130966
0.015555686 -0.0595759 -0.10623816 -0.017146964 -0.10935965 0.01525795 -0.019064305 -0.0021161216
0.0007536856 -0.067968436 -0.11319269 -0.07926141 -0.12573281 -0.18663329 -0.06245122 -0.030735392
0.0037557345 -0.033147603 0.06507523 -0.1328708 -0.0018585455 -0.015490317 -0.08111083 -0.055908687

tcn.network.0.conv2.weight_g f4 [32, 1, 1]
00000000: 251a 253f 1f4d 183f 4977 003f 6e16 063f
00000010: 0fea 033f 360c 0f3f 88c9 ea3e b599 293f
00000020: ceba 003f 5c29 123f 785a 1f3f 7804 113f
00000030: 91f4 0a3f f127 333f aaa9 073f ce87 0a3f
00000040: c24f 433f 1a5f f03e 9e2d 043f 5f72 313f
00000050: ce42 2c3f 323f 113f fdf4 f63e 86b1 fc3e
00000060: 58af 033f c375 193f 0e92 0b3f a158 273f
00000070: 9972 173f 4b41 163f 5715 033f 8082 093f
0.6449302 0.5949268 0.50182015 0.52377975 0.5152902 0.5587801 0.4585688 0.66250163
0.5028504 0.5709436 0.6224742 0.56647444 0.5427943 0.6998282 0.5299326 0.5411347
0.76293576 0.46947557 0.51632106 0.6931514 0.67289436 0.56737053 0.48233786 0.4935419
0.5143943 0.59945315 0.54519737 0.6536961 0.5915924 0.5869338 0.51204437 0.5371475

tcn.network.0.conv2.weight_v f4 [32, 32, 2]
00000000: 2d43 013e b26c 983c 79d2 943d b098 5a3c
00000010: 2a72 9e3d ddf9 01be cd23 d83d 1596 aa3c
00000020: 3dcf 25be 7d6e 8b3d 5777 8dbd 5a5c a7bd
00000030: 8616 163d f7bf 27be cfbf 883d f859 0a3c
00000040: 2d3e 4cbd 09c4 af3c 6e10 01be 0165 973d
00000050: fc4d 883d b4c3 6fbc b9a9 fabc 00d2 e5bd
00000060: 1623 233d 993a 893d f3af a4bd a4f1 8cbc
00000070: caff 9fbd bf0d 513d 4e8a dc3c f6d6 15be
00000080: 8cfc c8bd 51bf 3cbd 28d0 f23d ea21 243d
00000090: 24b5 a9bd 8e44 cbbc 056d 423d 4550 663d
000000a0: 6b06 a83d 4246 953d 76c6 b6bd f16a 4a3d
000000b0: d430 933d 065c 02be 5545 5f3d 28ca b6bd
000000c0: 3bbc 87bd d093 a83d 2e34 25be 1c7d 14bd
000000d0: d0ea a43d 8a08 9ebd cb04 b53d 87e5 cb3c
000000e0: da99 25be 9c61 59be b263 35bc 8d7a fabd
000000f0: 5418 babd bc31 f5bd cad9 0bbe 7492 9d3c
00000100: fe7a 903d 5a9c cb3d 5593 b43d d76f e4bd
00000110: cb20 793d 7c30 a43d 7552 073e d118 c23c
00000120: ce8f dabd 3cbf ca3d 28f4 ab3c e764 1fbe
00000130: beec 49bd 8554 48bd e54d c03d dd7f ed3d
00000140: 4057 fdbd 325b 98bd d15e 16be ad98 813b
00000150: 9dd1 f0bd d828 af3d 42d1 8ebd 7869 193d
00000160: 92bc 023e 52eb e63c f493 c2bd 6eb0 163e
00000170: 495a ffbd 524c a43d 5ed7 5e3d 49a6 003e
00000180: 0888 133e f1cd 09be febc d13d a799 0fbe
00000190: a257 ddbd e102 273e 8dfe 5cbd 7475 9fbd
000001a0: 3faa 11be 347d cc3d e479 5cbd aab7 4ebd
000001b0: 52ad e9bd 6313 0dbe 28e6 b93d cb69 cdbd
000001c0: 3662 05be d239 923d 181b c73c f990 dc3c
000001d0: c11b 013d 8e81 9c3c 5d9a 0b3c 0692 e03d
000001e0: 8072 0a3d c65a 45be b38d 103d 75c8 0c3c
000001f0: f180 c3ba daf6 173d bd2a 80bd 2c0a a93d
00000200: f597 2e3e 090e e1bd 3bfe 093e 4cf0 f7bd
00000210: f353 783d 6834 e9bd b89b 083e 0c43 203e
00000220: cea8 243d 6a48 67bd 191a aebc 8d9f efba
00000230: f3a2 89bd 3556 37bc 3229 0c3e d2f7 9fbd
00000240: 59d7 c33a 5c6e f7bc 741f 0abe f16b a7ba
00000250: 1322 653d 0163 19bc 9d00 a3bc c3ff 50bd
00000260: d40d 10be 8bed a8bd 3d7d 1bbd 9bd9 24bd
00000270: aaf5 863b 809d d03d c749 c83d 8b84 5fbd
00000280: 8a23 9b3d fb36 013c a385 b8bd 8e6d d2bd
00000290: 3aea b9bc 8c31 323e 4e5d e9bd 895d 9f3d
000002a0: 675f 24bd c944 21be 309a 2dbe 5f4e 00be
000002b0: d69a 2abe 7469 9cbd 05eb ea3d 49f5 f7bd
000002c0: c68b e3bd a2ee fabc 2cd3 c13d 3494 9abd
000002d0: f7c5 efbd 0f05 2bbe 778d f5ba 9e8a 783a
000002e0: 9af2 1fbc 7e04 ae3d 8f00 b2bd 2e67 ecbd
000002f0: 567a f53d 8bc0 0d3d 5c8a f73d 070e a2bc
00000300: 5a64 17be 93e3 4dbd 0a8a 243e 968e b0bd
00000310: 0ad8 503d 9c9f c6bc 6f89 f13c adab e5bd
00000320: 0598 883d 273c 6e3d da77 2b3d a49c dd3c
00000330: 9af9 e83d bb6b 66bd b949 eb3d 66ea 243e
00000340: cf63 713d 8846 ab3d 7af4 063e 43f5 febd
00000350: fc5f 7fbd e96a 493d 8c3c 133e d09a dcbd
00000360: 3b79 fe3d d86f c6bd 23f5 c83d d024 69bd
00000370: 005a 373e 8163 2d3e ab67 a8bd 39fd 7a3d
00000380: 6678 da3d cbfa a7bd 8df6 2b3d 13fc 8ebd
00000390: b19a b53d 137f 413e aad2 3ebd 9758 b3bd
000003a0: 7b7b 6fbd ca1b 1bbc ea21 efbc 88ef e03d
000003b0: b0d0 123d 8f50 f3bd 84cd 86bc 7be3 cc3d
000003c0: 3b37 6e3d add1 213d af14 dc3d 7dff 903e
000003d0: 0784 ca3d dda0 083d 81ce ce3b 4ef7 5d3d
000003e0: 9c8c 793b 3839 04bb 4448 fbbd bd08 3d3d
000003f0: b55b 80bd 12f2 c43c 0ae7 28bd 099e 8c3d
0.12623282 0.018606517 0.07266707 0.013342068 0.07736619 -0.12692972 0.105537035 0.020823518
-0.16192336 0.06808183 -0.06907528 -0.081719115 0.036642574 -0.16381823 0.066772096 0.008444302
-0.049863983 0.021455782 -0.12603924 0.07392312 0.06655499 -0.014634062 -0.030598508 -0.11221695
0.039828382 0.0670063 -0.08041372 -0.017205067 -0.0781246 0.0510385 0.026921418 -0.14632782
-0.098137945 -0.04608089 0.11856109 0.040071405 -0.08286503 -0.024812963 0.04746725 0.056228895
0.08204349 0.07288791 -0.08924572 0.049418394 0.071870476 -0.12730417 0.05450948 -0.08925277
-0.06627699 0.08231318 -0.16133186 -0.036252126 0.080525994 -0.077164724 0.08838805 0.02488972
-0.16171971 -0.21228641 -0.0110711325 -0.12230406 -0.090866715 -0.11972377 -0.13657299 0.019234873
0.07054709 0.09941931 0.08817164 -0.11154144 0.06082229 0.0801706 0.13215049 0.023693474
-0.1067196 0.09899756 0.020990446 -0.15565835 -0.04929804 -0.04890873 0.09389857 0.115966536
-0.12370157 -0.07439269 -0.14684607 0.003954968 -0.117587306 0.08552712 -0.069735065 0.0374541
0.12767246 0.028188381 -0.09500876 0.1471574 -0.124683924 0.080223694 0.05440461 0.12563433
0.1440736 -0.13457467 0.102411255 -0.14023457 -0.1080773 0.16309692 -0.053953696 -0.07786074
-0.142251 0.09984818 -0.05382718 -0.050468124 -0.11410011 -0.13776927 0.09077102 -0.10029944
-0.13025746 0.071399346 0.024304911 0.026924597 0.03152061 0.019104745 0.00852069 0.10965352
0.033800602 -0.19272909 0.035291385 0.008592715 -0.0014915747 0.03710065 -0.06258152 0.08253893
0.17050155 -0.10989005 0.13475887 -0.1210638 0.060626935 -0.11386949 0.13340652 0.15650576
0.040200047 -0.056465544 -0.021252679 -0.0018281803 -0.06720533 -0.011189987 0.1368759 -0.0781094
0.0014941498 -0.03020399 -0.13488561 -0.0012773258 0.0559407 -0.009361983 -0.019897753 -0.051025163
-0.14067775 -0.08248433 -0.037961233 -0.040246587 0.004118641 0.10186291 0.09779697 -0.054569762
0.07575138 0.0078866435 -0.09009864 -0.10274802 -0.022694696 0.17401713 -0.113947496 0.07781512
-0.040130045 -0.15748896 -0.16953349 -0.12529896 -0.16660628 -0.07637301 0.11470608 -0.12107331
-0.11110644 -0.030631367 0.09464106 -0.07547799 -0.11707681 -0.16701148 -0.0018734176 0.0009481105
-0.009762431 0.084969506 -0.08691513 -0.115431175 0.11986224 0.03460745 0.12086937 -0.01978208
-0.14784375 -0.05026586 0.16068283 -0.08620946 0.05098728 -0.02424603 0.029484479 -0.11214385
0.066696204 0.058162834 0.041862346 0.027052231 0.11375733 -0.056255084 0.11488671 0.16105041
0.058933076 0.08363062 0.13179198 -0.12449124 -0.062347397 0.049174223 0.14378566 -0.10771716
0.124254666 -0.09689301 0.09812381 -0.056919873 0.17905426 0.16932489 -0.08222898 0.06127665
0.106674954 -0.08202132 0.041983176 -0.06981673 0.08867396 0.18896131 -0.046587624 -0.087571315
-0.05846737 -0.009467075 -0.029190976 0.10983187 0.03584355 -0.118806 -0.01645542 0.10004326
0.05815814 0.039506603 0.107461326 0.28319922 0.098884635 0.033356536 0.0063112383 0.054190926
0.0038078194 -0.0020175707 -0.12269643 0.04615091 -0.06267492 0.02404121 -0.04123596 0.0686608

tcn.network.0.net.0.bias f4 [32]
00000000: 31bc e4bc 371d 4ebd 8f0e 593b a1a0 083e
00000010: 6a94 0abd ac47 8ebc c58b 843d a7dd c8bd
00000020: 673d 803c 5429 9e3c 0866 803d f8ca 6a3c
00000030: 635f cabd 22e7 debc 7316 3cbe 061e 9c3d
00000040: c012 83bd eb9d 533d 32da f9bc fec0 41bc
00000050: f111 13be 863b 233c 4cf8 223d 83f4 14be
00000060: 4838 01be 69e2 35be c25a e6bd 058f 78bd
00000070: dbeb 15be dedb 65bb 65b2 aebd e4bd a5bd
-0.027921768 -0.05032083 0.003312025 0.13342525 -0.033832945 -0.01736816 0.064719714 -0.09807902
0.015654279 0.019306816 0.06269461 0.014330618 -0.09881475 -0.027209822 -0.18367939 0.07622914
-0.06400061 0.051664274 -0.030499551 -0.011825798 -0.14362313 0.009962922 0.039787576 -0.14546399
-0.12619126 -0.1776215 -0.112477794 -0.06068327 -0.14640753 -0.0035073678 -0.0853012 -0.080928594

tcn.network.0.net.0.weight_g f4 [32, 1, 1]
00000000: 7428 1c3f 1233 013f 5887 133f 593b 133f
00000010: 31d2 e03e 41ac fa3e 84bb 123f 2472 1b3f
00000020: ba6d ea3e 753d 013f daa7 0a3f 2c34 0d3f
00000030: 0b3d fb3e 069b 0f3f 1d75 103f cab5 fa3e
00000040: 81b4 063f ab95 093f 789f 163f 5c61 1c3f
00000050: 005d 0c3f cbcb 2a3f b4f5 113f 1cb1 f83e
00000060: 0816 213f 33e8 1d3f 3e10 0d3f a20e e83e
00000070: c21f 153f e4b1 053f d561 113f 23bc 083f
0.60999227 0.5046855 0.57628393 0.5751243 0.43910363 0.48959544 0.57317376 0.6072104
0.4578684 0.504844 0.5416237 0.5515773 0.4907001 0.5609592 0.564287 0.4896682
0.5261918 0.53744 0.5883708 0.6108606 0.54829407 0.66717213 0.5701554 0.48572624
0.6292424 0.6168243 0.5510291 0.45323664 0.58251584 0.52224565 0.56789905 0.53412074

tcn.network.0.net.0.weight_v f4 [32, 32, 2]
00000000: 1448 fabc 2c47 be3d 3531 e53d 69ee c0bb
00000010: 31e9 f8bd 6dae 453c 4748 c5bc a68c 3a3d
00000020: 7469 ba3d 4fd4 f03d 9488 cabc 23c6 ab3d
00000030: b1b1 cfbd 4b5c aebd 9250 14bd a7c2 be3d
00000040: 143b 8c3b 4b7a 9f3d a1ea c5bd e1b2 7d3b
00000050: 4136 993d b6bf 8ebd e51a 79bd daa2 59bd
00000060: 6d1f a2bd de01 f6bd 889c 3f3d 719f 00be
00000070: 9c06 f6bd 05b5 cfbd 6631 ecbd 5de9 1cbd
00000080: 1b3a b9bd 0cf4 ba3d 35d0 8fbb de34 473d
00000090: 5184 8dbc 01a1 21bd 937a f3bd 8e7e ee3b
000000a0: c1c6 a2bd d463 da3d e3e6 aebb 3cd7 323d
000000b0: 3828 cfbc f5bf d63b 2d97 a7bd a7d2 fbbd
000000c0: 342d 99bd 309c 2cbd 2d34 d6bd f9ac 17bd
000000d0: 2202 253d f84d 753d e732 d5bd b423 b73d
000000e0: 556b 583d b81e c33d d14f fe3d 5e4e 663c
000000f0: 597f 823d e59f 9cbd e42c a7bd 3372 613b
00000100: 7d54 c3bd bab9 1abd 1dd3 2b3e d6e3 2fbd
00000110: 825a e23c 4d15 19b9 eb3f a2bd d15c 5dbd
00000120: 3bfd 263d 2ca5 f13c 0844 973d 4cfa 19be
00000130: 242c 113d c1bb f4bd 41d5 2a3d 14be 67bd
00000140: d464 1a3e 26d1 243e 866e a13d bec8 c1bd
00000150: 5d56 16be 5bb4 013d b2c9 6e3d 882e 95bd
00000160: c3cb 983c 7d2c cabd f0b9 ab3c 5cd1 f9bd
00000170: 881f afbd 520d 673d d6bb cdbc e822 c13d
00000180: cd42 733d b743 b3bc 73d8 c4bc 7704 babd
00000190: cb34 38bd 3e16 bdbd 259e a53c 94e2 3cbd
000001a0: 38eb 923d 499c c5bb 5d37 1b3e ad1f 66bc
000001b0: bbc3 213d 1d80 ba3a fad2 6bbd 4fef 60bd
000001c0: 1e21 753c d977 393d 798b 6a3d 02d0 aebd
000001d0: 5568 acbd 571b ed3c e75f b4bd cdcf 583c
000001e0: 5e6f cdbc 37c7 f03d 0271 a7bd 75e6 03bc
000001f0: d291 92bc 776b bc3d d2b6 8ebd e1d4 8b3c
00000200: 3fa4 e83c fdf1 883d 8772 ffbc ca3b 85bd
00000210: e631 eebd 05e1 5e3b 0446 053d 616e cfbd
00000220: 3663 fd3c e669 8dbd 5b3c 17bd 33e3 c0bc
00000230: 0589 9d3d 6b6d b6bc 7bf9 dabd 64f6 d6bd
00000240: 8b73 653d 5828 da3d 716c a9bd 4f13 5b3d
00000250: bf24 ba3c b6b9 87bd 5298 8abc 29e2 bb3d
00000260: 25c1 833d cfe7 99bd 08b0 783d eb4f 85bd
00000270: 2e6a 15be 7b5a 7d3d 9060 103e 8e3f c8bd
00000280: 82bf 34bb d4b5 823d 3aa8 f7bd e42d 373d
00000290: 98f2 4f3d b13c 8fbc 83a1 c8bd 5c0c d9bd
000002a0: 8815 c83d 8472 1a3e dfde 903d 76b9 103e
000002b0: 0ee2 053d d999 b83c c315 993d ed28 0dbe
000002c0: 0899 553d 11b2 03be ec8b cabc 8839 053d
000002d0: 10d6 3b3c 2ec5 a43d b0c6 fd3d 10ed f6bb
000002e0: ed72 c8bb 1f37 babd fd3b 7e3d 3acf d93d
000002f0: d107 723d 3f94 893d 3d11 b9bd e923 d1bb
00000300: 4706 04bd 6d23 483e 52b0 9abd 6f45 2b3e
00000310: c047 a63d f2d1 693d 1fb7 28bd c073 dabd
00000320: 2c75 043e d94c 43bd 7c86 2fbd e9b6 aabd
00000330: 2111 d2bd 9454 15be 598e 6fbd 8572 d8bc
00000340: a47b 123e 10f8 82bd 9731 bdbd 7f11 45bd
00000350: b8b5 9cbb a53b 6f3d 8c59 efbc ee8c 77bd
00000360: 2a84 dabd 5190 323d 864d adbd 0979 d03c
00000370: c700 ec3c cf17 a8bb b50f 1abb 8d3d a23d
00000380: 96c4 093e 8740 abbd 48ca cbbd 52a7 3a3e
00000390: 00cc 6d3c 9235 663d 260d 823d f512 3b3d
000003a0: 708b 1a3c 22c8 213e b959 d73c 3f73 07be
000003b0: d26e 65ba 9bc6 713d 5316 26be 4577 84bd
000003c0: ee4f f7bd bdcf 073e be9b 813b 4850 8d3b
000003d0: eaf2 9c3c 1f25 c5bd ec61 06be f904 493e
000003e0: c953 ce3d 34e2 7bbd 6775 b53d 6de5 dabd
000003f0: 830f 713d 4248 b4bd 57e2 81bd 1c66 f13d
-0.030551948 0.09290919 0.11191026 -0.0058877957 -0.12153853 0.012065512 -0.024082316 0.04554429
0.09102145 0.11759245 -0.024723329 0.08387401 -0.10141314 -0.08513697 -0.03620965 0.09314471
0.0042795036 0.077869974 -0.096638925 0.0038711356 0.07481051 -0.0697016 -0.060816664 -0.053133823
-0.0791615 -0.12012075 0.04678014 -0.12560822 -0.120129794 -0.101419486 -0.115328595 -0.03830849
-0.09044286 0.091285795 -0.004388834 0.048634402 -0.017275007 -0.039460186 -0.118886136 0.00727827
-0.079480655 0.10663572 -0.0053375824 0.043662295 -0.025287732 0.006553645 -0.08183131 -0.12296038
-0.07479325 -0.04214114 -0.104591705 -0.037030194 0.040285237 0.05988881 -0.104100995 0.08942357
0.052836735 0.095273435 0.124175675 0.01405677 0.06371946 -0.07647685 -0.08162859 0.0034400343
-0.09537599 -0.03777478 0.16779752 -0.04294189 0.027631048 -0.00014599152 -0.07922348 -0.054043595
0.040768843 0.029497705 0.07386023 -0.15036887 0.035442486 -0.11949874 0.04170728 -0.056577757
0.15077525 0.16095409 0.07882409 -0.09462117 -0.14681382 0.03166614 0.05829782 -0.07284266
0.018651849 -0.09871767 0.020962685 -0.12198135 -0.08550936 0.056409188 -0.025113981 0.09430486
0.059389878 -0.021882875 -0.024028992 -0.09082883 -0.044972222 -0.09232758 0.02021701 -0.04611452
0.07173771 -0.0060305935 0.15157838 -0.014045638 0.039493304 0.0014228855 -0.05757425 -0.054915722
0.014961509 0.04528031 0.057261918 -0.08535768 -0.08418337 0.0289437 -0.088073544 0.013233137
-0.025077518 0.11756747 -0.081758514 -0.008050551 -0.017891798 0.09200185 -0.06968464 0.017069282
0.028398631 0.066867806 -0.03118254 -0.065055445 -0.11630611 0.0034008634 0.032537475 -0.10128475
0.030931097 -0.06904964 -0.036922794 -0.023545837 0.0769215 -0.022268971 -0.10692116 -0.10496214
0.056018393 0.10652226 -0.08272637 0.05348521 0.0227226 -0.066272184 -0.016918335 0.09173996
0.06433324 -0.07514917 0.06071475 -0.06509384 -0.14591286 0.061853867 0.14099336 -0.09777747
-0.0027579968 0.06382337 -0.120926335 0.0447215 0.050768465 -0.017484995 -0.09796431 -0.105980605
0.09769732 0.15082747 0.07073759 0.14133248 0.032686286 0.022534298 0.07474854 -0.13785143
0.052147895 -0.12860896 -0.024724923 0.03252557 0.011464611 0.080454215 0.12391412 -0.0075355843
-0.006117216 -0.09092545 0.062068928 0.106352285 0.059089486 0.06717729 -0.09036491 -0.0063824547
-0.03223255 0.19544764 -0.07553162 0.16725706 0.08119154 0.057084985 -0.041190263 -0.10666609
0.12935323 -0.04768071 -0.042852864 -0.083356686 -0.10257173 -0.14583045 -0.058485363 -0.026421795
0.14304978 -0.063949704 -0.09237974 -0.04811239 -0.0047824048 0.05840649 -0.029217504 -0.060437135
-0.106697395 0.043594662 -0.08462052 0.025448339 0.028808964 -0.0051297913 -0.0023507897 0.07921896
0.13453898 -0.08361917 -0.099506915 0.1822789 0.014513969 0.056203432 0.06350164 0.045672376
0.009432659 0.15799001 0.0262879 -0.13227557 -0.000875217 0.059027296 -0.16219454 -0.06468061
-0.12075792 0.1326284 0.0039553335 0.004312549 0.0191588 -0.09626221 -0.13123292 0.19630803
0.100745745 -0.06149502 0.08860283 -0.10688291 0.058852684 -0.088028446 -0.06341999 0.11787054

tcn.network.0.net.4.bias f4 [32]
00000000: a7e2 2f3d 05be 2ebd 7aa4 253c d46f 95bd
00000010: 8540 073d 59be 9c3d 1364 e43d d91a adbc
00000020: 47dd 7e3c dc05 74bd 6493 d9bd ca77 8cbc
00000030: f4f7 dfbd 7bfc 793c bf2c 9cbc a1ae 0abb
00000040: fc92 453a 0933 8bbd 92d1 e7bd ce53 a2bd
00000050: 1ac0 00be cc1c 3fbe dacc 7fbd cac8 fbbc
00000060: c522 763b c8c5 07bd 2a46 853d 480f 08be
00000070: 709a f3ba 19cb 7dbc 6f1d a6bd 8200 65bd
0.042940762 -0.042661685 0.010110015 -0.0729672 0.033020515 0.076534934 0.111519 -0.021130966
0.015555686 -0.0595759 -0.10623816 -0.017146964 -0.10935965 0.01525795 -0.019064305 -0.0021161216
0.0007536856 -0.067968436 -0.11319269 -0.07926141 -0.12573281 -0.18663329 -0.06245122 -0.030735392
0.0037557345 -0.033147603 0.06507523 -0.1328708 -0.0018585455 -0.015490317 -0.08111083 -0.055908687

tcn.network.0.net.4.weight_g f4 [32, 1, 1]
00000000: 251a 253f 1f4d 183f 4977 003f 6e16 063f
00000010: 0fea 033f 360c 0f3f 88c9 ea3e b599 293f
00000020: ceba 003f 5c29 123f 785a 1f3f 7804 113f
00000030: 91f4 0a3f f127 333f aaa9 073f ce87 0a3f
00000040: c24f 433f 1a5f f03e 9e2d 043f 5f72 313f
00000050: ce42 2c3f 323f 113f fdf4 f63e 86b1 fc3e
00000060: 58af 033f c375 193f 0e92 0b3f a158 273f
00000070: 9972 173f 4b41 163f 5715 033f 8082 093f
0.6449302 0.5949268 0.50182015 0.52377975 0.5152902 0.5587801 0.4585688 0.66250163
0.5028504 0.5709436 0.6224742 0.56647444 0.5427943 0.6998282 0.5299326 0.5411347
0.76293576 0.46947557 0.51632106 0.6931514 0.67289436 0.56737053 0.48233786 0.4935419
0.5143943 0.59945315 0.54519737 0.6536961 0.5915924 0.5869338 0.51204437 0.5371475

tcn.network.0.net.4.weight_v f4 [32, 32, 2]
00000000: 2d43 013e b26c 983c 79d2 943d b098 5a3c
00000010: 2a72 9e3d ddf9 01be cd23 d83d 1596 aa3c
00000020: 3dcf 25be 7d6e 8b3d 5777 8dbd 5a5c a7bd
00000030: 8616 163d f7bf 27be cfbf 883d f859 0a3c
00000040: 2d3e 4cbd 09c4 af3c 6e10 01be 0165 973d
00000050: fc4d 883d b4c3 6fbc b9a9 fabc 00d2 e5bd
00000060: 1623 233d 993a 893d f3af a4bd a4f1 8cbc
00000070: caff 9fbd bf0d 513d 4e8a dc3c f6d6 15be
00000080: 8cfc c8bd 51bf 3cbd 28d0 f23d ea21 243d
00000090: 24b5 a9bd 8e44 cbbc 056d 423d 4550 663d
000000a0: 6b06 a83d 4246 953d 76c6 b6bd f16a 4a3d
000000b0: d430 933d 065c 02be 5545 5f3d 28ca b6bd
000000c0: 3bbc 87bd d093 a83d 2e34 25be 1c7d 14bd
000000d0: d0ea a43d 8a08 9ebd cb04 b53d 87e5 cb3c
000000e0: da99 25be 9c61 59be b263 35bc 8d7a fabd
000000f0: 5418 babd bc31 f5bd cad9 0bbe 7492 9d3c
00000100: fe7a 903d 5a9c cb3d 5593 b43d d76f e4bd
00000110: cb20 793d 7c30 a43d 7552 073e d118 c23c
00000120: ce8f dabd 3cbf ca3d 28f4 ab3c e764 1fbe
00000130: beec 49bd 8554 48bd e54d c03d dd7f ed3d
00000140: 4057 fdbd 325b 98bd d15e 16be ad98 813b
00000150: 9dd1 f0bd d828 af3d 42d1 8ebd 7869 193d
00000160: 92bc 023e 52eb e63c f493 c2bd 6eb0 163e
00000170: 495a ffbd 524c a43d 5ed7 5e3d 49a6 003e
00000180: 0888 133e f1cd 09be febc d13d a799 0fbe
00000190: a257 ddbd e102 273e 8dfe 5cbd 7475 9fbd
000001a0: 3faa 11be 347d cc3d e479 5cbd aab7 4ebd
000001b0: 52ad e9bd 6313 0dbe 28e6 b93d cb69 cdbd
000001c0: 3662 05be d239 923d 181b c73c f990 dc3c
000001d0: c11b 013d 8e81 9c3c 5d9a 0b3c 0692 e03d
000001e0: 8072 0a3d c65a 45be b38d 103d 75c8 0c3c
000001f0: f180 c3ba daf6 173d bd2a 80bd 2c0a a93d
00000200: f597 2e3e 090e e1bd 3bfe 093e 4cf0 f7bd
00000210: f353 783d 6834 e9bd b89b 083e 0c43 203e
00000220: cea8 243d 6a48 67bd 191a aebc 8d9f efba
00000230: f3a2 89bd 3556 37bc 3229 0c3e d2f7 9fbd
00000240: 59d7 c33a 5c6e f7bc 741f 0abe f16b a7ba
00000250: 1322 653d 0163 19bc 9d00 a3bc c3ff 50bd
00000260: d40d 10be 8bed a8bd 3d7d 1bbd 9bd9 24bd
00000270: aaf5 863b 809d d03d c749 c83d 8b84 5fbd
00000280: 8a23 9b3d fb36 013c a385 b8bd 8e6d d2bd
00000290: 3aea b9bc 8c31 323e 4e5d e9bd 895d 9f3d
000002a0: 675f 24bd c944 21be 309a 2dbe 5f4e 00be
000002b0: d69a 2abe 7469 9cbd 05eb ea3d 49f5 f7bd
000002c0: c68b e3bd a2ee fabc 2cd3 c13d 3494 9abd
000002d0: f7c5 efbd 0f05 2bbe 778d f5ba 9e8a 783a
000002e0: 9af2 1fbc 7e04 ae3d 8f00 b2bd 2e67 ecbd
000002f0: 567a f53d 8bc0 0d3d 5c8a f73d 070e a2bc
00000300: 5a64 17be 93e3 4dbd 0a8a 243e 968e b0bd
00000310: 0ad8 503d 9c9f c6bc 6f89 f13c adab e5bd
00000320: 0598 883d 273c 6e3d da77 2b3d a49c dd3c
00000330: 9af9 e83d bb6b 66bd b949 eb3d 66ea 243e
00000340: cf63 713d 8846 ab3d 7af4 063e 43f5 febd
00000350: fc5f 7fbd e96a 493d 8c3c 133e d09a dcbd
00000360: 3b79 fe3d d86f c6bd 23f5 c83d d024 69bd
00000370: 005a 373e 8163 2d3e ab67 a8bd 39fd 7a3d
00000380: 6678 da3d cbfa a7bd 8df6 2b3d 13fc 8ebd
00000390: b19a b53d 137f 413e aad2 3ebd 9758 b3bd
000003a0: 7b7b 6fbd ca1b 1bbc ea21 efbc 88ef e03d
000003b0: b0d0 123d 8f50 f3bd 84cd 86bc 7be3 cc3d
000003c0: 3b37 6e3d add1 213d af14 dc3d 7dff 903e
000003d0: 0784 ca3d dda0 083d 81ce ce3b 4ef7 5d3d
000003e0: 9c8c 793b 3839 04bb 4448 fbbd bd08 3d3d
000003f0: b55b 80bd 12f2 c43c 0ae7 28bd 099e 8c3d
0.12623282 0.018606517 0.07266707 0.013342068 0.07736619 -0.12692972 0.105537035 0.020823518
-0.16192336 0.06808183 -0.06907528 -0.081719115 0.036642574 -0.16381823 0.066772096 0.008444302
-0.049863983 0.021455782 -0.12603924 0.07392312 0.06655499 -0.014634062 -0.030598508 -0.11221695
0.039828382 0.0670063 -0.08041372 -0.017205067 -0.0781246 0.0510385 0.026921418 -0.14632782
-0.098137945 -0.04608089 0.11856109 0.040071405 -0.08286503 -0.024812963 0.04746725 0.056228895
0.08204349 0.07288791 -0.08924572 0.049418394 0.071870476 -0.12730417 0.05450948 -0.08925277
-0.06627699 0.08231318 -0.16133186 -0.036252126 0.080525994 -0.077164724 0.08838805 0.02488972
-0.16171971 -0.21228641 -0.0110711325 -0.12230406 -0.090866715 -0.11972377 -0.13657299 0.019234873
0.07054709 0.09941931 0.08817164 -0.11154144 0.06082229 0.0801706 0.13215049 0.023693474
-0.1067196 0.09899756 0.020990446 -0.15565835 -0.04929804 -0.04890873 0.09389857 0.115966536
-0.12370157 -0.07439269 -0.14684607 0.003954968 -0.117587306 0.08552712 -0.069735065 0.0374541
0.12767246 0.028188381 -0.09500876 0.1471574 -0.124683924 0.080223694 0.05440461 0.12563433
0.1440736 -0.13457467 0.102411255 -0.14023457 -0.1080773 0.16309692 -0.053953696 -0.07786074
-0.142251 0.09984818 -0.05382718 -0.050468124 -0.11410011 -0.13776927 0.09077102 -0.10029944
-0.13025746 0.071399346 0.024304911 0.026924597 0.03152061 0.019104745 0.00852069 0.10965352
0.033800602 -0.19272909 0.035291385 0.008592715 -0.0014915747 0.03710065 -0.06258152 0.08253893
0.17050155 -0.10989005 0.13475887 -0.1210638 0.060626935 -0.11386949 0.13340652 0.15650576
0.040200047 -0.056465544 -0.021252679 -0.0018281803 -0.06720533 -0.011189987 0.1368759 -0.0781094
0.0014941498 -0.03020399 -0.13488561 -0.0012773258 0.0559407 -0.009361983 -0.019897753 -0.051025163
-0.14067775 -0.08248433 -0.037961233 -0.040246587 0.004118641 0.10186291 0.09779697 -0.054569762
0.07575138 0.0078866435 -0.09009864 -0.10274802 -0.022694696 0.17401713 -0.113947496 0.07781512
-0.040130045 -0.15748896 -0.16953349 -0.12529896 -0.16660628 -0.07637301 0.11470608 -0.12107331
-0.11110644 -0.030631367 0.09464106 -0.07547799 -0.11707681 -0.16701148 -0.0018734176 0.0009481105
-0.009762431 0.084969506 -0.08691513 -0.115431175 0.11986224 0.03460745 0.12086937 -0.01978208
-0.14784375 -0.05026586 0.16068283 -0.08620946 0.05098728 -0.02424603 0.029484479 -0.11214385
0.066696204 0.058162834 0.041862346 0.027052231 0.11375733 -0.056255084 0.11488671 0.16105041
0.058933076 0.08363062 0.13179198 -0.12449124 -0.062347397 0.049174223 0.14378566 -0.10771716
0.124254666 -0.09689301 0.09812381 -0.056919873 0.17905426 0.16932489 -0.08222898 0.06127665
0.106674954 -0.08202132 0.041983176 -0.06981673 0.08867396 0.18896131 -0.046587624 -0.087571315
-0.05846737 -0.009467075 -0.029190976 0.10983187 0.03584355 -0.118806 -0.01645542 0.10004326
0.05815814 0.039506603 0.107461326 0.28319922 0.098884635 0.033356536 0.0063112383 0.054190926
0.0038078194 -0.0020175707 -0.12269643 0.04615091 -0.06267492 0.02404121 -0.04123596 0.0686608

tcn.network.0.downsample.weight f4 [32, 32, 1]
00000000: d903 19be 3f5b c7bd 753e 083e f9ae d03d
00000010: d265 0cbd 3362 a93d c1ef 49be 2f0f fabd
00000020: 6401 0e3e f8b5 09bb c797 b5bc ea43 06be
00000030: 6a82 593d 06f2 d73d 1e7a 1cbd 51f6 023d
00000040: 0237 4fbe 4a42 1abe a7e9 0fbe ca89 babd
00000050: 7529 d2bd 1c17 e1bd 7897 3a3d fee6 bfbd
00000060: ed40 f03c bbe3 abbc 9921 77bc 5ecd 65bd
00000070: b69a 273d 36fa a83d 7485 2b3e b5f5 083e
00000080: 2ba1 233e c0bc 2fbd 7304 02be c302 57be
00000090: 8030 03be 4085 bd3d 5a46 833d 4746 3a3d
000000a0: 2627 1bbe 7d0b 7e3e cb56 7c3d 8a99 17bd
000000b0: 9872 82bc a40e 643c 9d79 3fbe be28 453e
000000c0: 5029 64be 74e9 743e d3dd 05be 708c 3b3e
000000d0: 76a1 233e c4f5 eebc 934b 853e eecc 55bd
000000e0: 8603 0a3e 9140 46bd 9722 3ebd 803e 563e
000000f0: 7c6b 983d b41d 10be 8782 743c 200b 5ebd
00000100: 4a23 5bbe bf8e 993d ce9f 9cbc 79a5 363e
00000110: 599b 1f3e 2b98 fc3d 43aa cfbc 2277 e4bd
00000120: f23b e53d 1620 39be 7d06 a23b 7033 53bd
00000130: 2680 47bc 25f0 dfbd f8af 9a3e d9d6 4bbe
00000140: 74e3 6d3e 52cd d53d 5635 9cbd 31f1 c0bd
00000150: ea3c 0ebe 4797 1cbe e79d 78be 1ba5 9ebc
00000160: b861 40be a6f1 653e e005 9cbd 960b 75be
00000170: fd9c debc 2e79 7f3e aa74 8f3c 8e5c 73be
00000180: 2505 5dbe dac0 9fbd 6aec 7f3e 466e c0bd
00000190: ffc9 fd3c a60e 013e 9d4f 1a3e d103 c4bd
000001a0: 9894 0dbe cc49 613a bba9 fdbc 153c 223e
000001b0: 043f 063d 9974 9e3d 0fd3 bebd 5ff2 29be
000001c0: 0db0 7a3c 56b4 023d bad7 de3d c01f 72be
000001d0: 054a f63d 55e9 01be 987e 35be 19ab c6bd
000001e0: 2ff4 8abc 3b58 3a3a ffe1 a1bc 33ee adbb
000001f0: 1e67 9c3d 9722 cfbb 9ee5 323d c033 38bd
00000200: 5a1d 7c3e 7cc4 2ebe 3169 38bc d219 60be
00000210: 8428 8fbe f769 19be 7918 993d 71a9 afbc
00000220: db3c 253b b222 943e 8986 a83d 91ae 94bd
00000230: 475a 2d3e 93cf e83d c753 3a3d 5c32 813d
00000240: 7b39 72bc e5bf 9bbc 040a 043e 4cba 113e
00000250: 1b19 1bbd aa6c e6bd 399a 4b3e c5e6 5c3d
00000260: a2cc 353e 464d 203e 9d16 eabd 84a0 b8bc
00000270: b7e4 03be aa06 08be 6139 39be 186c 0b3e
00000280: 9e6d 0f3e 1bdb 803e ccb3 59be 6ec2 0dbe
00000290: 4eaf 06be 92b7 1e3d bf49 b8bb 8498 65bc
000002a0: 3182 103e a00b 283d cc0c 08be 2b8c c0bd
000002b0: 8416 a5bd 02b9 563e 2f2e 74be 19ae e4bc
000002c0: 5309 27bd d60f 273e 1660 7abe b922 8a3d
000002d0: 9988 3e3e 1f1c 1c3e b86f db3d 1d03 bf3d
000002e0: 9427 be3d ce1c 3ebe a70b 3bbe cbde 1cbc
000002f0: 4d39 87bd e81d 06be 5994 3a3e 7935 c23d
00000300: 3f9c 4a3e b1a2 80bd 8edc 86bd c281 bf3d
00000310: 1ad5 06be e1ef 843d 8240 10bd 27b9 a33e
00000320: 49a5 6abe 51e7 6abc 8480 673c e296 31be
00000330: 539b 2b3e dba8 943e 9707 1fbe 4eed 41be
00000340: b970 3cbe 6d7c 113e 9558 6e3d 8858 033e
00000350: 06ba eebd 1d37 17be a507 f93d 2bf4 883e
00000360: 2cc3 883e 54c4 383b eb34 c13c 36bf f7bd
00000370: 816a 78be 9ef7 f63d c64b 8abe 8328 31bd
00000380: 612b 353e fe39 d13d 8165 3e3d b13c 583e
00000390: 81a8 363d 15ec 823d a016 8a3d 6275 d6bd
000003a0: 2230 dc3d 9fbe 81bd 7f4d fb3d 0f61 16be
000003b0: 22af 5b3e a0b8 123d dddf 9c3d a05b 22be
000003c0: 64ef 4e3d 8a40 2c3e 8808 bc3d 515b 873c
000003d0: 4730 21be dfa5 3c3d 2400 c4bd bdd8 243e
000003e0: a51b 083e ffa9 e53c 42c7 5a3d 053e 72bc
000003f0: e8b7 ee3b cc86 a73c fcfb 1fbc 828e ba3d
-0.14942874 -0.09734201 0.13305075 0.101896234 -0.03427679 0.08270683 -0.19720365 -0.12209927
0.13867718 -0.0021013003 -0.0221671 -0.13111845 0.05310289 0.10544209 -0.038202398 0.031973187
-0.20235828 -0.1506435 -0.14053975 -0.091083124 -0.102618136 -0.10990736 0.045554608 -0.0937023
0.029327834 -0.020982614 -0.015083694 -0.056104057 0.04091903 0.08250849 0.16750127 0.1337498
0.1597945 -0.042904615 -0.1269701 -0.20997147 -0.1281147 0.09253931 0.06409903 0.045477178
-0.15151653 0.2480907 0.06160621 -0.03701166 -0.015923783 0.013919506 -0.18698736 0.19253823
-0.22281384 0.2391718 -0.130729 0.18315291 0.15979561 -0.029169925 0.2603422 -0.05219739
0.13477907 -0.04840142 -0.046419706 0.2092228 0.07442376 -0.14073831 0.014923698 -0.05420983
-0.2140018 0.0749793 -0.01911917 0.1783656 0.15586604 0.12333711 -0.025349742 -0.11155535
0.11193074 -0.18078646 0.004944621 -0.051562726 -0.012176549 -0.10934476 0.30212379 -0.19906177
0.23231298 0.10439552 -0.076273605 -0.094210036 -0.13890424 -0.15292083 -0.24278985 -0.019365838
-0.18787277 0.22455463 -0.07618308 -0.23930201 -0.027174467 0.2494857 0.017511684 -0.23765776
-0.21583994 -0.078004554 0.24992529 -0.09396033 0.030980108 0.12603244 0.15069433 -0.095710404
-0.13826215 0.00085940654 -0.030964723 0.15843232 0.03277494 0.07737083 -0.093176 -0.16596363
0.015300763 0.031910263 0.1088099 -0.23644924 0.12025837 -0.12686665 -0.17724073 -0.09700603
-0.016962139 0.0007108484 -0.019761084 -0.0053079366 0.076368555 -0.006321262 0.04367601 -0.044971228
0.24620572 -0.1706714 -0.011255548 -0.2188485 -0.27960598 -0.14981829 0.07475371 -0.0214431
0.0025213275 0.2893272 0.082287855 -0.072598584 0.1692897 0.11367717 0.045490053 0.063084334
-0.014784212 -0.0190124 0.12894446 0.14231223 -0.03786574 -0.11251195 0.1988305 0.053931016
0.17753842 0.15654477 -0.114300944 -0.022537477 -0.12880217 -0.13283792 -0.18088295 0.13615453
0.1400666 0.25167164 -0.21259993 -0.138437 -0.13152811 0.038749285 -0.0056240256 -0.014013413
0.14112164 0.04102671 -0.13286132 -0.09401735 -0.08060935 0.20969012 -0.23845743 -0.027915047
-0.040780377 0.16314635 -0.24450716 0.06744904 0.18606795 0.15245102 0.10714668 0.09326766
0.09284893 -0.18565676 -0.18266164 -0.009574602 -0.06602726 -0.13097346 0.18220653 0.09482855
0.19786166 -0.06281031 -0.06585036 0.09350921 -0.1316723 0.06491066 -0.03521777 0.31977198
-0.22914614 -0.014337377 0.014129762 -0.17342713 0.1675847 0.29035076 -0.15530239 -0.18938181
-0.18402375 0.14207621 0.058189947 0.1282674 -0.11656575 -0.14767118 0.12159661 0.26748785
0.26711404 0.0028193193 0.023584804 -0.120970175 -0.24259378 0.12058948 -0.27010936 -0.043251526
0.17692329 0.10216139 0.04648352 0.21116902 0.04459429 0.06392685 0.067425966 -0.10471608
0.10751368 -0.06335186 0.122706406 -0.14685462 0.21453527 0.035820603 0.07659886 -0.15855265
0.05052127 0.16821495 0.09181315 0.016523035 -0.15741073 0.046056625 -0.09570339 0.16098304
0.13291796 0.028035162 0.053412683 -0.014785294 0.007285107 0.020450018 -0.009764668 0.091092125

tcn.network.0.downsample.bias f4 [32]
00000000: 9aac 833d ca95 07be 2125 0b3e c908 b6bc
00000010: 7461 043d a58a 363d ddc6 363e 97f6 1d3e
00000020: 478b d6bd f638 29bd 252b c839 5ee1 d3bc
00000030: 3d0d 2fbe 9eed bbbd bdea 3cbd a1cd a73d
00000040: 0a27 8f3c f87e 283d 87a4 133e 161d 0c3e
00000050: 6a24 73bd 40a3 033e 1e61 a6bd 7917 a63d
00000060: b857 013e c21e 5dbe 5fa9 b7bb 0209 0bbe
00000070: 4491 febd 6703 6ebe 3a70 19be 2248 af3d
0.064294055 -0.13240734 0.13588382 -0.022220986 0.0323195 0.044565815 0.17849298 0.15426098
-0.10475784 -0.041314088 0.00038179118 -0.0258643 -0.17094894 -0.09176181 -0.0461223 0.081935175
0.01747467 0.04113671 0.14418231 0.1368297 -0.0593609 0.12855244 -0.081239924 0.08109946
0.12631118 -0.21593764 -0.0056049074 -0.13577655 -0.12430051 -0.23243485 -0.14984217 0.0855868

tcn.network.1.conv1.bias f4 [32]
00000000: a382 d3bd a83f c1bd a745 23be cd73 213d
00000010: a3b6 143d 3306 943c 3a98 9dbd 435c 1fbd
00000020: b65f bb3d 1d59 ea3d ae62 c23d 7788 013d
00000030: c3b1 0fbd 119c 0dbe c5af 383c 49ea 61bd
00000040: 2b98 093d ccf5 f23d 0aa1 2eba 1f10 4bbe
00000050: 269e bdbc d765 0fbe e4da 763d 5ef0 f23b
00000060: b642 f8bd 124d f93d 4b95 9e3d 2486 bebc
00000070: 42aa b0bd b4df 71bd 1c57 4bbd 9e4f 9bbd
-0.10327651 -0.094359696 -0.15944539 0.039417077 0.03630699 0.018069362 -0.076950505 -0.038906347
0.09149115 0.11442778 0.09491478 0.031624284 -0.035081636 -0.13829066 0.0112723755 -0.055155072
0.033592384 0.11863288 -0.000666157 -0.19830368 -0.0231467 -0.14003693 0.060267344 0.007413908
-0.12122099 0.12172903 0.07743319 -0.023257323 -0.08626224 -0.05905123 -0.04964362 -0.07583545

tcn.network.1.conv1.weight_g f4 [32, 1, 1]
00000000: f072 143f 8c68 103f 3930 483f 4222 2f3f
00000010: 8e63 133f 3035 163f aff8 3a3f ca10 073f
00000020: 6565 213f ebc4 243f 358c 063f f37d 493f
00000030: 6086 273f 120f 133f 3ba3 1d3f f5cb 173f
00000040: cc02 023f 45df 453f 15fe 0f3f 9cb7 003f
00000050: e6e2 fd3e ddb3 0e3f 45eb 6b3f d2c9 153f
00000060: 580b 013f d2a9 193f 193c 0f3f 9b39 0a3f
00000070: 6d9e 443f 030f 173f c370 ff3e b42d dc3e
0.5798788 0.56409526 0.7819858 0.6841165 0.57573783 0.5867491 0.7303571 0.52759993
0.6304534 0.6436297 0.5255769 0.7870781 0.65439415 0.5744487 0.61577195 0.5929559
0.5078552 0.7729381 0.56247073 0.50280166 0.49587172 0.557432 0.9215587 0.5851108
0.50407934 0.6002475 0.55951077 0.5399415 0.7680424 0.5900728 0.49890718 0.4300362

tcn.network.1.conv1.weight_v f4 [32, 32, 2]
00000000: 5e12 c6bd f165 a33d dbc3 babb bb2b cdbd
00000010: 4908 31be db35 49be ecf1 28be e2d9 1f3e
00000020: e463 313d c444 923d 5655 063c bd91 d83b
00000030: 9b57 603d 80dd c9bd 1fe2 c6bd 338a 30be
00000040: 0299 aabd cad2 0dbd 68ea 1e3d d85f 21be
00000050: f12a cfbd 3ab6 093d 4c70 713d 352b f63c
00000060: b332 e9bc 0a7e 23bc 3889 26be d721 b8bd
00000070: 5b84 583e ea18 233d 0df0 a63e 184a b63d
00000080: 6b83 01be 581f 0abd b51e 813c 200d f0bc
00000090: b388 cf3d 342b 2abe a176 943c 8c38 52bc
000000a0: c6a8 22be ce1f e4bb c79d e5bb 9f2a 243d
000000b0: f1dd d3bd 4a1a abbd d997 2cbe 60aa 36be
000000c0: 0329 a73d 53af 82bc 4547 203e dec2 803d
000000d0: e5d5 42be 8520 c1bd b580 023b f6cc 3f3d
000000e0: 70e2 d83c 6f63 01be 89db 0d3d a4df 393d
000000f0: f90d babd aefd 40be 0d73 93bd 4da9 a4bc
00000100: 5dd2 413b 915f a7bd 2324 993d a629 a63d
00000110: c7f8 bfbc 0cac 713d 3841 bbbb 4eec f5bd
00000120: 0532 88bd 7d5f d73c 1b74 81bd a426 85bd
00000130: f6e6 6d3b 9aca 983d 5d20 22bc a639 9d3c
00000140: 26fd e23d 8b22 adbd 7862 2abd e982 07bd
00000150: 8cae d13c 3976 d3bc 2b8d 393d fe91 4d3d
00000160: 2329 8fbd 15b6 54bd 1b7b b0bd f1e1 79bc
00000170: 92b4 8e3c 0440 10be 69e5 43bd aeb6 213d
00000180: 79a2 ce3c 1a75 fdbd 89fd d8bc b364 483c
00000190: 817d b23d e3ab 07bd 08c6 9f3c 8577 0bbe
000001a0: e5f9 f8bd f3b2 f6bd cb75 1abd 4790 acbc
000001b0: daf0 883d 5588 1fbd 95c7 d2bd 95b2 993d
000001c0: 32f7 f7bd 526e 0abe 4b01 e03d 1838 93bc
000001d0: 28cb 5a3d fb75 80bd f98b 7ebb d5f8 f0bd
000001e0: 5895 00be f87a 123d b36a cdbd ed2f d03d
000001f0: bef0 ca3d 4f84 cdbd 67a7 1fbd 8c7b cebb
00000200: 3ff7 073a 35d6 9539 ac5c df3d e889 d4bc
00000210: 84b2 9ebd 1b4d f53d cfe0 9ebd 7644 d23d
00000220: 93d3 153e f67e e5bd cb11 f93d 5c54 d5bd
00000230: 511a 0d3e a84e 7bbd 1d61 6cbd fbad 7abb
00000240: 99d6 79bd 4e42 943d 1f8b 913c aa82 20be
00000250: 9db7 c73d e26d 1dbd 30c9 8fbd 820a dc3d
00000260: c73c 4ebd 6c61 9b3c c05d c0bd 6db8 cbbc
00000270: e32a a73d c680 21be bed7 0f3d afcc a6bd
00000280: 19fd e9bd 9237 9a3d 5459 3a3e a347 19be
00000290: 0c2b a83d ea79 2fbe 8b6f 223e 3aa6 30be
000002a0: 6d90 63bd 472f 1a3d 2d9d e73d ffa3 2bbe
000002b0: 53b2 6dbd 2ba8 253d 8c5e 8dbd 295b 573d
000002c0: fb1d 24bd a946 823b 3bf2 2a3c 4283 19bc
000002d0: 22bf 39bd eecd 783c 439a 593d 431e 21bd
000002e0: f466 55bd 3feb b23c d916 45bd ea67 e8bc
000002f0: 1c26 babd 21e4 e53c df50 fa3d 264c 31bd
00000300: de89 263d 65e7 e83d 7a18 723d 9a69 463e
00000310: 7049 1dbd 7352 b93c f293 d03c edf6 eebd
00000320: 529e 27be 1fa7 fd3d 32ca e1bd 3df6 313e
00000330: 0f27 75bc e57e 4abd 32e0 c0bd 9629 8abd
00000340: b057 3abd a17c 9ebd 2799 3bbc 011c e7bc
00000350: 1785 32be c246 1dbc 2412 15bd a2ea 103d
00000360: 630e ed3c 6097 81bd 6e1e 89bc 8840 833d
00000370: 09c0 38bd 755c a63d a2ab 85bd 188a 8cbb
00000380: ab2b e8bd 9031 aabd a078 46be 6fa9 2ebd
00000390: ea91 ec3c f94a 353e bd75 c2bd 7a2c b63d
000003a0: e47a a8bc 28a5 31bb 90ef 8cbd fd68 413e
000003b0: 94ee abbc 1e21 8e3d 0b6e 48bd 3236 4bbd
000003c0: 7c0a 9fbd 520f eabc f5ca 78bd 108d 613d
000003d0: feea f0bd d694 403d 279f 36be 1bc7 483e
000003e0: a192 2fbc 8909 9abd ee2c 9cbc a928 29bd
000003f0: 5b90 e13c 68f0 0bbe 33e4 f2bd 19b8 5bbd
-0.09671472 0.07978428 -0.0056996173 -0.100181065 -0.17288317 -0.1964945 -0.16498536 0.1561046
0.043308154 0.07142022 0.008199057 0.00660917 0.054771047 -0.09856701 -0.09711098 -0.17240219
-0.08329965 -0.034624852 0.038797766 -0.15759218 -0.10115612 0.03362105 0.058944985 0.0300499
-0.028466558 -0.0099787805 -0.16263282 -0.089908294 0.2114424 0.03981868 0.3260502 0.08900851
-0.12647788 -0.033721298 0.015761713 -0.029303133 0.10133495 -0.16618043 0.018122973 -0.012830865
-0.15884694 -0.006961799 -0.007007334 0.04007971 -0.10345066 -0.083546236 -0.168548 -0.1783843
0.08162119 -0.015952742 0.15652187 0.06287168 -0.19026907 -0.09430031 0.001991314 0.046826325
0.026475161 -0.12635587 0.034633193 0.045379296 -0.09084696 -0.18846771 -0.071996786 -0.02010026
0.002957485 -0.08172525 0.07477596 0.081134126 -0.023434056 0.059001967 -0.005714562 -0.12007962
-0.066501655 0.02629065 -0.063209735 -0.06501511 0.0036300994 0.07460518 -0.009895411 0.019192528
0.110834405 -0.08453854 -0.041597813 -0.03308383 0.025595926 -0.025813209 0.045300644 0.050188057
-0.06990268 -0.05193146 -0.086172305 -0.015251623 0.017420087 -0.1408692 -0.047826204 0.039480858
0.025223957 -0.12375851 -0.026488082 0.01223104 0.08715344 -0.03312291 0.019503608 -0.13619812
-0.121570386 -0.120458506 -0.037709992 -0.02106489 0.06686564 -0.038948376 -0.102919735 0.07504765
-0.12107696 -0.13518646 0.109377466 -0.017971084 0.0534164 -0.06272503 -0.0038840754 -0.11766211
-0.1255697 0.035761803 -0.10030117 0.10165391 0.09909199 -0.100350015 -0.038978007 -0.006301349
0.0005186684 0.0002857909 0.10906348 -0.025944665 -0.07748893 0.11977597 -0.077577226 0.10266964
0.1463149 -0.112058565 0.12161597 -0.10416481 0.1377957 -0.06135431 -0.057709802 -0.0038250673
-0.060995672 0.07239209 0.017766533 -0.15674844 0.09751818 -0.03843487 -0.07020795 0.10744192
-0.05035093 0.018967353 -0.093928814 -0.024868215 0.08162477 -0.1577178 0.035117857 -0.08144509
-0.11425228 0.075301304 0.18198138 -0.14968733 0.082113355 -0.1713635 0.15862863 -0.1725091
-0.055557657 0.037642743 0.11309276 -0.16761778 -0.05803139 0.04044358 -0.06902799 0.05257717
-0.040067654 0.0039757085 0.010433729 -0.009369673 -0.045348294 0.015185816 0.05312563 -0.0393355
-0.052100137 0.02184069 -0.048117492 -0.028369863 -0.090893 0.028062882 0.12222456 -0.04328551
0.040658824 0.1137226 0.059105374 0.19376221 -0.038400114 0.022622323 0.02546117 -0.11668191
-0.16368988 0.123853914 -0.11024894 0.17379089 -0.014962926 -0.049437422 -0.09417762 -0.06746213
-0.04549378 -0.07738615 -0.011450089 -0.028211595 -0.17433582 -0.0095993895 -0.036394253 0.035380013
0.028937524 -0.063277006 -0.016738143 0.06408793 -0.045105014 0.081231035 -0.06526877 -0.004288923
-0.11336454 -0.083102345 -0.19381952 -0.042642053 0.028878171 0.17704381 -0.09495113 0.08895202
-0.020566411 -0.0027106497 -0.068816304 0.18887706 -0.020987786 0.0693991 -0.04893307 -0.04961223
-0.077656716 -0.028571758 -0.06074043 0.05506617 -0.11763571 0.04701694 -0.1783415 0.19607203
-0.010716111 -0.0752135 -0.019064393 -0.041298542 0.027534654 -0.13665926 -0.11859932 -0.053642366

tcn.network.1.conv2.bias f4 [32]
00000000: 49e3 31be 5c50 d63a 3462 40be bf14 043b
00000010: c85d 6a3b 1e9e 723b ab7e 223d 29dc 05bd
00000020: 3dcb bf3c b860 3a3e 02b5 c3bb 188b ebbc
00000030: b461 2b3d b18b 11be d72e 76bb bdce 12be
00000040: 12ac 863d 681c d4bd eea5 1dbd 47e2 c23c
00000050: a06c 183e 9ec8 5dba 54c2 1f3c bddf 443e
00000060: 644d 60bc 251a aabd dade 36be a805 4d3d
00000070: c5ad 343e b170 bbbc bff8 3d3e 288e 87be
-0.17371859 0.0016350853 -0.18787462 0.0020153967 0.0035761464 0.0037020515 0.03967158 -0.032680664
0.023412341 0.18200958 -0.0059725055 -0.028752849 0.041841224 -0.14213444 -0.003756454 -0.14336677
0.065757886 -0.103569806 -0.03848832 0.023789538 0.14885187 -0.0008460375 0.009750921 0.19225974
-0.013690326 -0.08305768 -0.17858449 0.050054222 0.17644413 -0.022880884 0.1855192 -0.26475644

tcn.network.1.conv2.weight_g f4 [32, 1, 1]
00000000: 1989 133f 88f6 dc3e b036 113f 94fb 0c3f
00000010: 71b9 133f cc28 143f 20b4 4f3f f56c 2b3f
00000020: 060b 023f 73ad 383f 8709 0d3f a403 1a3f
00000030: 43a1 243f be2b 063f 88de 333f 85ea 193f
00000040: fb70 ec3e c2c0 fa3e febf 063f a522 383f
00000050: bd67 393f aa28 363f 8f8f 023f 600b e63e
00000060: 9afe 223f 7576 173f d374 443f 21bd 123f
00000070: 348f 193f 7f97 0e3f dd29 683f dab0 ee3e
0.5763107 0.43156838 0.5672407 0.5507138 0.57704836 0.5787475 0.81134224 0.6696313
0.5079807 0.7213966 0.5509266 0.60161805 0.64308566 0.52410495 0.7026143 0.60123473
0.46179947 0.48975188 0.52636707 0.71927863 0.7242392 0.711558 0.51000303 0.44930553
0.6366974 0.59165126 0.7674076 0.5731984 0.59984136 0.55699915 0.9068888 0.46619302
