models/prototyping6/tcn_fold_8/best.pth (torch, 224151 bytes, 130 tensors)

tcn.d_reduce.weight f4 [32, 1, 1]
0.3747393 1.0217102 0.834151 -0.78480744 -0.37462452 -1.0241499 -0.034895346 0.9906262
0.59697634 0.94624317 0.84116644 -0.42087013 -0.8892165 0.46402773 0.4192392 0.5615314
0.68962014 -1.0392388 0.4557711 0.69408584 -0.13966656 0.23023674 0.79752386 0.6330693
-0.9682201 0.4503971 -0.05569853 0.041284647 -0.20844966 0.095633514 -0.50429213 -0.4183799
00000000: d4dd bf3e 66c7 823f ec8a 553f 24e9 48bf
00000010: c9ce bfbe 5817 83bf 6cee 0ebd ae99 7d3f
00000020: 71d3 183f fe3c 723f af56 573f 4a7c d7be
00000030: b1a3 63bf 0b95 ed3e 85a6 d63e 86c0 0f3f
00000040: f28a 303f c705 85bf d45a e93e 9caf 313f
00000050: c004 0fbe 2ec3 6b3e 862a 4c3f d410 223f
00000060: 46dd 77bf 739a e63e 2424 64bd 171a 293d
00000070: d473 55be 81db c33d 4a19 01bf e435 d6be

tcn.d_reduce.bias f4 [32]
-0.6096195 -0.08557784 0.56887436 0.7469744 -0.80438364 0.96169573 0.12645923 -0.17315961
0.46856025 -0.29893592 0.22340429 -0.57804656 0.11294277 0.552356 0.32727617 0.64853853
0.25613078 -0.9459756 0.054281525 0.53733337 -0.7462246 0.33183062 0.77224517 0.6103985
-0.5309587 -0.14617571 0.13331112 0.88994706 0.93679696 0.51308155 0.5439637 0.18964899
00000000: 0610 1cbf 6f43 afbd c0a1 113f b739 3f3f
00000010: 16ec 4dbf b131 763f 877e 013e c150 31be
00000020: 21e7 ef3e 210e 99be 18c4 643e dcfa 13bf
00000030: 8a4e e73d 3467 0d3f be90 a73e 9f06 263f
00000040: 9323 833e 752b 72bf 4e56 5e3d ae8e 093f
00000050: 9308 3fbf b4e5 a93e dcb1 453f 1343 1c3f
00000060: e9ec 07bf 16af 15be b682 083e 92d3 633f
00000070: edd1 6f3f 5059 033f 3441 0b3f 5833 423e

tcn.network.0.conv1.bias f4 [32]
0.05140191 -0.033828016 -0.041621603 -0.01838763 0.08378815 -0.12296367 -0.11319035 -0.11402525
0.009117374 -0.1286133 -0.15575479 0.034377396 0.049818296 -0.1014563 -0.16427872 -0.104538515
-0.085166514 -0.108534396 -0.15809737 -0.09410016 -0.23296584 0.07986857 -0.11234989 -0.032770067
-0.043557413 -0.044799358 0.047766473 0.019059287 -0.13378017 -0.09422961 -0.15930007 -0.05012123
00000000: cf8a 523d 3f8f 0abd 6a7b 2abd a8a1 96bc
00000010: 1f99 ab3d 60d4 fbbd 58d0 e7bd 1286 e9bd
00000020: 0a61 153c 34b3 03be 2f7e 1fbe 50cf 0c3d
00000030: 450e 4c3d 52c8 cfbd ae38 28be 4a18 d6bd
00000040: c86b aebd 4847 debd 47e4 21be 96b7 c0bd
00000050: 998e 6ebe 2292 a33d b317 e6bd e839 06bd
00000060: 4269 32bd 887f 37bd c7a6 433d 3922 9c3c
00000070: abfd 08be 74fb c0bd 8f1f 23be eb4b 4dbd

tcn.network.0.conv1.weight_g f4 [32, 1, 1]
0.4858921 0.5414033 0.561158 0.50932646 0.54603463 0.6081484 0.61478597 0.5205448
0.47878918 0.521947 0.48650953 0.5110489 0.5185389 0.53058916 0.48432195 0.5416307
0.5587195 0.5419939 0.5134231 0.58829916 0.63479817 0.41958797 0.5607572 0.5871815
0.4842406 0.5274379 0.51569456 0.5345767 0.572784 0.5518374 0.5648746 0.5754393
00000000: d9c6 f83e 6899 0a3f 0da8 0f3f 3863 023f
00000010: edc8 0b3f 9daf 1b3f 9d62 1d3f 6d42 053f
00000020: db23 f53e 529e 053f c717 f93e 1ad4 023f
00000030: f7be 043f b1d4 073f 0cf9 f73e 4fa8 0a3f
00000040: 3e08 0f3f 1dc0 0a3f b26f 033f c69a 163f
00000050: 2282 223f 3cd4 d63e c98d 0f3f 8751 163f
00000060: 62ee f73e 2c06 073f 8f04 043f 05da 083f
00000070: f9a1 123f 3745 0d3f 9f9b 103f fd4f 133f

tcn.network.0.conv1.weight_v f4 [32, 32, 2]
-0.03766086 0.03871205 0.07839857 0.020626083 0.089915976 0.02034456 0.035157118 0.121228196
0.072873965 0.13752674 -0.10090252 -0.002226018 0.16097493 -0.015041601 -0.0214963 0.042443074
-0.116081156 -0.06088489 -0.0303341 0.028794192 -0.043833997 -0.0071646553 0.100211576 -0.017374745
-0.15854943 0.021503413 0.11637083 -0.0082528405 -0.007822485 0.12753634 0.07501327 -0.07087899
-0.05930718 0.019450309 0.0172815 -0.06140448 -0.011733615 -0.054022305 0.07908868 0.08786964
0.06158847 0.11291032 -0.07937127 -0.023435356 -0.13314183 -0.020444866 -0.06697276 0.0058960305
0.050508894 0.079154864 0.1103333 -0.018148314 -0.13276619 0.12069162 0.024232818 0.025727848
0.045909084 0.025761005 0.031337775 -0.09937332 -0.11911255 0.11215374 0.044882696 -0.12882146
0.074712306 -0.038546033 -0.058184553 -0.008736656 0.11372471 -0.010163425 -0.0015723183 -0.07034334
0.09808671 -0.07803386 -0.05093781 -0.102197394 0.08726369 0.022387652 0.015101408 -0.06308537
-0.0137429265 -0.13056323 0.0194335 -0.02472257 0.039972674 0.057597037 0.09334676 -0.09993514
0.07052218 0.06403766 0.037282296 -0.04596536 -0.06277716 -0.0265295 -0.06954596 -0.11770079
0.023035647 -0.07001231 -0.09954406 -0.057963297 0.09996464 0.011892808 -0.028788578 0.018378679
0.06970631 0.008772502 -0.048477575 -0.012035604 -0.12973998 -0.012989094 0.07524057 -0.022283904
-0.046657894 0.035165157 0.048496265 -0.033479393 0.085897595 -0.10492609 -0.11403923 0.020854559
-0.019865258 0.09293764 0.10170627 0.052762493 0.08202959 -0.06523313 0.0995232 -0.09447487
0.011485594 0.10327698 0.012247498 0.10194639 0.0912076 0.013306687 0.06229485 0.007385261
-0.0827307 -0.06489225 -0.051269233 0.058588065 0.030931214 0.062225237 0.09364448 0.069249675
0.024106437 -0.05656396 -0.122943446 0.0056887805 0.05491561 -0.027458709 0.14293462 0.037403103
-0.018073082 0.07995554 0.0477486 -0.08115218 0.07676991 -0.016432159 -0.12233249 -0.05735865
0.07305816 -0.099028796 -0.0632552 -0.06950508 0.06946059 -0.011869978 -0.040910486 -0.17030658
0.0407831 -0.05200008 -0.01459769 -0.05352612 0.048564307 0.033230975 -0.16327465 -0.15065883
0.076941475 -0.05561093 0.14262727 0.02006715 -0.007694294 0.04752858 -0.13054197 -0.08270161
-0.15117238 -0.057306606 0.07446132 0.056754466 -0.09587627 -0.049016938 0.11477252 0.13240278
-0.012027152 -0.015858492 0.14688408 -0.028752536 -0.058852457 -0.02380006 -0.006538232 -0.056741696
0.08021496 -0.060980584 -0.13433637 0.042567212 -0.13916704 -0.15221441 -0.08090984 -0.096867196
0.03330139 -0.0024180526 0.117002256 0.010221931 -0.11692942 0.025402859 0.0026990587 0.040871613
-0.09378778 -0.12093845 0.052858725 0.030761167 -0.03430016 -0.072178 0.10858945 -0.13877109
0.026781505 -0.022834959 0.12522206 -0.05711096 0.18624784 -0.06737524 -0.06910396 -0.0571241
-0.09767658 -0.08099949 -0.07177342 0.058600903 -0.018757356 0.0070450185 -0.08363541 -0.027377145
0.042710464 0.117861524 0.13356818 0.0775791 -0.14591527 -0.06381672 -0.11843939 -0.0026108734
-0.070486516 -0.0011852215 0.07490259 -0.09447095 0.06682413 0.076295264 -0.107529305 0.057384808
00000000: 4642 1abd 8790 1e3d 6e8f a03d 08f8 a83c
00000010: de25 b83d a2a9 a63c e900 103d 7d46 f83d
00000020: f23e 953d cfd3 0c3e fba5 cebd 63e2 11bb
00000030: 9dd6 243e 0c71 76bc 0219 b0bc cad8 2d3d
00000040: f5bb edbd 6f62 79bd 387f f8bc cce1 eb3c
00000050: 478b 33bd 7cc5 eabb ba3b cd3d 7b55 8ebc
00000060: c85a 22be ed27 b03c d453 ee3d ec36 07bc
00000070: e129 00bc e398 023e 8fa0 993d 0129 91bd
00000080: 16ec 72bd 4156 9f3c ef91 8d3c 4483 7bbd
00000090: 593e 40bc 7e46 5dbd 3ff9 a13d fff4 b33d
000000a0: 3144 7c3d 873d e73d 688d a2bd 81fb bfbc
000000b0: 5556 08be fe7b a7bc 0429 89bd 7d33 c13b
000000c0: 6ae2 4e3d f21b a23d 6df6 e13d c6ab 94bc
000000d0: dcf3 07be 2b2d f73d e783 c63c 35c3 d23c
000000e0: 2a0b 3c3d be08 d33c 0a5c 003d 3d84 cbbd
000000f0: 48f1 f3bd dcb0 e53d ebd6 373d c6e9 03be
00000100: c402 993d 72e2 1dbd ed52 6ebd 3124 0fbc
00000110: 80e8 e83d 7e84 26bc 3f16 ceba 2b10 90bd
00000120: afe1 c83d 37d0 9fbd 2aa4 50bd de4c d1bd
00000130: 4eb7 b23d 4f66 b73c e56b 773c e732 81bd
00000140: 032a 61bc 5eb2 05be 0133 9f3c fd86 cabc
00000150: 63ba 233d dfea 6b3d 962c bf3d cbaa ccbd
00000160: ef6d 903d 2d26 833d 52b5 183d 2c46 3cbd
00000170: 5091 80bd 6554 d9bc 1d6e 8ebd 1d0d f1bd
00000180: 41b5 bc3c 9d62 8fbd c2dd cbbd ec6a 6dbd
00000190: 43ba cc3d 0dda 423c 06d6 ebbc e28e 963c
000001a0: 2fc2 8e3d 8aba 0f3c 6c90 46bd fb30 45bc
000001b0: 8fda 04be 35d0 54bc ba17 9a3d bc8c b6bc
000001c0: 591c 3fbd 5709 103d 05a4 463d b021 09bd
000001d0: 14eb af3d 7de3 d6bd 668d e9bd 2ed7 aa3c
000001e0: 77bc a2bc 1756 be3d 604b d03d 7c1d 583d
000001f0: 21ff a73d f298 85bd d2d2 cb3d 0a7c c1bd
00000200: 132e 3c3c e282 d33d bba9 483c 45c9 d03d
00000210: 0dcb ba3d 4a04 5a3c e228 7f3d 0f00 f23b
00000220: b76e a9bd 3ae6 84bd b0ff 51bd 0afa 6f3d
00000230: 7563 fd3c e4df 7e3d adc8 bf3d c6d2 8d3d
00000240: dd7a c53c 9caf 67bd c6c9 fbbd f368 ba3b
00000250: 31ef 603d 16f1 e0bc 745d 123e ff33 193d
00000260: 000e 94bc bbbf a33d 0994 433d 1d33 a6bd
00000270: 8b39 9d3d bc9c 86bc 7589 fabd e7f0 6abd
00000280: 849f 953d 9ccf cabd f18b 81bd ae58 8ebd
00000290: 5b41 8e3d 4c7a 42bc c191 27bd d964 2ebe
000002a0: 2e0c 273d 09fe 54bd 262b 6fbc 343e 5bbd
000002b0: 5eeb 463d 341d 083d 7831 27be 4f46 1abe
000002c0: 7e93 9d3d 49c8 63bd e20c 123e dd63 a43c
000002d0: 6b20 fcbb 54ad 423d cbac 05be 765f a9bd
000002e0: efcc 1abe 55ba 6abd 2d7f 983d 5f77 683d
000002f0: c75a c4bd fcc5 48bd db0d eb3d 9894 073e
00000300: 880d 45bc abe9 81bc c868 163e 708a ebbc
00000310: 460f 71bd 58f8 c2bc aa3e d6bb fb69 68bd
00000320: be47 a43d c7c6 79bd 798f 09be f55a 2e3d
00000330: ce81 0ebe 18de 1bbe 0fb4 a5bd 4f62 c6bd
00000340: 0a67 083d 3178 1ebb e19e ef3d e379 273c
00000350: b178 efbd a819 d03c b1e2 303b fe68 273d
00000360: cf13 c0bd 94ae f7bd 6482 583d d8fe fb3c
00000370: 537e 0cbd 0fd2 93bd 2564 de3d 021a 0ebe
00000380: e364 db3c 6110 bbbc 363a 003e 2fed 69bd
00000390: c1b7 3e3e 08fc 89bd 6186 8dbd f6fa 69bd
000003a0: a90a c8bd 10e3 a5bd f1fd 92bd 8007 703d
000003b0: 07a9 99bc e6d9 e63b 0b49 abbd 0946 e0bc
000003c0: 2bf1 2e3d 6261 f13d 19c6 083e cbe1 9e3d
000003d0: d06a 15be 57b2 82bd 5a90 f2bd 301b 2bbb
000003e0: 3c5b 90bd 6f59 9bba 8766 993d fc79 c1bd
000003f0: 17db 883d b140 9c3d 5338 dcbd 550c 6b3d

tcn.network.0.conv2.bias f4 [32]
0.06747214 -0.20118827 0.04740522 -0.12184518 -0.06283443 -0.090880096 -0.020843115 -0.0037637241
-0.042056486 0.07118894 0.026890367 -0.11742913 -0.013599057 -0.006981153 0.0088209845 -0.004885987
0.005580279 0.008392777 -0.15042242 0.037003264 -0.06589022 -0.016564976 -0.09534313 0.028164318
0.046270903 -0.109561816 -0.0858858 -0.025794378 -0.13815175 -0.008854296 0.09572226 -0.06796821
00000000: d52e 8a3d 4c04 4ebe fa2b 423d f789 f9bd
00000010: 56af 80bd 581f babd 2ebf aabc d0a8 76bb
00000020: 6c43 2cbd 82cb 913d 3049 dc3c af7e f0bd
00000030: 94ce 5ebc 28c2 e4bb e485 103c a11a a0bb
00000040: c6da b63b dc81 093c 5608 1abe bc90 173d
00000050: 74f1 86bd 46b3 87bc 4243 c3bd dbb8 e63c
00000060: 8f86 3d3d f261 e0bd e5e4 afbd bb4e d3bc
00000070: a777 0dbe 9c11 11bc 080a c43d eb32 8bbd

tcn.network.0.conv2.weight_g f4 [32, 1, 1]
0.5907709 0.5780124 0.56307805 0.5387345 0.5551062 0.5454387 0.50627214 0.5435113
0.46774188 0.58735603 0.51386404 0.56940675 0.52154386 0.63587445 0.5365021 0.6330678
0.50546587 0.5384808 0.49949017 0.578634 0.5903209 0.5078734 0.6292744 0.4259543
0.5073188 0.5590983 0.5279302 0.53243375 0.5716388 0.5602723 0.5296263 0.6744674
00000000: c33c 173f 9ff8 133f e225 103f 81ea 093f
00000010: 711b 0e3f dfa1 0b3f 0d9b 013f 8e23 0b3f
00000020: dd7b ef3e f75c 163f 988c 033f a4c4 113f
00000030: e683 053f abc8 223f 3458 093f bb10 223f
00000040: 3666 013f e1d9 093f 2dbd ff3e 5c21 143f
00000050: 451f 173f fe03 023f 2118 213f af16 da3e
00000060: a5df 013f 1121 0f3f 6f26 073f 944d 083f
00000070: ec56 123f 016e 0f3f 9795 073f e5a9 2c3f

tcn.network.0.conv2.weight_v f4 [32, 32, 2]
0.007055377 -0.09503826 -0.093334354 -0.08706212 -0.007625483 0.0317619 0.005359411 0.012664466
-0.09804744 0.053656217 0.099478826 0.028759358 0.14273195 0.16685717 -0.042980447 0.04210992
-0.043234307 0.062168095 0.06754893 0.06390309 -0.03651633 -0.011862961 0.050495744 -0.070586875
0.072349206 -0.10985289 -0.06547339 -0.09268889 -0.09192123 -0.067262165 0.060260978 -0.06499355
0.07803231 0.11317218 -0.040880837 0.009935956 -0.002711817 0.10380194 -0.06540789 0.14793189
0.20838921 0.12311478 -0.06863245 -0.029432127 0.0676097 0.09019104 0.050037954 -0.0992802
0.065829456 -0.005904557 -0.12400105 0.054168805 0.016554683 -0.020054074 -0.07796216 0.04964219
0.21603774 0.06278578 -0.06606593 0.05746463 0.09076145 0.10396593 -0.021205675 0.12654512
-0.047948547 -0.07071876 -0.09296385 -0.041750155 -0.02278913 0.043380696 -0.1581056 0.07496199
0.009086951 -0.047259655 -0.13863657 0.033392303 -0.09826281 -0.12524904 -0.058925908 -0.047310628
0.08721334 -0.08680987 0.049768087 0.020019753 -0.042025443 -0.17513822 -0.022326605 -0.08886677
-0.08259139 -0.12774943 0.081433386 0.05653713 -0.08138662 -0.007913832 0.0956019 -0.015922908
-0.117300406 0.0060262694 -0.014530311 0.026682584 0.035020187 -0.11682718 -0.035221465 -0.16307183
0.05269988 0.03696079 -0.115747176 -0.09441762 0.10989021 0.087135375 0.032192998 -0.124937326
-0.07104361 0.055903304 -0.13477118 -0.084612675 0.045117956 0.10103431 0.12247428 0.12862235
-0.08674355 -0.010383044 -0.10066265 0.03760727 0.068502575 -0.08256821 0.078940235 -0.116952404
0.037510294 0.018841378 -0.098295785 -0.036596652 0.020669494 -0.05428518 -0.090741105 6.0368225e-06
0.045616463 0.07820438 -0.09496133 -1.5845146e-16 0.106758945 1.0842878e-13 0.07190473 0.0004827861
0.14344284 0.0529793 -0.081145905 -0.018558811 0.015730767 -0.010799438 -0.027794346 -0.012496757
0.24182808 0.18838145 0.1080596 0.100597635 0.10228611 0.16929844 -0.024677807 0.032867227
0.07010723 0.0007753907 0.08003464 0.15231419 -5.4316835e-05 0.10049798 2.061832e-06 0.010053341
9.968445e-14 -0.025830835 -0.007828359 0.18833698 0.009396333 0.14014949 -0.112098366 -8.574124e-14
-0.0651386 1.2629278e-05 -0.038446154 0.03432693 -0.00292674 -0.035446487 0.027646054 -0.10235972
0.0026731438 -0.031948082 0.060474638 -0.1136041 -0.0058949245 -0.00063721905 -0.008961592 -4.5072062e-12
-0.041559882 0.10475698 0.0004321489 0.09765305 -0.024974525 -0.105792165 -0.11573255 -0.044606548
-0.1090315 0.04889126 -0.15703586 0.17265292 0.09341716 0.0024682682 -0.008080857 0.12377143
0.0047135786 -0.09749788 0.043280862 0.098119825 0.014375776 0.12388259 -0.13931666 -0.04885413
-0.032609295 0.021865409 0.14860955 -0.034593888 0.083852805 -0.06466471 0.11108014 -0.040095404
0.16159321 -0.091319084 0.04765585 0.07266121 0.033498537 -0.062257238 -0.14049485 -0.09857524
-0.15186639 0.17841762 -0.0024704118 -0.10443543 -0.017664028 -0.0565854 0.16144238 -0.06026808
-0.009260873 -0.08913046 0.106781185 -0.11094201 0.08597679 0.13318376 -0.16936982 -0.12470786
-0.08375545 -0.10825019 0.105226 0.06617115 0.17784183 -0.13672586 -0.02137359 0.07906134
00000000: cb30 e73b 6ba3 c2bd 1526 bfbd a04d b2bd
00000010: 30df f9bb c418 023d ff9d af3b 9f7e 4f3c
00000020: 19cd c8bd 9fc6 5b3d 8ebb cb3d bf98 eb3c
00000030: 5328 123e 9bdc 2a3e 440c 30bd 747b 2c3d
00000040: 7516 31bd f9a3 7e3d 1857 8a3d a0df 823d
00000050: 2692 15bd dd5c 42bc a0d4 4e3d da8f 90bd
00000060: d22b 943d 8dfa e0bd ea16 86bd acd3 bdbd
00000070: 3341 bcbd bfc0 89bd 37d4 763d 571b 85bd
00000080: 67cf 9f3d d1c6 e73d aa72 27bd 6cca 223c
00000090: bdb8 31bb 1d96 d43d 92f4 85bd 757b 173e
000000a0: fb63 553e 9a23 fc3d 2c8f 8cbd a51b f1bc
000000b0: f476 8a3d 14b6 b83d 99f4 4c3d 6b53 cbbd
000000c0: 98d1 863d 047b c1bb 43f4 fdbd 1ce0 5d3d
000000d0: b09d 873c 7148 a4bc a0aa 9fbd 9c55 4b3d
000000e0: ff38 5d3e d595 803d 934d 87bd 0860 6b3d
000000f0: 24e1 b93d 17ec d43d 86b7 adbc 0b95 013e
00000100: b265 44bd ffd4 90bd d563 bebd 3602 2bbd
00000110: 45b0 babc f5af 313d 6fe6 21be ac85 993d
00000120: 6fe1 143c 5793 41bd bff6 0dbe 5ec6 083d
00000130: 033e c9bd 4941 00be 4b5c 71bd cac8 41bd
00000140: e89c b23d 60c9 b1bd 9fd9 4b3d 7700 a43c
00000150: df22 2cbd 6f57 33be 49e6 b6bc c8ff b5bd
00000160: ad25 a9bd bfd0 02be 8cc6 a63d 7a93 673d
00000170: 07ae a6bd 04a9 01bc eeca c33d c270 82bc
00000180: 323b f0bd 0378 c53b 8b10 6ebc 6f95 da3c
00000190: 5471 0f3d 1743 efbd 6244 10bd 4dfc 26be
000001a0: d4db 573d 3364 173d db0c edbd 065e c1bd
000001b0: 1e0e e13d 0874 b23d cedc 033d 24df ffbd
000001c0: 507f 91bd ddfa 643d 7501 0abe 6949 adbd
000001d0: 9bcd 383d 14eb ce3d ccd3 fa3d 94b5 033e
000001e0: 9aa6 b1bd a51d 2abc 3828 cebd 150a 1a3d
000001f0: 144b 8c3d 8619 a9bd 6bab a13d be84 efbd
00000200: 65a4 193d 3c59 9a3c 4d4f c9bd 5fe6 15bd
00000210: 1253 a93c 235a 5ebd 79d6 b9bd e98f ca36
00000220: 54d8 3a3d 9e29 a03d 167b c2bd 9eae 36a5
00000230: 6fa4 da3d f028 f429 c942 933d 741e fd39
00000240: aee2 123e d300 593d d32f a6bd a608 98bc
00000250: cfdd 803c 20f0 30bc f8b0 e3bc 33bf 4cbc
00000260: c8a1 773e 11e7 403e 5a4e dd3d 2206 ce3d
00000270: 617b d13d 925c 2d3e 1d29 cabc c99f 063d
00000280: 6194 8f3d 9743 4b3a 34e9 a33d 40f8 1b3e
00000290: 42d2 63b8 e3d1 cd3d 015e 0a36 c5b6 243c
000002a0: 2c78 e029 309b d3bc 8442 00bc 69db 403e
000002b0: 14f3 193c 5983 0f3e d493 e5bd 7612 c1a9
000002c0: 6367 85bd 56e2 5337 b779 1dbd 659a 0c3d
000002d0: 8dce 3fbb 5630 11bd fa79 e23c f9a1 d1bd
000002e0: e92f 2f3b fedb 02bd 41b4 773d 44a9 e8bd
000002f0: 362a c1bb 0c0b 27ba a4d3 12bc 4e95 9eac
00000300: b23a 2abd d48a d63d 0b92 e239 53fe c73d
00000310: 6097 ccbc 90a9 d8bd 3005 edbd 5bb5 36bd
00000320: e84b dfbd 3442 483d 02ce 20be edcb 303e
00000330: 7f51 bf3d abc2 213b 9265 04bc e07b fd3d
00000340: 5d74 9a3b f8ac c7bd 4647 313d 0cf3 c83d
00000350: 6088 6b3c 28b6 fd3d 07a9 0ebe 451b 48bd
00000360: 5391 05bd 161f b33c 1a2d 183e 52b2 0dbd
00000370: 05bb ab3d ee6e 84bd fc7d e33d 143b 24bd
00000380: b178 253e 8005 bbbd c832 433d 67cf 943d
00000390: c335 093d 7201 7fbd e2dd 0fbe d1e1 c9bd
000003a0: dd82 1bbe 1cb3 363e a2e6 21bb 3ee2 d5bd
000003b0: 27b4 90bc 18c6 67bd 2751 253e aadb 76bd
000003c0: ebba 17bc 088a b6bd 18b0 da3d 9135 e3bd
000003d0: 9914 b03d 5361 083e 486f 2dbe d666 ffbd
000003e0: fa87 abbd 47b2 ddbd bb80 d73d bd84 873d
000003f0: 2b1c 363e dd01 0cbe ab17 afbc e9ea a13d

tcn.network.0.net.0.bias f4 [32]
0.05140191 -0.033828016 -0.041621603 -0.01838763 0.08378815 -0.12296367 -0.11319035 -0.11402525
0.009117374 -0.1286133 -0.15575479 0.034377396 0.049818296 -0.1014563 -0.16427872 -0.104538515
-0.085166514 -0.108534396 -0.15809737 -0.09410016 -0.23296584 0.07986857 -0.11234989 -0.032770067
-0.043557413 -0.044799358 0.047766473 0.019059287 -0.13378017 -0.09422961 -0.15930007 -0.05012123
00000000: cf8a 523d 3f8f 0abd 6a7b 2abd a8a1 96bc
00000010: 1f99 ab3d 60d4 fbbd 58d0 e7bd 1286 e9bd
00000020: 0a61 153c 34b3 03be 2f7e 1fbe 50cf 0c3d
00000030: 450e 4c3d 52c8 cfbd ae38 28be 4a18 d6bd
00000040: c86b aebd 4847 debd 47e4 21be 96b7 c0bd
00000050: 998e 6ebe 2292 a33d b317 e6bd e839 06bd
00000060: 4269 32bd 887f 37bd c7a6 433d 3922 9c3c
00000070: abfd 08be 74fb c0bd 8f1f 23be eb4b 4dbd

tcn.network.0.net.0.weight_g f4 [32, 1, 1]
0.4858921 0.5414033 0.561158 0.50932646 0.54603463 0.6081484 0.61478597 0.5205448
0.47878918 0.521947 0.48650953 0.5110489 0.5185389 0.53058916 0.48432195 0.5416307
0.5587195 0.5419939 0.5134231 0.58829916 0.63479817 0.41958797 0.5607572 0.5871815
0.4842406 0.5274379 0.51569456 0.5345767 0.572784 0.5518374 0.5648746 0.5754393
00000000: d9c6 f83e 6899 0a3f 0da8 0f3f 3863 023f
00000010: edc8 0b3f 9daf 1b3f 9d62 1d3f 6d42 053f
00000020: db23 f53e 529e 053f c717 f93e 1ad4 023f
00000030: f7be 043f b1d4 073f 0cf9 f73e 4fa8 0a3f
00000040: 3e08 0f3f 1dc0 0a3f b26f 033f c69a 163f
00000050: 2282 223f 3cd4 d63e c98d 0f3f 8751 163f
00000060: 62ee f73e 2c06 073f 8f04 043f 05da 083f
00000070: f9a1 123f 3745 0d3f 9f9b 103f fd4f 133f

tcn.network.0.net.0.weight_v f4 [32, 32, 2]
-0.03766086 0.03871205 0.07839857 0.020626083 0.089915976 0.02034456 0.035157118 0.121228196
0.072873965 0.13752674 -0.10090252 -0.002226018 0.16097493 -0.015041601 -0.0214963 0.042443074
-0.116081156 -0.06088489 -0.0303341 0.028794192 -0.043833997 -0.0071646553 0.100211576 -0.017374745
-0.15854943 0.021503413 0.11637083 -0.0082528405 -0.007822485 0.12753634 0.07501327 -0.07087899
-0.05930718 0.019450309 0.0172815 -0.06140448 -0.011733615 -0.054022305 0.07908868 0.08786964
0.06158847 0.11291032 -0.07937127 -0.023435356 -0.13314183 -0.020444866 -0.06697276 0.0058960305
0.050508894 0.079154864 0.1103333 -0.018148314 -0.13276619 0.12069162 0.024232818 0.025727848
0.045909084 0.025761005 0.031337775 -0.09937332 -0.11911255 0.11215374 0.044882696 -0.12882146
0.074712306 -0.038546033 -0.058184553 -0.008736656 0.11372471 -0.010163425 -0.0015723183 -0.07034334
0.09808671 -0.07803386 -0.05093781 -0.102197394 0.08726369 0.022387652 0.015101408 -0.06308537
-0.0137429265 -0.13056323 0.0194335 -0.02472257 0.039972674 0.057597037 0.09334676 -0.09993514
0.07052218 0.06403766 0.037282296 -0.04596536 -0.06277716 -0.0265295 -0.06954596 -0.11770079
0.023035647 -0.07001231 -0.09954406 -0.057963297 0.09996464 0.011892808 -0.028788578 0.018378679
0.06970631 0.008772502 -0.048477575 -0.012035604 -0.12973998 -0.012989094 0.07524057 -0.022283904
-0.046657894 0.035165157 0.048496265 -0.033479393 0.085897595 -0.10492609 -0.11403923 0.020854559
-0.019865258 0.09293764 0.10170627 0.052762493 0.08202959 -0.06523313 0.0995232 -0.09447487
0.011485594 0.10327698 0.012247498 0.10194639 0.0912076 0.013306687 0.06229485 0.007385261
-0.0827307 -0.06489225 -0.051269233 0.058588065 0.030931214 0.062225237 0.09364448 0.069249675
0.024106437 -0.05656396 -0.122943446 0.0056887805 0.05491561 -0.027458709 0.14293462 0.037403103
-0.018073082 0.07995554 0.0477486 -0.08115218 0.07676991 -0.016432159 -0.12233249 -0.05735865
0.07305816 -0.099028796 -0.0632552 -0.06950508 0.06946059 -0.011869978 -0.040910486 -0.17030658
0.0407831 -0.05200008 -0.01459769 -0.05352612 0.048564307 0.033230975 -0.16327465 -0.15065883
0.076941475 -0.05561093 0.14262727 0.02006715 -0.007694294 0.04752858 -0.13054197 -0.08270161
-0.15117238 -0.057306606 0.07446132 0.056754466 -0.09587627 -0.049016938 0.11477252 0.13240278
-0.012027152 -0.015858492 0.14688408 -0.028752536 -0.058852457 -0.02380006 -0.006538232 -0.056741696
0.08021496 -0.060980584 -0.13433637 0.042567212 -0.13916704 -0.15221441 -0.08090984 -0.096867196
0.03330139 -0.0024180526 0.117002256 0.010221931 -0.11692942 0.025402859 0.0026990587 0.040871613
-0.09378778 -0.12093845 0.052858725 0.030761167 -0.03430016 -0.072178 0.10858945 -0.13877109
0.026781505 -0.022834959 0.12522206 -0.05711096 0.18624784 -0.06737524 -0.06910396 -0.0571241
-0.09767658 -0.08099949 -0.07177342 0.058600903 -0.018757356 0.0070450185 -0.08363541 -0.027377145
0.042710464 0.117861524 0.13356818 0.0775791 -0.14591527 -0.06381672 -0.11843939 -0.0026108734
-0.070486516 -0.0011852215 0.07490259 -0.09447095 0.06682413 0.076295264 -0.107529305 0.057384808
00000000: 4642 1abd 8790 1e3d 6e8f a03d 08f8 a83c
00000010: de25 b83d a2a9 a63c e900 103d 7d46 f83d
00000020: f23e 953d cfd3 0c3e fba5 cebd 63e2 11bb
00000030: 9dd6 243e 0c71 76bc 0219 b0bc cad8 2d3d
00000040: f5bb edbd 6f62 79bd 387f f8bc cce1 eb3c
00000050: 478b 33bd 7cc5 eabb ba3b cd3d 7b55 8ebc
00000060: c85a 22be ed27 b03c d453 ee3d ec36 07bc
00000070: e129 00bc e398 023e 8fa0 993d 0129 91bd
00000080: 16ec 72bd 4156 9f3c ef91 8d3c 4483 7bbd
00000090: 593e 40bc 7e46 5dbd 3ff9 a13d fff4 b33d
000000a0: 3144 7c3d 873d e73d 688d a2bd 81fb bfbc
000000b0: 5556 08be fe7b a7bc 0429 89bd 7d33 c13b
000000c0: 6ae2 4e3d f21b a23d 6df6 e13d c6ab 94bc
000000d0: dcf3 07be 2b2d f73d e783 c63c 35c3 d23c
000000e0: 2a0b 3c3d be08 d33c 0a5c 003d 3d84 cbbd
000000f0: 48f1 f3bd dcb0 e53d ebd6 373d c6e9 03be
00000100: c402 993d 72e2 1dbd ed52 6ebd 3124 0fbc
00000110: 80e8 e83d 7e84 26bc 3f16 ceba 2b10 90bd
00000120: afe1 c83d 37d0 9fbd 2aa4 50bd de4c d1bd
00000130: 4eb7 b23d 4f66 b73c e56b 773c e732 81bd
00000140: 032a 61bc 5eb2 05be 0133 9f3c fd86 cabc
00000150: 63ba 233d dfea 6b3d 962c bf3d cbaa ccbd
00000160: ef6d 903d 2d26 833d 52b5 183d 2c46 3cbd
00000170: 5091 80bd 6554 d9bc 1d6e 8ebd 1d0d f1bd
00000180: 41b5 bc3c 9d62 8fbd c2dd cbbd ec6a 6dbd
00000190: 43ba cc3d 0dda 423c 06d6 ebbc e28e 963c
000001a0: 2fc2 8e3d 8aba 0f3c 6c90 46bd fb30 45bc
000001b0: 8fda 04be 35d0 54bc ba17 9a3d bc8c b6bc
000001c0: 591c 3fbd 5709 103d 05a4 463d b021 09bd
000001d0: 14eb af3d 7de3 d6bd 668d e9bd 2ed7 aa3c
000001e0: 77bc a2bc 1756 be3d 604b d03d 7c1d 583d
000001f0: 21ff a73d f298 85bd d2d2 cb3d 0a7c c1bd
00000200: 132e 3c3c e282 d33d bba9 483c 45c9 d03d
00000210: 0dcb ba3d 4a04 5a3c e228 7f3d 0f00 f23b
00000220: b76e a9bd 3ae6 84bd b0ff 51bd 0afa 6f3d
00000230: 7563 fd3c e4df 7e3d adc8 bf3d c6d2 8d3d
00000240: dd7a c53c 9caf 67bd c6c9 fbbd f368 ba3b
00000250: 31ef 603d 16f1 e0bc 745d 123e ff33 193d
00000260: 000e 94bc bbbf a33d 0994 433d 1d33 a6bd
00000270: 8b39 9d3d bc9c 86bc 7589 fabd e7f0 6abd
00000280: 849f 953d 9ccf cabd f18b 81bd ae58 8ebd
00000290: 5b41 8e3d 4c7a 42bc c191 27bd d964 2ebe
000002a0: 2e0c 273d 09fe 54bd 262b 6fbc 343e 5bbd
000002b0: 5eeb 463d 341d 083d 7831 27be 4f46 1abe
000002c0: 7e93 9d3d 49c8 63bd e20c 123e dd63 a43c
000002d0: 6b20 fcbb 54ad 423d cbac 05be 765f a9bd
000002e0: efcc 1abe 55ba 6abd 2d7f 983d 5f77 683d
000002f0: c75a c4bd fcc5 48bd db0d eb3d 9894 073e
00000300: 880d 45bc abe9 81bc c868 163e 708a ebbc
00000310: 460f 71bd 58f8 c2bc aa3e d6bb fb69 68bd
00000320: be47 a43d c7c6 79bd 798f 09be f55a 2e3d
00000330: ce81 0ebe 18de 1bbe 0fb4 a5bd 4f62 c6bd
00000340: 0a67 083d 3178 1ebb e19e ef3d e379 273c
00000350: b178 efbd a819 d03c b1e2 303b fe68 273d
00000360: cf13 c0bd 94ae f7bd 6482 583d d8fe fb3c
00000370: 537e 0cbd 0fd2 93bd 2564 de3d 021a 0ebe
00000380: e364 db3c 6110 bbbc 363a 003e 2fed 69bd
00000390: c1b7 3e3e 08fc 89bd 6186 8dbd f6fa 69bd
000003a0: a90a c8bd 10e3 a5bd f1fd 92bd 8007 703d
000003b0: 07a9 99bc e6d9 e63b 0b49 abbd 0946 e0bc
000003c0: 2bf1 2e3d 6261 f13d 19c6 083e cbe1 9e3d
000003d0: d06a 15be 57b2 82bd 5a90 f2bd 301b 2bbb
000003e0: 3c5b 90bd 6f59 9bba 8766 993d fc79 c1bd
000003f0: 17db 883d b140 9c3d 5338 dcbd 550c 6b3d

tcn.network.0.net.4.bias f4 [32]
0.06747214 -0.20118827 0.04740522 -0.12184518 -0.06283443 -0.090880096 -0.020843115 -0.0037637241
-0.042056486 0.07118894 0.026890367 -0.11742913 -0.013599057 -0.006981153 0.0088209845 -0.004885987
0.005580279 0.008392777 -0.15042242 0.037003264 -0.06589022 -0.016564976 -0.09534313 0.028164318
0.046270903 -0.109561816 -0.0858858 -0.025794378 -0.13815175 -0.008854296 0.09572226 -0.06796821
00000000: d52e 8a3d 4c04 4ebe fa2b 423d f789 f9bd
00000010: 56af 80bd 581f babd 2ebf aabc d0a8 76bb
00000020: 6c43 2cbd 82cb 913d 3049 dc3c af7e f0bd
00000030: 94ce 5ebc 28c2 e4bb e485 103c a11a a0bb
00000040: c6da b63b dc81 093c 5608 1abe bc90 173d
00000050: 74f1 86bd 46b3 87bc 4243 c3bd dbb8 e63c
00000060: 8f86 3d3d f261 e0bd e5e4 afbd bb4e d3bc
00000070: a777 0dbe 9c11 11bc 080a c43d eb32 8bbd

tcn.network.0.net.4.weight_g f4 [32, 1, 1]
0.5907709 0.5780124 0.56307805 0.5387345 0.5551062 0.5454387 0.50627214 0.5435113
0.46774188 0.58735603 0.51386404 0.56940675 0.52154386 0.63587445 0.5365021 0.6330678
0.50546587 0.5384808 0.49949017 0.578634 0.5903209 0.5078734 0.6292744 0.4259543
0.5073188 0.5590983 0.5279302 0.53243375 0.5716388 0.5602723 0.5296263 0.6744674
00000000: c33c 173f 9ff8 133f e225 103f 81ea 093f
00000010: 711b 0e3f dfa1 0b3f 0d9b 013f 8e23 0b3f
00000020: dd7b ef3e f75c 163f 988c 033f a4c4 113f
00000030: e683 053f abc8 223f 3458 093f bb10 223f
00000040: 3666 013f e1d9 093f 2dbd ff3e 5c21 143f
00000050: 451f 173f fe03 023f 2118 213f af16 da3e
00000060: a5df 013f 1121 0f3f 6f26 073f 944d 083f
00000070: ec56 123f 016e 0f3f 9795 073f e5a9 2c3f

tcn.network.0.net.4.weight_v f4 [32, 32, 2]
0.007055377 -0.09503826 -0.093334354 -0.08706212 -0.007625483 0.0317619 0.005359411 0.012664466
-0.09804744 0.053656217 0.099478826 0.028759358 0.14273195 0.16685717 -0.042980447 0.04210992
-0.043234307 0.062168095 0.06754893 0.06390309 -0.03651633 -0.011862961 0.050495744 -0.070586875
0.072349206 -0.10985289 -0.06547339 -0.09268889 -0.09192123 -0.067262165 0.060260978 -0.06499355
0.07803231 0.11317218 -0.040880837 0.009935956 -0.002711817 0.10380194 -0.06540789 0.14793189
0.20838921 0.12311478 -0.06863245 -0.029432127 0.0676097 0.09019104 0.050037954 -0.0992802
0.065829456 -0.005904557 -0.12400105 0.054168805 0.016554683 -0.020054074 -0.07796216 0.04964219
0.21603774 0.06278578 -0.06606593 0.05746463 0.09076145 0.10396593 -0.021205675 0.12654512
-0.047948547 -0.07071876 -0.09296385 -0.041750155 -0.02278913 0.043380696 -0.1581056 0.07496199
0.009086951 -0.047259655 -0.13863657 0.033392303 -0.09826281 -0.12524904 -0.058925908 -0.047310628
0.08721334 -0.08680987 0.049768087 0.020019753 -0.042025443 -0.17513822 -0.022326605 -0.08886677
-0.08259139 -0.12774943 0.081433386 0.05653713 -0.08138662 -0.007913832 0.0956019 -0.015922908
-0.117300406 0.0060262694 -0.014530311 0.026682584 0.035020187 -0.11682718 -0.035221465 -0.16307183
0.05269988 0.03696079 -0.115747176 -0.09441762 0.10989021 0.087135375 0.032192998 -0.124937326
-0.07104361 0.055903304 -0.13477118 -0.084612675 0.045117956 0.10103431 0.12247428 0.12862235
-0.08674355 -0.010383044 -0.10066265 0.03760727 0.068502575 -0.08256821 0.078940235 -0.116952404
0.037510294 0.018841378 -0.098295785 -0.036596652 0.020669494 -0.05428518 -0.090741105 6.0368225e-06
0.045616463 0.07820438 -0.09496133 -1.5845146e-16 0.106758945 1.0842878e-13 0.07190473 0.0004827861
0.14344284 0.0529793 -0.081145905 -0.018558811 0.015730767 -0.010799438 -0.027794346 -0.012496757
0.24182808 0.18838145 0.1080596 0.100597635 0.10228611 0.16929844 -0.024677807 0.032867227
0.07010723 0.0007753907 0.08003464 0.15231419 -5.4316835e-05 0.10049798 2.061832e-06 0.010053341
9.968445e-14 -0.025830835 -0.007828359 0.18833698 0.009396333 0.14014949 -0.112098366 -8.574124e-14
-0.0651386 1.2629278e-05 -0.038446154 0.03432693 -0.00292674 -0.035446487 0.027646054 -0.10235972
0.0026731438 -0.031948082 0.060474638 -0.1136041 -0.0058949245 -0.00063721905 -0.008961592 -4.5072062e-12
-0.041559882 0.10475698 0.0004321489 0.09765305 -0.024974525 -0.105792165 -0.11573255 -0.044606548
-0.1090315 0.04889126 -0.15703586 0.17265292 0.09341716 0.0024682682 -0.008080857 0.12377143
0.0047135786 -0.09749788 0.043280862 0.098119825 0.014375776 0.12388259 -0.13931666 -0.04885413
-0.032609295 0.021865409 0.14860955 -0.034593888 0.083852805 -0.06466471 0.11108014 -0.040095404
0.16159321 -0.091319084 0.04765585 0.07266121 0.033498537 -0.062257238 -0.14049485 -0.09857524
-0.15186639 0.17841762 -0.0024704118 -0.10443543 -0.017664028 -0.0565854 0.16144238 -0.06026808
-0.009260873 -0.08913046 0.106781185 -0.11094201 0.08597679 0.13318376 -0.16936982 -0.12470786
-0.08375545 -0.10825019 0.105226 0.06617115 0.17784183 -0.13672586 -0.02137359 0.07906134
00000000: cb30 e73b 6ba3 c2bd 1526 bfbd a04d b2bd
00000010: 30df f9bb c418 023d ff9d af3b 9f7e 4f3c
00000020: 19cd c8bd 9fc6 5b3d 8ebb cb3d bf98 eb3c
00000030: 5328 123e 9bdc 2a3e 440c 30bd 747b 2c3d
00000040: 7516 31bd f9a3 7e3d 1857 8a3d a0df 823d
00000050: 2692 15bd dd5c 42bc a0d4 4e3d da8f 90bd
00000060: d22b 943d 8dfa e0bd ea16 86bd acd3 bdbd
00000070: 3341 bcbd bfc0 89bd 37d4 763d 571b 85bd
00000080: 67cf 9f3d d1c6 e73d aa72 27bd 6cca 223c
00000090: bdb8 31bb 1d96 d43d 92f4 85bd 757b 173e
000000a0: fb63 553e 9a23 fc3d 2c8f 8cbd a51b f1bc
000000b0: f476 8a3d 14b6 b83d 99f4 4c3d 6b53 cbbd
000000c0: 98d1 863d 047b c1bb 43f4 fdbd 1ce0 5d3d
000000d0: b09d 873c 7148 a4bc a0aa 9fbd 9c55 4b3d
000000e0: ff38 5d3e d595 803d 934d 87bd 0860 6b3d
000000f0: 24e1 b93d 17ec d43d 86b7 adbc 0b95 013e
00000100: b265 44bd ffd4 90bd d563 bebd 3602 2bbd
00000110: 45b0 babc f5af 313d 6fe6 21be ac85 993d
00000120: 6fe1 143c 5793 41bd bff6 0dbe 5ec6 083d
00000130: 033e c9bd 4941 00be 4b5c 71bd cac8 41bd
00000140: e89c b23d 60c9 b1bd 9fd9 4b3d 7700 a43c
00000150: df22 2cbd 6f57 33be 49e6 b6bc c8ff b5bd
00000160: ad25 a9bd bfd0 02be 8cc6 a63d 7a93 673d
00000170: 07ae a6bd 04a9 01bc eeca c33d c270 82bc
00000180: 323b f0bd 0378 c53b 8b10 6ebc 6f95 da3c
00000190: 5471 0f3d 1743 efbd 6244 10bd 4dfc 26be
000001a0: d4db 573d 3364 173d db0c edbd 065e c1bd
000001b0: 1e0e e13d 0874 b23d cedc 033d 24df ffbd
000001c0: 507f 91bd ddfa 643d 7501 0abe 6949 adbd
000001d0: 9bcd 383d 14eb ce3d ccd3 fa3d 94b5 033e
000001e0: 9aa6 b1bd a51d 2abc 3828 cebd 150a 1a3d
000001f0: 144b 8c3d 8619 a9bd 6bab a13d be84 efbd
00000200: 65a4 193d 3c59 9a3c 4d4f c9bd 5fe6 15bd
00000210: 1253 a93c 235a 5ebd 79d6 b9bd e98f ca36
00000220: 54d8 3a3d 9e29 a03d 167b c2bd 9eae 36a5
00000230: 6fa4 da3d f028 f429 c942 933d 741e fd39
00000240: aee2 123e d300 593d d32f a6bd a608 98bc
00000250: cfdd 803c 20f0 30bc f8b0 e3bc 33bf 4cbc
00000260: c8a1 773e 11e7 403e 5a4e dd3d 2206 ce3d
00000270: 617b d13d 925c 2d3e 1d29 cabc c99f 063d
00000280: 6194 8f3d 9743 4b3a 34e9 a33d 40f8 1b3e
00000290: 42d2 63b8 e3d1 cd3d 015e 0a36 c5b6 243c
000002a0: 2c78 e029 309b d3bc 8442 00bc 69db 403e
000002b0: 14f3 193c 5983 0f3e d493 e5bd 7612 c1a9
000002c0: 6367 85bd 56e2 5337 b779 1dbd 659a 0c3d
000002d0: 8dce 3fbb 5630 11bd fa79 e23c f9a1 d1bd
000002e0: e92f 2f3b fedb 02bd 41b4 773d 44a9 e8bd
000002f0: 362a c1bb 0c0b 27ba a4d3 12bc 4e95 9eac
00000300: b23a 2abd d48a d63d 0b92 e239 53fe c73d
00000310: 6097 ccbc 90a9 d8bd 3005 edbd 5bb5 36bd
00000320: e84b dfbd 3442 483d 02ce 20be edcb 303e
00000330: 7f51 bf3d abc2 213b 9265 04bc e07b fd3d
00000340: 5d74 9a3b f8ac c7bd 4647 313d 0cf3 c83d
00000350: 6088 6b3c 28b6 fd3d 07a9 0ebe 451b 48bd
00000360: 5391 05bd 161f b33c 1a2d 183e 52b2 0dbd
00000370: 05bb ab3d ee6e 84bd fc7d e33d 143b 24bd
00000380: b178 253e 8005 bbbd c832 433d 67cf 943d
00000390: c335 093d 7201 7fbd e2dd 0fbe d1e1 c9bd
000003a0: dd82 1bbe 1cb3 363e a2e6 21bb 3ee2 d5bd
000003b0: 27b4 90bc 18c6 67bd 2751 253e aadb 76bd
000003c0: ebba 17bc 088a b6bd 18b0 da3d 9135 e3bd
000003d0: 9914 b03d 5361 083e 486f 2dbe d666 ffbd
000003e0: fa87 abbd 47b2 ddbd bb80 d73d bd84 873d
000003f0: 2b1c 363e dd01 0cbe ab17 afbc e9ea a13d

tcn.network.0.downsample.weight f4 [32, 32, 1]
0.1824607 0.30202085 0.23409484 -0.29239824 0.09963694 -0.32378525 -0.109084226 0.27168238
0.19082794 0.09327015 0.07100588 -0.05889249 -0.33764794 0.002910905 0.08562133 0.09396893
0.016516896 -0.07599306 0.20773858 0.18677074 0.05971572 -0.08282779 0.06644585 0.24724555
0.009122483 0.33368298 -0.03443325 -0.14095537 -0.23020853 -0.14533445 -0.22783318 -0.25013626
0.06000336 -0.12797701 -0.12164913 -0.04632902 -0.030544486 0.1306853 -0.04404303 0.00433914
-0.14307113 -0.29275724 0.02735049 -0.10948155 0.023433287 -0.13105959 0.11350031 0.06321825
-0.17734617 0.06877181 -0.2155555 -0.19395022 -0.17584327 -0.10878875 -0.081762955 -0.019523216
0.109501354 -0.23937614 0.17883977 0.17635784 0.056534655 0.16791353 0.1707027 -0.0284708
0.19991754 0.15207535 -0.066325285 -0.13737914 0.08484526 -0.19333477 0.0016118581 -0.12352736
0.03760263 0.0406327 -0.041853406 -0.02621706 -0.01632697 -0.1732091 -0.16515642 -0.0034222938
-0.11680218 0.16345645 -0.174089 -0.04076947 0.0043991986 -0.13384855 0.09863426 -0.126081
0.20287384 0.009703058 -0.005932535 -0.10424185 -0.1306885 -0.053333808 0.13809255 0.030312967
-0.17563546 0.0927394 0.008154653 0.11145035 0.054767963 0.042217374 0.08082958 -0.087743945
-0.19496293 -0.089624606 -0.14866365 0.22858426 0.10358101 -0.020135077 -0.056842852 -0.08036798
-0.21685877 0.2559887 -0.10098196 -0.07253523 0.15586051 -0.095716484 0.035212424 -0.048941083
-0.04347852 -0.08462688 -0.059774354 0.15986691 0.010645719 -0.070732854 0.12092059 0.08721322
-0.12918961 -0.13411586 -0.10430998 0.11640541 -0.13387455 0.016801992 -0.12641001 -0.11581016
0.11084607 -0.06472625 0.13256036 -0.004183597 0.12461505 0.14075786 0.17754526 -0.11266167
0.0049340483 -0.014754125 -0.018694395 -0.1238745 -0.037832577 0.09388297 0.014914901 -0.027367996
0.06442974 0.1881593 -0.12664153 0.025086584 -0.11375181 0.1348275 0.010424254 -0.094120875
0.05219968 0.2495932 0.11592262 0.0048128325 -0.006331302 0.032766275 0.10759501 0.27207947
0.14304852 -0.012528977 0.24388757 -0.09709433 -0.14116678 0.19259264 0.25540462 0.15769638
-0.013453211 -0.21175958 0.27838537 0.1322734 -0.1820467 -0.10164421 0.04522456 1.9044686e-05
-0.2111495 0.257009 0.12783639 0.0020357426 0.08714297 -0.12149128 -0.18479548 0.032378267
-0.09876277 0.09536398 -0.041417595 -0.15879822 -0.005496426 0.060683776 0.10291353 -0.04766936
-0.11996244 0.21412694 -0.09461379 0.1396611 -0.20380238 0.054347757 -0.054894622 0.13199991
-0.11115788 -0.06238026 0.1455781 -0.15691508 0.17217909 -0.17521103 0.14465173 -0.14800186
0.050331056 0.107917026 0.037247606 0.027928269 -0.090220325 -0.09261767 -0.031051883 0.08327295
0.055772793 0.044343315 -0.11243181 0.067226544 -0.036139905 0.08936142 -0.053795848 -0.044591997
0.108279824 -0.12651755 0.16101192 -0.029688971 0.01816937 0.15576763 0.108375125 -0.1766977
0.0425612 -0.11263682 -0.08308119 0.02788195 0.05885096 -0.17202908 0.0877686 0.11954391
-0.15029836 -0.054449424 -0.036644906 -0.03000484 -0.09702833 0.0079909125 0.011547721 -0.002458335
00000000: fad6 3a3e 7aa2 9a3e 8fb6 6f3e 39b5 95be
00000010: 740e cc3d 2ec7 a5be 8d67 dfbd f419 8b3e
00000020: 6668 433e 6c04 bf3d 886b 913d 4039 71bd
00000030: 31e0 acbe e2c4 3e3b 3c5a af3d c872 c03d
00000040: 714e 873c 40a2 9bbd 6cb9 543e d440 3f3e
00000050: 7998 743d 9ea1 a9bd c314 883d f02d 7d3e
00000060: 7876 153c 7fd8 aa3e e109 0dbd 9b56 10be
00000070: c9bb 6bbe 8ed2 14be 1a4d 69be dc11 80be
00000080: 15c6 753d 680c 03be 2e23 f9bd 80c3 3dbd
00000090: 6e38 fabc 5ed2 053e 7766 34bd 582f 8e3b
000000a0: 3d81 12be 47e4 95be 230e e03c dd37 e0bd
000000b0: 2af7 bf3c 7c34 06be da72 e83d 9278 813d
000000c0: 3c9a 35be 3cd8 8c3d 95ba 5cbe e39a 46be
000000d0: 4210 34be a3cc debd 5673 a7bd 27ef 9fbc
000000e0: 3f42 e03d 051f 75be c621 373e 2697 343e
000000f0: e290 673d 86f1 2b3e b0cc 2e3e 983b e9bc
00000100: 2fb7 4c3e a4b9 1b3e 8dd5 87bd 1ead 0cbe
00000110: 5ac3 ad3d 8df9 45be fc44 d33a eafb fcbd
00000120: 3705 1a3d 796e 263d 7a6e 2bbd 29c5 d6bc
00000130: 23c0 85bc ba5d 31be c41e 29be 9048 60bb
00000140: fb35 efbd 2161 273e 6344 32be e3fd 26bd
00000150: 2727 903b 980f 09be c200 ca3d 611b 01be
00000160: 29be 4f3e 93f9 1e3c b665 c2bb c07c d5bd
00000170: 35d3 05be 8d74 5abd 2268 0d3e e652 f83c
00000180: c8d9 33be 28ee bd3d 189b 053c 1540 e43d
00000190: 5f54 603d 20ec 2c3d fb89 a53d 19b3 b3bd
000001a0: 5da4 47be 1b8d b7bd 493b 18be fe11 6a3e
000001b0: 4822 d43d 51f2 a4bc 0dd4 68bd f897 a4bd
000001c0: 3a10 5ebe f310 833e a1cf cebd 5a8d 94bd
000001d0: e699 1f3e 0107 c4bd e73a 103d 7276 48bd
000001e0: 8816 32bd dc50 adbd f4d5 74bd 27b4 233e
000001f0: 626b 2e3c 63dc 90bd 37a5 f73d d89c b23d
00000200: 484a 04be ab55 09be 79a0 d5bd f665 ee3d
00000210: 6916 09be 55a4 893c a071 01be e12d edbd
00000220: 4403 e33d 328f 84bd e7bd 073e 8e16 89bb
00000230: 2d36 ff3d d422 103e 6dce 353e 29bb e6bd
00000240: ccad a13b 49bb 71bc fd24 99bc eab1 fdbd
00000250: 55f6 1abd b745 c03d a15d 743c d932 e0bc
00000260: bdf3 833d d5ac 403e 51ae 01be 6182 cd3c
00000270: b5f6 e8bd 3810 0a3e 7eca 2a3c 72c2 c0bd
00000280: 55cf 553d 5c95 7f3e d768 ed3d f7b4 9d3b
00000290: d076 cfbb ee35 063d c65a dc3d 004e 8b3e
000002a0: 507b 123e 5746 4dbc aabd 793e 64d9 c6bd
000002b0: 068e 10be 0137 453e 65c4 823e 297b 213e
000002c0: db6a 5cbc 81d7 58be 8788 8e3e ae72 073e
000002d0: 736a 3abe d72a d0bd 633d 393d 27c2 9f37
000002e0: 9337 58be af96 833e 8be7 023e 186a 053b
000002f0: 0378 b23d 6cd0 f8bd 073b 3dbe 139f 043d
00000300: 2344 cabd 314e c33d 7fa5 29bd 009c 22be
00000310: 5d1b b4bb 8d8f 783d 54c4 d23d f240 43bd
00000320: deae f5bd 1844 5b3e e0c4 c1bd 5203 0f3e
00000330: 92b1 50be c19b 5e3d 2fd9 60bd fc2a 073e
00000340: bea6 e3bd 7282 7fbd 6d12 153e 59ae 20be
00000350: b74f 303e 856a 33be 951f 143e cd8d 17be
00000360: f027 4e3d 9a03 dd3d f290 183d d3c9 e43c
00000370: 6fc5 b8bd 55ae bdbd 8560 febc 028b aa3d
00000380: 0372 643d 56a1 353d a642 e6bd 12ae 893d
00000390: 7007 14bd 1f03 b73d 0959 5cbd 19a6 36bd
000003a0: d0c1 dd3d d18d 01be 4fe0 243e 4936 f3bc
000003b0: eed7 943c 8d81 1f3e c7f3 dd3d 3ef0 34be
000003c0: a754 2e3d 22ae e6bd 7926 aabd b068 e43c
000003d0: b40d 713d 6428 30be 06c0 b33d 70d3 f43d
000003e0: d0e7 19be 5c06 5fbd f818 16bd b6cc f5bc
000003f0: cab6 c6bd 51ec 023c a732 3d3c 041c 21bb

tcn.network.0.downsample.bias f4 [32]
-0.19949818 -0.05088841 -0.04360328 -0.14284045 -0.061923333 0.1548892 -0.13749969 -0.010915985
-0.04161361 0.1609843 0.17296346 -0.03568905 -0.17150442 -0.0050689275 0.030969607 0.16588947
0.078538105 -0.08570425 0.12153087 0.06671684 -0.20272116 -0.15524502 -0.081420526 -0.012337969
0.024123354 0.05873266 0.03754156 0.1207865 -0.049621478 -0.10861898 0.095531605 0.12454645
00000000: 4049 4cbe 5e70 50bd 5a99 32bd c444 12be
00000010: 52a3 7dbd 469b 1e3e b8cc 0cbe f6d8 32bc
00000020: 0873 2abd 11d9 243e 551d 313e ae2e 12bd
00000030: db9e 2fbe 3f19 a6bb f9b3 fd3c eede 293e
00000040: 96d8 a03d b685 afbd 2de5 f83d d7a2 883d
00000050: 2396 4fbe 8df8 1ebe cebf a6bd 3125 4abc
00000060: 579e c53c a891 703d 2ec5 193d ea5e f73d
00000070: e43f 4bbd a173 debd 13a6 c33d 3612 ff3d

tcn.network.1.conv1.bias f4 [32]
-0.12220866 -0.09342122 -0.015346895 0.015491406 0.03979444 0.023753788 0.091623686 -0.13244796
0.007857969 0.01656161 -0.050284036 0.05828016 -0.04381641 -0.14989237 0.012967612 0.048941907
0.01986288 -0.103506334 0.1053324 0.015622001 0.03630378 -0.14343552 -0.05987905 0.029082606
-0.18138452 0.05999737 -0.024226174 -0.006322211 -0.033191957 -0.04784503 -0.09181575 0.025648426
00000000: 8948 fabd a053 bfbd 8b71 7bbc abcf 7d3c
00000010: 7fff 223d 4e97 c23c 33a5 bb3d 70a0 07be
00000020: b6be 003c 37ac 873c a2f6 4dbd 2db7 6e3d
00000030: d678 33bd 637d 19be 1b76 543c 4f77 483d
00000040: 7bb7 a23c 21fb d3bd 83b8 d73d 6cf3 7f3c
00000050: 46b3 143d c3e0 12be bc43 75bd a53e ee3c
00000060: ddbc 39be cdbf 753d f875 c6bc 8d2a cfbb
00000070: 4af4 07bd 26f9 43bd e509 bcbd a61c d23c

tcn.network.1.conv1.weight_g f4 [32, 1, 1]
0.7123795 0.5510182 0.64968115 0.5303226 0.72065043 0.60136515 0.52310723 0.46037295
0.62898326 0.5321231 0.5850209 0.70356524 0.5558486 0.62857485 0.4968621 0.5826461
0.91757673 0.55954546 0.51970404 0.53919023 0.92090195 0.65877634 0.50636625 0.4529754
0.5524738 0.58927155 0.5395683 0.58340186 0.5074424 0.6349042 0.574588 0.549382
00000000: 815e 363f 870f 0d3f 8151 263f 39c3 073f
00000010: 8c7c 383f 11f3 193f 5bea 053f 01b6 eb3e
00000020: 0c05 213f 3839 083f eec3 153f da1c 343f
00000030: 184c 0e3f 48ea 203f b664 fe3e 4b28 153f
00000040: 4fe6 6a3f 5f3e 0f3f 530b 053f 5f08 0a3f
00000050: 3bc0 6b3f 91a5 283f 38a1 013f 64ec e73e
00000060: ec6e 0d3f 80da 163f 2621 0a3f d359 153f
00000070: bfe7 013f 1589 223f 3318 133f 4ca4 0c3f

tcn.network.1.conv1.weight_v f4 [32, 32, 2]
-0.19720031 0.18758963 -0.010940893 0.040923417 0.02137145 0.037178222 -0.06477405 -0.033329207
0.0383864 -0.033865053 -0.18149586 0.111808226 -0.0065053576 -0.0017757552 -0.07737149 0.063214146
-0.17749679 0.09696755 -0.12406638 0.04361297 -0.06976024 0.071588084 -0.03473613 -0.017213553
-0.039832436 -0.0015481336 0.002105286 -0.04139122 0.006952242 -0.069373034 -0.042966712 0.016506284
-0.044804726 -0.053758904 -0.02985311 -0.0020575488 -0.1116248 -0.042069715 0.01867387 -0.020803303
-0.014413179 -0.0008515069 -0.0036138692 0.04730682 -0.004344662 0.07017209 -0.19085927 -0.0045414437
-0.16246909 0.054212984 -0.01934958 0.014313815 -0.14200953 0.109422326 0.021098014 -0.022765659
-0.028130345 0.02141334 -0.17596121 -0.006854233 -0.094414495 -0.003442028 -0.12800346 0.083672754
0.08255186 -0.10268524 -0.03588704 0.06862749 -0.030406497 -0.13100141 0.14216977 -0.12152632
0.057671268 -0.0511515 -0.14478835 -0.106481574 0.09109513 0.08640866 -0.022113996 -0.013443379
-0.051699437 -0.074709825 -0.031348467 0.04408762 0.055728458 0.017298836 -0.011250027 -0.0003015896
0.13725299 0.045337893 0.178525 -0.04544725 0.1426369 0.05143074 -0.007837634 0.07344471
0.099856876 -0.08112275 0.14742987 -0.09415797 -0.08356276 0.11018962 0.16957252 -0.10641748
0.12604968 0.1403355 0.16048552 -0.10414543 0.028413355 -0.14105873 -0.08034417 -0.05005249
-0.1349524 -0.14745826 0.12530585 -0.019720895 0.11450896 -0.02980301 0.0843422 0.013500431
-0.092796676 -0.14634377 -0.086114325 -0.13304746 -0.017519798 -0.11506794 -0.038634352 -0.12235668
-0.111926205 0.060265478 -0.08741443 -0.04516975 -0.029543323 0.029519023 -0.12493152 0.159885
0.0015161105 -0.030769706 0.1758726 -0.0819421 -0.05222503 0.024010628 0.0903862 -0.095981285
0.058358848 -0.0722589 0.19391292 -0.13348173 0.19808741 -0.028538022 -0.028440969 0.04500177
-0.06696236 0.039565492 -0.1616478 -0.06624058 0.07238893 -0.08445953 0.0058367504 0.097315386
0.049880598 -0.017936321 0.08418713 -0.051005475 0.15545699 -0.18514666 -0.05756256 0.19402507
-0.1528655 0.023979861 -0.1503001 -0.06433152 0.00079188705 0.053593155 0.14715932 -0.19521748
0.056633506 -0.088760674 -0.080218226 0.09648003 -0.067818716 -0.1502481 -0.059802137 0.07593707
-0.03714648 0.065094754 -0.110760316 -0.007813139 -0.050092548 -0.11246253 0.23401883 -0.17052408
0.019480295 0.17706311 0.09191013 -0.10220847 0.012446101 -0.028366262 -0.09901886 -0.034615666
-0.020629952 -0.11800549 -0.14167652 -0.05202035 -0.01362078 -0.035837125 -0.108872004 0.010895559
-0.074699715 0.23213728 -0.001681227 -0.029669693 -0.11559855 9.218245e-05 -0.048663147 0.019013269
-0.048589017 -0.014220391 -0.07539528 1.964519e-06 -0.13861564 -0.0047556716 -0.05561496 -0.07155935
-0.065592915 -0.0010911799 0.027952353 0.14534497 -0.1345655 0.005177586 -0.12262116 -0.009769276
-0.016812919 -0.10471581 -0.10191032 -0.03775508 0.10417788 0.07514643 -0.07853508 0.1610142
-0.058016617 -0.013437367 0.026893323 -0.010968495 0.023886917 0.17675357 -0.054177888 -0.06986404
-0.032939725 0.0844403 -0.1483754 0.13121982 0.07958441 0.12001268 -0.0057724067 0.010728444
00000000: e1ee 49be 7f17 403e 6e41 33bc 509f 273d
00000010: 2e13 af3c 3148 183d 42a8 84bd 3584 08bd
00000020: 0f3b 1d3d 15b6 0abd 0dda 39be b6fb e43d
00000030: e52a d5bb 75c0 e8ba f274 9ebd 6b76 813d
00000040: b8c1 35be ec96 c63d 8416 febd 83a3 323d
00000050: 75de 8ebd c69c 923d 7947 0ebd 7003 8dbc
00000060: 5627 23bd beea caba d7f8 093b d789 29bd
00000070: a2cf e33b 7313 8ebd ddfd 2fbd 3038 873c
00000080: 2985 37bd 4c32 5cbd 828e f4bc f1d7 06bb
00000090: 8b9b e4bd 4b51 2cbd f2f9 983c b06b aabc
000000a0: 4125 6cbc a937 5fba aad6 6cbb ccc4 413d
000000b0: ab5d 8ebb 62b6 8f3d 9d70 43be 64d0 94bb
000000c0: 4c5e 26be 6f0e 5e3d 0383 9ebc 7e84 6a3c
000000d0: f26a 11be d018 e03d bed5 ac3c 0c7f babc
000000e0: 9c71 e6bc 076b af3c 2d2f 34be 7999 e0bb
000000f0: 635c c1bd a693 61bb 5713 03be 9f5c ab3d
00000100: f310 a93d a44c d2bd 4afe 12bd 928c 8c3d
00000110: 0c17 f9bc 3c25 06be f494 113e cbe2 f8bd
00000120: b538 6c3d 3c84 51bd 6643 14be 0313 dabd
00000130: 1590 ba3d 06f7 b03d 6928 b5bc 9e41 5cbc
00000140: cac2 53bd 7701 99bd 4067 00bd 3895 343d
00000150: 8643 643d 4ab6 8d3c 0952 38bc ac1e 9eb9
00000160: 0c8c 0c3e 3ab4 393d 42cf 363e e526 3abd
00000170: 680f 123e 0aa9 523d 6b69 00bc 2e6a 963d
00000180: c381 cc3d af23 a6bd dbf7 163e e5d5 c0bd
00000190: f422 abbd 18ab e13d 6ba4 2d3e 68f1 d9bd
000001a0: 2b13 013e 1cb4 0f3e 5156 243e 334a d5bd
000001b0: 20c3 e83c b371 10be 7c8b a4bd d703 4dbd
000001c0: f630 0abe 4cff 16be 2d50 003e b78d a1bc
000001d0: ac83 ea3d 7125 f4bc 9abb ac3d e930 5d3c
000001e0: 2f0c bebd 24db 15be b55c b0bd 983d 08be
000001f0: ae85 8fbc bda8 ebbd 0e3f 1ebd 2496 fabd
00000200: 9139 e5bd efd8 763d 5606 b3bd ea03 39bd
00000210: d704 f2bc e1d1 f13c 19dc ffbd e5b8 233e
00000220: 3ab8 c63a c010 fcbc f217 343e 42d1 a7bd
00000230: eae9 55bd f0b1 c43c 661c b93d d691 c4bd
00000240: b009 6f3d 79fc 93bd 1c91 463e 6faf 08be
00000250: 6dd7 4a3e 92c8 e9bc 09fd e8bc c753 383d
00000260: 9023 89bd 6d0f 223d 0087 25be 24a9 87bd
00000270: a640 943d 1ef9 acbd 3642 bf3b 4a4d c73d
00000280: 994f 4c3d 31ef 92bc 4d6a ac3d 1eeb 50bd
00000290: 1e30 1f3e 1697 3dbe b8c6 6bbd 82ae 463e
000002a0: c688 1cbe 6a71 c43c 45e8 19be 3ec0 83bd
000002b0: a496 4f3a 7f84 5b3d efb0 163e 17e7 47be
000002c0: 89f8 673d 28c8 b5bd 7449 a4bd 5297 c53d
000002d0: 8ae4 8abd a3da 19be 16f3 74bd e584 9b3d
000002e0: e826 18bd 6650 853d 4ed6 e2bd ae02 00bc
000002f0: d82d 4dbd c152 e6bd a2a2 6f3e dd9d 2ebe
00000300: 2495 9f3c 0850 353e 613b bc3d ad52 d1bd
00000310: bbea 4b3c 5d60 e8bc 66ca cabd 28c9 0dbd
00000320: 2500 a9bc ddac f1bd a613 11be 4a13 55bd
00000330: b129 5fbc f3c9 12bd 49f8 debd 4983 323c
00000340: 2afc 98bd 65b5 6d3e 9e5c dcba db0d f3bc
00000350: efbe ecbd 1352 c138 0253 47bd b7c1 9b3c
00000360: 4705 47bd a5fc 68bc d768 9abd 2ed6 0336
00000370: 42f1 0dbe 77d5 9bbb 83cc 63bd b58d 92bd
00000380: 9455 86bd ec05 8fba 55fc e43c 50d5 143e
00000390: 8acb 09be bda8 a93b cd20 fbbd 500f 20bc
000003a0: 3fbb 89bc 3e75 d6bd 5cb6 d0bd 12a5 1abd
000003b0: 365b d53d 5fe6 993d 00d7 a0bd e8e0 243e
000003c0: d5a2 6dbd 6728 5cbc 634f dc3c 34b5 33bc
000003d0: 7fae c33c e3fe 343e a2e9 5dbd e114 8fbd
000003e0: ceeb 06bd 09ef ac3d b9ef 17be 7d5e 063e
000003f0: 27fd a23d 35c9 f53d 7526 bdbb 5bc6 2f3c

tcn.network.1.conv2.bias f4 [32]
-0.00916141 0.025385795 0.14290418 0.19552141 0.025630625 -0.17394572 -0.031657584 -0.034238573
0.08626967 -0.054870628 -0.027330467 -0.0050660297 0.05350642 -0.06658667 0.020957403 -0.15100437
-0.17204165 -0.011469348 0.006372778 0.07646927 -0.027983466 -0.033894535 -0.072008945 0.14023544
0.035626844 -0.20098273 0.025148934 -0.0040644933 -0.03360541 -0.1083629 -0.03069715 -0.028551048
00000000: bd19 16bc dff5 cf3c 7955 123e c436 483e
00000010: 51f7 d13c d41e 32be 62ab 01bd bf3d 0cbd
00000020: 27ae b03d 06c0 60bd 25e4 dfbc f000 a6bb
00000030: 8c29 5b3d 985e 88bd dcae ab3c e4a0 1abe
00000040: b02b 30be efe9 3bbc bdd2 d03b ec9b 9c3d
00000050: 953d e5bc ffd4 0abd 6d79 93bd e199 0f3e
00000060: 74ed 113d 6bce 4dbe 2305 ce3c 712f 85bb
00000070: d4a5 09bd 5eed ddbd 9778 fbbc e3e3 e9bc

tcn.network.1.conv2.weight_g f4 [32, 1, 1]
0.5199266 0.59638447 0.6617236 0.6320411 0.5567263 0.7200863 0.6046154 0.5835182
0.53936666 0.5634097 0.63996124 0.71533966 0.4961413 0.55590373 0.6511218 0.56483185
0.48629016 0.6047246 0.57330614 0.76023865 0.6845189 0.54594123 0.60199577 0.75445664
0.6918512 0.55226684 0.5095388 0.5609829 0.48848885 0.5811858 0.5319232 0.54411465
00000000: e919 053f a7ac 183f b866 293f 72cd 213f
00000010: 9d85 0e3f 9357 383f 13c8 1a3f 7361 153f
00000020: ef13 0a3f 9e3b 103f 80d4 233f 8020 373f
00000030: 3c06 fe3e b54f 0e3f ebaf 263f d298 103f
00000040: 06fb f83e 3bcf 1a3f 31c4 123f 009f 423f
00000050: a13c 2f3f cec2 0b3f 651c 1a3f 1224 413f
00000060: 291d 313f 5c61 0d3f 2371 023f 939c 0f3f
00000070: 361b fa3e 98c8 143f 1e2c 083f 194b 0b3f
