models/prototyping6/tcn_fold_8/best.pth (torch, 224151 bytes, 130 tensors)

tcn.d_reduce.weight f4 [32, 1, 1]
0	0x3dc06d80	0.093958855
1	0x3dea3e3b	0.11437651
2	0xbf3d15f1	-0.73861605
3	0x3f3c3d4a	0.7353102
4	0x3f3b3897	0.73133224
5	0x3ec116b5	0.37712637
6	0x3f012892	0.5045253
7	0xbe48d150	-0.19611096
8	0x3e8bd504	0.27310956
9	0xbef295fa	-0.47380048
10	0xbeb9e12e	-0.3630461
11	0xbf44e4e6	-0.7691177
12	0xbe5c9793	-0.21542196
13	0x3f7014e9	0.93781906
14	0xbe45f904	-0.19333273
15	0xbf51e89b	-0.8199555
16	0xbf24493a	-0.64174235
17	0x3ed02e86	0.40660495
18	0xbeef2724	-0.4670955
19	0xbe873bcd	-0.26412812
20	0xbe770c1a	-0.2412571
21	0xbf621b20	-0.8832264
22	0x3f522a18	0.8209548
23	0x3f8af4c1	1.0855943
24	0x3ea34711	0.31890157
25	0xbf81990c	-1.0124831
26	0xbf6109d3	-0.87905616
27	0xbf809a89	-1.004716
28	0xbf1f7fbf	-0.623043
29	0xbf84a089	-1.0361491
30	0x3eaa7c11	0.3329778
31	0x3d60a791	0.054847304

tcn.d_reduce.bias f4 [32]
0	0xbba50022	-0.005035416
1	0xbd9b639f	-0.075873606
2	0x3f1e1006	0.617432
3	0x3f28f385	0.6599658
4	0xbee34c16	-0.44393986
5	0xbe7f227b	-0.24915497
6	0xbe051940	-0.12997913
7	0x3f67f197	0.9060301
8	0xbb812de4	-0.003942238
9	0x3f413345	0.75468856
10	0xbec0d4a3	-0.3766223
11	0xbe857f05	-0.2607347
12	0x3f6d3365	0.92656547
13	0x3f27b166	0.65505064
14	0x3e845b7f	0.25851056
15	0x3f4f4e9c	0.80979323
16	0x3f5d2b68	0.8639436
17	0x3f2d9090	0.6779871
18	0xbc85edd6	-0.01634876
19	0xbf3458cd	-0.70448
20	0xbf553912	-0.8329021
21	0xbf62e0ad	-0.8862408
22	0x3e3c0790	0.1836226
23	0x3e534aa4	0.20633942
24	0x3eb67aa6	0.35640448
25	0xbf5d2670	-0.86386776
26	0xbeabdfef	-0.33569285
27	0xbed64622	-0.41850382
28	0xbf0cd13f	-0.55006784
29	0x3e177db0	0.1479404
30	0x3f5649c1	0.8370629
31	0xbf060348	-0.52348757

tcn.network.0.conv1.bias f4 [32]
0	0xbd92ff1d	-0.07177565
1	0xbdd3612c	-0.103212684
2	0xbe1a8682	-0.15090373
3	0xbe1da346	-0.15394315
4	0xbc1f95bc	-0.009740289
5	0x3b3e5c93	0.0029046878
6	0xbd63a261	-0.05557478
7	0x3d659128	0.056046635
8	0x3dc7dc66	0.097588345
9	0xbda55304	-0.080724746
10	0xbe045952	-0.12924698
11	0xbdc9e1ad	-0.09857497
12	0xbd4e9abd	-0.05044054
13	0xbda646b8	-0.08118957
14	0xbe4275a3	-0.18990187
15	0xbdf1d6b8	-0.118085325
16	0x3d542057	0.051788654
17	0xbca925af	-0.020647852
18	0xbd942dbf	-0.07235288
19	0x3cf3a459	0.029741453
20	0x3c862534	0.016375162
21	0xbdf6c005	-0.120483436
22	0xbe10eeea	-0.14153638
23	0x3d9ac7cd	0.0755764
24	0x3dd844af	0.10559975
25	0xbd99d166	-0.07510643
26	0x3d6e6f75	0.058211762
27	0xbdd706fd	-0.1049938
28	0x3d849812	0.064743176
29	0xbdc55b54	-0.0963656
30	0xbdceb8e6	-0.1009386
31	0xbdb21cb3	-0.0869688

tcn.network.0.conv1.weight_g f4 [32, 1, 1]
0	0x3f257db6	0.64644945
1	0x3f1cb9c8	0.6122098
2	0x3f239bf2	0.6390983
3	0x3f024fc4	0.5090296
4	0x3ef21226	0.4727947
5	0x3ef463b5	0.4773232
6	0x3f0bd80a	0.54626524
7	0x3f125acf	0.5716981
8	0x3f1dd5b9	0.6165424
9	0x3f13021b	0.5742509
10	0x3f13a95a	0.57680285
11	0x3f14558b	0.5794303
12	0x3f132f8d	0.5749443
13	0x3f0affeb	0.5429675
14	0x3f229ea7	0.63523334
15	0x3f182083	0.5942461
16	0x3f0570c6	0.52125204
17	0x3ef8573e	0.4850406
18	0x3f0a4a69	0.5401979
19	0x3f0dd830	0.55408
20	0x3f184101	0.5947419
21	0x3f179c0c	0.59222484
22	0x3f0f27db	0.5592019
23	0x3f1b26b9	0.6060596
24	0x3f202c5c	0.6256769
25	0x3ef54767	0.47906038
26	0x3ef505f8	0.47856116
27	0x3ef5e618	0.4802711
28	0x3f069dc3	0.52584475
29	0x3f2c3206	0.6726383
30	0x3ef8a466	0.48562926
31	0x3f093fef	0.5361318

tcn.network.0.conv1.weight_v f4 [32, 32, 2]
0	0x3d8339b8	0.06407493
1	0x3cbe38ef	0.023220507
2	0x3d795d19	0.0608798
3	0x3c41cde3	0.011828872
4	0xbe88005d	-0.26562777
5	0xbd93bd09	-0.0721379
6	0x3c1bb9b8	0.009504728
7	0xbc9813d1	-0.018564137
8	0x3e5164c5	0.20448597
9	0x3d39e3a3	0.045383107
10	0x3e5260d2	0.20544747
11	0xbd59afc4	-0.05314614
12	0x3e071542	0.13191703
13	0xbc8a7594	-0.016901769
14	0xbc43d35f	-0.01195225
15	0x3c04d83a	0.008108193
16	0x3ddfe8f9	0.10933108
17	0x3ce51ba9	0.027967291
18	0xbe4f8ad0	-0.20267797
19	0xbd47d7a9	-0.048789654
20	0xbd080fad	-0.033218075
21	0x3c0f2d04	0.00873876
22	0xbde6deb6	-0.112729475
23	0x3d6fdd10	0.05856043
24	0xbd901efc	-0.0703716
25	0xbd999638	-0.07499355
26	0x3da32ae4	0.07967165
27	0xbdb02f1e	-0.08602737
28	0xbe01ea2f	-0.1268699
29	0xbd0531f4	-0.032518342
30	0xbeac8b8f	-0.33700225
31	0x3ca30405	0.019899378
32	0xbe70039d	-0.23438878
33	0xbd17d973	-0.03707261
34	0x3d177ebc	0.036986098
35	0x3cc5ec25	0.024160454
36	0xbcf5b8ff	-0.02999544
37	0x3d156f31	0.036482994
38	0xbd1dd829	-0.038536225
39	0x3d4c3fee	0.049865656
40	0xbd52e3a5	-0.05148663
41	0x3cbbe3b7	0.022935731
42	0xbd93bea1	-0.07214094
43	0x3d9f561f	0.07780098
44	0x3dbe9ceb	0.093072735
45	0x3d059d3d	0.032620657
46	0x3e47162b	0.1944205
47	0xbdcb64bf	-0.09931325
48	0x3de539d2	0.11192669
49	0xbcafb659	-0.021449255
50	0xbdfd19dd	-0.12358449
51	0x3daae360	0.083441496
52	0xbe23e89d	-0.16006704
53	0x3cbda583	0.023150211
54	0xbda64245	-0.08118109
55	0x3dd79563	0.1052654
56	0x3cfec96d	0.031101907
57	0x3dd28ec7	0.10281139
58	0xbdd7e3ef	-0.10541522
59	0xbdd2b15f	-0.10287737
60	0x3d8c864c	0.068615526
61	0xbdd92b77	-0.106039934
62	0x3d54dbc4	0.051967397
63	0x3c978ec0	0.018500686
64	0xbd67bd69	-0.05657712
65	0xbdd751b2	-0.10513629
66	0x3cca7c85	0.024717579
67	0xbdba4feb	-0.090972744
68	0x3cfc58a5	0.030803988
69	0x3c470455	0.012147029
70	0xbdb6676c	-0.08906445
71	0x3d267311	0.04063708
72	0xbb0f1825	-0.002183446
73	0x3df14ec7	0.11782604
74	0x3da34b77	0.07973378
75	0xbdebfef9	-0.115232415
76	0x3de35377	0.11099904
77	0x3d012e24	0.031538144
78	0xbd1d406f	-0.038391527
79	0xbdabba4c	-0.08385143
80	0x3dd13645	0.10215429
81	0xbd580bde	-0.052745692
82	0x3c4b97b8	0.012426309
83	0x3de2d194	0.1107513
84	0xbdb47d4d	-0.08812962
85	0xbd009cdb	-0.03139959
86	0x3cdeca86	0.02719618
87	0x3d6d9bfb	0.058010083
88	0xbba30aa1	-0.0049756323
89	0xbdd09f2c	-0.101866096
90	0x3d33f4c9	0.043934617
91	0xbdf2b254	-0.1185042
92	0x3d31f6cc	0.043448254
93	0x3d1e9cb7	0.038723674
94	0xbd9fda38	-0.07805294
95	0x3bc1c1d5	0.005912999
96	0xbdd324e8	-0.10309774
97	0xbdf9b1da	-0.121921256
98	0x3d64b4dc	0.055836543
99	0xbd84bb1c	-0.06481001
100	0xbdc348bc	-0.09535357
101	0xbdc2a339	-0.095037885
102	0x3da84647	0.08216529
103	0x3d22f051	0.039779965
104	0x3d882a5b	0.06648704
105	0xbd3e19bb	-0.046411257
106	0x3de038c8	0.1094833
107	0x3bcfcbc9	0.0063414318
108	0x3df82ecb	0.121183
109	0x3e00e139	0.12585916
110	0xbdccf345	-0.100073375
111	0xbdf86277	-0.12128156
112	0xbbd01f7a	-0.0063514085
113	0x3dbf7cc1	0.09349967
114	0x3d86a53c	0.06574485
115	0x3dbe2e17	0.09286135
116	0x3d69f661	0.05711973
117	0x3d4a029f	0.049318906
118	0xbd85e6e6	-0.06538181
119	0xbdf8b01b	-0.121429645
120	0xbd11b810	-0.035575926
121	0xbc920009	-0.017822282
122	0xbd0f3b91	-0.034968916
123	0x3da68b89	0.08132083
124	0xbddfd20b	-0.109287344
125	0xbd18e4ff	-0.037327763
126	0xba832fca	-0.0010008749
127	0xbdc92d1b	-0.09823056
128	0x3d16297a	0.03666065
129	0xbc58b07a	-0.013225669
130	0x3d86b53b	0.06577536
131	0x3d602243	0.054720175
132	0xbe89a72e	-0.2688536
133	0xbddde968	-0.10835534
134	0x3e0e9be8	0.13926661
135	0xbcd52c73	-0.026022172
136	0x3e9bc7a4	0.3042575
137	0x3df3b647	0.11900001
138	0x3ceaad92	0.028647218
139	0xbb926fc9	-0.0044688922
140	0x3e8459c0	0.25849724
141	0x3d20617f	0.03915548
142	0xbe22f9c0	-0.15915585
143	0xbd9d20c4	-0.07672265
144	0x3e04ce09	0.12969221
145	0xbd108e4b	-0.03529195
146	0xbe56aa66	-0.2096344
147	0xbe078a5d	-0.13236375
148	0x3da734bc	0.08164355
149	0x3d2fa904	0.042885795
150	0xbe01e7e6	-0.12686118
151	0xbdc709bc	-0.097186536
152	0xbe07a3f5	-0.13246138
153	0xbb4559ef	-0.003011342
154	0x3da82792	0.082106724
155	0x3bb1b2a2	0.005422906
156	0xbe185347	-0.14875518
157	0xbd88d54b	-0.066813074
158	0xbe32398c	-0.17404765
159	0xbe0b1629	-0.13582672
160	0xbea6a4bd	-0.3254756
161	0xbe28bc87	-0.16478167
162	0xbd83bdf1	-0.06432713
163	0xbdbd2904	-0.09236339
164	0xbe3b70d5	-0.18304761
165	0x3c0f5c95	0.008750101
166	0x3d24e965	0.040261645
167	0xbd2f5442	-0.042804964
168	0x3d68688e	0.056740336
169	0xbd2b1e0a	-0.041776694
170	0xbde1790f	-0.11009418
171	0x3dec526b	0.115391575
172	0x3d734c0c	0.059398696
173	0xbd6ce4e8	-0.05783549
174	0x3d4582dc	0.0482205
175	0xbc88108a	-0.016609449
176	0x3cd518ba	0.026012767
177	0x3b14d4a9	0.0022709763
178	0xbdafc47d	-0.08582399
179	0x3d76427e	0.060122006
180	0x3d1bdd1b	0.03805266
181	0x3d46a5e5	0.048498053
182	0xbd3dbe93	-0.046324324
183	0x3d14b22c	0.03630273
184	0x3d5262f8	0.051363915
185	0xbd9799d3	-0.074023865
186	0xbda1c267	-0.078984074
187	0x3b8fda44	0.004390033
188	0x3d5f88da	0.05457387
189	0xbce02b95	-0.027364532
190	0x3cb31269	0.021859365
191	0xbc095333	-0.008381653
192	0x3dee5662	0.1163757
193	0x3d9680fa	0.07348819
194	0xbd8c0f2d	-0.06838832
195	0x3cc5c52a	0.024141867
196	0xbe35a83b	-0.17739956
197	0x3d0bd105	0.034134883
198	0x3d9b4bb1	0.07582796
199	0xbdb89336	-0.09012453
200	0x3dbcdb0d	0.09221468
201	0x3d82422d	0.06360278
202	0x3e344391	0.176039
203	0xbc39d2d1	-0.011341766
204	0x3d6da910	0.05802256
205	0x3e0e2404	0.13880926
206	0xbd68b493	-0.056812834
207	0xbdf395e7	-0.11893826
208	0x3e1e692d	0.15469809
209	0xbce13dc7	-0.027495278
210	0xbc9f7f1b	-0.019469788
211	0x3d2aa8ec	0.041665003
212	0x3dc3e53d	0.09565208
213	0x3dce3bf8	0.10070032
214	0xbd2e69e1	-0.042581443
215	0x3d268fa9	0.04066435
216	0x3db5d9a0	0.08879399
217	0x3dc15dec	0.09441742
218	0xbdd91988	-0.10600573
219	0xbda4f7a8	-0.08055049
220	0xbd152630	-0.03641337
221	0xbdb4450e	-0.08802234
222	0xbe147cf5	-0.14500792
223	0x3dac4490	0.08411515
224	0xbe0e720e	-0.13910696
225	0xbdc5c872	-0.096573725
226	0xbdf93ea4	-0.12170151
227	0x3d7da9bc	0.06192945
228	0xbe6880fe	-0.22705457
229	0x3d8b6845	0.06806997
230	0xbd9bb39e	-0.07602619
231	0xbd90996a	-0.070605114
232	0x3dd7b846	0.10533194
233	0x3de73b01	0.11290551
234	0xbc124d64	-0.008929584
235	0x3c879a84	0.016553171
236	0x3d73590c	0.059411094
237	0x3d88e75a	0.06684752
238	0x3a957d7d	0.0011405196
239	0x3cbc867f	0.023013351
240	0x3c7512f7	0.014958135
241	0x3c1283c4	0.008942548
242	0x3d8415de	0.06449483
243	0xbdce31db	-0.10068103
244	0x3d1a3700	0.03765011
245	0xbc2a4d38	-0.010394387
246	0xbe0dd7ca	-0.13851848
247	0xbd0374cc	-0.032093808
248	0x3c9cec20	0.019155562
249	0x3d83c06e	0.064331874
250	0xbe7bb7ca	-0.24581829
251	0x3b97c303	0.0046314015
252	0xbab08338	-0.0013466841
253	0x3d86ccdc	0.065820426
254	0x3e02b435	0.12764056
255	0xbd1cc066	-0.038269423

tcn.network.0.conv2.bias f4 [32]
0	0xbd45e8d1	-0.048317734
1	0xbd881ef4	-0.06646529
2	0xbd8ea564	-0.069651395
3	0x3d660414	0.056156233
4	0xbda56237	-0.080753736
5	0xbcb89dee	-0.022536244
6	0x3cb2b10e	0.021812942
7	0xbd32da87	-0.043665435
8	0xbdd2c800	-0.10292053
9	0x3cc93ae8	0.024564222
10	0xbd3af9eb	-0.045648497
11	0xbd914353	-0.07092919
12	0x3dbee371	0.09320725
13	0x3dbbd9e2	0.09172417
14	0x3cf73815	0.03017811
15	0xbcc4052e	-0.023928251
16	0x3d322ce5	0.043499846
17	0x3df475fe	0.11936568
18	0xbd33a3bd	-0.043857325
19	0x3dcf45c6	0.1012073
20	0x3d44cb28	0.048045307
21	0xbd4e433e	-0.050357096
22	0xbd0ab014	-0.033859327
23	0x3d466d6d	0.0484442
24	0x3d4bec0a	0.04978565
25	0x3ccc3a53	0.024930155
26	0x3d5b8d0a	0.053601302
27	0x39e491d4	0.000435962
28	0x3a06f0f2	0.0005147598
29	0xbd38c25c	-0.04510723
30	0x3d6b777e	0.057487004
31	0x3c85d9a6	0.016339134

tcn.network.0.conv2.weight_g f4 [32, 1, 1]
0	0x3f132615	0.57479984
1	0x3f19d82c	0.6009548
2	0x3f035a2a	0.51309454
3	0x3f0c438d	0.54790574
4	0x3f08a1cc	0.5337188
5	0x3f128858	0.57239294
6	0x3f28fad0	0.6600771
7	0x3f23d4fa	0.6399685
8	0x3f115398	0.5676818
9	0x3f085006	0.53247106
10	0x3f029a5f	0.510168
11	0x3f112ed6	0.5671209
12	0x3f0c978f	0.5491876
13	0x3f1cf50c	0.6131141
14	0x3f1c87e9	0.6114488
15	0x3f1732c9	0.59061867
16	0x3f06fce0	0.52729607
17	0x3ef89d77	0.48557636
18	0x3f11e3f7	0.5698847
19	0x3f03c671	0.5147467
20	0x3f0c80c7	0.54884
21	0x3f082297	0.5317778
22	0x3f0b7a85	0.54483825
23	0x3f1205b4	0.5703995
24	0x3f08934f	0.53349775
25	0x3f03c4b1	0.51472
26	0x3f2a7913	0.66590995
27	0x3f04a6e9	0.51817185
28	0x3eebd03d	0.4605731
29	0x3f018e0a	0.5060736
30	0x3f11fa18	0.5702224
31	0x3f050806	0.5196537

tcn.network.0.conv2.weight_v f4 [32, 32, 2]
0	0xbcab03e8	-0.020875886
1	0x3c8d2457	0.017229242
2	0xbe1394b9	-0.14412202
3	0xbe138157	-0.14404808
4	0xbd89ac9d	-0.067223765
5	0x3a3bd471	0.000716514
6	0x3c2f99dd	0.010717836
7	0x3d373bad	0.044734646
8	0xbdfcfdd7	-0.123531036
9	0xbe121201	-0.1426468
10	0xbdfc0a2e	-0.12306629
11	0xbdc5a7ae	-0.09651123
12	0xbd908505	-0.070566215
13	0xbd8fa97b	-0.07014748
14	0xbd6a16f4	-0.057150796
15	0xbcdbd775	-0.026836136
16	0xbd91cd9b	-0.07119294
17	0x3da75eb6	0.081723616
18	0xbe30f021	-0.17279102
19	0xbe12f336	-0.1435059
20	0xbd7062fa	-0.05868814
21	0x3bfbd34f	0.007685102
22	0xbe420181	-0.18945886
23	0xbe326cf4	-0.17424375
24	0xbe11f114	-0.1425212
25	0x3e17c36d	0.14820643
26	0xbe1122af	-0.14173387
27	0x3e127473	0.14302234
28	0xbe0d0f64	-0.13775402
29	0x3e0e0754	0.13869983
30	0xbe1bb06c	-0.15204018
31	0xbe18918b	-0.1489927
32	0xbc6865b2	-0.014184402
33	0x3dd2b814	0.10289016
34	0x3e220067	0.15820466
35	0xbdb9393a	-0.09044118
36	0xbe1af286	-0.15131578
37	0xbcb568f2	-0.022144768
38	0xbd9eb194	-0.07748714
39	0xbe165aa4	-0.14683014
40	0xbe1dcb3c	-0.15409559
41	0xbe2c8cc0	-0.16850567
42	0x3e1183c7	0.14210425
43	0xbe13cd81	-0.14433862
44	0x3e18be8b	0.14916436
45	0x3e105747	0.14095794
46	0x3d2a5ee5	0.041594405
47	0xbd0cf5f1	-0.034414236
48	0xbe154a4d	-0.14579125
49	0xbe188265	-0.14893492
50	0xbdf376c1	-0.11887885
51	0x3d8ea31d	0.06964705
52	0xbca24f9b	-0.01981335
53	0xbdeecf71	-0.1166066
54	0x3e19cd4a	0.15019718
55	0x3e21d1da	0.15802708
56	0xbe21db0d	-0.15806217
57	0x3e0216c0	0.12703991
58	0x3e165c2c	0.14683598
59	0x3e1e4b55	0.15458424
60	0xbdad31ee	-0.08456789
61	0xbd56497e	-0.05231618
62	0xbdc02e8a	-0.093838766
63	0x3d9c663b	0.076366864
64	0xbd9b6c94	-0.07589069
65	0x3db9ecd6	0.09078376
66	0xbd46fb93	-0.048579764
67	0x3ddbce89	0.10732753
68	0xbd05184b	-0.03249387
69	0xbc2df634	-0.010617781
70	0x3d674ac2	0.05646778
71	0x3da33a9f	0.079701655
72	0xbca4480f	-0.020053891
73	0x3d631c75	0.05544706
74	0xbd66c2ab	-0.056337994
75	0x3dbc32fd	0.09189413
76	0xbdad2ba5	-0.0845559
77	0x3e147189	0.14496435
78	0xbc5f62d9	-0.013634407
79	0xbd693490	-0.056934893
80	0x3cdcb057	0.026939554
81	0xbce9d269	-0.028542714
82	0x3e2b3c23	0.16722159
83	0x3c53f042	0.0129357
84	0x3c81b773	0.015834546
85	0xbc9fee78	-0.01952289
86	0x3e1685ed	0.14699526
87	0xbc7580ee	-0.0149843525
88	0x3d179c74	0.03701444
89	0xbdf13dba	-0.117793515
90	0xbde54871	-0.11195458
91	0x3db5a303	0.08868983
92	0x3e2bc56e	0.16774532
93	0x3d842ae5	0.06453494
94	0xbdfccb46	-0.12343459
95	0xbd34657d	-0.0440421
96	0x3db28a82	0.087178245
97	0x3dba77e5	0.09104899
98	0xbde87ca8	-0.11351901
99	0xbdbcac32	-0.09212531
100	0xbd783f61	-0.060607318
101	0xbded972b	-0.116010986
102	0x3e671581	0.22566797
103	0x3e5ca201	0.21546175
104	0x3d5d429f	0.054018613
105	0x3dd9aaa6	0.10628252
106	0x3dcfd71c	0.10148451
107	0x33c1864c	9.011691e-08
108	0x3dc50c21	0.09621454
109	0x3e00ec10	0.1259005
110	0xbdbc2d3f	-0.091883175
111	0x3c99601f	0.018722592
112	0x3e461ec9	0.19347681
113	0xbcb69eb5	-0.022292474
114	0x3d75ae3a	0.05998061
115	0xbd90b4dd	-0.07065747
116	0xbd8d1161	-0.068880804
117	0x3d5d3029	0.054001007
118	0xbde3e9be	-0.11128567
119	0x3c5d651a	0.013512874
120	0x3d61b3b2	0.05510301
121	0x3e1ffb6b	0.15623252
122	0x3deacb4e	0.114645585
123	0x3e6f478e	0.2336714
124	0xbcdbf762	-0.02685136
125	0x3d24d653	0.040243458
126	0x3b96fef1	0.004608028
127	0xbdeaa1a4	-0.11456612
128	0xbdb050e0	-0.08609176
129	0x3d6241a5	0.055238385
130	0xbd4b039a	-0.04956398
131	0x3d27dad2	0.040980168
132	0xbcc50e3b	-0.024054637
133	0xbdc57d47	-0.096430354
134	0xbd9858fb	-0.07438847
135	0x3df2a54e	0.118479356
136	0xbd8da931	-0.06917036
137	0x3e1ac0ed	0.15112658
138	0x3c9485e1	0.018130245
139	0x3db41356	0.087927505
140	0xbd1bd73a	-0.038047053
141	0xbdf91be7	-0.12163525
142	0x3cf04d00	0.029333591
143	0xbd1bcf8b	-0.038039725
144	0xbc1f9c0d	-0.009741795
145	0x3e11d62f	0.14241861
146	0x3d0a978f	0.033835944
147	0xbcf2a0fb	-0.029617777
148	0xbd1ae2e9	-0.037814055
149	0x3b3e4d3f	0.0029037741
150	0x3e0637b0	0.1310718
151	0x3db061f4	0.08612433
152	0xbdecd0fd	-0.11563299
153	0x3490542b	2.688333e-07
154	0x3de4e0fc	0.11175725
155	0xbe1b38ff	-0.15158461
156	0xbd316452	-0.043308564
157	0xbd348590	-0.044072688
158	0x3ddd4a50	0.108051896
159	0xbe176ce9	-0.1478764
160	0x3d0d84f1	0.03455061
161	0xbbb6c922	-0.005578176
162	0xbde0ab20	-0.109701395
163	0xbcbef2a8	-0.023309067
164	0x3dd2907b	0.10281464
165	0x3daeb201	0.08530045
166	0xbcf1942a	-0.029489595
167	0xbb53655d	-0.0032256462
168	0x3deb96d1	0.11503375
169	0x3e0ad84b	0.13559072
170	0xb9b36550	-0.00034217024
171	0x3d4db1b6	0.050218306
172	0x3d3965ac	0.045262977
173	0x3dbe37ac	0.09287962
174	0xbd5dcf37	-0.054152694
175	0xbe3c0287	-0.18360339
176	0x3df593b9	0.119910665
177	0xbd4c9bd4	-0.049953297
178	0xbe60025b	-0.21875899
179	0x3d1ec00f	0.03875738
180	0x3d89536a	0.06705363
181	0xbd8a73ac	-0.06760344
182	0xbd9a6553	-0.07538857
183	0xbd3f4cc7	-0.04670408
184	0xbdd2f288	-0.103001654
185	0x3d953394	0.07285228
186	0xbd20ae59	-0.03922877
187	0x3cbfa739	0.023395168
188	0xbd9368e2	-0.07197739
189	0x3e1d23f9	0.15345754
190	0xbd71495b	-0.058907848
191	0x3d5210cb	0.051285546
192	0x3d330877	0.043709245
193	0x3d0fe1e9	0.035127554
194	0x3dd514f3	0.10404386
195	0x3de10172	0.10986604
196	0xbb0a6e76	-0.0021122969
197	0x3e0f087f	0.13968085
198	0xbe3b206d	-0.18274088
199	0x3dfd1c08	0.12358862
200	0xbd1844c5	-0.03717496
201	0xbb65fb02	-0.003509224
202	0x3d03e52f	0.03220099
203	0xbd883a1a	-0.06651707
204	0xbd5d7f38	-0.054076403
205	0x3c3ee19b	0.011650468
206	0x3d8f1fe6	0.06988506
207	0xbe04d337	-0.12971197
208	0x3db9fe42	0.09081699
209	0x3dcf84b1	0.10132731
210	0x3daaf73b	0.08347937
211	0xbd782e53	-0.060591053
212	0xbd170007	-0.03686526
213	0x3dcd6d27	0.10030585
214	0x3e17cc0e	0.14823934
215	0xb848eec1	-4.7906073e-05
216	0x3c12a7e6	0.008951163
217	0xbb478ff4	-0.0030450793
218	0xbd9ce6ed	-0.07661233
219	0xbe279421	-0.163651
220	0x3d6725cc	0.05643253
221	0x3db6997a	0.08915992
222	0xbe179236	-0.14801869
223	0xbd85c42e	-0.06531559
224	0xba2d9e35	-0.0006623001
225	0x3cc6f4f6	0.024286728
226	0xbd9d180a	-0.07670601
227	0xbca5152c	-0.020151697
228	0xbe0dd5ed	-0.13851137
229	0xbba1d050	-0.004938163
230	0x3d502d15	0.050824244
231	0x3dc5cac1	0.09657813
232	0xbd8d2f82	-0.06893827
233	0xbe0980ce	-0.13428041
234	0x3e33cd52	0.17558792
235	0x3df235cf	0.118266694
236	0x3d253d22	0.040341504
237	0xbd13e39b	-0.036105733
238	0xbd625d30	-0.05526465
239	0x3d5cf94e	0.053948693
240	0x3e1fa7c2	0.15591338
241	0x3e576d24	0.21037728
242	0x3c742368	0.01490102
243	0xbd9dfca8	-0.07714206
244	0xbd8ffa4b	-0.070301615
245	0xbd8c0534	-0.0683693
246	0x3e0d2b34	0.13786012
247	0xbe00fe95	-0.12597115
248	0x3e12bad4	0.14329082
249	0x3e3e6f61	0.18597175
250	0xbe0b776c	-0.13619775
251	0xbde08a34	-0.1096386
252	0x3e162c73	0.14665394
253	0xbe3061a0	-0.17224741
254	0x3b47418c	0.003040406
255	0xbe09ed05	-0.13469322

tcn.network.0.net.0.bias f4 [32]
0	0xbd92ff1d	-0.07177565
1	0xbdd3612c	-0.103212684
2	0xbe1a8682	-0.15090373
3	0xbe1da346	-0.15394315
4	0xbc1f95bc	-0.009740289
5	0x3b3e5c93	0.0029046878
6	0xbd63a261	-0.05557478
7	0x3d659128	0.056046635
8	0x3dc7dc66	0.097588345
9	0xbda55304	-0.080724746
10	0xbe045952	-0.12924698
11	0xbdc9e1ad	-0.09857497
12	0xbd4e9abd	-0.05044054
13	0xbda646b8	-0.08118957
14	0xbe4275a3	-0.18990187
15	0xbdf1d6b8	-0.118085325
16	0x3d542057	0.051788654
17	0xbca925af	-0.020647852
18	0xbd942dbf	-0.07235288
19	0x3cf3a459	0.029741453
20	0x3c862534	0.016375162
21	0xbdf6c005	-0.120483436
22	0xbe10eeea	-0.14153638
23	0x3d9ac7cd	0.0755764
24	0x3dd844af	0.10559975
25	0xbd99d166	-0.07510643
26	0x3d6e6f75	0.058211762
27	0xbdd706fd	-0.1049938
28	0x3d849812	0.064743176
29	0xbdc55b54	-0.0963656
30	0xbdceb8e6	-0.1009386
31	0xbdb21cb3	-0.0869688

tcn.network.0.net.0.weight_g f4 [32, 1, 1]
0	0x3f257db6	0.64644945
1	0x3f1cb9c8	0.6122098
2	0x3f239bf2	0.6390983
3	0x3f024fc4	0.5090296
4	0x3ef21226	0.4727947
5	0x3ef463b5	0.4773232
6	0x3f0bd80a	0.54626524
7	0x3f125acf	0.5716981
8	0x3f1dd5b9	0.6165424
9	0x3f13021b	0.5742509
10	0x3f13a95a	0.57680285
11	0x3f14558b	0.5794303
12	0x3f132f8d	0.5749443
13	0x3f0affeb	0.5429675
14	0x3f229ea7	0.63523334
15	0x3f182083	0.5942461
16	0x3f0570c6	0.52125204
17	0x3ef8573e	0.4850406
18	0x3f0a4a69	0.5401979
19	0x3f0dd830	0.55408
20	0x3f184101	0.5947419
21	0x3f179c0c	0.59222484
22	0x3f0f27db	0.5592019
23	0x3f1b26b9	0.6060596
24	0x3f202c5c	0.6256769
25	0x3ef54767	0.47906038
26	0x3ef505f8	0.47856116
27	0x3ef5e618	0.4802711
28	0x3f069dc3	0.52584475
29	0x3f2c3206	0.6726383
30	0x3ef8a466	0.48562926
31	0x3f093fef	0.5361318

tcn.network.0.net.0.weight_v f4 [32, 32, 2]
0	0x3d8339b8	0.06407493
1	0x3cbe38ef	0.023220507
2	0x3d795d19	0.0608798
3	0x3c41cde3	0.011828872
4	0xbe88005d	-0.26562777
5	0xbd93bd09	-0.0721379
6	0x3c1bb9b8	0.009504728
7	0xbc9813d1	-0.018564137
8	0x3e5164c5	0.20448597
9	0x3d39e3a3	0.045383107
10	0x3e5260d2	0.20544747
11	0xbd59afc4	-0.05314614
12	0x3e071542	0.13191703
13	0xbc8a7594	-0.016901769
14	0xbc43d35f	-0.01195225
15	0x3c04d83a	0.008108193
16	0x3ddfe8f9	0.10933108
17	0x3ce51ba9	0.027967291
18	0xbe4f8ad0	-0.20267797
19	0xbd47d7a9	-0.048789654
20	0xbd080fad	-0.033218075
21	0x3c0f2d04	0.00873876
22	0xbde6deb6	-0.112729475
23	0x3d6fdd10	0.05856043
24	0xbd901efc	-0.0703716
25	0xbd999638	-0.07499355
26	0x3da32ae4	0.07967165
27	0xbdb02f1e	-0.08602737
28	0xbe01ea2f	-0.1268699
29	0xbd0531f4	-0.032518342
30	0xbeac8b8f	-0.33700225
31	0x3ca30405	0.019899378
32	0xbe70039d	-0.23438878
33	0xbd17d973	-0.03707261
34	0x3d177ebc	0.036986098
35	0x3cc5ec25	0.024160454
36	0xbcf5b8ff	-0.02999544
37	0x3d156f31	0.036482994
38	0xbd1dd829	-0.038536225
39	0x3d4c3fee	0.049865656
40	0xbd52e3a5	-0.05148663
41	0x3cbbe3b7	0.022935731
42	0xbd93bea1	-0.07214094
43	0x3d9f561f	0.07780098
44	0x3dbe9ceb	0.093072735
45	0x3d059d3d	0.032620657
46	0x3e47162b	0.1944205
47	0xbdcb64bf	-0.09931325
48	0x3de539d2	0.11192669
49	0xbcafb659	-0.021449255
50	0xbdfd19dd	-0.12358449
51	0x3daae360	0.083441496
52	0xbe23e89d	-0.16006704
53	0x3cbda583	0.023150211
54	0xbda64245	-0.08118109
55	0x3dd79563	0.1052654
56	0x3cfec96d	0.031101907
57	0x3dd28ec7	0.10281139
58	0xbdd7e3ef	-0.10541522
59	0xbdd2b15f	-0.10287737
60	0x3d8c864c	0.068615526
61	0xbdd92b77	-0.106039934
62	0x3d54dbc4	0.051967397
63	0x3c978ec0	0.018500686
64	0xbd67bd69	-0.05657712
65	0xbdd751b2	-0.10513629
66	0x3cca7c85	0.024717579
67	0xbdba4feb	-0.090972744
68	0x3cfc58a5	0.030803988
69	0x3c470455	0.012147029
70	0xbdb6676c	-0.08906445
71	0x3d267311	0.04063708
72	0xbb0f1825	-0.002183446
73	0x3df14ec7	0.11782604
74	0x3da34b77	0.07973378
75	0xbdebfef9	-0.115232415
76	0x3de35377	0.11099904
77	0x3d012e24	0.031538144
78	0xbd1d406f	-0.038391527
79	0xbdabba4c	-0.08385143
80	0x3dd13645	0.10215429
81	0xbd580bde	-0.052745692
82	0x3c4b97b8	0.012426309
83	0x3de2d194	0.1107513
84	0xbdb47d4d	-0.08812962
85	0xbd009cdb	-0.03139959
86	0x3cdeca86	0.02719618
87	0x3d6d9bfb	0.058010083
88	0xbba30aa1	-0.0049756323
89	0xbdd09f2c	-0.101866096
90	0x3d33f4c9	0.043934617
91	0xbdf2b254	-0.1185042
92	0x3d31f6cc	0.043448254
93	0x3d1e9cb7	0.038723674
94	0xbd9fda38	-0.07805294
95	0x3bc1c1d5	0.005912999
96	0xbdd324e8	-0.10309774
97	0xbdf9b1da	-0.121921256
98	0x3d64b4dc	0.055836543
99	0xbd84bb1c	-0.06481001
100	0xbdc348bc	-0.09535357
101	0xbdc2a339	-0.095037885
102	0x3da84647	0.08216529
103	0x3d22f051	0.039779965
104	0x3d882a5b	0.06648704
105	0xbd3e19bb	-0.046411257
106	0x3de038c8	0.1094833
107	0x3bcfcbc9	0.0063414318
108	0x3df82ecb	0.121183
109	0x3e00e139	0.12585916
110	0xbdccf345	-0.100073375
111	0xbdf86277	-0.12128156
112	0xbbd01f7a	-0.0063514085
113	0x3dbf7cc1	0.09349967
114	0x3d86a53c	0.06574485
115	0x3dbe2e17	0.09286135
116	0x3d69f661	0.05711973
117	0x3d4a029f	0.049318906
118	0xbd85e6e6	-0.06538181
119	0xbdf8b01b	-0.121429645
120	0xbd11b810	-0.035575926
121	0xbc920009	-0.017822282
122	0xbd0f3b91	-0.034968916
123	0x3da68b89	0.08132083
124	0xbddfd20b	-0.109287344
125	0xbd18e4ff	-0.037327763
126	0xba832fca	-0.0010008749
127	0xbdc92d1b	-0.09823056
128	0x3d16297a	0.03666065
129	0xbc58b07a	-0.013225669
130	0x3d86b53b	0.06577536
131	0x3d602243	0.054720175
132	0xbe89a72e	-0.2688536
133	0xbddde968	-0.10835534
134	0x3e0e9be8	0.13926661
135	0xbcd52c73	-0.026022172
136	0x3e9bc7a4	0.3042575
137	0x3df3b647	0.11900001
138	0x3ceaad92	0.028647218
139	0xbb926fc9	-0.0044688922
140	0x3e8459c0	0.25849724
141	0x3d20617f	0.03915548
142	0xbe22f9c0	-0.15915585
143	0xbd9d20c4	-0.07672265
144	0x3e04ce09	0.12969221
145	0xbd108e4b	-0.03529195
146	0xbe56aa66	-0.2096344
147	0xbe078a5d	-0.13236375
148	0x3da734bc	0.08164355
149	0x3d2fa904	0.042885795
150	0xbe01e7e6	-0.12686118
151	0xbdc709bc	-0.097186536
152	0xbe07a3f5	-0.13246138
153	0xbb4559ef	-0.003011342
154	0x3da82792	0.082106724
155	0x3bb1b2a2	0.005422906
156	0xbe185347	-0.14875518
157	0xbd88d54b	-0.066813074
158	0xbe32398c	-0.17404765
159	0xbe0b1629	-0.13582672
160	0xbea6a4bd	-0.3254756
161	0xbe28bc87	-0.16478167
162	0xbd83bdf1	-0.06432713
163	0xbdbd2904	-0.09236339
164	0xbe3b70d5	-0.18304761
165	0x3c0f5c95	0.008750101
166	0x3d24e965	0.040261645
167	0xbd2f5442	-0.042804964
168	0x3d68688e	0.056740336
169	0xbd2b1e0a	-0.041776694
170	0xbde1790f	-0.11009418
171	0x3dec526b	0.115391575
172	0x3d734c0c	0.059398696
173	0xbd6ce4e8	-0.05783549
174	0x3d4582dc	0.0482205
175	0xbc88108a	-0.016609449
176	0x3cd518ba	0.026012767
177	0x3b14d4a9	0.0022709763
178	0xbdafc47d	-0.08582399
179	0x3d76427e	0.060122006
180	0x3d1bdd1b	0.03805266
181	0x3d46a5e5	0.048498053
182	0xbd3dbe93	-0.046324324
183	0x3d14b22c	0.03630273
184	0x3d5262f8	0.051363915
185	0xbd9799d3	-0.074023865
186	0xbda1c267	-0.078984074
187	0x3b8fda44	0.004390033
188	0x3d5f88da	0.05457387
189	0xbce02b95	-0.027364532
190	0x3cb31269	0.021859365
191	0xbc095333	-0.008381653
192	0x3dee5662	0.1163757
193	0x3d9680fa	0.07348819
194	0xbd8c0f2d	-0.06838832
195	0x3cc5c52a	0.024141867
196	0xbe35a83b	-0.17739956
197	0x3d0bd105	0.034134883
198	0x3d9b4bb1	0.07582796
199	0xbdb89336	-0.09012453
200	0x3dbcdb0d	0.09221468
201	0x3d82422d	0.06360278
202	0x3e344391	0.176039
203	0xbc39d2d1	-0.011341766
204	0x3d6da910	0.05802256
205	0x3e0e2404	0.13880926
206	0xbd68b493	-0.056812834
207	0xbdf395e7	-0.11893826
208	0x3e1e692d	0.15469809
209	0xbce13dc7	-0.027495278
210	0xbc9f7f1b	-0.019469788
211	0x3d2aa8ec	0.041665003
212	0x3dc3e53d	0.09565208
213	0x3dce3bf8	0.10070032
214	0xbd2e69e1	-0.042581443
215	0x3d268fa9	0.04066435
216	0x3db5d9a0	0.08879399
217	0x3dc15dec	0.09441742
218	0xbdd91988	-0.10600573
219	0xbda4f7a8	-0.08055049
220	0xbd152630	-0.03641337
221	0xbdb4450e	-0.08802234
222	0xbe147cf5	-0.14500792
223	0x3dac4490	0.08411515
224	0xbe0e720e	-0.13910696
225	0xbdc5c872	-0.096573725
226	0xbdf93ea4	-0.12170151
227	0x3d7da9bc	0.06192945
228	0xbe6880fe	-0.22705457
229	0x3d8b6845	0.06806997
230	0xbd9bb39e	-0.07602619
231	0xbd90996a	-0.070605114
232	0x3dd7b846	0.10533194
233	0x3de73b01	0.11290551
234	0xbc124d64	-0.008929584
235	0x3c879a84	0.016553171
236	0x3d73590c	0.059411094
237	0x3d88e75a	0.06684752
238	0x3a957d7d	0.0011405196
239	0x3cbc867f	0.023013351
240	0x3c7512f7	0.014958135
241	0x3c1283c4	0.008942548
242	0x3d8415de	0.06449483
243	0xbdce31db	-0.10068103
244	0x3d1a3700	0.03765011
245	0xbc2a4d38	-0.010394387
246	0xbe0dd7ca	-0.13851848
247	0xbd0374cc	-0.032093808
248	0x3c9cec20	0.019155562
249	0x3d83c06e	0.064331874
250	0xbe7bb7ca	-0.24581829
251	0x3b97c303	0.0046314015
252	0xbab08338	-0.0013466841
253	0x3d86ccdc	0.065820426
254	0x3e02b435	0.12764056
255	0xbd1cc066	-0.038269423

tcn.network.0.net.4.bias f4 [32]
0	0xbd45e8d1	-0.048317734
1	0xbd881ef4	-0.06646529
2	0xbd8ea564	-0.069651395
3	0x3d660414	0.056156233
4	0xbda56237	-0.080753736
5	0xbcb89dee	-0.022536244
6	0x3cb2b10e	0.021812942
7	0xbd32da87	-0.043665435
8	0xbdd2c800	-0.10292053
9	0x3cc93ae8	0.024564222
10	0xbd3af9eb	-0.045648497
11	0xbd914353	-0.07092919
12	0x3dbee371	0.09320725
13	0x3dbbd9e2	0.09172417
14	0x3cf73815	0.03017811
15	0xbcc4052e	-0.023928251
16	0x3d322ce5	0.043499846
17	0x3df475fe	0.11936568
18	0xbd33a3bd	-0.043857325
19	0x3dcf45c6	0.1012073
20	0x3d44cb28	0.048045307
21	0xbd4e433e	-0.050357096
22	0xbd0ab014	-0.033859327
23	0x3d466d6d	0.0484442
24	0x3d4bec0a	0.04978565
25	0x3ccc3a53	0.024930155
26	0x3d5b8d0a	0.053601302
27	0x39e491d4	0.000435962
28	0x3a06f0f2	0.0005147598
29	0xbd38c25c	-0.04510723
30	0x3d6b777e	0.057487004
31	0x3c85d9a6	0.016339134

tcn.network.0.net.4.weight_g f4 [32, 1, 1]
0	0x3f132615	0.57479984
1	0x3f19d82c	0.6009548
2	0x3f035a2a	0.51309454
3	0x3f0c438d	0.54790574
4	0x3f08a1cc	0.5337188
5	0x3f128858	0.57239294
6	0x3f28fad0	0.6600771
7	0x3f23d4fa	0.6399685
8	0x3f115398	0.5676818
9	0x3f085006	0.53247106
10	0x3f029a5f	0.510168
11	0x3f112ed6	0.5671209
12	0x3f0c978f	0.5491876
13	0x3f1cf50c	0.6131141
14	0x3f1c87e9	0.6114488
15	0x3f1732c9	0.59061867
16	0x3f06fce0	0.52729607
17	0x3ef89d77	0.48557636
18	0x3f11e3f7	0.5698847
19	0x3f03c671	0.5147467
20	0x3f0c80c7	0.54884
21	0x3f082297	0.5317778
22	0x3f0b7a85	0.54483825
23	0x3f1205b4	0.5703995
24	0x3f08934f	0.53349775
25	0x3f03c4b1	0.51472
26	0x3f2a7913	0.66590995
27	0x3f04a6e9	0.51817185
28	0x3eebd03d	0.4605731
29	0x3f018e0a	0.5060736
30	0x3f11fa18	0.5702224
31	0x3f050806	0.5196537

tcn.network.0.net.4.weight_v f4 [32, 32, 2]
0	0xbcab03e8	-0.020875886
1	0x3c8d2457	0.017229242
2	0xbe1394b9	-0.14412202
3	0xbe138157	-0.14404808
4	0xbd89ac9d	-0.067223765
5	0x3a3bd471	0.000716514
6	0x3c2f99dd	0.010717836
7	0x3d373bad	0.044734646
8	0xbdfcfdd7	-0.123531036
9	0xbe121201	-0.1426468
10	0xbdfc0a2e	-0.12306629
11	0xbdc5a7ae	-0.09651123
12	0xbd908505	-0.070566215
13	0xbd8fa97b	-0.07014748
14	0xbd6a16f4	-0.057150796
15	0xbcdbd775	-0.026836136
16	0xbd91cd9b	-0.07119294
17	0x3da75eb6	0.081723616
18	0xbe30f021	-0.17279102
19	0xbe12f336	-0.1435059
20	0xbd7062fa	-0.05868814
21	0x3bfbd34f	0.007685102
22	0xbe420181	-0.18945886
23	0xbe326cf4	-0.17424375
24	0xbe11f114	-0.1425212
25	0x3e17c36d	0.14820643
26	0xbe1122af	-0.14173387
27	0x3e127473	0.14302234
28	0xbe0d0f64	-0.13775402
29	0x3e0e0754	0.13869983
30	0xbe1bb06c	-0.15204018
31	0xbe18918b	-0.1489927
32	0xbc6865b2	-0.014184402
33	0x3dd2b814	0.10289016
34	0x3e220067	0.15820466
35	0xbdb9393a	-0.09044118
36	0xbe1af286	-0.15131578
37	0xbcb568f2	-0.022144768
38	0xbd9eb194	-0.07748714
39	0xbe165aa4	-0.14683014
40	0xbe1dcb3c	-0.15409559
41	0xbe2c8cc0	-0.16850567
42	0x3e1183c7	0.14210425
43	0xbe13cd81	-0.14433862
44	0x3e18be8b	0.14916436
45	0x3e105747	0.14095794
46	0x3d2a5ee5	0.041594405
47	0xbd0cf5f1	-0.034414236
48	0xbe154a4d	-0.14579125
49	0xbe188265	-0.14893492
50	0xbdf376c1	-0.11887885
51	0x3d8ea31d	0.06964705
52	0xbca24f9b	-0.01981335
53	0xbdeecf71	-0.1166066
54	0x3e19cd4a	0.15019718
55	0x3e21d1da	0.15802708
56	0xbe21db0d	-0.15806217
57	0x3e0216c0	0.12703991
58	0x3e165c2c	0.14683598
59	0x3e1e4b55	0.15458424
60	0xbdad31ee	-0.08456789
61	0xbd56497e	-0.05231618
62	0xbdc02e8a	-0.093838766
63	0x3d9c663b	0.076366864
64	0xbd9b6c94	-0.07589069
65	0x3db9ecd6	0.09078376
66	0xbd46fb93	-0.048579764
67	0x3ddbce89	0.10732753
68	0xbd05184b	-0.03249387
69	0xbc2df634	-0.010617781
70	0x3d674ac2	0.05646778
71	0x3da33a9f	0.079701655
72	0xbca4480f	-0.020053891
73	0x3d631c75	0.05544706
74	0xbd66c2ab	-0.056337994
75	0x3dbc32fd	0.09189413
76	0xbdad2ba5	-0.0845559
77	0x3e147189	0.14496435
78	0xbc5f62d9	-0.013634407
79	0xbd693490	-0.056934893
80	0x3cdcb057	0.026939554
81	0xbce9d269	-0.028542714
82	0x3e2b3c23	0.16722159
83	0x3c53f042	0.0129357
84	0x3c81b773	0.015834546
85	0xbc9fee78	-0.01952289
86	0x3e1685ed	0.14699526
87	0xbc7580ee	-0.0149843525
88	0x3d179c74	0.03701444
89	0xbdf13dba	-0.117793515
90	0xbde54871	-0.11195458
91	0x3db5a303	0.08868983
92	0x3e2bc56e	0.16774532
93	0x3d842ae5	0.06453494
94	0xbdfccb46	-0.12343459
95	0xbd34657d	-0.0440421
96	0x3db28a82	0.087178245
97	0x3dba77e5	0.09104899
98	0xbde87ca8	-0.11351901
99	0xbdbcac32	-0.09212531
100	0xbd783f61	-0.060607318
101	0xbded972b	-0.116010986
102	0x3e671581	0.22566797
103	0x3e5ca201	0.21546175
104	0x3d5d429f	0.054018613
105	0x3dd9aaa6	0.10628252
106	0x3dcfd71c	0.10148451
107	0x33c1864c	9.011691e-08
108	0x3dc50c21	0.09621454
109	0x3e00ec10	0.1259005
110	0xbdbc2d3f	-0.091883175
111	0x3c99601f	0.018722592
112	0x3e461ec9	0.19347681
113	0xbcb69eb5	-0.022292474
114	0x3d75ae3a	0.05998061
115	0xbd90b4dd	-0.07065747
116	0xbd8d1161	-0.068880804
117	0x3d5d3029	0.054001007
118	0xbde3e9be	-0.11128567
119	0x3c5d651a	0.013512874
120	0x3d61b3b2	0.05510301
121	0x3e1ffb6b	0.15623252
122	0x3deacb4e	0.114645585
123	0x3e6f478e	0.2336714
124	0xbcdbf762	-0.02685136
125	0x3d24d653	0.040243458
126	0x3b96fef1	0.004608028
127	0xbdeaa1a4	-0.11456612
128	0xbdb050e0	-0.08609176
129	0x3d6241a5	0.055238385
130	0xbd4b039a	-0.04956398
131	0x3d27dad2	0.040980168
132	0xbcc50e3b	-0.024054637
133	0xbdc57d47	-0.096430354
134	0xbd9858fb	-0.07438847
135	0x3df2a54e	0.118479356
136	0xbd8da931	-0.06917036
137	0x3e1ac0ed	0.15112658
138	0x3c9485e1	0.018130245
139	0x3db41356	0.087927505
140	0xbd1bd73a	-0.038047053
141	0xbdf91be7	-0.12163525
142	0x3cf04d00	0.029333591
143	0xbd1bcf8b	-0.038039725
144	0xbc1f9c0d	-0.009741795
145	0x3e11d62f	0.14241861
146	0x3d0a978f	0.033835944
147	0xbcf2a0fb	-0.029617777
148	0xbd1ae2e9	-0.037814055
149	0x3b3e4d3f	0.0029037741
150	0x3e0637b0	0.1310718
151	0x3db061f4	0.08612433
152	0xbdecd0fd	-0.11563299
153	0x3490542b	2.688333e-07
154	0x3de4e0fc	0.11175725
155	0xbe1b38ff	-0.15158461
156	0xbd316452	-0.043308564
157	0xbd348590	-0.044072688
158	0x3ddd4a50	0.108051896
159	0xbe176ce9	-0.1478764
160	0x3d0d84f1	0.03455061
161	0xbbb6c922	-0.005578176
162	0xbde0ab20	-0.109701395
163	0xbcbef2a8	-0.023309067
164	0x3dd2907b	0.10281464
165	0x3daeb201	0.08530045
166	0xbcf1942a	-0.029489595
167	0xbb53655d	-0.0032256462
168	0x3deb96d1	0.11503375
169	0x3e0ad84b	0.13559072
170	0xb9b36550	-0.00034217024
171	0x3d4db1b6	0.050218306
172	0x3d3965ac	0.045262977
173	0x3dbe37ac	0.09287962
174	0xbd5dcf37	-0.054152694
175	0xbe3c0287	-0.18360339
176	0x3df593b9	0.119910665
177	0xbd4c9bd4	-0.049953297
178	0xbe60025b	-0.21875899
179	0x3d1ec00f	0.03875738
180	0x3d89536a	0.06705363
181	0xbd8a73ac	-0.06760344
182	0xbd9a6553	-0.07538857
183	0xbd3f4cc7	-0.04670408
184	0xbdd2f288	-0.103001654
185	0x3d953394	0.07285228
186	0xbd20ae59	-0.03922877
187	0x3cbfa739	0.023395168
188	0xbd9368e2	-0.07197739
189	0x3e1d23f9	0.15345754
190	0xbd71495b	-0.058907848
191	0x3d5210cb	0.051285546
192	0x3d330877	0.043709245
193	0x3d0fe1e9	0.035127554
194	0x3dd514f3	0.10404386
195	0x3de10172	0.10986604
196	0xbb0a6e76	-0.0021122969
197	0x3e0f087f	0.13968085
198	0xbe3b206d	-0.18274088
199	0x3dfd1c08	0.12358862
200	0xbd1844c5	-0.03717496
201	0xbb65fb02	-0.003509224
202	0x3d03e52f	0.03220099
203	0xbd883a1a	-0.06651707
204	0xbd5d7f38	-0.054076403
205	0x3c3ee19b	0.011650468
206	0x3d8f1fe6	0.06988506
207	0xbe04d337	-0.12971197
208	0x3db9fe42	0.09081699
209	0x3dcf84b1	0.10132731
210	0x3daaf73b	0.08347937
211	0xbd782e53	-0.060591053
212	0xbd170007	-0.03686526
213	0x3dcd6d27	0.10030585
214	0x3e17cc0e	0.14823934
215	0xb848eec1	-4.7906073e-05
216	0x3c12a7e6	0.008951163
217	0xbb478ff4	-0.0030450793
218	0xbd9ce6ed	-0.07661233
219	0xbe279421	-0.163651
220	0x3d6725cc	0.05643253
221	0x3db6997a	0.08915992
222	0xbe179236	-0.14801869
223	0xbd85c42e	-0.06531559
224	0xba2d9e35	-0.0006623001
225	0x3cc6f4f6	0.024286728
226	0xbd9d180a	-0.07670601
227	0xbca5152c	-0.020151697
228	0xbe0dd5ed	-0.13851137
229	0xbba1d050	-0.004938163
230	0x3d502d15	0.050824244
231	0x3dc5cac1	0.09657813
232	0xbd8d2f82	-0.06893827
233	0xbe0980ce	-0.13428041
234	0x3e33cd52	0.17558792
235	0x3df235cf	0.118266694
236	0x3d253d22	0.040341504
237	0xbd13e39b	-0.036105733
238	0xbd625d30	-0.05526465
239	0x3d5cf94e	0.053948693
240	0x3e1fa7c2	0.15591338
241	0x3e576d24	0.21037728
242	0x3c742368	0.01490102
243	0xbd9dfca8	-0.07714206
244	0xbd8ffa4b	-0.070301615
245	0xbd8c0534	-0.0683693
246	0x3e0d2b34	0.13786012
247	0xbe00fe95	-0.12597115
248	0x3e12bad4	0.14329082
249	0x3e3e6f61	0.18597175
250	0xbe0b776c	-0.13619775
251	0xbde08a34	-0.1096386
252	0x3e162c73	0.14665394
253	0xbe3061a0	-0.17224741
254	0x3b47418c	0.003040406
255	0xbe09ed05	-0.13469322

tcn.network.0.downsample.weight f4 [32, 32, 1]
0	0xbd346ae6	-0.04404726
1	0xbdc8822d	-0.09790454
2	0xbe648446	-0.22316083
3	0x3d153a80	0.036432743
4	0x3df2888f	0.11842453
5	0x3dcbfcd1	0.0996033
6	0x3d97c230	0.07410085
7	0x3b64c082	0.0034904783
8	0x3e91fb3c	0.2851199
9	0xbe098e28	-0.13433135
10	0x3d5090d4	0.05091937
11	0xbe9bc8aa	-0.30426532
12	0xbe059320	-0.13044405
13	0x3ea2a621	0.3176737
14	0xbc8d0f08	-0.017219082
15	0x3d0dcce6	0.034619235
16	0xbdf16a5f	-0.11787867
17	0xbd88237a	-0.066473916
18	0xbeb24f61	-0.34826186
19	0x3db08a3e	0.086201176
20	0x3d474178	0.04864642
21	0xbc60d01b	-0.013721491
22	0x3e456be6	0.19279441
23	0x3e4df261	0.20111991
24	0x3e280a6f	0.1641023
25	0xbe9245fa	-0.28569013
26	0xbe91c620	-0.2847147
27	0xbe8b79c2	-0.2724133
28	0x3cc0d09b	0.02353697
29	0xbe7ed9ba	-0.24887744
30	0x3d981bb1	0.07427157
31	0xbd20fd85	-0.039304275
32	0x3e392f3d	0.18084426
33	0x3d44f7f2	0.04808802
34	0xbdef4b16	-0.116842434
35	0x3d171e96	0.036894403
36	0xbdaa0f7b	-0.08303734
37	0x3dc58616	0.096447155
38	0x3e3e3483	0.18574719
39	0xbe0d4bb4	-0.1379841
40	0x3d71b7ff	0.059013363
41	0xbe7640ca	-0.24048153
42	0x3e3fc486	0.18727311
43	0xbd777ac4	-0.060419813
44	0xbddee187	-0.1088286
45	0xbd079280	-0.033098698
46	0xbe0f6c9d	-0.14006276
47	0x3dc2c338	0.09509891
48	0x3c55590d	0.01302172
49	0xbde8953f	-0.113565914
50	0xbdafe0cc	-0.085877985
51	0xbd7097ae	-0.058738403
52	0x3e47878a	0.19485298
53	0xbdedfe56	-0.11620776
54	0x3da75f93	0.08172526
55	0x3dc4fe08	0.09618765
56	0xbd8acad1	-0.067769654
57	0xbe340746	-0.175809
58	0xbbd23253	-0.0064146905
59	0xbe3be686	-0.18349656
60	0xbdff6ac7	-0.12471538
61	0xb9bd1e06	-0.00036071258
62	0x3d9baed5	0.07601706
63	0x3d7a690d	0.06113534
64	0x3e0f543d	0.13996978
65	0xbdb34a39	-0.08754391
66	0x3e0b5b7c	0.13609117
67	0xbdd52e62	-0.104092374
68	0x3dbbc71b	0.09168836
69	0x3ca48fb0	0.020088047
70	0xbc00e874	-0.007867921
71	0xbd326e32	-0.04356212
72	0x3e0d1730	0.13778377
73	0xbe31c7a5	-0.17361315
74	0x3db8d2d9	0.09024591
75	0xbd63ade2	-0.05558575
76	0xbcc093e7	-0.023508025
77	0x3d46a870	0.04850048
78	0xbe1ad72e	-0.15121147
79	0xbdc7d1b7	-0.09756797
80	0x3d509bc5	0.050929803
81	0xbe3e69e3	-0.1859508
82	0xbe031c48	-0.12803757
83	0x3e04f58e	0.12984297
84	0x3d8d549f	0.06900906
85	0xbde5b38c	-0.112158865
86	0x3e035932	0.12826994
87	0xbdabd713	-0.083906315
88	0xbe163799	-0.14669646
89	0xbe0b51b2	-0.13605383
90	0xbdc690fe	-0.09695624
91	0xbe19098d	-0.1494505
92	0x3e154e56	0.14580664
93	0x3ac947f5	0.0015356528
94	0xbce17694	-0.027522363
95	0x3e209fed	0.15686007
96	0x3df8d56a	0.121500805
97	0xbd43278d	-0.04764514
98	0x3dd11d47	0.10210662
99	0xbe2a854b	-0.1665241
100	0xbdf36f78	-0.11886495
101	0x3e2bf938	0.16794288
102	0x3ceb895c	0.028752021
103	0xbd4046c2	-0.04694248
104	0x3b444129	0.0029946065
105	0xbcd1839b	-0.02557545
106	0xbe0f23b5	-0.13978465
107	0x3d868b67	0.06569558
108	0x3b2ad5d4	0.0026067393
109	0xbdab9bb1	-0.08379305
110	0xbdc18ce4	-0.09450701
111	0xbe05f923	-0.1308332
112	0xbd711bb4	-0.05886431
113	0xbdaa6ec3	-0.08321907
114	0xbe65c139	-0.2243699
115	0xbe01f538	-0.126912
116	0xbdf064bf	-0.11737966
117	0xbd8921c7	-0.06695896
118	0x3e74136d	0.23835535
119	0x3e3ec5de	0.18630168
120	0x3d192321	0.037387017
121	0x3d656c69	0.05601159
122	0x3caafd0f	0.02087262
123	0x3d941da1	0.07232214
124	0xbe1e7f84	-0.15478331
125	0xbe4503b3	-0.19239692
126	0xbdf2b0de	-0.11850141
127	0x3e276a17	0.16349064
128	0xbde505f6	-0.111827776
129	0x3e0a95b2	0.13533667
130	0xbca11b5e	-0.01966637
131	0x3d868769	0.06568796
132	0x3e2b14f3	0.1670721
133	0xbcb2e1a4	-0.02183611
134	0x3e80e4e3	0.25174627
135	0xbd983318	-0.0743162
136	0x3da02524	0.07819584
137	0xbe1a7d6b	-0.15086906
138	0x3c85a10d	0.016312147
139	0x3c55a23f	0.013039171
140	0x3d78f31c	0.060778722
141	0x3e853848	0.26019502
142	0x3e0dece9	0.13859905
143	0x3d8184c4	0.06324151
144	0xbdc674f1	-0.096902736
145	0x3cc11ce9	0.023573356
146	0xbd82476f	-0.06361281
147	0xbe4d0c4e	-0.20024225
148	0x3d70620f	0.058687266
149	0xbe631f3d	-0.22179885
150	0x3dcdf735	0.100569166
151	0x3e6d2c14	0.23161346
152	0x3e0d0479	0.13771237
153	0x3cdeaea5	0.027182886
154	0xbe13e982	-0.14444545
155	0xbe6c7783	-0.23092465
156	0xbd845069	-0.064606495
157	0xbe9d3bee	-0.30709785
158	0x3e53d4d7	0.2068666
159	0x3daa7fb7	0.08325141
160	0x3d166eaa	0.03672663
161	0x3dc39183	0.095492385
162	0x3e0379c3	0.12839417
163	0x3d00782d	0.03136461
164	0xbe275b6b	-0.16343467
165	0xbe1dafa2	-0.1539903
166	0x3d4e38c7	0.050347116
167	0xbd2e3e14	-0.04253967
168	0xbe91235e	-0.28347296
169	0x3ca798bd	0.020458573
170	0x3e0bff8c	0.13671702
171	0x3e3bb87d	0.18332095
172	0x3c8d99e6	0.017285299
173	0xbe9ea333	-0.30983886
174	0x3e2320d9	0.15930499
175	0xbddde0a6	-0.10833864
176	0x3e55de41	0.20885564
177	0x3db0c128	0.08630592
178	0x3ead563c	0.33854854
179	0xbde89eeb	-0.11358436
180	0x3dad1204	0.08450702
181	0x3e870372	0.26369816
182	0xbce1c138	-0.027557954
183	0xbda544c8	-0.080697596
184	0xbe39a7e8	-0.18130457
185	0x3e95c49b	0.2925156
186	0x3e067b7d	0.13133045
187	0x3e081f48	0.13293183
188	0x3e43f09f	0.19134758
189	0x3e741564	0.23836285
190	0xbdb5a58b	-0.088694654
191	0xbe20280d	-0.15640278
192	0x3da5f2b2	0.08102931
193	0x3e1236b5	0.14278682
194	0xbc67d67a	-0.014150256
195	0x3d482cef	0.048870977
196	0xbba59314	-0.0050529335
197	0xbd8a71cd	-0.06759987
198	0xbd9dd570	-0.077067256
199	0x3e047f00	0.12939072
200	0x3de22ee2	0.110440984
201	0x3dcd0aaf	0.10011803
202	0xbdf80e0a	-0.12112053
203	0x3d1c05c5	0.03809144
204	0x3da677a1	0.08128286
205	0x3d9131c6	0.07089572
206	0xbcef0479	-0.029176937
207	0x3d873425	0.06601743
208	0x3cd88ce8	0.026434377
209	0xbdf5a23f	-0.119938366
210	0x3da1f191	0.07907403
211	0xbd99eed3	-0.07516255
212	0x3d841541	0.06449366
213	0x399a2344	0.00029399444
214	0x3d3eacc8	0.046551496
215	0x3db85ea6	0.09002428
216	0x3d03be33	0.03216381
217	0xbe1be037	-0.1522225
218	0xbd25bfae	-0.040466003
219	0x3cbe5d8a	0.023237962
220	0xbd12ea04	-0.035867706
221	0x3d796093	0.060883116
222	0xbe090757	-0.13381706
223	0x3d5237d6	0.05132278
224	0x3cc81c44	0.02442754
225	0x3e54ffd7	0.2080072
226	0xbdbcddad	-0.09221969
227	0x3e015ae4	0.12632328
228	0x3e87b8f6	0.26508301
229	0xbd1811c4	-0.037126318
230	0x3ce686a2	0.02814037
231	0xbe0c5157	-0.13702904
232	0x3d8a2005	0.067443885
233	0xbe2b62f7	-0.16736971
234	0x3de4b850	0.11167967
235	0x3da6c359	0.08142728
236	0xbe3a1847	-0.18173324
237	0xbe0feaa2	-0.14054349
238	0x3d1c60b6	0.03817817
239	0xbd986f18	-0.074430645
240	0xbe8b33d8	-0.2718799
241	0xbe37e866	-0.17959747
242	0x3d469c2a	0.048488773
243	0x3d47ed0b	0.048810046
244	0x3e346c91	0.1761954
245	0xbe10d7f5	-0.14144881
246	0xbdb3a5e4	-0.087718755
247	0xbce50b17	-0.02795939
248	0xbd9f9f25	-0.07794026
249	0x3e03c26d	0.12867136
250	0xbe05ca03	-0.13065343
251	0xbdb7c695	-0.089734234
252	0x3e0e4507	0.1389352
253	0xbd6d11af	-0.057878193
254	0xbe11258c	-0.14174479
255	0x3db30ac9	0.087422915

tcn.network.0.downsample.bias f4 [32]
0	0xbcaf0900	-0.021366596
1	0x3df7afde	0.12094091
2	0xbe2e715e	-0.17035434
3	0xbd816d5d	-0.063196875
4	0xbcae9f47	-0.021316184
5	0x3e271613	0.16317014
6	0xbe14edd7	-0.14543854
7	0xbd850726	-0.06495504
8	0x3d703beb	0.058650892
9	0xbdf47e83	-0.11938193
10	0xbdad7bab	-0.084708534
11	0xbcf36a4b	-0.02971377
12	0x3a202334	0.00061087613
13	0xbdc87660	-0.09788203
14	0xbd9870d6	-0.07443397
15	0xbd00b56c	-0.031423017
16	0xbe268341	-0.16261007
17	0xbd41ec8c	-0.04734473
18	0x3d97c077	0.07409757
19	0xbda43aec	-0.08019051
20	0x3df7c10e	0.12097369
21	0x3c9b71ec	0.01897522
22	0x3d983573	0.0743207
23	0x3cc1b29d	0.02364474
24	0x3a8b98a2	0.0010650347
25	0x3d488501	0.048954967
26	0xbe62c555	-0.22145589
27	0xbbb61ff8	-0.00555801
28	0xbb92e63e	-0.0044830134
29	0x3d1b9ac4	0.037989393
30	0xbd6dc701	-0.058051113
31	0xbe7f30d7	-0.24920975

tcn.network.1.conv1.bias f4 [32]
0	0x3d65710a	0.056016006
1	0xbd670394	-0.056399897
2	0xbb8d4832	-0.004311585
3	0x3e0864eb	0.13319747
4	0x3baaec75	0.005216176
5	0xbdf3fed1	-0.11913837
6	0xbc04114a	-0.008060763
7	0x3dff09a9	0.124530144
8	0x3d9c578c	0.07633886
9	0xbe000214	-0.12500793
10	0xbd73d235	-0.05952664
11	0x3d858103	0.06518748
12	0xbd707c85	-0.0587125
13	0x3db57ca8	0.08861667
14	0x3dfa877a	0.12232871
15	0x3db2b270	0.087254405
16	0x3da1d0c7	0.07901149
17	0xbc4a78fd	-0.012357947
18	0x3b901b9b	0.004397822
19	0x3dc7426a	0.09729464
20	0xbcd436c6	-0.025905024
21	0xbd414220	-0.047182202
22	0xbe003464	-0.12519985
23	0x3da0efac	0.07858214
24	0xbc9b18f1	-0.018932791
25	0xbde66854	-0.11250368
26	0xbe4f8826	-0.2026678
27	0xbdb09641	-0.08622409
28	0xbdd149ca	-0.10219152
29	0xbdd24d85	-0.10268692
30	0x3db749e8	0.089496434
31	0x3a1e66fa	0.00060425664

tcn.network.1.conv1.weight_g f4 [32, 1, 1]
0	0x3f1dd814	0.61657834
1	0x3f1c2fc1	0.61010367
2	0x3f0f466e	0.5596684
3	0x3f1372fd	0.57597333
4	0x3f5335ff	0.82504267
5	0x3f1c8975	0.6114724
6	0x3f18f9a5	0.5975593
7	0x3f0cd1f7	0.5500788
8	0x3f2480ec	0.6425922
9	0x3f09d1ee	0.5383595
10	0x3f0f6865	0.5601867
11	0x3f078dc2	0.5295068
12	0x3f2248a6	0.633921
13	0x3f246a07	0.64224285
14	0x3f14a69f	0.58066744
15	0x3f2be17e	0.6714095
16	0x3f1b19cb	0.6058623
17	0x3f04206e	0.51611984
18	0x3f0edd3f	0.55806345
19	0x3ee81973	0.45331916
20	0x3f275ef4	0.6537926
21	0x3f534694	0.8252957
22	0x3f141efe	0.5785979
23	0x3efb71c3	0.4911023
24	0x3f0ece5f	0.5578365
25	0x3f1bb0bc	0.6081655
26	0x3f16bd99	0.58883053
27	0x3f564535	0.8369935
28	0x3ef521c5	0.47877327
29	0x3f2c59b6	0.6732439
30	0x3f0a1fb8	0.5395465
31	0x3f01c141	0.5068551
