models/prototyping6/tcn_fold_3/best.pth (torch, 224151 bytes, 130 tensors)

tcn.d_reduce.weight f4 [32, 1, 1]
00000000: b8c7 98be fe0c d5be 7bb9 8c3d be2f 8bbe
00000010: a90d ccbe 3d1f c7be 983c 82bf 07b7 8abf
00000020: b48f 8e3f f2a9 2c3f 3276 84bf 68f7 8bbe
00000030: 9e74 c73e 0f22 0b3f ab00 50bf b57d 21bf
00000040: 5f49 303f 6947 9ebb 6139 8b3e 8a6f 07bf
00000050: e995 dabe 9b89 adbe 9aeb d8be 2864 babe
00000060: d464 ad3e 022d 41bf 5dcf 86bf b716 da3d
00000070: c26e 28bf a09d 11bf a066 c9bd d58d e73e
-0.29839873 -0.41611475 0.06871315 -0.27184862 -0.39854172 -0.3889102 -1.0174742 -1.0837106
1.1137605 0.67446816 -1.034857 -0.27337193 0.3895616 0.54348844 -0.8125102 -0.6308244
0.68861955 -0.00483029 0.27192214 -0.5290457 -0.42692497 -0.33894047 -0.4236725 -0.36404538
0.33865988 -0.754593 -1.0532032 0.10648864 -0.65794003 -0.5688114 -0.09834027 0.45225397

tcn.d_reduce.bias f4 [32]
00000000: 2917 17bf e079 8bbe 0f1c 72bf 249e 113f
00000010: 53c8 b3be 4c68 8c3e aff7 6abf 544d 3a3f
00000020: aff2 153f 0e67 643f e7a3 aebe fd79 513f
00000030: 8ed3 09bf 875d 4bbf b374 0e3f fe27 c1bd
00000040: 5b11 b6be 35d9 603f 6ddd 0fbe 1a45 08bf
00000050: 2d1c 00bf b2da 54bf 5a50 0abe 034f 653f
00000060: 0211 bfbd 6c4a 0fbf b2c3 1abf a188 bdbe
00000070: 6682 56be e85d e9be 1a25 0d3f 80ed 533f
-0.59019715 -0.2724142 -0.94574064 0.5688193 -0.35113773 0.27423322 -0.91784185 0.72774243
0.5857343 0.8921975 -0.34109423 0.81826764 -0.5383843 -0.79439586 0.5564682 -0.09431456
-0.35560116 0.8783143 -0.14049311 -0.5323044 -0.5004299 -0.831462 -0.13507214 0.8957369
-0.09329416 -0.55972934 -0.6045486 -0.37018302 -0.2094818 -0.45579457 0.5513474 0.8278427

tcn.network.0.conv1.bias f4 [32]
00000000: 6ee9 90bd 2a12 fcbc 25f9 103d 8961 0fbe
00000010: 37e9 94bd daa9 063d 3ded a5bc 0882 97bd
00000020: 021a c4bc 3347 21bd db1e 1bbe 2dac a73d
00000030: 76f6 43bc 8427 77bd 5731 ddbd f182 723b
00000040: b0ee 93bd 1dbd 703c 0cd6 5cbc 7ddd f5bd
00000050: af75 353b 8857 e73b 21cf 41be 27aa 02be
00000060: 4244 23be 183f b73c c19a 9f3d 7ab4 a63c
00000070: 2eda c03c 4303 21be 60ea cabd aa29 1f3d
-0.07075773 -0.03077038 0.035393853 -0.1400205 -0.07271045 0.032876827 -0.020254726 -0.07397848
-0.023938183 -0.03937454 -0.15148489 0.08187137 -0.011960616 -0.06034042 -0.108004265 0.0037004317
-0.072232604 0.014693526 -0.013478767 -0.12005136 0.0027688553 0.007059995 -0.1892667 -0.1276022
-0.15944007 0.022368953 0.07793189 0.02034973 0.023541536 -0.157239 -0.09907985 0.038858093

tcn.network.0.conv1.weight_g f4 [32, 1, 1]
00000000: a0b4 0f3f 7d04 fd3e b21d 123f 0c64 1f3f
00000010: 19b1 0b3f 7de0 e43e 873b 0c3f 70b2 0c3f
00000020: 3ad5 193f dc9c 0b3f 39fe 0d3f e125 2b3f
00000030: a63c 053f 19e0 223f dc41 053f fa81 013f
00000040: c7a5 0a3f fdda 153f c9cf f23e 5acb 0e3f
00000050: a024 1c3f 83f9 343f 16f4 0a3f 5e2f 273f
00000060: 5abc 103f 7965 183f 076d 123f 1f62 0d3f
00000070: 040b 043f 4681 0b3f 607a 0f3f 9491 0f3f
0.56134987 0.49417487 0.5707656 0.62262034 0.54567105 0.4470252 0.5477833 0.54959774
0.6009098 0.54536223 0.5546604 0.66854674 0.5204567 0.63623196 0.5205362 0.50588953
0.54159206 0.58537275 0.47424152 0.5577904 0.60993385 0.70693225 0.54278696 0.6530665
0.565374 0.59529835 0.5719761 0.55227846 0.5157931 0.5449413 0.56046104 0.5608151

tcn.network.0.conv1.weight_v f4 [32, 32, 2]
00000000: 892c 143b 75fe 813b 3f5c a9bd c24e 0e3e
00000010: 33fa 7bbd d989 153d 9b22 01be 063e 95ba
00000020: de07 8cbc d1f3 25bb 0f27 d83d 4083 e63d
00000030: 8f7b 043e dd42 6ebd a21c f0bd abe1 febd
00000040: 6fb5 d6bd 332a f8bb 25e4 b33d d820 783d
00000050: 2edc 92bc e54f 903d a909 d03d 5d3c 71bd
00000060: 3595 053e 789d d6bd c8fc 34bd 0ecf 733d
00000070: 2b8a 4bbd 7948 71bd 4c1e cc3c 2f45 efbd
00000080: b32b 313d bfb7 6fbd 6049 34bb b548 07be
00000090: 6bf1 423c e302 a4bd b760 bd3d e9b2 3abd
000000a0: cfde 563d 1a98 a33d f1b2 34bc cc08 933d
000000b0: 1cba e23d 8e13 d2bd 59e1 ad3c 3378 883d
000000c0: 7fa5 a83c 24a9 e43b 58bd 2abd e8b4 4abd
000000d0: 4d63 063d b812 913d a06a f7bc 6a18 28bd
000000e0: 40b4 d33b c6bd f0bc 4e11 22bd 13be 283d
000000f0: 62eb 853c 2027 c73d ba4b 723d 6153 54bd
00000100: 4117 2f3d 7abc 7d3d f4a9 813d 5bda 173e
00000110: 6faa 3fbd e4a5 803d 834f b03c c5f6 163d
00000120: f3a6 13be 353b 78bc fee6 0dbe a42d e8bc
00000130: b3cc 82bc f91f 6c3d b1a9 ad3d d175 283d
00000140: ab54 333c 3677 85bb d20f 6bbd 5cc4 263d
00000150: 8ecb 8b3d ef87 b63d d1f7 50bd a61f 153b
00000160: 2adc 0d3e ccb5 e43b 45a7 ef3d fc3a 593d
00000170: 8a74 84bd f61c 31be 7c82 b03d 4340 03be
00000180: 6b03 293e b095 25bd adfc 9e3d 1081 d93c
00000190: 14bf 493d 53b7 9d3c 560b af3d 0928 ebbd
000001a0: 9e87 933d c3fa c7bd 0862 ea3c 6bbe 8cbd
000001b0: e115 d13d e10c be3d 0afc fc3c a64f eebd
000001c0: 5d20 f5bd 138f d53d b266 0d3d c141 a23d
000001d0: 5c91 a93d 238d a03d ed38 db3d 792f 0b3e
000001e0: 371e 363d 64c4 0bbe f68d 933d 19c1 03bd
000001f0: c5dd 1a3d 57bd a63d e250 b539 6dcc 203c
00000200: 0d31 ca3d 9229 9dbd 9383 1a3c 8561 b0bd
00000210: ce24 563d f496 52bd d3c3 9e3c 4528 31be
00000220: 3459 aebd 128f b63d f8d9 81bd 1743 7bbd
00000230: bf2f b2bd e3c7 f73c bd16 943d fdce 04be
00000240: 4623 fcbd 72f2 b6bd e82b f13c 5d64 d93d
00000250: 52a4 913d 0ff1 3dbd 285b 4a3d b68e 7fbd
00000260: c43b 603d 9436 c23b 3c5b d73d a137 253e
00000270: b907 84bc 48a0 25be 01f9 6f3d c822 de3d
00000280: dd57 a7bd e6d1 06bd 531c a1bc b7c5 b2bd
00000290: e2c1 ddbd dc5a fc3d 83a4 0f3e f161 ba3c
000002a0: bed2 173c bd7b ce3d 688a 02bd 0362 853d
000002b0: 5265 ec3a 14a4 8e3d 205c 693d acc5 e93c
000002c0: 7514 4fbd eb71 503d 090f 373d c965 1b3c
000002d0: fd85 f93d 37c0 cebb 9c92 d1bd 58e0 93bd
000002e0: fa06 48bd d3f5 76bd 4c2c 063d 4c16 b83d
000002f0: 84b2 bb3c 0f9d 2f3c 976c a13d b586 923d
00000300: 7036 393d 128d 7e3d 74e6 353d 571b dbbd
00000310: 932d 243d 97e4 323e 3448 1ebe 4d64 b0bc
00000320: 8e9b 9abc 134a 9e3d f21c 5bbd 89d4 2c3d
00000330: 4df6 e03c ffea 82bd f559 c63d 99b4 09be
00000340: 8439 0bbe 8529 1cbb c2ee 4d3d 3ac1 333d
00000350: ba9e aabc b626 febd 7106 023d d379 18be
00000360: a22e 1e3d 875f e3bb 3128 d13a 8a6a 4c3d
00000370: 53a8 843d 0039 e7bd 68ab 8c3d ed4b b43c
00000380: a54c a0bd f52e 29bd 3fa2 00be aea1 00be
00000390: a11e 0fbd 1478 213b d824 263e bc4d 413b
000003a0: 1587 433d cc52 323d 2a6c 903d 4986 123e
000003b0: e5ce 4a3d 244a 29bd c9cb d8bd 7c60 52be
000003c0: 24eb 1cbd bd19 30bd 83f7 8fbd 976d 8d3d
000003d0: 485c 0e3e 0aa6 703d 7bfc 38bd 9e5a 323e
000003e0: c694 003d 3353 e0bd 8282 7c3d 0474 8fbd
000003f0: 9eb9 fabd adae bcbd cb13 34be 11c9 07be
0.0022609553 0.003967101 -0.08269548 0.13897231 -0.061517905 0.036508415 -0.12610857 -0.0011386282
-0.017093595 -0.0025322328 0.10554325 0.11255503 0.12937759 -0.058169235 -0.11724211 -0.124453865
-0.104838245 -0.00757339 0.087837495 0.060578197 -0.017927255 0.07046489 0.101580925 -0.058895458
0.13045199 -0.104792535 -0.044186383 0.059523635 -0.049692314 -0.058907006 0.02491679 -0.116831176
0.043254565 -0.058524843 -0.0027509555 -0.1321133 0.011898379 -0.08008363 0.092469625 -0.04558078
0.05245858 0.079879954 -0.011028991 0.07179412 0.11070654 -0.10257636 0.021225618 0.06663551
0.020586727 0.006978171 -0.04168448 -0.049488932 0.032809544 0.070836484 -0.03020221 -0.041038908
0.0064606965 -0.029387366 -0.039567284 0.041196894 0.01634759 0.097242594 0.05915425 -0.05183733
0.042746786 0.061947323 0.06331244 0.1482939 -0.046793398 0.06281641 0.02152229 0.03685643
-0.14419155 -0.015150835 -0.13857648 -0.028342076 -0.015966749 0.05764768 0.08479632 0.041127983
0.010945479 -0.004073049 -0.057388134 0.040714607 0.06825934 0.08912646 -0.051017586 0.002275446
0.13853517 0.0069796797 0.11701826 0.053034768 -0.064675406 -0.17296204 0.08618638 -0.12817483
0.1650521 -0.040425956 0.07763038 0.0265508 0.049254492 0.019252455 0.08547084 -0.114822455
0.07203601 -0.09764626 0.028611198 -0.06872257 0.10209251 0.092798 0.0308819 -0.116362855
-0.119690634 0.1042768 0.034521766 0.07922698 0.08279678 0.0783942 0.10704217 0.13592328
0.04446241 -0.13649136 0.07204811 -0.032166574 0.037809152 0.081415825 0.00034583273 0.009814364
0.09872637 -0.076739445 0.009430784 -0.086123504 0.052281193 -0.05141349 0.019380486 -0.17300518
-0.08513108 0.08914007 -0.06340402 -0.06134328 -0.08700513 0.03024668 0.072308995 -0.12969585
-0.123114154 -0.089329615 0.029439881 0.10614846 0.0711142 -0.04637247 0.04940334 -0.06239196
0.054744497 0.0059269164 0.105154485 0.16134502 -0.016116964 -0.16174424 0.058587078 0.10846478
-0.081710555 -0.03291502 -0.019666826 -0.08729117 -0.10827996 0.123220176 0.140276 0.02275178
0.009266553 0.10082195 -0.031870276 0.06512835 0.0018035567 0.06964889 0.056972623 0.02853664
-0.05055662 0.05088989 0.044692073 0.009484717 0.12183759 -0.006309535 -0.10233042 -0.072205245
-0.04883478 -0.06029303 0.03275709 0.08988628 0.022912271 0.010718598 0.0788204 0.071545996
0.04521793 0.062146254 0.04440923 -0.10698574 0.040082525 0.17470013 -0.15457231 -0.021532202
-0.018873002 0.07728972 -0.0534944 0.042194877 0.027461195 -0.06392478 0.09685127 -0.13447799
-0.13596159 -0.0023828459 0.050276525 0.043885447 -0.02082764 -0.12409727 0.031744424 -0.14890222
0.03861869 -0.006938878 0.0015957413 0.04990629 0.06477418 -0.11290169 0.06868631 0.02200886
-0.07827119 -0.041304547 -0.12561892 -0.12561676 -0.03494132 0.0024638223 0.16224992 0.0029495796
0.047736246 0.043535993 0.07051881 0.14309038 0.049513716 -0.04133047 -0.10585744 -0.20544618
-0.038310185 -0.042993296 -0.07029631 0.06905668 0.1390239 0.058752097 -0.04516266 0.1741738
0.03139188 -0.10953369 0.0616479 -0.0700455 -0.12242435 -0.09213004 -0.17585675 -0.13260294

tcn.network.0.conv2.bias f4 [32]
00000000: 4c47 d4bd 7de5 f4ba 0e66 fd39 dcbb 263d
00000010: 4bf3 99bd f012 b73d 843d 91bd d6a2 dabb
00000020: 4446 9abc 567b 12bc a510 01bc 6d90 cf3d
00000030: 3bc3 efbc c23e 50bd 91b8 a6bd db99 24bd
00000040: 0be8 923c 8876 3fbd d91c 763d a231 20bc
00000050: 7c6d 97bc 3103 e6bd 693b 8ebc a61c 513c
00000060: 9a09 c73c 8e7e a73c 94f7 2cbd 110e 90bd
00000070: c289 bebc e45f 42bd dc8b 47bc fc89 fb3c
-0.10365161 -0.0018684115 0.00048331957 0.0407065 -0.075171076 0.08939159 -0.07091811 -0.0066722436
-0.018832333 -0.008940538 -0.0078775035 0.10134969 -0.029267898 -0.0508411 -0.08140672 -0.04018579
0.017932912 -0.0467439 0.060086105 -0.009777458 -0.018484823 -0.112310775 -0.017362313 0.012763178
0.02429657 0.020446088 -0.042228296 -0.07033933 -0.023259047 -0.04745473 -0.012179341 0.030705445

tcn.network.0.conv2.weight_g f4 [32, 1, 1]
00000000: 24ae 123f e7c4 163f 480a 113f 3fb6 da3e
00000010: be83 0f3f 8b15 333f 8ed8 0b3f ad43 053f
00000020: 3822 1d3f defe 063f cde5 293f 4c86 043f
00000030: e958 083f 7a05 073f b1d6 103f b0f3 1f3f
00000040: 511b 013f f074 0a3f b9df 303f ffb2 103f
00000050: 1aa9 fa3e 42ae 023f 04c1 003f b54b 1c3f
00000060: 85c1 023f d68f 133f ae92 f83e c836 033f
00000070: b29b 0f3f 4ee0 f73e 0fdb ee3e 1c6e 203f
0.5729697 0.588942 0.5665631 0.42717168 0.560604 0.69954747 0.5462731 0.5205639
0.6138034 0.52732646 0.66366273 0.5176742 0.53260666 0.5274273 0.56577593 0.6248121
0.50432307 0.5408468 0.69091374 0.56523126 0.4895714 0.51047146 0.5029452 0.6105302
0.5107654 0.5764135 0.48549408 0.51255465 0.5609695 0.48413318 0.46651503 0.62668014

tcn.network.0.conv2.weight_v f4 [32, 32, 2]
00000000: a34c 3a3d 8a3b b03a 0438 053d 5d2d f23d
00000010: 2185 14bc a96a 813d 4f57 dd3d f712 e4bc
00000020: 328e 7f3d aa7f 253e ea86 d9bd 853d bf3d
00000030: 100b 903c a8fd 3c3e 4405 823d 8da9 933c
00000040: c2d0 983d 61f2 373e aa1b a1bb 4d6c f23d
00000050: 3f69 8bbd 4f71 3a3d c930 68bc dba3 203d
00000060: 32c7 f03c d204 5c3d f979 123d 7569 a43c
00000070: cd12 cabd 4f09 1c3c 72a4 9ebd 7842 443d
00000080: 4399 7b3c 0585 853b 0ed0 d1bd 731f 18bd
00000090: 9241 e2bd 9a89 eabb 6e43 fdbd adfe 1fbb
000000a0: b19d 413e 8057 573e df5c b93d 837d 823e
000000b0: 915a 61bd 62bf e93d 6044 95bd dd1b 96bd
000000c0: 3f43 6bbd 49fd 853e edd9 11bd a427 02bd
000000d0: 56c5 a0bd f819 babd 2c2e 293d e895 9f3b
000000e0: 5218 e4bd c4f3 e93c 8850 8e3d 28db 7a3e
000000f0: 17c9 cf3c 6414 b5bc 20f7 a33d 126c 523e
00000100: 7642 b53d 06f2 f3bd 35c1 a63d 7fe8 ae3d
00000110: cc5f 9cbc ff75 c33d c163 90bd 5071 f93d
00000120: 282b 46bd f8da f13c ec5e 82bd cc21 0bbe
00000130: c2b8 723d 5a82 693c 6a8e 453d 512f aabd
00000140: 0f35 b83d 1296 22bd 979c a83d b7f7 863d
00000150: 958e f73d e6df babd 2591 cfbd 4ce0 06bd
00000160: 7f20 60bc 4df0 a73c 7d60 82bc c5ba 0cbd
00000170: cbf4 dbbd e3c0 29bd a916 42bc e85f 893d
00000180: 7f96 ec3d a915 b13d 9863 d2bd d957 0dbe
00000190: c2f6 c3ba ea6b 7d3d 7c5a 963d a045 193d
000001a0: 32a5 94bd 8e2d b1bd 7239 aebd 9297 813d
000001b0: 082c e7bd 60fc 46bd 60eb 59bd 2d49 01bc
000001c0: 94bf 37bd 7c8d 08be 3995 ad3d ab77 9ebc
000001d0: 8854 f8bd 92c1 de3c 24d6 f73d cdf4 69bd
000001e0: cb17 c73c 7036 77bd 899e 92bd 8c64 efbb
000001f0: baef 003c 641b f3bd eaf4 b2bd 7fcb f4bd
00000200: bd4b 033e 777f 71b8 853a 5b3c 8642 18bc
00000210: 51e8 3bbd b7df 13be b348 903d 0cb4 e9bd
00000220: d5cf 333d 423e b1bc ce1a 2a3d 3b31 2b3c
00000230: a711 ccbd 0051 1ebd 6857 72bd 9137 063e
00000240: e673 ffbb bdb7 98bc 1c20 eb3d ed17 d4bd
00000250: 8449 7c3c 029b d63d 9de3 0db9 9496 31bd
00000260: 265e 14bd 6b04 003d 3956 e6bc b8dc a6bb
00000270: 2f75 5dbc 5419 4f3b 3696 263e b6f1 143e
00000280: 5e36 db3d 5d0a 793d 6219 a33c a2da c1bd
00000290: 9e48 0a3c b825 103d 7f19 d4bd 410a 1cbe
000002a0: cc0f 8f3c affe 66bb 60f8 443c ca83 f0bc
000002b0: 5957 1f3e d4e3 30bd c67f 173e bc85 7a3c
000002c0: 4912 363e 0afc 13be 61c3 c4bc 6b49 0cbe
000002d0: 6ae4 ce3c b6a5 abbc c051 873d 1f0d 2ebe
000002e0: 8dae 28bb 1049 e13b 064e a83e e127 fe3d
000002f0: c23e e2bc ed6e 1a3d e4b4 4c3e 8218 24bd
00000300: d59a 07be e401 083e 05b4 a6bc bc90 46bd
00000310: 9a1d 5a3d 1f13 f4bd c4e4 3b3e ff39 563e
00000320: a6dd 1d3e 61c5 c8bd d608 423d 1fd6 263c
00000330: 02e5 29bd dfc0 3abe aad6 cdbd 0e0e 033b
00000340: 4111 0dbe 8ab6 2ebe 0b46 3b3d f13a cc3d
00000350: 6a23 c33d 9c22 65bd b666 903d e818 613c
00000360: d42d 90bc 44c8 a5bd b2ee 91bc a02e 30be
00000370: 0853 fd3d bb88 363e 3f41 aabd 039e a33d
00000380: 25a0 0abd 7f7b 293e 1a59 34bc a9a4 bdbd
00000390: 1f1b 1abe 0e81 303e 6f40 4b3d d938 c03d
000003a0: aa17 8c3d e1f3 013e 0695 59be a1e5 3c3e
000003b0: b972 f8bd 4c76 09be 4d9d 3abe 30a3 5b3c
000003c0: 7b62 cf3d 2bbc f63c 5cb4 c8bc 4691 913d
000003d0: 46e9 123e edcc f0bd 488e 73bd aef8 813d
000003e0: 883c 08bc bac9 a6bd e815 c8bd 3ef5 b5bd
000003f0: bb22 8ebc f2fe 13bd 0a5d dc3d 9bb0 ca3d
0.045483243 0.0013445478 0.032524124 0.118250586 -0.0090649435 0.06319172 0.108076684 -0.027841074
0.062391467 0.16161981 -0.10621436 0.09337906 0.0175834 0.18456137 0.063486606 0.018025184
0.074616924 0.17963554 -0.004916628 0.11837063 -0.068071835 0.045518216 -0.014171788 0.039218765
0.029391859 0.053715535 0.035760853 0.020069817 -0.09866867 0.009523704 -0.07746209 0.047914952
0.015356365 0.004074695 -0.102447614 -0.037139367 -0.11047663 -0.0071575167 -0.12366377 -0.0024413273
0.18907811 0.21029472 0.09050917 0.25486383 -0.05501801 0.114134565 -0.07288432 -0.07329533
-0.057437178 0.26169804 -0.03560822 -0.031776085 -0.07850139 -0.090869844 0.0413038 0.004870165
-0.11137451 0.02855862 0.06948954 0.24497664 0.025364442 -0.02210445 0.0800612 0.20549038
0.08850567 -0.11911397 0.0814232 0.08540439 -0.019088648 0.0954399 -0.070502765 0.12179816
-0.048381 0.029523358 -0.06365761 -0.13587111 0.05925823 0.01425227 0.04823152 -0.08309806
0.08994495 -0.0396939 0.08232992 0.065902166 0.12087742 -0.091247365 -0.10135106 -0.03292875
-0.013679623 0.020500327 -0.01591515 -0.034357805 -0.1074005 -0.041443717 -0.011846223 0.06707746
0.11552142 0.086467095 -0.10272902 -0.13803042 -0.0014950859 0.061870493 0.07341477 0.037419915
-0.07258071 -0.08651267 -0.085070506 0.06327738 -0.11287695 -0.048580527 -0.053202987 -0.007890982
-0.044860438 -0.13335222 0.084757276 -0.019344172 -0.12125498 0.02719191 0.12101391 -0.057118226
0.024303338 -0.06035465 -0.071591444 -0.0073056873 0.007869655 -0.11870459 -0.0873812 -0.11952876
0.1282186 -5.757759e-05 0.013380651 -0.009293204 -0.04587585 -0.14440809 0.07045116 -0.11411294
0.043899376 -0.021636132 0.04152947 0.010448749 -0.099643044 -0.038651466 -0.05916539 0.13107134
-0.0077957986 -0.0186423 0.11480734 -0.10356126 0.015398387 0.10478784 -0.000135316 -0.043356493
-0.0362226 0.031254213 -0.028117286 -0.0050922297 -0.013516708 0.003160079 0.16268238 0.1454533
0.10703729 0.0608009 0.019909564 -0.09465529 0.008440165 0.03519222 -0.103564255 -0.15238287
0.017463587 -0.0035247018 0.012022108 -0.029359717 0.15560664 -0.043186024 0.14794835 0.015290674
0.17780413 -0.14451614 -0.024018945 -0.13699882 0.0252554 -0.02095304 0.066073895 -0.16997193
-0.0025738806 0.006875165 0.32872027 0.1240995 -0.027617816 0.037703443 0.1999088 -0.040062435
-0.13242657 0.13281971 -0.020349512 -0.048477873 0.053250886 -0.119177096 0.18348986 0.20920561
0.15416583 -0.09803272 0.047371708 0.010182886 -0.041478164 -0.18237637 -0.100507095 0.001999739
-0.13776113 -0.1706182 0.045721095 0.0997218 0.09528239 -0.05594121 0.070508406 0.013738848
-0.017599978 -0.08094838 -0.017814014 -0.17205286 0.123693526 0.17825596 -0.08313226 0.07989123
-0.033844132 0.16551016 -0.011007572 -0.09259922 -0.15049408 0.1723673 0.049621996 0.09385843
0.06840451 0.12690689 -0.21248254 0.18446971 -0.121312566 -0.13424033 -0.18224068 0.013405606
0.101262055 0.030119022 -0.024500065 0.07107787 0.14346799 -0.117578365 -0.05946186 0.0634626
-0.008315213 -0.08143945 -0.09769803 -0.08884667 -0.017350545 -0.036131807 0.10759933 0.09896966

tcn.network.0.net.0.bias f4 [32]
00000000: 6ee9 90bd 2a12 fcbc 25f9 103d 8961 0fbe
00000010: 37e9 94bd daa9 063d 3ded a5bc 0882 97bd
00000020: 021a c4bc 3347 21bd db1e 1bbe 2dac a73d
00000030: 76f6 43bc 8427 77bd 5731 ddbd f182 723b
00000040: b0ee 93bd 1dbd 703c 0cd6 5cbc 7ddd f5bd
00000050: af75 353b 8857 e73b 21cf 41be 27aa 02be
00000060: 4244 23be 183f b73c c19a 9f3d 7ab4 a63c
00000070: 2eda c03c 4303 21be 60ea cabd aa29 1f3d
-0.07075773 -0.03077038 0.035393853 -0.1400205 -0.07271045 0.032876827 -0.020254726 -0.07397848
-0.023938183 -0.03937454 -0.15148489 0.08187137 -0.011960616 -0.06034042 -0.108004265 0.0037004317
-0.072232604 0.014693526 -0.013478767 -0.12005136 0.0027688553 0.007059995 -0.1892667 -0.1276022
-0.15944007 0.022368953 0.07793189 0.02034973 0.023541536 -0.157239 -0.09907985 0.038858093

tcn.network.0.net.0.weight_g f4 [32, 1, 1]
00000000: a0b4 0f3f 7d04 fd3e b21d 123f 0c64 1f3f
00000010: 19b1 0b3f 7de0 e43e 873b 0c3f 70b2 0c3f
00000020: 3ad5 193f dc9c 0b3f 39fe 0d3f e125 2b3f
00000030: a63c 053f 19e0 223f dc41 053f fa81 013f
00000040: c7a5 0a3f fdda 153f c9cf f23e 5acb 0e3f
00000050: a024 1c3f 83f9 343f 16f4 0a3f 5e2f 273f
00000060: 5abc 103f 7965 183f 076d 123f 1f62 0d3f
00000070: 040b 043f 4681 0b3f 607a 0f3f 9491 0f3f
0.56134987 0.49417487 0.5707656 0.62262034 0.54567105 0.4470252 0.5477833 0.54959774
0.6009098 0.54536223 0.5546604 0.66854674 0.5204567 0.63623196 0.5205362 0.50588953
0.54159206 0.58537275 0.47424152 0.5577904 0.60993385 0.70693225 0.54278696 0.6530665
0.565374 0.59529835 0.5719761 0.55227846 0.5157931 0.5449413 0.56046104 0.5608151

tcn.network.0.net.0.weight_v f4 [32, 32, 2]
00000000: 892c 143b 75fe 813b 3f5c a9bd c24e 0e3e
00000010: 33fa 7bbd d989 153d 9b22 01be 063e 95ba
00000020: de07 8cbc d1f3 25bb 0f27 d83d 4083 e63d
00000030: 8f7b 043e dd42 6ebd a21c f0bd abe1 febd
00000040: 6fb5 d6bd 332a f8bb 25e4 b33d d820 783d
00000050: 2edc 92bc e54f 903d a909 d03d 5d3c 71bd
00000060: 3595 053e 789d d6bd c8fc 34bd 0ecf 733d
00000070: 2b8a 4bbd 7948 71bd 4c1e cc3c 2f45 efbd
00000080: b32b 313d bfb7 6fbd 6049 34bb b548 07be
00000090: 6bf1 423c e302 a4bd b760 bd3d e9b2 3abd
000000a0: cfde 563d 1a98 a33d f1b2 34bc cc08 933d
000000b0: 1cba e23d 8e13 d2bd 59e1 ad3c 3378 883d
000000c0: 7fa5 a83c 24a9 e43b 58bd 2abd e8b4 4abd
000000d0: 4d63 063d b812 913d a06a f7bc 6a18 28bd
000000e0: 40b4 d33b c6bd f0bc 4e11 22bd 13be 283d
000000f0: 62eb 853c 2027 c73d ba4b 723d 6153 54bd
00000100: 4117 2f3d 7abc 7d3d f4a9 813d 5bda 173e
00000110: 6faa 3fbd e4a5 803d 834f b03c c5f6 163d
00000120: f3a6 13be 353b 78bc fee6 0dbe a42d e8bc
00000130: b3cc 82bc f91f 6c3d b1a9 ad3d d175 283d
00000140: ab54 333c 3677 85bb d20f 6bbd 5cc4 263d
00000150: 8ecb 8b3d ef87 b63d d1f7 50bd a61f 153b
00000160: 2adc 0d3e ccb5 e43b 45a7 ef3d fc3a 593d
00000170: 8a74 84bd f61c 31be 7c82 b03d 4340 03be
00000180: 6b03 293e b095 25bd adfc 9e3d 1081 d93c
00000190: 14bf 493d 53b7 9d3c 560b af3d 0928 ebbd
000001a0: 9e87 933d c3fa c7bd 0862 ea3c 6bbe 8cbd
000001b0: e115 d13d e10c be3d 0afc fc3c a64f eebd
000001c0: 5d20 f5bd 138f d53d b266 0d3d c141 a23d
000001d0: 5c91 a93d 238d a03d ed38 db3d 792f 0b3e
000001e0: 371e 363d 64c4 0bbe f68d 933d 19c1 03bd
000001f0: c5dd 1a3d 57bd a63d e250 b539 6dcc 203c
00000200: 0d31 ca3d 9229 9dbd 9383 1a3c 8561 b0bd
00000210: ce24 563d f496 52bd d3c3 9e3c 4528 31be
00000220: 3459 aebd 128f b63d f8d9 81bd 1743 7bbd
00000230: bf2f b2bd e3c7 f73c bd16 943d fdce 04be
00000240: 4623 fcbd 72f2 b6bd e82b f13c 5d64 d93d
00000250: 52a4 913d 0ff1 3dbd 285b 4a3d b68e 7fbd
00000260: c43b 603d 9436 c23b 3c5b d73d a137 253e
00000270: b907 84bc 48a0 25be 01f9 6f3d c822 de3d
00000280: dd57 a7bd e6d1 06bd 531c a1bc b7c5 b2bd
00000290: e2c1 ddbd dc5a fc3d 83a4 0f3e f161 ba3c
000002a0: bed2 173c bd7b ce3d 688a 02bd 0362 853d
000002b0: 5265 ec3a 14a4 8e3d 205c 693d acc5 e93c
000002c0: 7514 4fbd eb71 503d 090f 373d c965 1b3c
000002d0: fd85 f93d 37c0 cebb 9c92 d1bd 58e0 93bd
000002e0: fa06 48bd d3f5 76bd 4c2c 063d 4c16 b83d
000002f0: 84b2 bb3c 0f9d 2f3c 976c a13d b586 923d
00000300: 7036 393d 128d 7e3d 74e6 353d 571b dbbd
00000310: 932d 243d 97e4 323e 3448 1ebe 4d64 b0bc
00000320: 8e9b 9abc 134a 9e3d f21c 5bbd 89d4 2c3d
00000330: 4df6 e03c ffea 82bd f559 c63d 99b4 09be
00000340: 8439 0bbe 8529 1cbb c2ee 4d3d 3ac1 333d
00000350: ba9e aabc b626 febd 7106 023d d379 18be
00000360: a22e 1e3d 875f e3bb 3128 d13a 8a6a 4c3d
00000370: 53a8 843d 0039 e7bd 68ab 8c3d ed4b b43c
00000380: a54c a0bd f52e 29bd 3fa2 00be aea1 00be
00000390: a11e 0fbd 1478 213b d824 263e bc4d 413b
000003a0: 1587 433d cc52 323d 2a6c 903d 4986 123e
000003b0: e5ce 4a3d 244a 29bd c9cb d8bd 7c60 52be
000003c0: 24eb 1cbd bd19 30bd 83f7 8fbd 976d 8d3d
000003d0: 485c 0e3e 0aa6 703d 7bfc 38bd 9e5a 323e
000003e0: c694 003d 3353 e0bd 8282 7c3d 0474 8fbd
000003f0: 9eb9 fabd adae bcbd cb13 34be 11c9 07be
0.0022609553 0.003967101 -0.08269548 0.13897231 -0.061517905 0.036508415 -0.12610857 -0.0011386282
-0.017093595 -0.0025322328 0.10554325 0.11255503 0.12937759 -0.058169235 -0.11724211 -0.124453865
-0.104838245 -0.00757339 0.087837495 0.060578197 -0.017927255 0.07046489 0.101580925 -0.058895458
0.13045199 -0.104792535 -0.044186383 0.059523635 -0.049692314 -0.058907006 0.02491679 -0.116831176
0.043254565 -0.058524843 -0.0027509555 -0.1321133 0.011898379 -0.08008363 0.092469625 -0.04558078
0.05245858 0.079879954 -0.011028991 0.07179412 0.11070654 -0.10257636 0.021225618 0.06663551
0.020586727 0.006978171 -0.04168448 -0.049488932 0.032809544 0.070836484 -0.03020221 -0.041038908
0.0064606965 -0.029387366 -0.039567284 0.041196894 0.01634759 0.097242594 0.05915425 -0.05183733
0.042746786 0.061947323 0.06331244 0.1482939 -0.046793398 0.06281641 0.02152229 0.03685643
-0.14419155 -0.015150835 -0.13857648 -0.028342076 -0.015966749 0.05764768 0.08479632 0.041127983
0.010945479 -0.004073049 -0.057388134 0.040714607 0.06825934 0.08912646 -0.051017586 0.002275446
0.13853517 0.0069796797 0.11701826 0.053034768 -0.064675406 -0.17296204 0.08618638 -0.12817483
0.1650521 -0.040425956 0.07763038 0.0265508 0.049254492 0.019252455 0.08547084 -0.114822455
0.07203601 -0.09764626 0.028611198 -0.06872257 0.10209251 0.092798 0.0308819 -0.116362855
-0.119690634 0.1042768 0.034521766 0.07922698 0.08279678 0.0783942 0.10704217 0.13592328
0.04446241 -0.13649136 0.07204811 -0.032166574 0.037809152 0.081415825 0.00034583273 0.009814364
0.09872637 -0.076739445 0.009430784 -0.086123504 0.052281193 -0.05141349 0.019380486 -0.17300518
-0.08513108 0.08914007 -0.06340402 -0.06134328 -0.08700513 0.03024668 0.072308995 -0.12969585
-0.123114154 -0.089329615 0.029439881 0.10614846 0.0711142 -0.04637247 0.04940334 -0.06239196
0.054744497 0.0059269164 0.105154485 0.16134502 -0.016116964 -0.16174424 0.058587078 0.10846478
-0.081710555 -0.03291502 -0.019666826 -0.08729117 -0.10827996 0.123220176 0.140276 0.02275178
0.009266553 0.10082195 -0.031870276 0.06512835 0.0018035567 0.06964889 0.056972623 0.02853664
-0.05055662 0.05088989 0.044692073 0.009484717 0.12183759 -0.006309535 -0.10233042 -0.072205245
-0.04883478 -0.06029303 0.03275709 0.08988628 0.022912271 0.010718598 0.0788204 0.071545996
0.04521793 0.062146254 0.04440923 -0.10698574 0.040082525 0.17470013 -0.15457231 -0.021532202
-0.018873002 0.07728972 -0.0534944 0.042194877 0.027461195 -0.06392478 0.09685127 -0.13447799
-0.13596159 -0.0023828459 0.050276525 0.043885447 -0.02082764 -0.12409727 0.031744424 -0.14890222
0.03861869 -0.006938878 0.0015957413 0.04990629 0.06477418 -0.11290169 0.06868631 0.02200886
-0.07827119 -0.041304547 -0.12561892 -0.12561676 -0.03494132 0.0024638223 0.16224992 0.0029495796
0.047736246 0.043535993 0.07051881 0.14309038 0.049513716 -0.04133047 -0.10585744 -0.20544618
-0.038310185 -0.042993296 -0.07029631 0.06905668 0.1390239 0.058752097 -0.04516266 0.1741738
0.03139188 -0.10953369 0.0616479 -0.0700455 -0.12242435 -0.09213004 -0.17585675 -0.13260294

tcn.network.0.net.4.bias f4 [32]
00000000: 4c47 d4bd 7de5 f4ba 0e66 fd39 dcbb 263d
00000010: 4bf3 99bd f012 b73d 843d 91bd d6a2 dabb
00000020: 4446 9abc 567b 12bc a510 01bc 6d90 cf3d
00000030: 3bc3 efbc c23e 50bd 91b8 a6bd db99 24bd
00000040: 0be8 923c 8876 3fbd d91c 763d a231 20bc
00000050: 7c6d 97bc 3103 e6bd 693b 8ebc a61c 513c
00000060: 9a09 c73c 8e7e a73c 94f7 2cbd 110e 90bd
00000070: c289 bebc e45f 42bd dc8b 47bc fc89 fb3c
-0.10365161 -0.0018684115 0.00048331957 0.0407065 -0.075171076 0.08939159 -0.07091811 -0.0066722436
-0.018832333 -0.008940538 -0.0078775035 0.10134969 -0.029267898 -0.0508411 -0.08140672 -0.04018579
0.017932912 -0.0467439 0.060086105 -0.009777458 -0.018484823 -0.112310775 -0.017362313 0.012763178
0.02429657 0.020446088 -0.042228296 -0.07033933 -0.023259047 -0.04745473 -0.012179341 0.030705445

tcn.network.0.net.4.weight_g f4 [32, 1, 1]
00000000: 24ae 123f e7c4 163f 480a 113f 3fb6 da3e
00000010: be83 0f3f 8b15 333f 8ed8 0b3f ad43 053f
00000020: 3822 1d3f defe 063f cde5 293f 4c86 043f
00000030: e958 083f 7a05 073f b1d6 103f b0f3 1f3f
00000040: 511b 013f f074 0a3f b9df 303f ffb2 103f
00000050: 1aa9 fa3e 42ae 023f 04c1 003f b54b 1c3f
00000060: 85c1 023f d68f 133f ae92 f83e c836 033f
00000070: b29b 0f3f 4ee0 f73e 0fdb ee3e 1c6e 203f
0.5729697 0.588942 0.5665631 0.42717168 0.560604 0.69954747 0.5462731 0.5205639
0.6138034 0.52732646 0.66366273 0.5176742 0.53260666 0.5274273 0.56577593 0.6248121
0.50432307 0.5408468 0.69091374 0.56523126 0.4895714 0.51047146 0.5029452 0.6105302
0.5107654 0.5764135 0.48549408 0.51255465 0.5609695 0.48413318 0.46651503 0.62668014

tcn.network.0.net.4.weight_v f4 [32, 32, 2]
00000000: a34c 3a3d 8a3b b03a 0438 053d 5d2d f23d
00000010: 2185 14bc a96a 813d 4f57 dd3d f712 e4bc
00000020: 328e 7f3d aa7f 253e ea86 d9bd 853d bf3d
00000030: 100b 903c a8fd 3c3e 4405 823d 8da9 933c
00000040: c2d0 983d 61f2 373e aa1b a1bb 4d6c f23d
00000050: 3f69 8bbd 4f71 3a3d c930 68bc dba3 203d
00000060: 32c7 f03c d204 5c3d f979 123d 7569 a43c
00000070: cd12 cabd 4f09 1c3c 72a4 9ebd 7842 443d
00000080: 4399 7b3c 0585 853b 0ed0 d1bd 731f 18bd
00000090: 9241 e2bd 9a89 eabb 6e43 fdbd adfe 1fbb
000000a0: b19d 413e 8057 573e df5c b93d 837d 823e
000000b0: 915a 61bd 62bf e93d 6044 95bd dd1b 96bd
000000c0: 3f43 6bbd 49fd 853e edd9 11bd a427 02bd
000000d0: 56c5 a0bd f819 babd 2c2e 293d e895 9f3b
000000e0: 5218 e4bd c4f3 e93c 8850 8e3d 28db 7a3e
000000f0: 17c9 cf3c 6414 b5bc 20f7 a33d 126c 523e
00000100: 7642 b53d 06f2 f3bd 35c1 a63d 7fe8 ae3d
00000110: cc5f 9cbc ff75 c33d c163 90bd 5071 f93d
00000120: 282b 46bd f8da f13c ec5e 82bd cc21 0bbe
00000130: c2b8 723d 5a82 693c 6a8e 453d 512f aabd
00000140: 0f35 b83d 1296 22bd 979c a83d b7f7 863d
00000150: 958e f73d e6df babd 2591 cfbd 4ce0 06bd
00000160: 7f20 60bc 4df0 a73c 7d60 82bc c5ba 0cbd
00000170: cbf4 dbbd e3c0 29bd a916 42bc e85f 893d
00000180: 7f96 ec3d a915 b13d 9863 d2bd d957 0dbe
00000190: c2f6 c3ba ea6b 7d3d 7c5a 963d a045 193d
000001a0: 32a5 94bd 8e2d b1bd 7239 aebd 9297 813d
000001b0: 082c e7bd 60fc 46bd 60eb 59bd 2d49 01bc
000001c0: 94bf 37bd 7c8d 08be 3995 ad3d ab77 9ebc
000001d0: 8854 f8bd 92c1 de3c 24d6 f73d cdf4 69bd
000001e0: cb17 c73c 7036 77bd 899e 92bd 8c64 efbb
000001f0: baef 003c 641b f3bd eaf4 b2bd 7fcb f4bd
00000200: bd4b 033e 777f 71b8 853a 5b3c 8642 18bc
00000210: 51e8 3bbd b7df 13be b348 903d 0cb4 e9bd
00000220: d5cf 333d 423e b1bc ce1a 2a3d 3b31 2b3c
00000230: a711 ccbd 0051 1ebd 6857 72bd 9137 063e
00000240: e673 ffbb bdb7 98bc 1c20 eb3d ed17 d4bd
00000250: 8449 7c3c 029b d63d 9de3 0db9 9496 31bd
00000260: 265e 14bd 6b04 003d 3956 e6bc b8dc a6bb
00000270: 2f75 5dbc 5419 4f3b 3696 263e b6f1 143e
00000280: 5e36 db3d 5d0a 793d 6219 a33c a2da c1bd
00000290: 9e48 0a3c b825 103d 7f19 d4bd 410a 1cbe
000002a0: cc0f 8f3c affe 66bb 60f8 443c ca83 f0bc
000002b0: 5957 1f3e d4e3 30bd c67f 173e bc85 7a3c
000002c0: 4912 363e 0afc 13be 61c3 c4bc 6b49 0cbe
000002d0: 6ae4 ce3c b6a5 abbc c051 873d 1f0d 2ebe
000002e0: 8dae 28bb 1049 e13b 064e a83e e127 fe3d
000002f0: c23e e2bc ed6e 1a3d e4b4 4c3e 8218 24bd
00000300: d59a 07be e401 083e 05b4 a6bc bc90 46bd
00000310: 9a1d 5a3d 1f13 f4bd c4e4 3b3e ff39 563e
00000320: a6dd 1d3e 61c5 c8bd d608 423d 1fd6 263c
00000330: 02e5 29bd dfc0 3abe aad6 cdbd 0e0e 033b
00000340: 4111 0dbe 8ab6 2ebe 0b46 3b3d f13a cc3d
00000350: 6a23 c33d 9c22 65bd b666 903d e818 613c
00000360: d42d 90bc 44c8 a5bd b2ee 91bc a02e 30be
00000370: 0853 fd3d bb88 363e 3f41 aabd 039e a33d
00000380: 25a0 0abd 7f7b 293e 1a59 34bc a9a4 bdbd
00000390: 1f1b 1abe 0e81 303e 6f40 4b3d d938 c03d
000003a0: aa17 8c3d e1f3 013e 0695 59be a1e5 3c3e
000003b0: b972 f8bd 4c76 09be 4d9d 3abe 30a3 5b3c
000003c0: 7b62 cf3d 2bbc f63c 5cb4 c8bc 4691 913d
000003d0: 46e9 123e edcc f0bd 488e 73bd aef8 813d
000003e0: 883c 08bc bac9 a6bd e815 c8bd 3ef5 b5bd
000003f0: bb22 8ebc f2fe 13bd 0a5d dc3d 9bb0 ca3d
0.045483243 0.0013445478 0.032524124 0.118250586 -0.0090649435 0.06319172 0.108076684 -0.027841074
0.062391467 0.16161981 -0.10621436 0.09337906 0.0175834 0.18456137 0.063486606 0.018025184
0.074616924 0.17963554 -0.004916628 0.11837063 -0.068071835 0.045518216 -0.014171788 0.039218765
0.029391859 0.053715535 0.035760853 0.020069817 -0.09866867 0.009523704 -0.07746209 0.047914952
0.015356365 0.004074695 -0.102447614 -0.037139367 -0.11047663 -0.0071575167 -0.12366377 -0.0024413273
0.18907811 0.21029472 0.09050917 0.25486383 -0.05501801 0.114134565 -0.07288432 -0.07329533
-0.057437178 0.26169804 -0.03560822 -0.031776085 -0.07850139 -0.090869844 0.0413038 0.004870165
-0.11137451 0.02855862 0.06948954 0.24497664 0.025364442 -0.02210445 0.0800612 0.20549038
0.08850567 -0.11911397 0.0814232 0.08540439 -0.019088648 0.0954399 -0.070502765 0.12179816
-0.048381 0.029523358 -0.06365761 -0.13587111 0.05925823 0.01425227 0.04823152 -0.08309806
0.08994495 -0.0396939 0.08232992 0.065902166 0.12087742 -0.091247365 -0.10135106 -0.03292875
-0.013679623 0.020500327 -0.01591515 -0.034357805 -0.1074005 -0.041443717 -0.011846223 0.06707746
0.11552142 0.086467095 -0.10272902 -0.13803042 -0.0014950859 0.061870493 0.07341477 0.037419915
-0.07258071 -0.08651267 -0.085070506 0.06327738 -0.11287695 -0.048580527 -0.053202987 -0.007890982
-0.044860438 -0.13335222 0.084757276 -0.019344172 -0.12125498 0.02719191 0.12101391 -0.057118226
0.024303338 -0.06035465 -0.071591444 -0.0073056873 0.007869655 -0.11870459 -0.0873812 -0.11952876
0.1282186 -5.757759e-05 0.013380651 -0.009293204 -0.04587585 -0.14440809 0.07045116 -0.11411294
0.043899376 -0.021636132 0.04152947 0.010448749 -0.099643044 -0.038651466 -0.05916539 0.13107134
-0.0077957986 -0.0186423 0.11480734 -0.10356126 0.015398387 0.10478784 -0.000135316 -0.043356493
-0.0362226 0.031254213 -0.028117286 -0.0050922297 -0.013516708 0.003160079 0.16268238 0.1454533
0.10703729 0.0608009 0.019909564 -0.09465529 0.008440165 0.03519222 -0.103564255 -0.15238287
0.017463587 -0.0035247018 0.012022108 -0.029359717 0.15560664 -0.043186024 0.14794835 0.015290674
0.17780413 -0.14451614 -0.024018945 -0.13699882 0.0252554 -0.02095304 0.066073895 -0.16997193
-0.0025738806 0.006875165 0.32872027 0.1240995 -0.027617816 0.037703443 0.1999088 -0.040062435
-0.13242657 0.13281971 -0.020349512 -0.048477873 0.053250886 -0.119177096 0.18348986 0.20920561
0.15416583 -0.09803272 0.047371708 0.010182886 -0.041478164 -0.18237637 -0.100507095 0.001999739
-0.13776113 -0.1706182 0.045721095 0.0997218 0.09528239 -0.05594121 0.070508406 0.013738848
-0.017599978 -0.08094838 -0.017814014 -0.17205286 0.123693526 0.17825596 -0.08313226 0.07989123
-0.033844132 0.16551016 -0.011007572 -0.09259922 -0.15049408 0.1723673 0.049621996 0.09385843
0.06840451 0.12690689 -0.21248254 0.18446971 -0.121312566 -0.13424033 -0.18224068 0.013405606
0.101262055 0.030119022 -0.024500065 0.07107787 0.14346799 -0.117578365 -0.05946186 0.0634626
-0.008315213 -0.08143945 -0.09769803 -0.08884667 -0.017350545 -0.036131807 0.10759933 0.09896966

tcn.network.0.downsample.weight f4 [32, 32, 1]
00000000: 33f0 d3bb 75c7 233e 0292 d93d ab2a 803d
00000010: 45fe 22be 5c02 873d cb1e 59bd b06a 8f3d
00000020: 949f 25bd ce2d 443d d2c2 443d 7388 c23c
00000030: 2361 eebc 2734 4e3e a364 b33a 237a 1d3e
00000040: dd9e 2b3e 9a1c 2b3c c673 553d 0d9b c8bc
00000050: e87f bcbc b707 f9bc 5573 d8bd 2192 d53b
00000060: f9cb b03d 357a 683d 7bde 7a3d a59e 27bd
00000070: 3440 1cbd 4395 dc3d e74c 00be 448e 4cbd
00000080: 0e40 e1bc cf7f 97ba 24e0 85bd 894e 5d3d
00000090: bd93 8fbd 6f5f 84bd 4b38 203e 8f44 bc3c
000000a0: 547c d03d 97c6 343e 55c4 8ebc aabe 123e
000000b0: f725 05be 35f5 943d b077 b33d 1df5 1fbe
000000c0: ab49 a9bc 6535 0dbe 5180 0ebe 22f4 c73c
000000d0: feb2 e13d 2889 b9bd f0d0 47be abe8 b43d
000000e0: 2af6 7a3d eccb 28be 0053 093e b3b5 123e
000000f0: 9747 2dbd 02c2 50bd 4897 143d f128 eebb
00000100: 3181 9dbd 3668 d53d 05cb 0abe 92b5 99bc
00000110: 7596 febd f480 763e c5c8 9fbb 7f2e 773e
00000120: 24f9 64bd 2e0e 5dbd 5a3e ea3d 4faf 523e
00000130: 5c46 c4bc 99eb 10bd c849 4bbd 80bc bf3c
00000140: 0bf4 c4ba ce02 273e 87af 20be e4ac f83d
00000150: 010f 6fbd f07b 09be 49db c93d 136e 84bd
00000160: bd4e d4bd c45c 663c 0dfc 4e3e 44bb 5ebe
00000170: 6b1e 0c3e 4f37 613e 089d 803d 7efa 24be
00000180: 31d2 42be aedb 26be c1a5 23be 6c7f b93c
00000190: 4e85 91be d450 42bd 657f 74be 5aaa 853d
000001a0: d01a 8b3e 23a0 303e 09f4 99bd f164 e0bd
000001b0: 0333 da3d d662 af3d 6491 8e3d d9da 72be
000001c0: 1715 bfbc 1dd6 5a3e 309c e53d ab8f 1dbe
000001d0: 4f95 1c3d f0c8 8ebe 5a8c edbc 4d6b 0f3d
000001e0: 3a46 d23d 5dd5 98be 2486 25be aec7 babd
000001f0: b6d1 44be c84d 90be 9a40 d13d 9064 243e
00000200: 1c2a f1bc 8e0c f13d 9cb6 c4bc f564 3f3e
00000210: 7817 243d 3688 cbbc b9d3 623e 5fec 6a3e
00000220: 7465 3ebe 39e3 41be 5972 843e aae2 0e3e
00000230: 31ac 28be 17b6 fc3c 0e97 7f3e 1334 853e
00000240: 983f 82bd 5ed7 8a3d 8878 1ebe 6ffb 853e
00000250: 33ce f63b 9502 b5bd 0d0d ea3d 7d97 263e
00000260: 4c99 edbd 8f4b 0f3e 54b7 0c3e 3867 983d
00000270: ea5e 833d de1f 023e 440d 8d3d 37ca 7abe
00000280: 2ded 01be 095e 353e bc6b 3dbd ca9b ce3d
00000290: 6898 3b3d 002d 2cbe 8380 dcbd 6851 b53d
000002a0: fc44 3b3c a2d0 043e 0657 203e 1cb0 19bc
000002b0: 9b0d 103d a630 2f3e bede 07bd 5270 8f3d
000002c0: afa4 8f3d af51 12be 141a 163e 0f05 163e
000002d0: f864 dc3d e76a 65bd fa4a 153e dca1 3a3d
000002e0: 5dc9 213e 8188 92bd baf2 373e c0a6 cfbd
000002f0: 836a d03d cd38 da3d 8aa3 cabd 13b6 2cbe
00000300: 1b12 08bd 0e5e 0fbe b379 623d 1e6d 90be
00000310: 9bad 99bd 121f 89be 30a7 713d 9266 b2be
00000320: 44b1 843e 80a9 243e 1492 7dbe 2a46 95bd
00000330: cb79 773e c728 b33e 06d9 acbe d448 a6be
00000340: 315f 093e 9262 26be 8e2d d23d c682 18be
00000350: 8b6c ac3c 1173 04bd b6e4 7abe d149 83be
00000360: 5aae 613e 7054 883d 5fe9 78be 301a 783e
00000370: f116 85be 8deb 273c 656b 6cbe ff43 2cbe
00000380: 395d 223e 3302 6f3e 5bab a3bb 8cdf 8e3c
00000390: 7870 273e 4cca 223e aa7b 773e 594c 073c
000003a0: f4ea 97bd 91c6 f93c a500 703c 2494 fbbc
000003b0: 6323 eb3c 0d8a 1abe e4e2 053e 7921 683e
000003c0: a55a 56bd 8a33 0b3e d5f9 6abd 764c 7d3d
000003d0: 4796 343e 22e2 01be bfc5 3c3d 55b2 313e
000003e0: 9cb9 883b 8421 a8bd 9c36 573d f50f 41be
000003f0: 5ae3 363d 807f ab3d a9e0 203e 319d 24be
-0.006467843 0.15994056 0.10623552 0.06258138 -0.15917309 0.06592247 -0.053007882 0.07002771
-0.04043539 0.047895245 0.048037358 0.023746705 -0.029099053 0.20137082 0.0013686608 0.15378623
0.1675982 0.010443831 0.052112363 -0.024487996 -0.02301021 -0.030399187 -0.10568873 0.006517664
0.08632655 0.05675717 0.06124733 -0.04092278 -0.038147166 0.10770657 -0.12529336 -0.049940363
-0.027496364 -0.0011558476 -0.06536892 0.054029975 -0.07010601 -0.06463515 0.15646474 0.02298191
0.10179964 0.17653881 -0.017427603 0.14330545 -0.13002764 0.07273332 0.08763063 -0.15620847
-0.02066501 -0.137899 -0.13916136 0.024408404 0.11020468 -0.090593636 -0.19513297 0.088334404
0.061269917 -0.1648404 0.13410568 0.14327125 -0.0423046 -0.05096627 0.036277086 -0.007268064
-0.07690657 0.10420267 -0.13554008 -0.018763337 -0.12431041 0.24072629 -0.0048762285 0.2413883
-0.05590166 -0.0539686 0.11437674 0.20574687 -0.023959331 -0.035380933 -0.04963091 0.023405313
-0.0015026344 0.16309664 -0.15691958 0.12142351 -0.05836392 -0.13426185 0.098562784 -0.064663075
-0.10366581 0.014060203 0.20213337 -0.21751124 0.13683479 0.21993755 0.06279951 -0.1611118
-0.19025494 -0.16294739 -0.15981199 0.022643767 -0.28422016 -0.047440365 -0.23876722 0.065266326
0.27168894 0.17248587 -0.07517249 -0.10956753 0.10654261 0.08563773 0.06961325 -0.23716296
-0.023325486 0.2137074 0.11211431 -0.15386836 0.03822833 -0.27887678 -0.028997589 0.03501444
0.10267301 -0.29850283 -0.16164452 -0.09120117 -0.19220623 -0.28184342 0.102174 0.16053987
-0.029439025 0.11769973 -0.024012856 0.18690856 0.040061444 -0.024845224 0.22151078 0.22941731
-0.18593389 -0.18934335 0.2586849 0.13953653 -0.16471936 0.030848546 0.24959967 0.26016292
-0.06359786 0.06779359 -0.15475667 0.2616839 0.007531905 -0.08838383 0.114282705 0.16268726
-0.11601505 0.13993667 0.13741809 0.074415624 0.06414588 0.12707469 0.06887296 -0.24491201
-0.12688132 0.17711653 -0.04624532 0.10088308 0.045799643 -0.16814041 -0.10766699 0.08853418
0.011430021 0.12970212 0.15658197 -0.009380367 0.035169225 0.17108402 -0.033171408 0.07003845
0.07013833 -0.14288972 0.14658386 0.14650367 0.10761446 -0.056010153 0.14579383 0.045564517
0.1579947 -0.07154942 0.17963687 -0.10139227 0.101765655 0.10655365 -0.09894474 -0.16866331
-0.03322039 -0.14000723 0.055291843 -0.2820825 -0.07503816 -0.26781517 0.058997333 -0.3484388
0.25916493 0.16080284 -0.24762756 -0.07288773 0.24167554 0.34992048 -0.33759326 -0.32477438
0.13415219 -0.16248539 0.10262595 -0.14893636 0.021047851 -0.0323363 -0.24501309 -0.25642255
0.22039166 0.0665673 -0.24307774 0.2422874 -0.25994065 0.010249031 -0.23087843 -0.16822813
0.15855874 0.23340683 -0.0049947924 0.01744058 0.16351497 0.15897483 0.24168268 0.008257949
-0.074178606 0.030490192 0.014648591 -0.030710287 0.028703397 -0.15091725 0.13074833 0.22669019
-0.05233254 0.1359388 -0.057367165 0.061840497 0.17635451 -0.12683919 0.046087023 0.17353185
0.004172517 -0.082095176 0.052542314 -0.18853743 0.044650413 0.08373928 0.15710701 -0.16075589

tcn.network.0.downsample.bias f4 [32]
00000000: cc7d c83c bd3f 273e 163f edbc 285c 573e
00000010: 01e1 073e 6452 193d 84ce 943c 2ffc 38be
00000020: c664 58be 2a16 c63d f136 d63d 5ad5 2bbe
00000030: 7851 893d fc45 dcbd 3e43 31bd 8f8d c83d
00000040: 42da 603e 64e0 743d f5c1 05bc bf06 b13d
00000050: 95c4 97be d524 ddbd 627f b5bd 50b2 fabd
00000060: 5910 87bd 61a4 323d a6f9 993d 4e6a 53bc
00000070: 089e 153e a090 31bd 4454 203e e824 46be
0.024474047 0.16332908 -0.028960746 0.21031249 0.13269426 0.03743209 0.01816488 -0.1806495
-0.21132192 0.09672196 0.10459698 -0.16780606 0.06704992 -0.10755536 -0.043277018 0.09792625
0.21958259 0.059784308 -0.008163919 0.08643865 -0.29642168 -0.10798041 -0.08862187 -0.12241042
-0.06594915 0.043613795 0.0751832 -0.012903763 0.14611065 -0.043350816 0.15657145 -0.19350016

tcn.network.1.conv1.bias f4 [32]
00000000: 35e8 16bd 158c 8fbd 78aa 52bd 73c2 283e
00000010: 5885 443d 0c96 5a3d cc27 5a3d de4a a1bd
00000020: 1ecd 3cbd 1b9a 6c3b 62ff a43d 5647 983c
00000030: 5692 c9bd 632c cdbd 5034 943c 15fe 94bd
00000040: 454b 57bc 4af6 293d 71fb f0bd ddca 0bbe
00000050: ce9a 863d 914e 2dbd 9e85 e93d 49e0 943d
00000060: ab87 32bd 417d 15bc 746f 08bd 4c4c 983c
00000070: 4406 113e c2a9 16be 9eab e0bd 11bb 84bc
-0.036842544 -0.070091404 -0.051432103 0.16480426 0.04797873 0.053365752 0.05326061 -0.07875608
-0.046094052 0.0036102596 0.08056523 0.018588703 -0.098423645 -0.10018232 0.01809135 -0.07275025
-0.013140504 0.041494645 -0.11766709 -0.13651605 0.065724954 -0.042311255 0.114024386 0.072693415
-0.043586414 -0.009124101 -0.033309415 0.018591069 0.14162546 -0.14713195 -0.109702334 -0.016202481

tcn.network.1.conv1.weight_g f4 [32, 1, 1]
00000000: cd75 073f 1775 013f 60b0 153f b017 473f
00000010: b1e5 103f b683 3c3f 5541 103f 3b52 483f
00000020: 9f4e 383f af3c 193f 34bd 133f ab85 f23e
00000030: bff6 0f3f b3eb 123f b9c6 163f 0aeb 1c3f
00000040: d356 383f e95a 143f 0db0 163f da0e 0e3f
00000050: be86 4a3f 7018 013f 9107 113f 72f4 043f
00000060: 355f 113f cf28 1f3f 3d6f 1b3f 036e 113f
00000070: dce6 1c3f 96a9 0f3f 922e 403f 55ad 133f
0.52914125 0.5056929 0.5847225 0.7777052 0.5660048 0.73638475 0.5634969 0.78250474
0.71994966 0.5985822 0.57710576 0.47367606 0.5623588 0.573909 0.58896977 0.6129614
0.72007483 0.5795122 0.5886238 0.5549141 0.7911185 0.50427914 0.5665217 0.51935494
0.567859 0.62171644 0.6071661 0.5680849 0.61289763 0.5611814 0.7507106 0.5768636

tcn.network.1.conv1.weight_v f4 [32, 32, 2]
00000000: 20fd fbbd 8bc1 c6bd f4ed ecbd e52d ae3d
00000010: 51e1 173d 5ca3 68bc 45a2 40be d348 0bbe
00000020: aae5 5fbd 613e 4b3d 263f 173c 5f59 a4bc
00000030: b619 a4bd a713 10bc 35d1 70bd 41d3 c7bd
00000040: caf4 b73d 1fa1 10be 33c7 8bbd e0b8 d1bd
00000050: 5241 ec3d 4379 043e 54f4 01be 3e8b 16bd
00000060: f84e a73a 46ba adbd cb82 f33d 7016 c73d
00000070: d740 ef3d f346 b2bc dc4b 5a3d ab5f e33c
00000080: 8ba6 f2bd cccd 853c 9af4 e33c 9aa8 41bd
00000090: c9c1 ba3d 96bb fabd 23c6 053d 9ec9 9abd
000000a0: c325 dc3d efec 5b3d 85e8 91bd ea83 743d
000000b0: a5ec 14be 38e7 e2bd 59bb 073e e873 0f3e
000000c0: 3e13 bfbc d3c9 65bb 8eea 383c eead 363c
000000d0: 69ff c6bd 6669 4ebd 33c4 96bd bea4 903d
000000e0: 6cdb c3bc c572 18bd d08c 91bb 045c b9bd
000000f0: c52e 27bd e47c b63c 1f8e ce3d 7f02 003e
00000100: 39ef 22be 94b4 94bd 6d79 c3bc 3375 3e3c
00000110: ba00 a139 82d0 4bbd af15 98bd 6734 e6bd
00000120: b7b8 89bd f0c5 02be c1db 55bd 1e62 e0bd
00000130: cb67 033c 1fc2 bfbd 6a22 4c3d 6e94 573d
00000140: c3cf f83c 91a7 c83c a429 b5bd 42f9 893d
00000150: 03c4 8dbd 47c5 aa3d 8b64 c03d d2e8 8cbb
00000160: 1458 013d 51a0 12bd af61 863c 41a0 eb3c
00000170: 6a51 00be 1ba5 3a3d 57ef 52bd fe22 f9bd
00000180: 1315 f13b f632 05bd f6c5 133d a21d 91bd
00000190: daba f4bc 8860 3a3d 0eb1 72bd 5a8d c7bb
000001a0: 2694 dfbd f625 b9bd 726e 09bd 8fce 5b3d
000001b0: 2a89 3fbd 1692 f0bd 4b49 87bd a680 cfbc
000001c0: 6cd2 13bc bc36 043c 35b4 3d3d e66d bd3d
000001d0: cf12 dfbc c864 543b 3bdc 03bd f686 debc
000001e0: 650d 01be 984c c1bd b494 6dbc 57cf 39bd
000001f0: 6c84 84bd 0abe f0bd 3f05 83bd 63a6 6c3c
00000200: 308f 82bd e4e8 c4bd e986 7ebd 2d81 d9bd
00000210: 2842 e03d 851a 00bd b27f 0cbb 1ec9 9bbd
00000220: d96d 97bc 6891 933a 379f 083d ed76 74bd
00000230: b732 aebc 7fb0 c83c ea9a 42bd 394f cbba
00000240: 7ce4 c63c 4f8a d43d 2802 f93d c047 0d3a
00000250: ed81 37bd f728 75bd d261 a83d 988b b7bd
00000260: 5cdf d83d 4852 f0bd a719 c43d c44f 1d3d
00000270: 22bc 8fbd a692 e2bd d774 013d 3ed5 ffbd
00000280: 0242 bebd 1be4 77bd 634c 80bc 2c47 88bd
00000290: 17b7 90bd 780b 243d b54a f9bd 1983 f5bd
000002a0: eeed 51bd 22bb d73c 9271 2c3d d33d 81bd
000002b0: 769c 67bd 92e0 7bbd caa0 96bc c734 b63d
000002c0: 00e7 efbd 0738 ecbd 4018 e73b e8e4 4abc
000002d0: 573d 4ebd 26ba cfbd 0ccf 34bd 1174 ad3d
000002e0: 1a13 07ba aa00 d2bd 22a3 d7bd b9d7 653d
000002f0: 66f8 233d 01eb dbbd e27f 6dbd b6f2 e3bd
00000300: 7df3 afbd aa85 d53d 133d 0d3e cd93 babb
00000310: a19c b23b 371c e23d 8eb9 c53d 2ec9 6bbe
00000320: 486b d0bd dfcf 313e f496 90bc 3e6b 923d
00000330: 991a 173d 8946 f9bd 90f0 97bd 528f 913b
00000340: d386 b2bc 8561 833c 3a1f dc3c dc95 b0bd
00000350: da79 0a3e 9213 a7bc e85a 23bd e7f9 f43c
00000360: ca9a 463e 5076 e2bd e6de 153c 9fbd 103e
00000370: 8a55 923d b19b b7bd 31b4 2c3d b436 953c
00000380: b606 0a3e 1809 42be 72fa ff3d 3850 f2bd
00000390: e2ea 043c 061a ff3d a0ce febd b4b5 c33d
000003a0: 6d4a 8f3d d4a8 6fbc 77e8 0e3e 0092 8bbd
000003b0: 478f ad3d a76c 97bd 565f 16ba e0ae 0cbc
000003c0: d2d9 513e 4344 2dbe 0b1d 8cbc af33 b23c
000003d0: 9356 14be 6dbe cb3d 57ee babd b9f4 643d
000003e0: c919 233e 93f3 d9bd 40f4 053c 56c1 e13c
000003f0: 8786 fe3d 7b54 10be 8223 373d 6e53 c63d
-0.12304139 -0.09704884 -0.115688235 0.085048474 0.037080113 -0.014199104 -0.18811901 -0.13601999
-0.054662384 0.049620036 0.009231364 -0.020062147 -0.080127165 -0.008793748 -0.058793265 -0.0975709
0.08982237 -0.14123963 -0.068251036 -0.1024034 0.11535896 0.12936883 -0.1269086 -0.036753885
0.0012764623 -0.084827945 0.11890181 0.097210765 0.11682289 -0.021762347 0.053295 0.027755579
-0.11848172 0.016333483 0.027826596 -0.04727993 0.09118993 -0.122428104 0.03265966 -0.07557987
0.1074939 0.053692754 -0.07124428 0.059696116 -0.14543398 -0.11079258 0.13255061 0.14009058
-0.023324605 -0.0035062924 0.011286391 0.0111498665 -0.09716684 -0.050393485 -0.07361641 0.07062672
-0.02390834 -0.037218828 -0.004441835 -0.09050754 -0.040816087 0.02227635 0.10085701 0.12500952
-0.15911569 -0.07261005 -0.023861611 0.011624622 0.00030708854 -0.049759395 -0.07426011 -0.11240464
-0.06724685 -0.1277082 -0.052211527 -0.10956214 0.008020352 -0.093631975 0.049837507 0.052631788
0.030372506 0.024493964 -0.08845833 0.06736995 -0.06922152 0.08338409 0.09394177 -0.0043002153
0.03157814 -0.03579742 0.016404001 0.028762938 -0.12531057 0.045567613 -0.051497784 -0.12164877
0.0073572486 -0.032519303 0.036077462 -0.0708573 -0.029874254 0.045502216 -0.059250884 -0.0060898485
-0.10916929 -0.090404436 -0.033552594 0.053663787 -0.04676167 -0.11746614 -0.066057764 -0.025329899
-0.009022336 0.00806969 0.046314437 0.09249477 -0.027230648 0.0032408703 -0.03219245 -0.027163964
-0.12602766 -0.09438437 -0.014500786 -0.04536375 -0.0647057 -0.11754997 -0.06397485 0.014443967
-0.06374967 -0.09614733 -0.06214038 -0.106203414 0.10950118 -0.03127529 -0.0021438417 -0.076067194
-0.018484997 0.0011258544 0.033354964 -0.05968373 -0.021264417 0.024498222 -0.04751102 -0.0015511281
0.024278872 0.10377943 0.121586144 0.0005389415 -0.04480164 -0.05985352 0.08221783 -0.08962172
0.105894774 -0.11734444 0.09575205 0.03840615 -0.07018305 -0.11063127 0.031605568 -0.124918446
-0.09289934 -0.060520273 -0.015661424 -0.066542 -0.070661716 0.04005 -0.12172452 -0.119878955
-0.051252298 0.026334349 0.042100497 -0.0631062 -0.056545697 -0.061493464 -0.018387217 0.08896785
-0.11713982 -0.11534124 0.0070524514 -0.012383677 -0.050351467 -0.10142927 -0.044142768 0.084694035
-0.00051526877 -0.10254033 -0.10529162 0.056113932 0.040031813 -0.10738183 -0.057983287 -0.11130278
-0.085913636 0.10425885 0.13792829 -0.0056938888 0.0054508005 0.11040538 0.096545324 -0.23025963
-0.10176712 0.17364453 -0.017650105 0.07149361 0.0368906 -0.12171657 -0.074189305 0.004442134
-0.021792805 0.016037712 0.026870359 -0.086223334 0.13523045 -0.020395074 -0.039881617 0.029904319
0.19394985 -0.110577226 0.009147381 0.14134835 0.071452215 -0.08965243 0.04216403 0.018214561
0.13479123 -0.18948781 0.124989405 -0.11831707 0.008112641 0.124561355 -0.12441754 0.095561415
0.069966175 -0.014627654 0.13955866 -0.06814957 0.084745936 -0.07393771 -0.0005736252 -0.008586615
0.20493248 -0.16920571 -0.017103693 0.02175316 -0.1448615 0.0994843 -0.09127491 0.05589745
0.15927805 -0.10642161 0.0081759095 0.02755801 0.12428003 -0.14094727 0.044711597 0.09683882

tcn.network.1.conv2.bias f4 [32]
00000000: bec9 ddba 6823 56bd f8e4 3abd 126f d43d
00000010: 7f6c 9abc 3b45 d7bd 61bf d73d 2504 5f3a
00000020: b52a 96bc 5766 bfbc 4c61 44be f928 18be
00000030: a1cb 1cbd e6f0 d0bc 1de6 b93c 6f94 173e
00000040: db23 41bd d359 89bd 1ca6 02be 8ded 043d
00000050: 0933 c8bd 7487 efbb 1a90 f83d d827 0cbd
00000060: fb92 0ebe 1e12 003d 0081 9d3d db5e 0dbd
00000070: 080e 7bbc cd99 4e3d d402 b5bd 4b8d a93c
-0.0016921086 -0.05227986 -0.045628518 0.103727475 -0.018850563 -0.105112515 0.105345495 0.00085073925
-0.018330911 -0.02336423 -0.19177741 -0.1485938 -0.038280133 -0.025505494 0.022692734 0.14802717
-0.047153335 -0.06706586 -0.12758678 0.03245311 -0.09775359 -0.0073098484 0.1213686 -0.034217685
-0.13923256 0.031267278 0.076906204 -0.03451429 -0.0153231695 0.050439645 -0.0883843 0.020697257

tcn.network.1.conv2.weight_g f4 [32, 1, 1]
00000000: 6bda 193f 0e8a 013f 0d47 2c3f 85e0 113f
00000010: cc53 163f 1c2a 053f 1668 1d3f 4073 0f3f
00000020: d988 3c3f 4668 183f d715 2b3f c167 143f
00000030: ea88 0d3f 3a0f 103f 9727 fb3e d634 283f
00000040: 1f1c ef3e b996 0c3f 6646 3d3f 02f3 1f3f
00000050: 28ec 033f 9af8 1a3f 6606 0a3f 2204 0c3f
00000060: 3f19 fa3e 6f9c 233f a189 3e3f 8620 0e3f
00000070: 69a9 0e3f 0e07 003f 05c6 233f a24d 123f
0.60098904 0.5060128 0.67295915 0.56983215 0.58721614 0.5201738 0.6148695 0.5603523
0.7364631 0.5953411 0.668302 0.57970816 0.5528704 0.56273234 0.49053642 0.6570562
0.46701142 0.54917485 0.73935544 0.62480175 0.5153222 0.60535586 0.53916013 0.54693806
0.48847386 0.63910574 0.74428755 0.55518377 0.5572725 0.50010765 0.6397403 0.5714971
