models/prototyping6/tcn_fold_3/best.pth (torch, 224151 bytes, 130 tensors)

tcn.d_reduce.weight f4 [32, 1, 1]
00000000: 0a6d 4dbe b125 e1be e453 33bf 3e21 ed3e
00000010: 62f0 30be d1b3 6bbf 4332 803f a1a4 5bbe
00000020: fd37 cd3e d2bf e9be bdac f2be dbbd 013f
00000030: 4f10 92bf a5ad ae3e 2f76 80bf cd80 183f
00000040: 79f6 bdbe 8772 6fbe 77e9 59bf d368 b93e
00000050: c831 b33e bc1d ebbe fcd8 21bf 4c9b 063f
00000060: 78eb 91bf 4397 b5bb d250 dfbd 80e7 523f
00000070: 0ac5 5e3f d925 dc3d fe50 873e 27a6 293f
-0.20061126 -0.4397407 -0.7004988 0.46314424 -0.17279199 -0.92071253 1.0015339 -0.2144952
0.40081778 -0.4565416 -0.47397414 0.5068032 -1.1411227 0.34116855 -1.0036067 0.59571534
-0.37102106 -0.23383532 -0.85121864 0.36212787 0.34998918 -0.45921123 -0.63221717 0.52580714
-1.1399984 -0.0055417134 -0.10904087 0.8238449 0.8701941 0.10749406 0.2642898 0.66269153

tcn.d_reduce.bias f4 [32]
00000000: e290 3abe a5b0 4abf 67d5 523e 2efc eebe
00000010: 48c4 c7be 562e a5bd 7fd3 e8be 2e1c 22bf
00000020: 3491 14bf c6cb 6abf 6643 3cbf 4f5c 1a3f
00000030: 6215 34bf 19e0 1cbe a45b a7be 1c12 86be
00000040: 738e f7be 8596 47bf c242 35bf da95 0ebf
00000050: 4ee8 3a3f 47d2 36bf bc7a 1ebf 03ee 56bd
00000060: c837 8cbe ad1e 23bf 7e7b 5bbf 81ea 713e
00000070: f0cc a13d 02cd 683e e132 8bbe 1e4f 1c3f
-0.18219331 -0.7917579 0.20589219 -0.46676773 -0.39016938 -0.080654785 -0.4547386 -0.6332425
-0.5803406 -0.91717184 -0.7354034 0.602971 -0.7034513 -0.15319861 -0.32687104 -0.2618569
-0.48350868 -0.7796405 -0.7080499 -0.55697405 0.7301072 -0.7141461 -0.6190603 -0.05247308
-0.27386308 -0.6371868 -0.8573531 0.23624612 0.07900417 0.22734454 -0.27187255 0.61058223

tcn.network.0.conv1.bias f4 [32]
00000000: 8dd9 00be b33f 2fbe 4439 a4bd 9ed7 763d
00000010: 342c 3bbe 6376 48be 7798 29be 72dc 6abd
00000020: e4fb d3bd 3537 bcbd 03db 1bbe 3f02 32bc
00000030: d284 433c b0d6 f2bd 8f5f d2bd 2b7d 5abd
00000040: a584 72bb 5985 f0b9 5690 3ebd 478d 26be
00000050: fdaa 6dbd 6fc3 90bc 103c 0abe bbcb 3ebd
00000060: 95c9 293d 7f5e 5abe 2022 2dbe a01a 6ebd
00000070: 723b 3b3d 7211 38bc 3e22 3f3d a5b1 663c
-0.12582989 -0.17114143 -0.08018735 0.060264222 -0.18278581 -0.19576411 -0.16562067 -0.05733914
-0.10350779 -0.091902174 -0.15220265 -0.010864793 0.011933522 -0.11857355 -0.102721326 -0.053342026
-0.0037005332 -0.0004587572 -0.04652437 -0.1626483 -0.058024395 -0.017671315 -0.13499475 -0.04658101
0.04145201 -0.2132511 -0.16907549 -0.05813086 0.04571099 -0.011234628 0.046663515 0.01408044

tcn.network.0.conv1.weight_g f4 [32, 1, 1]
00000000: 8c10 013f f378 493f 26fe 113f 35d1 0b3f
00000010: 4ab1 103f 518f 1f3f 7c77 363f 1cb9 133f
00000020: bde5 173f 2254 213f 3502 273f 31f8 143f
00000030: fcbe 123f 17d1 143f de9e 103f 7dd1 123f
00000040: d278 0b3f e851 043f e81a 153f 0766 0f3f
00000050: 001e 0f3f a2ab 453f 7eee fa3e 710a 0f3f
00000060: c94e f83e 70a0 433f b643 193f 6a78 123f
00000070: e008 093f d6b9 123f 4156 253f ec18 253f
0.50415874 0.7870018 0.57028425 0.546161 0.5652052 0.6232806 0.7127607 0.5770433
0.5933493 0.63019 0.6523774 0.5819121 0.5732267 0.58131546 0.5649241 0.57350904
0.5448123 0.5168748 0.5824418 0.56015056 0.5590515 0.77215016 0.4901008 0.5587531
0.48497608 0.76416683 0.59868944 0.5721499 0.5352917 0.57314813 0.6458474 0.6449115

tcn.network.0.conv1.weight_v f4 [32, 32, 2]
00000000: bc25 e23d a8e9 1ebe 3df6 fb3d e8ff 5cbc
00000010: a9ac 5abd 88cc c4bd 122c 633d cde5 c2bd
00000020: 06c0 c43d a356 92bd 51e0 0a3d 9712 29be
00000030: ed58 e13d e717 ae3d e65d 58bd 90b9 11bd
00000040: d275 a7bd 6489 6cbc 9255 3bbd 39ec 933c
00000050: a24f 0b3e 2ba0 10bd d58c 073c 3e1b ce3d
00000060: 5f1a 863b 6ee2 863b 9976 42bd a442 83bd
00000070: 5828 453c 6202 c43c a90f dd3d a557 a3bc
00000080: d371 873c 10f2 4b3d fbb8 fc3c 588b 2e3d
00000090: f92d e93d 11a6 b23d c3bc e8bd e5bc 15bc
000000a0: 7ce2 aa3c 4b6d c13d 75e7 1f3e 5b0e e6bc
000000b0: 4511 df3d 57b0 a0bd c5ae 38bd e74b babd
000000c0: 8627 303d 0a17 e33c 9542 c9bd 9a60 763c
000000d0: 6d43 cabb b659 533c 8abf b4bd c8ce ef3d
000000e0: b647 f53d 37fd 023e 3bc2 65bd 796c 363d
000000f0: f243 a43d 22b8 813d c1ec 0bbe e9e1 f7bd
00000100: 129d e23c cc13 4a3d 900a 0d3e 426e 703e
00000110: c536 82bd 01df babd e03d 063d 6aa8 8cbd
00000120: e1d7 a23d 6f8a 0e3e 5bb6 27bb f8a6 9c3d
00000130: 368f 70bd 5338 bdbd 64a2 a13d 105a d33d
00000140: c9fa f93d 9537 4e3d 780a 6d3e 1350 903e
00000150: 5439 c83d 33d9 a93e 7dbe 49be 8f9b 86be
00000160: 20b1 d63c f48f 883d e2c1 e1ba 559c 883c
00000170: 4779 a9bd c08c ab3b 1841 44bd 5b48 8dbd
00000180: a0d0 203e d428 893e 1578 223e 189a 2c3e
00000190: ea37 c8ba 0caa a33d f919 0d3e 2965 69bd
000001a0: c20f 46be 55ce 78be 9e93 013e 2305 a03e
000001b0: 20dd ab3d 00d9 0b3e 22ff c73d e51b e13c
000001c0: 5d28 db3d 888d 433d a724 c63d 89ec 613d
000001d0: 3b82 7d3d 888b 3e3e 19ae da3c 284d bfbb
000001e0: 3ad1 85bd ae60 17be 4c9d e0bd 74e4 b9bd
000001f0: e591 da3d 7cc1 91bd e364 faba 2475 4fbe
00000200: 9fa8 e33a 2806 a8bd 36e5 be3d c570 52bd
00000210: 6078 48bd e637 f4bd 22d3 86bc 7a1f 97bb
00000220: 9e63 e83d 9a47 d1bd 4cbe 78bd c1bc 7abc
00000230: b7ad 1a3c e347 b5bd 6d03 343d e07d 9c3c
00000240: 046c 9e3d 24ac 823d 598c 853c 4fb9 6cbc
00000250: 6a7d 4e3d 5a9a a93d 1799 b73d 971a dbbd
00000260: a4d8 d9bd cfdf b0bd 0ce9 56bd 385b 873d
00000270: 7e9e d1bc c6bd de3d 8e36 fa3d aa02 4a39
00000280: a898 633b f5ca d3bc 945e f33d 3866 6b3d
00000290: bf03 943c dc12 773d f0d6 ba3d f320 b13d
000002a0: 4f9b fb3d 17ea 9dbd 64c7 a43d ea23 463d
000002b0: 497d 9b3d 0dba 97bd 830f f4bc dcb7 e5bc
000002c0: 35b0 8b3d feb9 7a3c 2f69 a5bd 3951 613d
000002d0: bbf6 97bd fc7f cfbc 6c2c 9e3d c00d 923b
000002e0: 200a d0bd d75e 82bd bb95 dbbd 82b9 983d
000002f0: 26a2 e4bb d646 bebd 4342 cb3d 9409 5ebd
00000300: 4d1c 373d 2d47 58bc 9541 99bd a8bf 7f3c
00000310: b351 f8bd e6a6 043e fc49 d53d ef3b 8fbd
00000320: 410e 89bd e2d2 d33d 67c5 16be 089c df3c
00000330: 9e5b 1d3d aa95 0bbd 6f18 403d 30cf 31bd
00000340: 65b7 0b3e 42c8 52bd b93c 12bd 4dd9 213e
00000350: c784 d33c ee8d b6bc 55b7 a03d 6c6e cbbd
00000360: b53b 9c3d 3047 543d 9a37 4b3e 6b8a 15be
00000370: 070f 3bbe 6f39 e03d 910c 04bd 3331 573c
00000380: a7eb 733d 9f1d 51bd 0426 1bbd 9695 c13d
00000390: 8d26 8bbd 4180 6d3d ad69 7fbd 96a4 c4bd
000003a0: 2a8a 693c 7e03 393a 3ea0 833d 50cd 113e
000003b0: ccc0 03be 4123 80bd 0ebf 353e a1d4 f6bd
000003c0: 8935 4ebe b2e6 00be 8840 dc3d ef40 6cba
000003d0: 6b1e 823b 91d1 2d3d 0d8c 193d b420 da3d
000003e0: bd82 213e cec6 973d 5e27 77bd cf0c bdbd
000003f0: 0039 96bd 8884 2c3d 771c 7d3b dc56 0ebd
0.110423535 -0.1551882 0.123028256 -0.013488747 -0.053387318 -0.09609324 0.05546195 -0.09516487
0.09606938 -0.07145431 0.03390533 -0.16510998 0.11003289 0.08500653 -0.052823924 -0.035577357
-0.08176769 -0.014437053 -0.045735903 0.018056976 0.13604596 -0.035308998 0.008273323 0.1006379
0.004092499 0.004116348 -0.047476385 -0.06409195 0.0120335445 0.023926917 0.107940026 -0.019939253
0.016533768 0.049791396 0.030849924 0.042613357 0.11385722 0.08723081 -0.113641284 -0.009139274
0.02085995 0.09444674 0.15615638 -0.028083017 0.10891966 -0.07846134 -0.04508855 -0.090965085
0.043006442 0.027720947 -0.09827153 0.01503768 -0.0061725886 0.012899807 -0.08825596 0.11709362
0.119765684 0.12791906 -0.056093436 0.04453704 0.08020772 0.06333949 -0.13664533 -0.12103636
0.027662788 0.049335286 0.1377356 0.2347956 -0.06358103 -0.09124566 0.032773852 -0.0686806
0.07951332 0.13919996 -0.002559087 0.07649034 -0.058730327 -0.092392586 0.07892302 0.103199124
0.122060366 0.050345976 0.23148525 0.28186092 0.097765595 0.33173522 -0.19701572 -0.26290557
0.026207507 0.06668082 -0.0017223919 0.016676107 -0.08275085 0.0052352846 -0.04791364 -0.06898566
0.15704584 0.26788962 0.1586612 0.16855657 -0.0015275453 0.07991418 0.13779439 -0.05698124
-0.19341949 -0.2429746 0.12653968 0.3125392 0.083917856 0.13656998 0.097654596 0.027479121
0.10701058 0.047742397 0.0967496 0.055157218 0.061891776 0.18607914 0.026694344 -0.005838055
-0.065340474 -0.14782974 -0.10967502 -0.09076777 0.106723584 -0.07116982 -0.0019103553 -0.2025953
0.0017368979 -0.08204299 0.09321062 -0.051377077 -0.048942924 -0.11924724 -0.016458098 -0.0046119066
0.113471255 -0.10218735 -0.060728356 -0.0153037915 0.009440831 -0.08851602 0.04394858 0.01910299
0.07735446 0.063804895 0.016302275 -0.014448478 0.050412573 0.08281393 0.089647464 -0.10698431
-0.10637024 -0.08636438 -0.052468345 0.066091955 -0.02558827 0.1087604 0.12217437 0.00019265214
0.0034728441 -0.025853613 0.11883274 0.05747053 0.018068193 0.06032072 0.09123027 0.08648863
0.12285482 -0.07710665 0.08045843 0.048374094 0.075922556 -0.07408533 -0.029792553 -0.028041773
0.06820718 0.015303133 -0.08076703 0.0550091 -0.07420107 -0.025329582 0.077233166 0.0044572055
-0.10158181 -0.063657455 -0.10721918 0.07457258 -0.0069773374 -0.09290855 0.09924748 -0.054208353
0.044704724 -0.013200563 -0.07483212 0.015609659 -0.12124958 0.12954292 0.10414502 -0.06993853
-0.06692172 0.10342957 -0.1472374 0.027296081 0.03841745 -0.034078278 0.0468983 -0.04341048
0.13644178 -0.051460512 -0.03570244 0.1580555 0.02582015 -0.022284474 0.07847468 -0.09933171
0.07628576 0.051825702 0.19845429 -0.14603584 -0.18267451 0.109484546 -0.032238547 0.013134289
0.059550907 -0.05105364 -0.03787805 0.094523594 -0.06794462 0.05798364 -0.06235664 -0.09601705
0.014254132 0.00070577103 0.06427048 0.14238477 -0.12866515 -0.06256724 0.17748663 -0.120522745
-0.2013761 -0.12588003 0.10754496 -0.00090123614 0.0039709113 0.042436186 0.03748708 0.10650769
0.15772529 0.07410966 -0.060340278 -0.09230959 -0.07335091 0.04211858 0.0038621703 -0.034750804

tcn.network.0.conv2.bias f4 [32]
00000000: 0a24 c1bd 4ada 1e3e 443f c13c 18ce 2ebd
00000010: a16c 45bc 6ac3 8cbd f106 d93c 2d46 00bd
00000020: 3390 8bbb f427 c53d 27e7 08bd e8a7 e03d
00000030: 3621 a13d 699f 0abe ee5e 7e3e 2b5f 3b3d
00000040: 916a 1ebe 27b5 ddbc 14be 9bbc 3d17 8bbd
00000050: 6a61 38bd ccb9 373d e334 b83d fcb1 2cbd
00000060: 8139 8f3d b081 e23c 4e49 0d3c 3094 52bd
00000070: a970 053e 29e7 903c 924c c9bd 7790 87bb
-0.09430702 0.15512958 0.023589738 -0.042677015 -0.012049825 -0.0687321 0.026492568 -0.031316925
-0.0042591332 0.09626761 -0.03342357 0.109695256 0.078676626 -0.13537373 0.248409 0.045745056
-0.1547034 -0.02706392 -0.019011535 -0.06791542 -0.045014776 0.044854924 0.08994462 -0.042161927
0.0699339 0.02764973 0.008623434 -0.051410854 0.13031258 0.01768835 -0.09829058 -0.0041370946

tcn.network.0.conv2.weight_g f4 [32, 1, 1]
00000000: 0edb 0f3f df36 263f 7f94 e63e 6c97 f23e
00000010: 655a 1c3f f365 0c3f 76da 0d3f d164 123f
00000020: ee7e 0e3f f21e 143f 4b45 153f 75de 303f
00000030: 8dba 233f d6e0 1e3f 6ea7 1a3f 3761 1c3f
00000040: 8236 013f 5941 153f 8824 323f b5c7 fa3e
00000050: 115d 013f f831 263f 8410 043f d351 173f
00000060: f2a9 ef3e b1bf 203f 0798 1d3f bc29 043f
00000070: a232 0a3f f005 ff3e f6eb 183f 0049 063f
0.56193626 0.64927477 0.4503517 0.4738115 0.6107543 0.5484306 0.5541147 0.57185084
0.5566243 0.5785972 0.5830886 0.6908944 0.6395653 0.6206182 0.6041173 0.6108584
0.504738 0.5830284 0.6958699 0.4898049 0.50532633 0.64919996 0.515877 0.5910923
0.46809345 0.627925 0.615601 0.5162618 0.5398351 0.49809217 0.5973505 0.5245514

tcn.network.0.conv2.weight_v f4 [32, 32, 2]
00000000: e27a c13d 1377 21bd 78c7 00bd 4244 37bd
00000010: b5a6 d4ba ef54 863c ecaf d23c 639e dc3c
00000020: f0bd 02bd 4667 c03d 1b84 0ebe 05c5 94bd
00000030: ba30 67bb 8687 a2bd dc9d 1fba 7251 78bd
00000040: 6b25 5ebd 35a7 89bd 4771 453b b75a 693d
00000050: 1f9a cd3d 5f28 4bbd 0bac ef3c b331 8b3d
00000060: e49e 46bc e9e8 96bb 8352 bb3d 57bf 1d3e
00000070: 5566 c33d 15be 253e f10d bdba 558d a3bd
00000080: afae 30bd da59 91bd 5d03 01be 8eea 413c
00000090: 3f11 1c3e e26d ca3d f1d9 9e3c 0361 813d
000000a0: 8ee6 9a3c f670 163e 4339 dcbd d9f5 dd3c
000000b0: 1687 e23a a3d3 ca3d e127 593e 55a3 da3d
000000c0: 8398 bcbd 8f8e 053e da92 ffbd 2a1f 68bd
000000d0: 77ba 6dbd 4993 c63c 993c 643d 7184 f9bb
000000e0: 00d3 073d 4de1 a03d 8fb8 43bd 771e 6bbd
000000f0: 6eb1 36bc 8b9b b13d 9e2e 3f3e a2a8 2a3d
00000100: e739 063e ea24 4b3d d041 8f3d f86d 73bd
00000110: 0030 9e3d ca04 9c3d 60f2 033e 50f9 833d
00000120: f871 14bc cfd0 5f3d d93e 843d be92 c23b
00000130: 1a1b 61bd 6c03 83bd 3746 2f3d 9ef8 8abd
00000140: 3a89 403d 583a 03be a1e0 a8bb 1b99 a93d
00000150: a3c0 67bd 9899 93bd bc35 c4bd b8e1 95bd
00000160: 3965 50bd a928 a4bd 6fd5 2abe 30c7 913d
00000170: 6e00 da3d daa9 07be 4e0d 8ebd 5349 5d3d
00000180: 40e0 afbd a386 623d a4ec c2bd 043c c3bd
00000190: 3a2a 22be c2e9 b53d 2aec 99bd f0bc c1bd
000001a0: ea0e fdbd 4ffc f53d 5319 13bd 6b69 a03c
000001b0: e9af 2dbc 3043 b2bd 23bd 473d e9f2 e8bd
000001c0: 6a60 d0bd f894 3dbd e57f 203d db90 2a3a
000001d0: f8f7 2b3d 9e9c 94bd 0c07 f3bc f0b9 e8bc
000001e0: 1e3d 0c3d a3e1 bd3d 1669 99bd b3a0 a53d
000001f0: f583 723e 9791 9cbc 8fb3 a03d 1fa1 fc3d
00000200: dc8c d93d 0824 383d 7411 c9bd c35b 4abe
00000210: 2203 b3ba 8cd6 cd3d 4f58 65bd 6655 fbbd
00000220: 329b a83d f42b 9bbc 3b25 a9bd aa44 03be
00000230: 8e98 99bd 5efb 1dbe 3675 12ba 04e6 0ebe
00000240: a592 2c3e 4381 be3c c208 d63c 64f6 5a3d
00000250: 4c23 6ebd 2aef d0bd a9a1 393e 93cf 2e3d
00000260: 4016 973d c63d ba3d 408c 63bb 759c 0dbd
00000270: 6548 603d be89 a03c 2853 66b8 fe30 f2bd
00000280: edcc 4bbc 0644 a4bc 34a1 a63d 7fe6 ffbd
00000290: 38c9 99bd 8b88 66bd 62e1 a83d e8f8 cdbd
000002a0: 647c d63d efa5 17bc 810b 0dbd 8581 ad3d
000002b0: bc5f dabc dc5e a3bd aea3 0c3e a682 013e
000002c0: 6502 0a3d 597b ec3b 8c8b 91bd e35d 1bbe
000002d0: 8728 0e3e 019e 85bd 22c9 e23d 914d 053e
000002e0: 4df7 9c3c 27db 7ebd 02eb 25b8 ac01 ae31
000002f0: e989 8e3c 02b2 10be dc84 3e3d 694f 8dbd
00000300: ee3f 8ebc 7657 da3d 42ef 25be 2372 5a3d
00000310: b537 013e ccde a7b9 8dbc f83c ecce 10bd
00000320: 059e e4bb f116 0abe e572 14be 4cca a8bd
00000330: 5a9e b1bd ea23 e73d b756 2e36 25e8 02be
00000340: 48e4 3e3e 796f f03d 2bc8 ebbb a85d 293d
00000350: 3bc0 1abe c6e6 32be dd59 0cbe 0a42 b23d
00000360: 7d5f 8cbd 5b89 d3bd 6aa9 10be 5046 0fbe
00000370: e6b9 783e a4f5 0a3e 9f2e 2cbe 39e1 daaf
00000380: 4017 15be 67b8 643d 70f8 043e 0b77 063d
00000390: 35b5 d5bd 3896 c3bd 3e7a 913d ca3e bbbd
000003a0: f083 32bd 9f3b 03bd 9530 debd c7b1 f43d
000003b0: 9ed9 17be 1da9 1bbe 4ced b4bc 616c 913d
000003c0: ec3e d93d ee4d adbd 760c 37be 3a0d 8c3c
000003d0: 7d14 6bbd 3a6c 233e fc33 ffbd 808a 493e
000003e0: 17cf b03d 6a4f fb3d 3bab be3d 8a10 4d3e
000003f0: 5337 d23d 5207 6fbd 6383 be3d ca0d af3d
0.09447266 -0.0394202 -0.03144023 -0.04474283 -0.0016223999 0.016397921 0.025718652 0.026930993
-0.03191942 0.09394698 -0.13917582 -0.07264141 -0.0035276846 -0.07936005 -0.00060888915 -0.060624547
-0.054234903 -0.06721345 0.0030127333 0.056971278 0.10039162 -0.049599048 0.029256841 0.06796589
-0.012122843 -0.004605402 0.09146597 0.15405022 0.09541003 0.16185792 -0.001442371 -0.07985941
-0.04313534 -0.07097216 -0.12598939 0.011835707 0.15240954 0.0988424 0.019391032 0.06317332
0.018908765 0.14691529 -0.10753109 0.027094768 0.001728269 0.09903648 0.21206619 0.10675684
-0.09208777 0.13042663 -0.124791816 -0.056670345 -0.058039155 0.024240153 0.055721853 -0.007614665
0.03316021 0.07855473 -0.04778343 -0.0574021 -0.011150701 0.086722456 0.18670127 0.041664727
0.13108025 0.04959575 0.069949746 -0.059431046 0.07723999 0.07618101 0.12885427 0.06444037
-0.009060375 0.054642495 0.064573 0.005937903 -0.054957487 -0.06397137 0.04279157 -0.06785701
0.04700587 -0.12815225 -0.005153731 0.08281156 -0.056580197 -0.0720703 -0.095805615 -0.07318443
-0.050877783 -0.08015568 -0.16682981 0.0711807 0.10644613 -0.13248387 -0.069361314 0.054025006
-0.08587694 0.05530418 -0.09517792 -0.095329314 -0.1583642 0.088824764 -0.07515748 -0.09459865
-0.1235636 0.12011015 -0.035912823 0.019581517 -0.010601022 -0.08704221 0.04876436 -0.113744564
-0.101746395 -0.046284646 0.03918447 0.00065065705 0.04198453 -0.07256435 -0.029666446 -0.028408974
0.034237973 0.092715524 -0.07490747 0.080872916 0.2368315 -0.019112391 0.07846748 0.12335419
0.1062257 0.044956237 -0.09817782 -0.19761567 -0.001365755 0.10050687 -0.05599242 -0.12272148
0.08232726 -0.018941857 -0.08259054 -0.12819162 -0.074998006 -0.1542792 -0.0005586924 -0.13954931
0.16852815 0.023254996 0.026127223 0.053457633 -0.05813913 -0.10201867 0.18128075 0.042678427
0.07377291 0.090938136 -0.0034721047 -0.034573037 0.05475654 0.01959693 -5.491372e-05 -0.11825751
-0.012438995 -0.020051967 0.08136216 -0.124951355 -0.075090826 -0.05628256 0.08246113 -0.10057241
0.104729444 -0.00925587 -0.0344348 0.084719695 -0.026656978 -0.07977077 0.13734314 0.12647495
0.03369369 0.0072168526 -0.071066946 -0.15172534 0.13882647 -0.065242775 0.11073519 0.1301787
0.019160891 -0.06222072 -3.9557934e-05 5.0642566e-09 0.017399745 -0.14130405 0.046513423 -0.06899912
-0.017364468 0.10661213 -0.16204551 0.053331506 0.12618907 -0.0003201872 0.030363346 -0.035353586
-0.006976845 -0.13485314 -0.14496954 -0.0824171 -0.08672781 0.11286147 2.5978495e-06 -0.12783869
0.1864177 0.11740012 -0.0071954927 0.041349083 -0.15112393 -0.17470846 -0.13706155 0.08704002
-0.068541504 -0.10328933 -0.14127126 -0.13991666 0.24289665 0.13570267 -0.1681466 -3.9814e-10
-0.1455965 0.055839922 0.12985396 0.032828372 -0.10434953 -0.09550136 0.07103394 -0.091428354
-0.043582857 -0.03203928 -0.1084911 0.11947971 -0.14829108 -0.1520123 -0.022085808 0.0710075
0.106077045 -0.084621295 -0.17875847 0.01709615 -0.057392586 0.15959254 -0.12461087 0.1968174
0.08633249 0.122710064 0.09310003 0.2002584 0.102644585 -0.05835659 0.09302404 0.08547552

tcn.network.0.net.0.bias f4 [32]
00000000: 8dd9 00be b33f 2fbe 4439 a4bd 9ed7 763d
00000010: 342c 3bbe 6376 48be 7798 29be 72dc 6abd
00000020: e4fb d3bd 3537 bcbd 03db 1bbe 3f02 32bc
00000030: d284 433c b0d6 f2bd 8f5f d2bd 2b7d 5abd
00000040: a584 72bb 5985 f0b9 5690 3ebd 478d 26be
00000050: fdaa 6dbd 6fc3 90bc 103c 0abe bbcb 3ebd
00000060: 95c9 293d 7f5e 5abe 2022 2dbe a01a 6ebd
00000070: 723b 3b3d 7211 38bc 3e22 3f3d a5b1 663c
-0.12582989 -0.17114143 -0.08018735 0.060264222 -0.18278581 -0.19576411 -0.16562067 -0.05733914
-0.10350779 -0.091902174 -0.15220265 -0.010864793 0.011933522 -0.11857355 -0.102721326 -0.053342026
-0.0037005332 -0.0004587572 -0.04652437 -0.1626483 -0.058024395 -0.017671315 -0.13499475 -0.04658101
0.04145201 -0.2132511 -0.16907549 -0.05813086 0.04571099 -0.011234628 0.046663515 0.01408044

tcn.network.0.net.0.weight_g f4 [32, 1, 1]
00000000: 8c10 013f f378 493f 26fe 113f 35d1 0b3f
00000010: 4ab1 103f 518f 1f3f 7c77 363f 1cb9 133f
00000020: bde5 173f 2254 213f 3502 273f 31f8 143f
00000030: fcbe 123f 17d1 143f de9e 103f 7dd1 123f
00000040: d278 0b3f e851 043f e81a 153f 0766 0f3f
00000050: 001e 0f3f a2ab 453f 7eee fa3e 710a 0f3f
00000060: c94e f83e 70a0 433f b643 193f 6a78 123f
00000070: e008 093f d6b9 123f 4156 253f ec18 253f
0.50415874 0.7870018 0.57028425 0.546161 0.5652052 0.6232806 0.7127607 0.5770433
0.5933493 0.63019 0.6523774 0.5819121 0.5732267 0.58131546 0.5649241 0.57350904
0.5448123 0.5168748 0.5824418 0.56015056 0.5590515 0.77215016 0.4901008 0.5587531
0.48497608 0.76416683 0.59868944 0.5721499 0.5352917 0.57314813 0.6458474 0.6449115

tcn.network.0.net.0.weight_v f4 [32, 32, 2]
00000000: bc25 e23d a8e9 1ebe 3df6 fb3d e8ff 5cbc
00000010: a9ac 5abd 88cc c4bd 122c 633d cde5 c2bd
00000020: 06c0 c43d a356 92bd 51e0 0a3d 9712 29be
00000030: ed58 e13d e717 ae3d e65d 58bd 90b9 11bd
00000040: d275 a7bd 6489 6cbc 9255 3bbd 39ec 933c
00000050: a24f 0b3e 2ba0 10bd d58c 073c 3e1b ce3d
00000060: 5f1a 863b 6ee2 863b 9976 42bd a442 83bd
00000070: 5828 453c 6202 c43c a90f dd3d a557 a3bc
00000080: d371 873c 10f2 4b3d fbb8 fc3c 588b 2e3d
00000090: f92d e93d 11a6 b23d c3bc e8bd e5bc 15bc
000000a0: 7ce2 aa3c 4b6d c13d 75e7 1f3e 5b0e e6bc
000000b0: 4511 df3d 57b0 a0bd c5ae 38bd e74b babd
000000c0: 8627 303d 0a17 e33c 9542 c9bd 9a60 763c
000000d0: 6d43 cabb b659 533c 8abf b4bd c8ce ef3d
000000e0: b647 f53d 37fd 023e 3bc2 65bd 796c 363d
000000f0: f243 a43d 22b8 813d c1ec 0bbe e9e1 f7bd
00000100: 129d e23c cc13 4a3d 900a 0d3e 426e 703e
00000110: c536 82bd 01df babd e03d 063d 6aa8 8cbd
00000120: e1d7 a23d 6f8a 0e3e 5bb6 27bb f8a6 9c3d
00000130: 368f 70bd 5338 bdbd 64a2 a13d 105a d33d
00000140: c9fa f93d 9537 4e3d 780a 6d3e 1350 903e
00000150: 5439 c83d 33d9 a93e 7dbe 49be 8f9b 86be
00000160: 20b1 d63c f48f 883d e2c1 e1ba 559c 883c
00000170: 4779 a9bd c08c ab3b 1841 44bd 5b48 8dbd
00000180: a0d0 203e d428 893e 1578 223e 189a 2c3e
00000190: ea37 c8ba 0caa a33d f919 0d3e 2965 69bd
000001a0: c20f 46be 55ce 78be 9e93 013e 2305 a03e
000001b0: 20dd ab3d 00d9 0b3e 22ff c73d e51b e13c
000001c0: 5d28 db3d 888d 433d a724 c63d 89ec 613d
000001d0: 3b82 7d3d 888b 3e3e 19ae da3c 284d bfbb
000001e0: 3ad1 85bd ae60 17be 4c9d e0bd 74e4 b9bd
000001f0: e591 da3d 7cc1 91bd e364 faba 2475 4fbe
00000200: 9fa8 e33a 2806 a8bd 36e5 be3d c570 52bd
00000210: 6078 48bd e637 f4bd 22d3 86bc 7a1f 97bb
00000220: 9e63 e83d 9a47 d1bd 4cbe 78bd c1bc 7abc
00000230: b7ad 1a3c e347 b5bd 6d03 343d e07d 9c3c
00000240: 046c 9e3d 24ac 823d 598c 853c 4fb9 6cbc
00000250: 6a7d 4e3d 5a9a a93d 1799 b73d 971a dbbd
00000260: a4d8 d9bd cfdf b0bd 0ce9 56bd 385b 873d
00000270: 7e9e d1bc c6bd de3d 8e36 fa3d aa02 4a39
00000280: a898 633b f5ca d3bc 945e f33d 3866 6b3d
00000290: bf03 943c dc12 773d f0d6 ba3d f320 b13d
000002a0: 4f9b fb3d 17ea 9dbd 64c7 a43d ea23 463d
000002b0: 497d 9b3d 0dba 97bd 830f f4bc dcb7 e5bc
000002c0: 35b0 8b3d feb9 7a3c 2f69 a5bd 3951 613d
000002d0: bbf6 97bd fc7f cfbc 6c2c 9e3d c00d 923b
000002e0: 200a d0bd d75e 82bd bb95 dbbd 82b9 983d
000002f0: 26a2 e4bb d646 bebd 4342 cb3d 9409 5ebd
00000300: 4d1c 373d 2d47 58bc 9541 99bd a8bf 7f3c
00000310: b351 f8bd e6a6 043e fc49 d53d ef3b 8fbd
00000320: 410e 89bd e2d2 d33d 67c5 16be 089c df3c
00000330: 9e5b 1d3d aa95 0bbd 6f18 403d 30cf 31bd
00000340: 65b7 0b3e 42c8 52bd b93c 12bd 4dd9 213e
00000350: c784 d33c ee8d b6bc 55b7 a03d 6c6e cbbd
00000360: b53b 9c3d 3047 543d 9a37 4b3e 6b8a 15be
00000370: 070f 3bbe 6f39 e03d 910c 04bd 3331 573c
00000380: a7eb 733d 9f1d 51bd 0426 1bbd 9695 c13d
00000390: 8d26 8bbd 4180 6d3d ad69 7fbd 96a4 c4bd
000003a0: 2a8a 693c 7e03 393a 3ea0 833d 50cd 113e
000003b0: ccc0 03be 4123 80bd 0ebf 353e a1d4 f6bd
000003c0: 8935 4ebe b2e6 00be 8840 dc3d ef40 6cba
000003d0: 6b1e 823b 91d1 2d3d 0d8c 193d b420 da3d
000003e0: bd82 213e cec6 973d 5e27 77bd cf0c bdbd
000003f0: 0039 96bd 8884 2c3d 771c 7d3b dc56 0ebd
0.110423535 -0.1551882 0.123028256 -0.013488747 -0.053387318 -0.09609324 0.05546195 -0.09516487
0.09606938 -0.07145431 0.03390533 -0.16510998 0.11003289 0.08500653 -0.052823924 -0.035577357
-0.08176769 -0.014437053 -0.045735903 0.018056976 0.13604596 -0.035308998 0.008273323 0.1006379
0.004092499 0.004116348 -0.047476385 -0.06409195 0.0120335445 0.023926917 0.107940026 -0.019939253
0.016533768 0.049791396 0.030849924 0.042613357 0.11385722 0.08723081 -0.113641284 -0.009139274
0.02085995 0.09444674 0.15615638 -0.028083017 0.10891966 -0.07846134 -0.04508855 -0.090965085
0.043006442 0.027720947 -0.09827153 0.01503768 -0.0061725886 0.012899807 -0.08825596 0.11709362
0.119765684 0.12791906 -0.056093436 0.04453704 0.08020772 0.06333949 -0.13664533 -0.12103636
0.027662788 0.049335286 0.1377356 0.2347956 -0.06358103 -0.09124566 0.032773852 -0.0686806
0.07951332 0.13919996 -0.002559087 0.07649034 -0.058730327 -0.092392586 0.07892302 0.103199124
0.122060366 0.050345976 0.23148525 0.28186092 0.097765595 0.33173522 -0.19701572 -0.26290557
0.026207507 0.06668082 -0.0017223919 0.016676107 -0.08275085 0.0052352846 -0.04791364 -0.06898566
0.15704584 0.26788962 0.1586612 0.16855657 -0.0015275453 0.07991418 0.13779439 -0.05698124
-0.19341949 -0.2429746 0.12653968 0.3125392 0.083917856 0.13656998 0.097654596 0.027479121
0.10701058 0.047742397 0.0967496 0.055157218 0.061891776 0.18607914 0.026694344 -0.005838055
-0.065340474 -0.14782974 -0.10967502 -0.09076777 0.106723584 -0.07116982 -0.0019103553 -0.2025953
0.0017368979 -0.08204299 0.09321062 -0.051377077 -0.048942924 -0.11924724 -0.016458098 -0.0046119066
0.113471255 -0.10218735 -0.060728356 -0.0153037915 0.009440831 -0.08851602 0.04394858 0.01910299
0.07735446 0.063804895 0.016302275 -0.014448478 0.050412573 0.08281393 0.089647464 -0.10698431
-0.10637024 -0.08636438 -0.052468345 0.066091955 -0.02558827 0.1087604 0.12217437 0.00019265214
0.0034728441 -0.025853613 0.11883274 0.05747053 0.018068193 0.06032072 0.09123027 0.08648863
0.12285482 -0.07710665 0.08045843 0.048374094 0.075922556 -0.07408533 -0.029792553 -0.028041773
0.06820718 0.015303133 -0.08076703 0.0550091 -0.07420107 -0.025329582 0.077233166 0.0044572055
-0.10158181 -0.063657455 -0.10721918 0.07457258 -0.0069773374 -0.09290855 0.09924748 -0.054208353
0.044704724 -0.013200563 -0.07483212 0.015609659 -0.12124958 0.12954292 0.10414502 -0.06993853
-0.06692172 0.10342957 -0.1472374 0.027296081 0.03841745 -0.034078278 0.0468983 -0.04341048
0.13644178 -0.051460512 -0.03570244 0.1580555 0.02582015 -0.022284474 0.07847468 -0.09933171
0.07628576 0.051825702 0.19845429 -0.14603584 -0.18267451 0.109484546 -0.032238547 0.013134289
0.059550907 -0.05105364 -0.03787805 0.094523594 -0.06794462 0.05798364 -0.06235664 -0.09601705
0.014254132 0.00070577103 0.06427048 0.14238477 -0.12866515 -0.06256724 0.17748663 -0.120522745
-0.2013761 -0.12588003 0.10754496 -0.00090123614 0.0039709113 0.042436186 0.03748708 0.10650769
0.15772529 0.07410966 -0.060340278 -0.09230959 -0.07335091 0.04211858 0.0038621703 -0.034750804

tcn.network.0.net.4.bias f4 [32]
00000000: 0a24 c1bd 4ada 1e3e 443f c13c 18ce 2ebd
00000010: a16c 45bc 6ac3 8cbd f106 d93c 2d46 00bd
00000020: 3390 8bbb f427 c53d 27e7 08bd e8a7 e03d
00000030: 3621 a13d 699f 0abe ee5e 7e3e 2b5f 3b3d
00000040: 916a 1ebe 27b5 ddbc 14be 9bbc 3d17 8bbd
00000050: 6a61 38bd ccb9 373d e334 b83d fcb1 2cbd
00000060: 8139 8f3d b081 e23c 4e49 0d3c 3094 52bd
00000070: a970 053e 29e7 903c 924c c9bd 7790 87bb
-0.09430702 0.15512958 0.023589738 -0.042677015 -0.012049825 -0.0687321 0.026492568 -0.031316925
-0.0042591332 0.09626761 -0.03342357 0.109695256 0.078676626 -0.13537373 0.248409 0.045745056
-0.1547034 -0.02706392 -0.019011535 -0.06791542 -0.045014776 0.044854924 0.08994462 -0.042161927
0.0699339 0.02764973 0.008623434 -0.051410854 0.13031258 0.01768835 -0.09829058 -0.0041370946

tcn.network.0.net.4.weight_g f4 [32, 1, 1]
00000000: 0edb 0f3f df36 263f 7f94 e63e 6c97 f23e
00000010: 655a 1c3f f365 0c3f 76da 0d3f d164 123f
00000020: ee7e 0e3f f21e 143f 4b45 153f 75de 303f
00000030: 8dba 233f d6e0 1e3f 6ea7 1a3f 3761 1c3f
00000040: 8236 013f 5941 153f 8824 323f b5c7 fa3e
00000050: 115d 013f f831 263f 8410 043f d351 173f
00000060: f2a9 ef3e b1bf 203f 0798 1d3f bc29 043f
00000070: a232 0a3f f005 ff3e f6eb 183f 0049 063f
0.56193626 0.64927477 0.4503517 0.4738115 0.6107543 0.5484306 0.5541147 0.57185084
0.5566243 0.5785972 0.5830886 0.6908944 0.6395653 0.6206182 0.6041173 0.6108584
0.504738 0.5830284 0.6958699 0.4898049 0.50532633 0.64919996 0.515877 0.5910923
0.46809345 0.627925 0.615601 0.5162618 0.5398351 0.49809217 0.5973505 0.5245514

tcn.network.0.net.4.weight_v f4 [32, 32, 2]
00000000: e27a c13d 1377 21bd 78c7 00bd 4244 37bd
00000010: b5a6 d4ba ef54 863c ecaf d23c 639e dc3c
00000020: f0bd 02bd 4667 c03d 1b84 0ebe 05c5 94bd
00000030: ba30 67bb 8687 a2bd dc9d 1fba 7251 78bd
00000040: 6b25 5ebd 35a7 89bd 4771 453b b75a 693d
00000050: 1f9a cd3d 5f28 4bbd 0bac ef3c b331 8b3d
00000060: e49e 46bc e9e8 96bb 8352 bb3d 57bf 1d3e
00000070: 5566 c33d 15be 253e f10d bdba 558d a3bd
00000080: afae 30bd da59 91bd 5d03 01be 8eea 413c
00000090: 3f11 1c3e e26d ca3d f1d9 9e3c 0361 813d
000000a0: 8ee6 9a3c f670 163e 4339 dcbd d9f5 dd3c
000000b0: 1687 e23a a3d3 ca3d e127 593e 55a3 da3d
000000c0: 8398 bcbd 8f8e 053e da92 ffbd 2a1f 68bd
000000d0: 77ba 6dbd 4993 c63c 993c 643d 7184 f9bb
000000e0: 00d3 073d 4de1 a03d 8fb8 43bd 771e 6bbd
000000f0: 6eb1 36bc 8b9b b13d 9e2e 3f3e a2a8 2a3d
00000100: e739 063e ea24 4b3d d041 8f3d f86d 73bd
00000110: 0030 9e3d ca04 9c3d 60f2 033e 50f9 833d
00000120: f871 14bc cfd0 5f3d d93e 843d be92 c23b
00000130: 1a1b 61bd 6c03 83bd 3746 2f3d 9ef8 8abd
00000140: 3a89 403d 583a 03be a1e0 a8bb 1b99 a93d
00000150: a3c0 67bd 9899 93bd bc35 c4bd b8e1 95bd
00000160: 3965 50bd a928 a4bd 6fd5 2abe 30c7 913d
00000170: 6e00 da3d daa9 07be 4e0d 8ebd 5349 5d3d
00000180: 40e0 afbd a386 623d a4ec c2bd 043c c3bd
00000190: 3a2a 22be c2e9 b53d 2aec 99bd f0bc c1bd
000001a0: ea0e fdbd 4ffc f53d 5319 13bd 6b69 a03c
000001b0: e9af 2dbc 3043 b2bd 23bd 473d e9f2 e8bd
000001c0: 6a60 d0bd f894 3dbd e57f 203d db90 2a3a
000001d0: f8f7 2b3d 9e9c 94bd 0c07 f3bc f0b9 e8bc
000001e0: 1e3d 0c3d a3e1 bd3d 1669 99bd b3a0 a53d
000001f0: f583 723e 9791 9cbc 8fb3 a03d 1fa1 fc3d
00000200: dc8c d93d 0824 383d 7411 c9bd c35b 4abe
00000210: 2203 b3ba 8cd6 cd3d 4f58 65bd 6655 fbbd
00000220: 329b a83d f42b 9bbc 3b25 a9bd aa44 03be
00000230: 8e98 99bd 5efb 1dbe 3675 12ba 04e6 0ebe
00000240: a592 2c3e 4381 be3c c208 d63c 64f6 5a3d
00000250: 4c23 6ebd 2aef d0bd a9a1 393e 93cf 2e3d
00000260: 4016 973d c63d ba3d 408c 63bb 759c 0dbd
00000270: 6548 603d be89 a03c 2853 66b8 fe30 f2bd
00000280: edcc 4bbc 0644 a4bc 34a1 a63d 7fe6 ffbd
00000290: 38c9 99bd 8b88 66bd 62e1 a83d e8f8 cdbd
000002a0: 647c d63d efa5 17bc 810b 0dbd 8581 ad3d
000002b0: bc5f dabc dc5e a3bd aea3 0c3e a682 013e
000002c0: 6502 0a3d 597b ec3b 8c8b 91bd e35d 1bbe
000002d0: 8728 0e3e 019e 85bd 22c9 e23d 914d 053e
000002e0: 4df7 9c3c 27db 7ebd 02eb 25b8 ac01 ae31
000002f0: e989 8e3c 02b2 10be dc84 3e3d 694f 8dbd
00000300: ee3f 8ebc 7657 da3d 42ef 25be 2372 5a3d
00000310: b537 013e ccde a7b9 8dbc f83c ecce 10bd
00000320: 059e e4bb f116 0abe e572 14be 4cca a8bd
00000330: 5a9e b1bd ea23 e73d b756 2e36 25e8 02be
00000340: 48e4 3e3e 796f f03d 2bc8 ebbb a85d 293d
00000350: 3bc0 1abe c6e6 32be dd59 0cbe 0a42 b23d
00000360: 7d5f 8cbd 5b89 d3bd 6aa9 10be 5046 0fbe
00000370: e6b9 783e a4f5 0a3e 9f2e 2cbe 39e1 daaf
00000380: 4017 15be 67b8 643d 70f8 043e 0b77 063d
00000390: 35b5 d5bd 3896 c3bd 3e7a 913d ca3e bbbd
000003a0: f083 32bd 9f3b 03bd 9530 debd c7b1 f43d
000003b0: 9ed9 17be 1da9 1bbe 4ced b4bc 616c 913d
000003c0: ec3e d93d ee4d adbd 760c 37be 3a0d 8c3c
000003d0: 7d14 6bbd 3a6c 233e fc33 ffbd 808a 493e
000003e0: 17cf b03d 6a4f fb3d 3bab be3d 8a10 4d3e
000003f0: 5337 d23d 5207 6fbd 6383 be3d ca0d af3d
0.09447266 -0.0394202 -0.03144023 -0.04474283 -0.0016223999 0.016397921 0.025718652 0.026930993
-0.03191942 0.09394698 -0.13917582 -0.07264141 -0.0035276846 -0.07936005 -0.00060888915 -0.060624547
-0.054234903 -0.06721345 0.0030127333 0.056971278 0.10039162 -0.049599048 0.029256841 0.06796589
-0.012122843 -0.004605402 0.09146597 0.15405022 0.09541003 0.16185792 -0.001442371 -0.07985941
-0.04313534 -0.07097216 -0.12598939 0.011835707 0.15240954 0.0988424 0.019391032 0.06317332
0.018908765 0.14691529 -0.10753109 0.027094768 0.001728269 0.09903648 0.21206619 0.10675684
-0.09208777 0.13042663 -0.124791816 -0.056670345 -0.058039155 0.024240153 0.055721853 -0.007614665
0.03316021 0.07855473 -0.04778343 -0.0574021 -0.011150701 0.086722456 0.18670127 0.041664727
0.13108025 0.04959575 0.069949746 -0.059431046 0.07723999 0.07618101 0.12885427 0.06444037
-0.009060375 0.054642495 0.064573 0.005937903 -0.054957487 -0.06397137 0.04279157 -0.06785701
0.04700587 -0.12815225 -0.005153731 0.08281156 -0.056580197 -0.0720703 -0.095805615 -0.07318443
-0.050877783 -0.08015568 -0.16682981 0.0711807 0.10644613 -0.13248387 -0.069361314 0.054025006
-0.08587694 0.05530418 -0.09517792 -0.095329314 -0.1583642 0.088824764 -0.07515748 -0.09459865
-0.1235636 0.12011015 -0.035912823 0.019581517 -0.010601022 -0.08704221 0.04876436 -0.113744564
-0.101746395 -0.046284646 0.03918447 0.00065065705 0.04198453 -0.07256435 -0.029666446 -0.028408974
0.034237973 0.092715524 -0.07490747 0.080872916 0.2368315 -0.019112391 0.07846748 0.12335419
0.1062257 0.044956237 -0.09817782 -0.19761567 -0.001365755 0.10050687 -0.05599242 -0.12272148
0.08232726 -0.018941857 -0.08259054 -0.12819162 -0.074998006 -0.1542792 -0.0005586924 -0.13954931
0.16852815 0.023254996 0.026127223 0.053457633 -0.05813913 -0.10201867 0.18128075 0.042678427
0.07377291 0.090938136 -0.0034721047 -0.034573037 0.05475654 0.01959693 -5.491372e-05 -0.11825751
-0.012438995 -0.020051967 0.08136216 -0.124951355 -0.075090826 -0.05628256 0.08246113 -0.10057241
0.104729444 -0.00925587 -0.0344348 0.084719695 -0.026656978 -0.07977077 0.13734314 0.12647495
0.03369369 0.0072168526 -0.071066946 -0.15172534 0.13882647 -0.065242775 0.11073519 0.1301787
0.019160891 -0.06222072 -3.9557934e-05 5.0642566e-09 0.017399745 -0.14130405 0.046513423 -0.06899912
-0.017364468 0.10661213 -0.16204551 0.053331506 0.12618907 -0.0003201872 0.030363346 -0.035353586
-0.006976845 -0.13485314 -0.14496954 -0.0824171 -0.08672781 0.11286147 2.5978495e-06 -0.12783869
0.1864177 0.11740012 -0.0071954927 0.041349083 -0.15112393 -0.17470846 -0.13706155 0.08704002
-0.068541504 -0.10328933 -0.14127126 -0.13991666 0.24289665 0.13570267 -0.1681466 -3.9814e-10
-0.1455965 0.055839922 0.12985396 0.032828372 -0.10434953 -0.09550136 0.07103394 -0.091428354
-0.043582857 -0.03203928 -0.1084911 0.11947971 -0.14829108 -0.1520123 -0.022085808 0.0710075
0.106077045 -0.084621295 -0.17875847 0.01709615 -0.057392586 0.15959254 -0.12461087 0.1968174
0.08633249 0.122710064 0.09310003 0.2002584 0.102644585 -0.05835659 0.09302404 0.08547552

tcn.network.0.downsample.weight f4 [32, 32, 1]
00000000: e025 8ebc c4aa 2e3e 9cd4 60be e388 5d3e
00000010: c707 cf3d e629 58be 6cbe 9a3e 44b4 073e
00000020: d6da ee3d 3742 9a3c fe76 783c 5618 103e
00000030: 7fcd babd c08a 00bd 415f 443d 1104 013d
00000040: da5f ecbc 2672 293d 528a ccbd b3ca 823c
00000050: 5edf f53d 7174 4b3c 4565 45bd 7e92 283e
00000060: 8955 033e 7e64 c8bc e095 c8bc 3d4b 053d
00000070: 1b9b f7bd 0cf8 26bd 5011 013e 4eee 0cbe
00000080: c97b e83d 3f0b 523d b9d6 a6bd 49f5 853d
00000090: c28c 4c3e 02fe 3c3e f3bc 7f3d f896 e53c
000000a0: 1c80 2bbc 51bc dd3c b0b2 0d3e ac97 32be
000000b0: f73b 443e 4341 e73c 8f4e c03d 0bfc 8b3b
000000c0: 58fa 313d 895b f13b 45ca 803e 0720 183e
000000d0: aabf c03d e5a5 2b3e 5735 9c3d 69ab ccbd
000000e0: f8cd 443e 915c 303e 8e8f 84bd 9892 49be
000000f0: 279f fe3c 5f15 24be 7644 f9bd 1922 17be
00000100: 6d93 243e 6df0 093e d52c fa3c b68c b0bd
00000110: 2ed4 08be bc3f 553d 68ae 28bd 2762 873d
00000120: 057d 0bbe 12d3 703d 1502 1e3b 119d 2ebd
00000130: a3ff 563e 8807 9bbd 987b 2b3e 9c69 c5bd
00000140: b4c6 b3bd 165d 813d 6e83 843d 81fb c6bd
00000150: 1673 e5bd 7383 1c3e 02ff 14be 7513 79be
00000160: f5b0 753e 977e d1bd 94f6 f1bd 5533 42be
00000170: d6ba 813c 87fe c6bd 3efb 863d 0553 f73d
00000180: 599a d23d 9f5d 24be 00b8 51be d107 293d
00000190: 2ef8 11be 465b 42be 7aae d3bd b91c 21be
000001a0: bd17 febd e216 543d aaf4 0e3e 0efd 82bd
000001b0: 11e8 6bbe e6f4 333e d914 8dbd ebf4 253e
000001c0: 3888 e93d 9419 64bd e025 a73d 2c67 b4bd
000001d0: a0f2 83bd 6445 7ebd 0089 1ebe a162 ee3d
000001e0: 708f d7bd 6e96 be3d 470b 0bbd 6782 bd3d
000001f0: 4a51 913e 5388 07be 0752 fabd 10ab fa3d
00000200: 4846 95bd a5e7 3f3d db5a a43d 1b1e 4c3d
00000210: 61fd b83d 9558 6a3e d3d6 ecbd a69f b53d
00000220: aea9 933d 904b f2bd d3b2 c93d 9ce2 2bbd
00000230: 2634 cbbd 5194 f2bd a3b7 583e 43f9 cfbd
00000240: 79f5 143e f713 633d 3fdf c93d f6a0 17be
00000250: 7d36 cabc fcda babd ea2d 353e 86d6 32be
00000260: a0f7 1abc 7564 f8bc 877b 8d3d 6ac7 f5bd
00000270: 4f9a 07be adb1 b7bd 1bdf 50be b38e 06be
00000280: e0fc 4bbe 9b49 25bd 91a2 85be b581 1ebc
00000290: ce98 653b 683f 56be b8d5 433e 4d79 aebd
000002a0: b8c6 07be 7a77 da3c a292 6ebe 1f4f 353d
000002b0: ac33 1dbe 60c9 053e e53a e23c 6557 3f3e
000002c0: 07ca 66be 1c8d 41be 2048 7bbe e2ea ecbd
000002d0: 5551 35bd 91ff cf3d e512 4ebe bfe1 9c3e
000002e0: 20a4 18be 66cf 21be 272d 8e3d 360d 853e
000002f0: f454 c73d 3d15 be3c 183c 043e bacc 593e
00000300: 4083 253e 57de 8abd 492a 1f3d 3737 3abd
00000310: 3b62 c53c 18ba 4bbd f3de ee3c 215a c1ba
00000320: adf4 04be 02c1 8fbd 5456 293e c13a 10bd
00000330: 3cbc 27bb cf3d 2b3e da32 083e 71c1 933c
00000340: 81f4 0cbe 7177 f23d 8e93 30be 4982 e0bd
00000350: 9604 1f3e 07a4 91bd 8675 cebd e3a9 b5bd
00000360: 6d74 5dbe 284f f63d 8019 11bd 8aea 65bd
00000370: cc4e 103e 256b aebd 531a 543d cbf4 f53d
00000380: 0312 4abd 45fd dfbc a189 753e ff8b 053c
00000390: 1684 b4bd 8a8f 993e 35bb e8bd 1328 4cbd
000003a0: 07f6 51bd 193b 2bbe c591 dc3d 7f36 34be
000003b0: eed4 60bd 79bc 6fbd c6ac 1b3e f0aa 8a3b
000003c0: 7a1e f4bd 6ed2 f13d 4194 d13d 9850 d83d
000003d0: d91c 99bd 1af7 cabc aa10 513d 5af5 26bd
000003e0: 4024 993d b266 4abd 6fdb 93bd e986 02be
000003f0: 9d19 8cbe 9fa4 8ebd 3337 5cbe 842c 1a3e
-0.017352045 0.1705733 -0.21956104 0.2163425 0.10108905 -0.21109733 0.30223405 0.1325236
0.116628334 0.018830402 0.015165089 0.14071783 -0.091212265 -0.031382322 0.047942404 0.03149802
-0.0288543 0.041368626 -0.0998732 0.015965795 0.120054945 0.0124178985 -0.04819228 0.16462132
0.12825598 -0.02446198 -0.024485528 0.032542456 -0.12090131 -0.0407639 0.1260426 -0.13762781
0.11351735 0.051280256 -0.08146424 0.06540925 0.1997557 0.18456271 0.062436055 0.02802609
-0.010467555 0.027067335 0.13837695 -0.1744067 0.191635 0.028229361 0.09389984 0.004271989
0.043451637 0.007365648 0.2515432 0.14855967 0.09411557 0.16762502 0.07627361 -0.099936314
0.19219196 0.17222811 -0.064726934 -0.19684827 0.03108175 -0.16023777 -0.12171261 -0.14759101
0.16071863 0.13470621 0.030538956 -0.086205885 -0.1336219 0.052062735 -0.04118195 0.06610518
-0.1362191 0.058795042 0.0024110128 -0.04263026 0.20995955 -0.07569796 0.16746366 -0.09639284
-0.08778134 0.06316583 0.06470381 -0.09715939 -0.112035915 0.15284519 -0.14550403 -0.24323829
0.23993285 -0.10229223 -0.11814609 -0.18964894 0.01583616 -0.09716516 0.065908894 0.120763816
0.10283346 -0.16051339 -0.20480347 0.04126722 -0.1425483 -0.1898013 -0.10336013 -0.15733613
-0.124068715 0.051779635 0.1396052 -0.063959226 -0.23037745 0.1757389 -0.06888742 0.1620671
0.11402935 -0.055688456 0.08161521 -0.08808741 -0.064427614 -0.062077895 -0.15481949 0.11639906
-0.105254054 0.09306036 -0.0339463 0.09253388 0.2838233 -0.13235597 -0.12222677 0.12239659
-0.07288796 0.046851773 0.08025142 0.0498334 0.09032703 0.22885354 -0.11564412 0.08868341
0.07210098 -0.11830819 0.09848561 -0.04196416 -0.09922056 -0.11844695 0.21163802 -0.10154965
0.14546765 0.05543896 0.09857034 -0.14807495 -0.024684185 -0.09123799 0.17693296 -0.17464647
-0.009458452 -0.03032134 0.069083266 -0.12000926 -0.13242458 -0.08969436 -0.20397608 -0.13140373
-0.19920683 -0.0403534 -0.2610059 -0.009674479 0.0035033706 -0.20922625 0.19124496 -0.0851923
-0.13259399 0.026668299 -0.23298123 0.04426491 -0.15351743 0.130651 0.027615974 0.18685682
-0.22538005 -0.18901485 -0.24539232 -0.11568238 -0.044267017 0.10156167 -0.20124395 0.3064098
-0.14906359 -0.15801772 0.06942206 0.25986642 0.097330004 0.023203487 0.12913549 0.21269503
0.16163349 -0.06780689 0.038858686 -0.045462813 0.024094692 -0.04973802 0.029159045 -0.0014751592
-0.12983961 -0.07019235 0.16536838 -0.035212282 -0.0025594374 0.16722797 0.13300648 0.018036576
-0.13765146 0.11839188 -0.17243788 -0.1096235 0.15529093 -0.07111364 -0.100810096 -0.08870294
-0.21626444 0.120268166 -0.03542471 -0.056131877 0.14092559 -0.0851653 0.051782917 0.12009581
-0.049333584 -0.027342448 0.23978283 0.008151053 -0.08814256 0.29992324 -0.11363832 -0.049842905
-0.05126002 -0.16721763 0.10769991 -0.17598914 -0.054890566 -0.05852935 0.15202627 0.004231803
-0.119198754 0.118077144 0.10233355 0.10562247 -0.074762054 -0.02477603 0.051041283 -0.04076133
0.07477617 -0.049414344 -0.07219588 -0.12746777 -0.2736329 -0.06964993 -0.21505432 0.15056044

tcn.network.0.downsample.bias f4 [32]
00000000: 56ec b73d 8d11 23be a427 a1bd e1bb 133e
00000010: eb51 5d3c 6b96 f2bd 5237 e0bd ed8f 483d
00000020: 0300 883d 8e5f 2f3d dbb8 01be b401 4cbe
00000030: 744b 1d3e d641 ab3d 21e1 123d 1f62 2dbd
00000040: b9be 3fbe 4a87 67bd cf56 c6bd 589d a8bd
00000050: 2c89 f3bd d776 393e 9fac f33d a56d 71bd
00000060: b5df b73b 0e4d c63d 69f0 0abe d576 d5bd
00000070: 0524 1ebe c748 073e 01bc 2cbe 045d 5e3d
0.089806244 -0.15924664 -0.07868889 0.14427139 0.0135083 -0.11845096 -0.109480515 0.048965383
0.06640627 0.042815737 -0.12668173 -0.19922525 0.15360814 0.083621666 0.03585923 -0.042329904
-0.18725099 -0.056525506 -0.09684526 -0.08233136 -0.11891398 0.1811174 0.11898159 -0.058942456
0.0056113848 0.09682666 -0.13568272 -0.10423056 -0.15443428 0.13211356 -0.16868593 0.054287925

tcn.network.1.conv1.bias f4 [32]
00000000: c60e 68bd e2da c0bc fc02 04be ca85 abbd
00000010: 603a 003e 13e5 413d f2a5 e43d e485 11bd
00000020: 99e9 c7bc c8e9 d9bd 9f21 943d c19b 77bc
00000030: b7a8 2b3d ab46 81bc 7aa0 03be b55c debd
00000040: 2e66 22bd 3f71 e9bd e16b b83d 982d e4bd
00000050: c222 6d3d 0977 2b3b 4040 75bc 21a7 f3bd
00000060: d8fc d53b 8839 0fbe 9b15 d33d 2dac 37bd
00000070: bf9e 0cbc c84e cfbc 6584 103e 238d f2bb
-0.056654714 -0.023541871 -0.12891763 -0.083751276 0.12522268 0.047337603 0.11164464 -0.03552808
-0.02440338 -0.10640293 0.07232975 -0.015112818 0.041908946 -0.015780767 -0.12854186 -0.10857526
-0.039648227 -0.11398553 0.09004951 -0.11141509 0.057894476 0.002616348 -0.014968932 -0.11897112
0.0065303855 -0.1398679 0.10306855 -0.044841934 -0.00858277 -0.02530612 0.14113005 -0.0074020787

tcn.network.1.conv1.weight_g f4 [32, 1, 1]
00000000: 5b13 123f 90d0 113f 17e3 493f 450d 153f
00000010: e91b 0f3f b9c4 3a3f 366e 383f 4fe0 323f
00000020: da0b 123f 5a4c 0c3f 2ac1 283f 4a6a 103f
00000030: a771 143f 976b 393f 664e 0f3f ff73 333f
00000040: 4b7c 163f 4ce0 143f 84f8 1c3f e301 193f
00000050: ec6f 2f3f cc11 073f dc98 263f 1feb 183f
00000060: 58b5 2c3f 225c 0a3f 1673 083f 7c63 233f
00000070: f1cc 113f d7da 1b3f e512 103f fc7d 1c3f
0.57060784 0.56958866 0.78862137 0.5822337 0.5590196 0.72956425 0.7204317 0.6987352
0.57049334 0.54804003 0.65919745 0.56412184 0.5798592 0.72429794 0.55979 0.7009887
0.58783406 0.5815475 0.61316705 0.59768504 0.68530154 0.5276153 0.65076995 0.59733766
0.6746421 0.54046834 0.5330061 0.63823676 0.5695334 0.608808 0.5627883 0.61129737

tcn.network.1.conv1.weight_v f4 [32, 32, 2]
00000000: 8663 50bd bff1 a5bd 975e 64bc 5efa 403d
00000010: b661 b9bd 00fe 703c 6b29 34bd 2f28 343c
00000020: 0113 d53c e961 2abd 1db2 723d ba92 973d
00000030: e8df 83bd ab4d 02be 4802 fe3d afcc 98bd
00000040: f1a2 0d3d 24c1 a33c e88c 873d f046 e63d
00000050: 9fdc 8cbd 79a6 c5bd ac4b 003c a90b 1ebe
00000060: 1467 c7bd 9181 cdbd 10f6 553d 9112 1abd
00000070: a48b a9bd 5c0d 01bd 2666 30bd c7a1 07be
00000080: a82a 23bd 8131 86bd c693 d93d 9cc0 36bd
00000090: 96d8 9ebd ec28 14be 8396 ba3c b710 d2bd
000000a0: 8a86 00bb a6b1 c43d a4ba a2bd 85ac 023d
000000b0: 0b07 ba3d cdde 0ebe 3330 82bd 2b7b 8a3d
000000c0: 44a6 58bd c65a db3c 0169 8f3c 5481 fd3c
000000d0: e296 573d 6334 333c 04a0 5c3d f44a 8bbc
000000e0: f955 dd3c 5e82 8a3d 91c8 eebd 418d f33d
000000f0: bb47 c4bc 4cb8 c2bc 6c5c f13c c437 03be
00000100: 3188 1c3d e2a7 de3c 1c6b 02be 4b97 2e3d
00000110: 9f4f 19bd 0f71 a4bd 3262 873c 2e20 97bd
00000120: e671 b1bd 87e3 11be 9dbd b23c 5f18 a23d
00000130: c256 0abe 3c53 f7bd d678 dbbd 19ef 11bd
00000140: 90d3 163d bb67 b23d 04af 0fbe abdd 9fbd
00000150: 0dc0 a6bd 50f5 643d ef42 da3c 76f8 973d
00000160: fe39 1cbc 73e3 dcbd 0988 7e3d 30f0 0fbd
00000170: 9185 c9bd 9371 3638 c4c2 433d fe35 b6bd
00000180: 482a 8cbc 3587 513d 42b5 0e3d 3f6c 963d
00000190: 6461 e6bb 36cf a13d 1b62 973d 8c8f b93d
000001a0: ed59 6bbd b3ab c73b 9bef a4bd 38e7 00be
000001b0: 5891 60bd 803d cfba 71a9 8fbd 4c24 6cbd
000001c0: f148 3fbd d1c4 8fbd efd1 0ebe b66b 7c3d
000001d0: 7293 93bd 916d a2bd 0f22 aabc 1c93 a0bd
000001e0: b756 cb3d 91a3 c5bd 2211 933c c4ff 2ebd
000001f0: 17f9 d13d 268f 5f3d fba6 823d d21d 0dbe
00000200: 7218 5dbd 1c96 2a3c 87df bc3b fd69 55bc
00000210: 3124 a3bc e2dd 0fbd 19af f8bd 0a27 a53d
00000220: a48d 543c 41a3 f9bb b698 16be 89eb 2d3e
00000230: 4524 38bd 6dbd 5e3d 3367 873d daa1 99bd
00000240: efd5 00bd 6808 f23a d713 b4bc 6c06 a9bc
00000250: e862 4abe 26aa 1b3e d2a1 dcbd 4971 90bc
00000260: aa33 37bd 95a4 73ba bf30 15bd 786a 55bc
00000270: a20a 72bc 2e9c 6cbd f9c4 05be 3326 b23d
00000280: 587a b5b9 4081 48bb 57cb 05bb 1aaa a73b
00000290: 18db fcbd c94d 82bc 1023 3f3b e27a 2fbb
000002a0: 48a0 81bc f521 7dbb 935a 80bb a1bd 35bd
000002b0: 643d 02bd 8d62 8b3d 26ab 1abd 6a73 a63c
000002c0: 1c4f 12be a084 9c3d ad44 073d bdaf 983c
000002d0: b313 fa3c fcf2 75bd 0eda 2ebe d0c3 383e
000002e0: 743e ee3b 2442 d7bb dd59 1bbe 5160 053e
000002f0: ebb4 8c3c c780 563b d20a 443d a3b8 77bd
00000300: c6c2 883d c296 b3bd e616 6cbd a00c 90bc
00000310: a60c d0bd 4a79 5dbd a392 223c ac50 25be
00000320: 497f 93bd d67a 0fbd 060e bdbb c133 253d
00000330: 03c9 36be 311d 9abd a09e aebd cc4e bfbc
00000340: 876b 99bc 2851 ae3d f210 b1bd 5c7e 043d
00000350: 35f5 e2bd 36dd 013d a7ef 60bd 1c8a 6f3d
00000360: d129 8bbd 1304 423d 8cc2 15be 27f7 07be
00000370: bfbc 0bbe 11d0 b13c 37f0 a5bd 6aac e03c
00000380: 7373 02be 5178 103c 2be4 d0bd f7f9 813d
00000390: b87e 3dbe 58b5 33be 9e70 8cbd df3a 893d
000003a0: d369 573d a363 10be 096c 3abd 950e babc
000003b0: dc33 3dbd 7cb2 433c 7094 3dbd 0937 41ba
000003c0: aa5d 1ebb baaa d23c 8200 debd 89c1 993d
000003d0: 7b9f bfbd d49d 38bd c1d4 383d 40af 693d
000003e0: c43c dcba e4dc 963d 3170 acbd 2370 093c
000003f0: 13c5 a6bc 658a 263e dae4 013d 9ced 13be
-0.050876163 -0.0810275 -0.013938568 0.04711377 -0.0905184 0.014708996 -0.04398481 0.010995909
0.026010038 -0.04159728 0.059251893 0.07401033 -0.06439191 -0.1272494 0.12402779 -0.07460915
0.03457922 0.019989558 0.066186726 0.11243999 -0.06878018 -0.09650893 0.007830542 -0.15434135
-0.097364575 -0.100344785 0.052236617 -0.037615363 -0.082785875 -0.03150688 -0.043066166 -0.13245307
-0.039835602 -0.06552411 0.10623889 -0.04461728 -0.07756154 -0.14468735 0.022776848 -0.10257094
-0.0019611442 0.09604196 -0.07945755 0.03190281 0.090833746 -0.13952179 -0.063568495 0.06761774
-0.05289294 0.026776683 0.017506124 0.030945458 0.052634127 0.010937783 0.05386354 -0.017003514
0.027018534 0.06763147 -0.11659349 0.118921764 -0.023959985 -0.02376952 0.029463015 -0.12814242
0.03821582 0.027179662 -0.12736171 0.042624753 -0.03742945 -0.08029377 0.016526315 -0.07379185
-0.086643025 -0.14246951 0.02181893 0.07914805 -0.13509658 -0.120764226 -0.10716407 -0.035628412
0.036822855 0.08711191 -0.14031607 -0.07805952 -0.081420995 0.05589801 0.026643245 0.07420437
-0.009535311 -0.1078557 0.062141452 -0.03514117 -0.09839929 4.3497956e-05 0.047793165 -0.08897017
-0.017110005 0.051154334 0.03484083 0.07344865 -0.007030653 0.079008505 0.07391759 0.090605825
-0.057458807 0.006093466 -0.080535136 -0.12588203 -0.05482611 -0.0015811175 -0.0701474 -0.057651803
-0.04670042 -0.070199616 -0.13947271 0.06162616 -0.07205857 -0.079310544 -0.020768194 -0.07840559
0.09928649 -0.096503384 0.017952505 -0.042724386 0.10252588 0.054579876 0.06379505 -0.13780907
-0.05397839 0.010411765 0.005763951 -0.013025758 -0.019914718 -0.035123713 -0.12142772 0.08064087
0.012973223 -0.0076183383 -0.14706692 0.16984381 -0.044956464 0.05437987 0.066114806 -0.07501574
-0.031454023 0.001846564 -0.021982117 -0.020632945 -0.19764292 0.15201625 -0.10773052 -0.017632144
-0.044727005 -0.0009294239 -0.03642344 -0.013025872 -0.014773043 -0.057766132 -0.1306342 0.08698692
-0.00034614163 -0.0030594617 -0.002041539 0.0051167132 -0.12346476 -0.015906231 0.0029165186 -0.0026776125
-0.015823498 -0.0038624976 -0.0039170473 -0.044370297 -0.031796828 0.068059064 -0.037760876 0.020318706
-0.1428799 0.07642484 0.03302448 0.018638486 0.030526971 -0.06004618 -0.17075369 0.18043447
0.0072706286 -0.006569164 -0.15170999 0.13025023 0.017176112 0.0032730566 0.04786188 -0.060478818
0.06677775 -0.08768989 -0.057639025 -0.017584145 -0.101586625 -0.05407075 0.009922656 -0.16144055
-0.07202012 -0.035029255 -0.005769494 0.04033256 -0.17850117 -0.07525099 -0.08526349 -0.023353003
-0.01872803 0.08511573 -0.0864581 0.03234707 -0.11081926 0.031705104 -0.05491605 0.05848132
-0.06795085 0.047367167 -0.14624995 -0.13277875 -0.1364622 0.02170566 -0.08102458 0.027425963
-0.12739353 0.008817748 -0.101997696 0.06346505 -0.1850537 -0.17549646 -0.068574175 0.06700682
0.052591156 -0.14100508 -0.045513187 -0.022712031 -0.046192035 0.011944409 -0.04628414 -0.00073705666
-0.0024164715 0.025716174 -0.108399406 0.07507617 -0.0935659 -0.04507239 0.045124773 0.057051897
-0.0016802778 0.0736635 -0.08419836 0.008388552 -0.020357644 0.16263731 0.03171239 -0.1444611

tcn.network.1.conv2.bias f4 [32]
00000000: 350a 663d a184 81bd 8f34 1fbd 4a2d 5c3b
00000010: fb3d f2bc d3e0 3bbc 625d dabd 6fa7 903d
00000020: 6392 f63d c86f 913d 52d5 d83d 41ea fdbc
00000030: f1d9 8b3d 2891 dc3d 70d8 60bc a261 ec3d
00000040: 8d15 8a3d 73a4 0d3e 6d06 a2bd 7eab a73a
00000050: 5074 353e a269 a93d 55e0 a3bc 1514 3d3d
00000060: ef5f acbd 8e5f b53d eaf6 c63d 496b 373d
00000070: 4ea2 ccbb b281 233e 30a6 b23d d6ca 22be
0.056162078 -0.06324125 -0.038868483 0.003359633 -0.02957057 -0.0114671765 -0.106623426 0.070631854
0.1203964 0.07101399 0.105875626 -0.03099549 0.068286784 0.10769874 -0.013723478 0.115420595
0.06742392 0.13832264 -0.07911382 0.0012792198 0.17720151 0.08272101 -0.02000443 0.04616173
-0.084167354 0.08856116 0.09715064 0.04478005 -0.006244934 0.15967444 0.08723104 -0.15897688

tcn.network.1.conv2.weight_g f4 [32, 1, 1]
00000000: dfb6 073f 4eb4 083f d9d5 1d3f a66f 153f
00000010: d9dc 113f fec1 e53e 0f6b 0d3f 84df f13e
00000020: 20d2 133f 580a 043f ad80 243f 4fcf 133f
00000030: 1165 073f 04e7 2f3f 580b 0b3f fb1e 183f
00000040: 7e92 273f 2bf3 393f 12a0 003f 674e 0a3f
00000050: 69eb 013f 869c 263f dde1 043f e7c1 1f3f
00000060: 096e 2b3f b37f 103f dab3 103f d30d 1e3f
00000070: ebda 393f 20fb 273f d356 103f 7d87 ef3e
0.53013414 0.53400123 0.6165443 0.58373487 0.5697761 0.44874567 0.55241483 0.4724084
0.577425 0.51578283 0.64258844 0.577382 0.5288859 0.68711877 0.54314184 0.5942227
0.65457904 0.7263667 0.5024425 0.5402588 0.5074983 0.65082586 0.5190714 0.62405246
0.66964775 0.56444854 0.5652443 0.61739844 0.7259967 0.6561756 0.56382483 0.46783057
