models/prototyping6/tcn_fold_9/best.pth (torch, 224151 bytes, 130 tensors)

tcn.d_reduce.weight f4 [32, 1, 1]
0	0xbf639e03	-0.8891298
1	0xbdd0e1d3	-0.101993226
2	0xbee05225	-0.4381267
3	0x3f327fac	0.6972606
4	0xbf013782	-0.50475323
5	0xbf88c1c0	-1.0684128
6	0x3e69f906	0.22848901
7	0x3f746fb4	0.95482945
8	0xbf1d3ff5	-0.61425716
9	0xbf87f82d	-1.0622612
10	0x3e116d92	0.14201954
11	0xbedd390a	-0.4320758
12	0xbf14b930	-0.58095074
13	0x3dce4a34	0.10072747
14	0xbef55040	-0.47912788
15	0xbe863c15	-0.26217714
16	0xbf8132df	-1.009365
17	0xbf0bf0b5	-0.54664165
18	0x3f50d32b	0.81572217
19	0xbf60d9d2	-0.8783237
20	0xbf83b85a	-1.0290635
21	0x3f538175	0.8261941
22	0x3f1d40ac	0.61426806
23	0xbf308a2c	-0.68960834
24	0xbf53a514	-0.82673764
25	0xbf3a6b1f	-0.72819704
26	0xbee4d591	-0.44694188
27	0x3e1b9792	0.15194538
28	0x3f81052f	1.0079707
29	0x3ddca9ca	0.10774572
30	0xbf5e2954	-0.8678181
31	0xbf76a44d	-0.96344453

tcn.d_reduce.bias f4 [32]
0	0xbf1f5cb9	-0.6225086
1	0x3f68c3d7	0.9092383
2	0xbe4b3862	-0.19845727
3	0x3f3fc038	0.7490268
4	0xbf58e3fd	-0.8472288
5	0xbdf66008	-0.12030035
6	0xbf3cdbe1	-0.7377301
7	0xbe5ae342	-0.21375754
8	0xbf4eceaa	-0.80784094
9	0xbf299e34	-0.66257024
10	0xbf13d489	-0.5774618
11	0x3cff799f	0.031185923
12	0x3f371ce6	0.7152847
13	0x3f68537d	0.90752393
14	0xbf014f93	-0.50512046
15	0xbf609b40	-0.8773689
16	0xbe046ba1	-0.12931682
17	0x3e36d00f	0.17852806
18	0x3f6ad4eb	0.9173114
19	0xbe2c5847	-0.1683055
20	0xbef533b3	-0.47891006
21	0xbdd9c313	-0.106329106
22	0x3f4f945f	0.8108577
23	0xbf1d31c4	-0.6140406
24	0xbe917ec2	-0.2841702
25	0x3eb81bc2	0.35958678
26	0x3f0d925b	0.55301446
27	0x3f16aad0	0.5885439
28	0x3e315a06	0.17319497
29	0x3ecb460f	0.39701888
30	0x3f3aae8e	0.729226
31	0xbe3c39aa	-0.18381372

tcn.network.0.conv1.bias f4 [32]
0	0xbdb1359c	-0.08652803
1	0xbe7788e5	-0.24173315
2	0x3d65340a	0.05595783
3	0xbe52e530	-0.2059524
4	0xbe0350bb	-0.12823765
5	0xbd78e835	-0.060768325
6	0x3d25eebd	0.04051088
7	0xbdf62661	-0.12019039
8	0x3d990e92	0.07473482
9	0x3d356772	0.044288106
10	0xbd6c16b3	-0.057638835
11	0x3db233a2	0.087012544
12	0xbda820ea	-0.08209403
13	0xbd3f6d0a	-0.046734847
14	0xbe054666	-0.13015136
15	0xbdad9b74	-0.08476916
16	0xbc812116	-0.015762847
17	0x3b917afc	0.0044397097
18	0xbd0144f9	-0.031559918
19	0xbe1e39f1	-0.1545179
20	0xbe4b7da8	-0.19872153
21	0x3d9e56cf	0.07731401
22	0xbcd6d0ce	-0.026222613
23	0x3cae4bb9	0.021276342
24	0xbe15173d	-0.14559646
25	0xbd42c014	-0.04754646
26	0xbdc7423a	-0.097294286
27	0xbd0c7dd8	-0.0342997
28	0xbd938a08	-0.07204062
29	0xbe3cdbed	-0.1844327
30	0xbd080761	-0.033210162
31	0xbdfa13b2	-0.12210788

tcn.network.0.conv1.weight_g f4 [32, 1, 1]
0	0x3f0df44d	0.554509
1	0x3f0d27a4	0.5513861
2	0x3f00a108	0.50245714
3	0x3f1adb39	0.6049076
4	0x3f0afb78	0.5428996
5	0x3f0aff30	0.54295635
6	0x3f0a445b	0.5401055
7	0x3f108313	0.56450003
8	0x3ef3b7a3	0.4760104
9	0x3f06393e	0.52431095
10	0x3efe4388	0.49660897
11	0x3f08bc40	0.53412247
12	0x3efb01f0	0.49024916
13	0x3f2565fa	0.6460873
14	0x3efba0ac	0.4914602
15	0x3f142678	0.578712
16	0x3f03019a	0.5117432
17	0x3f0a4e90	0.54026127
18	0x3ef0ff9c	0.47070014
19	0x3f131d00	0.57466125
20	0x3f1f4f37	0.6223025
21	0x3f06a5fa	0.5259701
22	0x3f0774b5	0.52912456
23	0x3f1bdb4e	0.6088151
24	0x3f0b9c6e	0.5453557
25	0x3f03722d	0.51346093
26	0x3f076fd9	0.5290504
27	0x3f01617e	0.50539386
28	0x3f045fc6	0.5170864
29	0x3f165ccb	0.5873534
30	0x3f0f47ce	0.5596894
31	0x3f14ceb1	0.58127886

tcn.network.0.conv1.weight_v f4 [32, 32, 2]
0	0xbd4f92bf	-0.050677057
1	0x3e29470c	0.16531008
2	0xbdd3e4d6	-0.10346381
3	0xbdef3795	-0.11680523
4	0xbd5bd1ba	-0.053666808
5	0xbd3140eb	-0.0432748
6	0x3d3c153b	0.045918684
7	0xbd65c33e	-0.0560944
8	0x3dd08f93	0.101836346
9	0x3e44b66d	0.19210215
10	0x3dc9b603	0.09849169
11	0x3e1678a7	0.14694463
12	0xbca9a488	-0.020708337
13	0xbab1164d	-0.0013510674
14	0x3d2d1ee6	0.042265795
15	0xbded4c7d	-0.115868546
16	0x3dffb585	0.12485794
17	0x3e1a800f	0.15087913
18	0x3e048fd5	0.12945493
19	0xbd8f71b2	-0.070041075
20	0xbdb4ba64	-0.08824614
21	0xbbdf5aee	-0.0068162596
22	0x3e41601c	0.18884319
23	0x3df3914c	0.118929476
24	0xbdb27198	-0.087130725
25	0xbe01dc73	-0.12681751
26	0xbe01d21c	-0.12677807
27	0xbd2b9b16	-0.04189595
28	0xbd1e5785	-0.038657684
29	0xbd4e71a2	-0.050401337
30	0xbcef524d	-0.029214049
31	0x3d032b73	0.03202386
32	0xbc6572d9	-0.014004433
33	0x3e215b32	0.15757445
34	0x3dff1631	0.124554045
35	0xbc2f58b5	-0.010702302
36	0x3ce831b1	0.028344007
37	0xbe36e9cf	-0.17862628
38	0xbc2cde5c	-0.0105510615
39	0x3d3fc1cb	0.046815675
40	0x3e1e61ec	0.15467042
41	0xbda2e44b	-0.079537
42	0x3cdad1e7	0.026711417
43	0xbdd9d1c8	-0.10635716
44	0xbdea0cc6	-0.114282176
45	0x3c08f54a	0.008359263
46	0x3df41b91	0.119193204
47	0x3e1139b6	0.14182171
48	0x3dd6eed1	0.10494769
49	0x3d0c9325	0.034320015
50	0xbdd9bd27	-0.10631781
51	0x3caf15bb	0.021372667
52	0x3de19ae3	0.110158704
53	0x3cac9d25	0.021071026
54	0xbdb2b2f2	-0.08725537
55	0x3ae76c08	0.0017656097
56	0x3d9d7969	0.07689173
57	0xbdd6649f	-0.10468411
58	0xbd1eb571	-0.038747255
59	0x3cd779d3	0.026303208
60	0xbd9e3288	-0.07724482
61	0x3dcab28e	0.09897338
62	0xbd799a5f	-0.060938235
63	0x3e0de592	0.13857105
64	0xbda2f71b	-0.07957288
65	0x3d105be2	0.035243876
66	0xbe22e1e1	-0.15906478
67	0xbe8f014d	-0.2793068
68	0xbcf3f35e	-0.029779132
69	0x3c938f4b	0.018012663
70	0xbdb86887	-0.09004312
71	0xbd8b1699	-0.067914195
72	0x3e1fa2ff	0.15589522
73	0x3d178fb0	0.037002265
74	0x3da6a889	0.08137614
75	0x3d1ded34	0.038556293
76	0x3e9cd233	0.3062912
77	0x3ebb5a60	0.36592388
78	0x3d8a68ae	0.06758247
79	0xbcadcecf	-0.021216778
80	0x3d7227ea	0.059120096
81	0xbd0ff7b7	-0.03514835
82	0x3dd1a21c	0.10235998
83	0xbcd68531	-0.026186557
84	0x3e08749b	0.13325731
85	0x3e5722a1	0.21009304
86	0x3c52fe6c	0.012878042
87	0xbe25f0cb	-0.16205136
88	0xbdb11069	-0.08645708
89	0x3c11fab1	0.008909867
90	0xbe0dccb5	-0.13847621
91	0xbcf1bafe	-0.02950811
92	0x3bf0ff6d	0.007354668
93	0x3dc533bd	0.09629009
94	0x3ddc53a2	0.10758139
95	0x3d8454b1	0.06461466
96	0x3dd45b61	0.10368992
97	0xbd3f62d7	-0.04672512
98	0xbe0195c4	-0.12654787
99	0xbe154958	-0.1457876
100	0x3d571e1a	0.05251894
101	0xbcaf46ba	-0.02139603
102	0x3d965993	0.07341304
103	0xbe1b75fd	-0.15181728
104	0xbd118ccb	-0.03553466
105	0x3b903c5b	0.004401726
106	0x3c8fd9af	0.017559854
107	0x3d42ca10	0.047555983
108	0xbd2b6be0	-0.041850924
109	0xbc94e58f	-0.018175868
110	0x3e086891	0.13321139
111	0xbbf5f8c8	-0.0075064637
112	0x3d2ad216	0.04170426
113	0xbd264b8a	-0.040599383
114	0xbd338c01	-0.04383469
115	0xbd9b59f6	-0.07585518
116	0xbe4f5138	-0.20245826
117	0x3bc1bdb4	0.005912507
118	0xbdb78357	-0.08960598
119	0x3ba4d0da	0.00502978
120	0xbd96ffc0	-0.07372999
121	0x3e0e670e	0.139065
122	0xbcdf5ec3	-0.027266866
123	0xbdfdcf8e	-0.123931035
124	0xbd7c2240	-0.0615561
125	0xbcff9189	-0.031197326
126	0x3c2fec4f	0.010737493
127	0x3cdcf18f	0.026970653
128	0x3d622ab3	0.055216502
129	0xbc20a063	-0.009803864
130	0x3aecc6c6	0.001806461
131	0xbd8bd65d	-0.06827996
132	0xbe0b8e43	-0.13628487
133	0x3df5ba2d	0.11998401
134	0x3d743416	0.059619986
135	0xbdb8aa33	-0.09016838
136	0xbcbec244	-0.023285992
137	0xbd980f7e	-0.0742483
138	0x3acd64d7	0.0015670311
139	0xbcd99dc5	-0.026564488
140	0xbd5f98c4	-0.054589048
141	0xbd1e8746	-0.038703226
142	0x3dbf492e	0.0934013
143	0xbda2e387	-0.07953554
144	0x3da70339	0.081549115
145	0xbd5f282d	-0.054481674
146	0x3c417b3c	0.0118091665
147	0xbd928f4b	-0.07156237
148	0x3d50e24e	0.05099707
149	0x3c75f338	0.015011601
150	0xbb8908be	-0.0041819504
151	0x3d414b25	0.047190804
152	0x3da0c64c	0.07850322
153	0x3d9f8014	0.07788101
154	0x3d7a8e15	0.061170656
155	0xbdc1097c	-0.09425637
156	0xbdd0e5e7	-0.102001004
157	0x3cca1424	0.024667807
158	0xbd991a5b	-0.0747573
159	0xbd07222f	-0.032991584
160	0x3d170080	0.03686571
161	0xbbd15dd1	-0.0063893576
162	0xbc8f4a66	-0.01749153
163	0xbdfbca6a	-0.12294467
164	0x3d2542e1	0.040346984
165	0xbd60c10f	-0.054871615
166	0xbadead2c	-0.0016988865
167	0xbd91e832	-0.07124366
168	0x3db0c916	0.08632104
169	0x3cee033c	0.029054277
170	0xbcab6782	-0.02092338
171	0xbcc8d4e8	-0.024515584
172	0x3d901517	0.070352726
173	0x3cacd87a	0.021099318
174	0x3df1c81e	0.118057474
175	0x3dbc5bc0	0.091971874
176	0x3d918841	0.071060665
177	0x3db5c21b	0.08874913
178	0xbc6c05a3	-0.014405641
179	0xbdb23e42	-0.08703281
180	0x3cce7eea	0.025207002
181	0xbe09a561	-0.13441993
182	0xbce803d5	-0.02832214
183	0xbde739c0	-0.11290312
184	0x3e03892b	0.12845294
185	0xbc5e412c	-0.013565343
186	0xbddcf1ca	-0.10788305
187	0xbdd3c9b7	-0.103412084
188	0xbc268546	-0.010163611
189	0xbe0192e4	-0.1265369
190	0x3d325ff3	0.043548536
191	0x3d42e9eb	0.047586363
192	0xbdb7e029	-0.08978302
193	0x3ca84ee4	0.02054543
194	0xbdf98a21	-0.12184549
195	0xbe057cf2	-0.13035944
196	0xbd90445b	-0.07044288
197	0x3dccc89d	0.099992014
198	0xbdbcd8d7	-0.092210464
199	0xbdab26f6	-0.083570406
200	0x3d8ed214	0.06973663
201	0x3cf62531	0.030047031
202	0xbd276ed1	-0.040877167
203	0xbddcb6d2	-0.10777058
204	0xbc56a749	-0.013101407
205	0x3e5578f5	0.20846923
206	0xbdbfd3a1	-0.09366537
207	0x3e02a9af	0.12760042
208	0x3de0d902	0.10978891
209	0x3dcf4840	0.101212025
210	0xbd91b67a	-0.07114883
211	0x3dfeca77	0.12440961
212	0x3dff7fbd	0.12475536
213	0x3b1194bf	0.0022213904
214	0xbe2819df	-0.16416119
215	0xbd3dc3fe	-0.04632949
216	0xbe16c4df	-0.14723538
217	0xbdc4834d	-0.09595356
218	0xbc53965c	-0.012914266
219	0xbdd43cf8	-0.10363191
220	0x3dd4bde8	0.10387784
221	0x3e0f8251	0.14014556
222	0x3da2e35c	0.079535216
223	0x3c8f6f2e	0.01750907
224	0x3cf8220d	0.030289674
225	0xbd5bf2b4	-0.053698257
226	0xbe500f3f	-0.20318316
227	0xbe07ec71	-0.13273789
228	0x3d38f3a8	0.045154244
229	0x3d6f578a	0.058433093
230	0x3cddea4c	0.02708926
231	0xbda874ba	-0.08225389
232	0x3d9b4c0a	0.07582863
233	0x3c1b997a	0.009497041
234	0x3c971c5e	0.018446144
235	0xbcde2f20	-0.02712208
236	0xbc1d2598	-0.009591483
237	0xbbbbfa58	-0.0057366304
238	0xbd624dc9	-0.055249963
239	0xbd38a2b8	-0.045077056
240	0xbd217c8d	-0.03942542
241	0xbd7f82f1	-0.062380735
242	0xbe6e2528	-0.23256361
243	0xbe1f30ae	-0.15545914
244	0xbd4cf028	-0.05003372
245	0xbe6254a0	-0.22102594
246	0xbe23b67f	-0.15987585
247	0xbe048a19	-0.12943305
248	0x3ca0a56e	0.019610133
249	0x3d9d2794	0.076735646
250	0xbde5d2b8	-0.11221832
251	0x3cd02cf6	0.025412064
252	0xbd9ffaee	-0.07811533
253	0xbdc18776	-0.09449665
254	0xbdccf490	-0.10007584
255	0xbdddf1e7	-0.10837155

tcn.network.0.conv2.bias f4 [32]
0	0x3d5cef55	0.053939182
1	0x3cdd5c58	0.027021572
2	0xbda9231b	-0.08258649
3	0xbcc8cfb9	-0.024513112
4	0xbd91fe8a	-0.071286276
5	0xbe0d1ee4	-0.13781315
6	0x3d9936fd	0.07481191
7	0xbd63160c	-0.055440947
8	0xbe3f47fc	-0.18679804
9	0xbd592788	-0.053016216
10	0x3d52844e	0.051395707
11	0xbe2146e7	-0.15749703
12	0xbce9866a	-0.028506476
13	0xbda3fcf8	-0.08007234
14	0xbdd26bd6	-0.10274474
15	0x3dcb6f2e	0.09933315
16	0x3d3c2950	0.045937836
17	0x3c8a923b	0.016915431
18	0x3cb3ebe1	0.021963062
19	0x3d90dfad	0.07073913
20	0xbca265fa	-0.019824017
21	0xbd28939c	-0.041156396
22	0xbca8026a	-0.020508964
23	0x3ca4a0c9	0.0200962
24	0xbe2bd0e4	-0.16778904
25	0xbca05fc6	-0.019576918
26	0xbd0b4e4b	-0.034010213
27	0x3d5bffa2	0.053710587
28	0x3d03e99a	0.0322052
29	0x3db5b09f	0.088715784
30	0x3dcdd2ec	0.10049996
31	0xbd121321	-0.035662774

tcn.network.0.conv2.weight_g f4 [32, 1, 1]
0	0x3f085cbf	0.5326652
1	0x3ee02a86	0.43782443
2	0x3f1a3176	0.6023172
3	0x3f04c129	0.5185724
4	0x3f0be0e7	0.5464005
5	0x3f2467a4	0.64220643
6	0x3f520e89	0.8205343
7	0x3f0605a6	0.5235237
8	0x3f03d681	0.5149918
9	0x3ef3d66f	0.47624537
10	0x3f03bb25	0.51457435
11	0x3f1041a3	0.56350154
12	0x3f0f3778	0.55944014
13	0x3f00f902	0.50379956
14	0x3f04d7bc	0.51891685
15	0x3f1b27fd	0.6060789
16	0x3f051c11	0.5199595
17	0x3f08aaa3	0.5338537
18	0x3f06d8a1	0.526743
19	0x3ef6368f	0.480885
20	0x3f171145	0.59010726
21	0x3f0e5558	0.55598974
22	0x3f1407de	0.57824504
23	0x3f10fa98	0.56632376
24	0x3f06fc0a	0.5272833
25	0x3f13d0e5	0.5774062
26	0x3f180c12	0.5939342
27	0x3f0d6584	0.55233026
28	0x3ef4103f	0.47668645
29	0x3f2528bd	0.64515287
30	0x3f093d4b	0.5360915
31	0x3f0654d1	0.5247317

tcn.network.0.conv2.weight_v f4 [32, 32, 2]
0	0x3da253e1	0.07926155
1	0x3dfa7737	0.1222977
2	0xbd9cdebe	-0.07659672
3	0xbc1ab8b4	-0.009443451
4	0xbd1ba5c1	-0.037999872
5	0x3dd0fb5f	0.10204195
6	0x3ded44db	0.11585399
7	0xbcb0e4ad	-0.021593416
8	0xbce5c714	-0.02804903
9	0xbd47848b	-0.048710387
10	0xbe068f3e	-0.1314058
11	0xbe06db24	-0.13169533
12	0x3d5159f8	0.05111119
13	0x3dc27f5b	0.094969474
14	0x3cde6780	0.027148962
15	0xbd9079ec	-0.07054505
16	0xbdbf13d6	-0.09329955
17	0x3d2d5278	0.042314976
18	0xbc975c14	-0.018476523
19	0xbe063ce5	-0.13109167
20	0xbd3ca6be	-0.046057455
21	0x3bad22f0	0.005283706
22	0xbdc60258	-0.09668416
23	0xbd776f94	-0.060409144
24	0xbd973434	-0.07383004
25	0x3d212d13	0.039349627
26	0xbcf1ad30	-0.029501528
27	0xbe0882d6	-0.1333116
28	0x3dcb8bce	0.09938775
29	0xbd04d74f	-0.032431897
30	0xbd20766f	-0.039175447
31	0x3c60f305	0.013729815
32	0xbda74ab6	-0.08168547
33	0x3d145c62	0.036220916
34	0xbdeafe01	-0.11474229
35	0xbda885f7	-0.08228677
36	0xbb6557b5	-0.0034994904
37	0xbd990dd2	-0.07473339
38	0xbd847e00	-0.06469345
39	0xbdc6b0bd	-0.09701679
40	0xbdd8e2b0	-0.10590112
41	0xbe06cb54	-0.13163501
42	0x3dea3fee	0.11437975
43	0x3d98f36d	0.07468305
44	0x3d0735c9	0.033010278
45	0xbd616f07	-0.055037525
46	0xbe0a5343	-0.13508324
47	0x3c5330bc	0.012890037
48	0x3d96048d	0.07325087
49	0x3d38ac4b	0.045086186
50	0xbd64c9aa	-0.055856384
51	0xbdb3bab7	-0.087758474
52	0x3c934e08	0.017981544
53	0x3d2a86f5	0.04163261
54	0x3da7c1f3	0.0819129
55	0x3dbe2d53	0.09285989
56	0xbb90b89e	-0.0044165393
57	0x3d3111d0	0.043229878
58	0x3d3edff2	0.04660029
59	0xbda94c42	-0.08266498
60	0x3d74d243	0.059770834
61	0x3caacea7	0.020850493
62	0x3d9d4532	0.076792136
63	0xbde8a14f	-0.11358892
64	0x3dea9c3a	0.11455579
65	0xbdd11166	-0.102083966
66	0x3e21c501	0.15797807
67	0x3c59037a	0.013245458
68	0xbcd3dafe	-0.02586126
69	0x3d434f2d	0.04768293
70	0xbddf17d4	-0.10893217
71	0x3d9bb631	0.0760311
72	0xbe7f6871	-0.24942185
73	0xbe38e648	-0.18056595
74	0xbd61dbfc	-0.055141434
75	0x3dba742d	0.0910419
76	0xbe0e8264	-0.13916928
77	0x3deda330	0.11603391
78	0x3dd3c539	0.103403516
79	0xbce4b73a	-0.0279194
80	0xbe2b54ce	-0.16731569
81	0xbe15b96e	-0.14621517
82	0x3d9e7c8d	0.077386
83	0x3d789328	0.060687214
84	0x3e071b62	0.1319404
85	0x3e3ed455	0.18635686
86	0x3d827457	0.06369846
87	0xbd89c44b	-0.06726893
88	0xbe25e4bb	-0.16200535
89	0x3d62f800	0.055412292
90	0x3d12e95a	0.035867073
91	0xbd82057b	-0.063487016
92	0x3d5da171	0.05410904
93	0x3db98658	0.09058827
94	0xbe622ba9	-0.22086968
95	0xbe0dae48	-0.13836014
96	0xbe09d03d	-0.13458343
97	0xbe495f47	-0.19665252
98	0xbdf44728	-0.119276345
99	0xbe1107fa	-0.14163199
100	0x3dae0c8d	0.084984876
101	0xbd9325e2	-0.0718496
102	0xbe57b229	-0.21064056
103	0x3e424e11	0.18975092
104	0x3cff4cb3	0.031164503
105	0x3e1cb570	0.15303588
106	0xbce7c28b	-0.028291008
107	0x3dc1ed7e	0.09469126
108	0x3dc01a28	0.09379989
109	0x3e04c8ff	0.12967299
110	0xbb105e29	-0.002202878
111	0x3df910e5	0.121614255
112	0x3cf2dd39	0.029646503
113	0xbd8e6183	-0.06952193
114	0xbd87893f	-0.066179745
115	0x3d71b228	0.059007794
116	0xbdaac67f	-0.083386414
117	0x3e337eb0	0.17528796
118	0xbe1359ef	-0.14389776
119	0xbcd39b6f	-0.025830952
120	0xbd4409d9	-0.047860954
121	0xbc2ead01	-0.0106613645
122	0xbc2fb7aa	-0.010724941
123	0xbd954cce	-0.0729004
124	0x3ba4a053	0.005023995
125	0xbdec6356	-0.11542384
126	0xbcd8fc59	-0.026487516
127	0x3e2af3bf	0.16694544
128	0xbe11de97	-0.14245068
129	0xbe02b6e5	-0.12765081
130	0xbcf1a003	-0.029495245
131	0xbced0f5c	-0.028937988
132	0x3e0bfe23	0.13671164
133	0x3cfdf627	0.031001164
134	0x3c76c033	0.015060472
135	0xbd63c126	-0.055604123
136	0xbda51c11	-0.08061994
137	0x3d558f7e	0.052138798
138	0xbdbbead8	-0.09175652
139	0xbdfe2478	-0.124092996
140	0xbe0fc594	-0.14040214
141	0x3d0158ae	0.031578712
142	0x3dd025c9	0.10163457
143	0xbcc40955	-0.023930231
144	0x3e14d617	0.14534794
145	0x3dd9252a	0.106027916
146	0x3dc5df1d	0.09661696
147	0x3dae5898	0.08512992
148	0x3d6ae5f2	0.0573482
149	0xbbccd9cc	-0.0062515493
150	0x3d830aef	0.0639857
151	0x3b74e9ef	0.003737088
152	0xbd690a08	-0.056894332
153	0xbde30ac6	-0.11086039
154	0x3d50dc22	0.050991185
155	0xbe0c2b2c	-0.13688344
156	0x3da2e294	0.079533726
157	0x3cf9ad83	0.030478245
158	0xbd9ea4f7	-0.07746308
159	0xbd622dd2	-0.05521948
160	0x3b993114	0.00467504
161	0x3dc38084	0.09545997
162	0xbdba99c5	-0.091113605
163	0xbd900222	-0.07031657
164	0x3ce5f315	0.028070012
165	0xbd9eb3ce	-0.07749139
166	0xbdb92a05	-0.09041218
167	0x3af88654	0.0018960931
168	0xbd9aeb8c	-0.07564458
169	0xbd0644b4	-0.032780364
170	0xbd6ad93b	-0.057336073
171	0x3d940d70	0.072291255
172	0x3cd069db	0.0254411
173	0xbe049d4c	-0.12950629
174	0xbd3fc0a2	-0.04681457
175	0xbd2036df	-0.03911483
176	0xbe09d4b8	-0.13460052
177	0xbe10d163	-0.14142375
178	0x3d434396	0.047671877
179	0x3dcc3514	0.09971061
180	0xbc072e2e	-0.008250756
181	0x3bd06666	0.006359863
182	0x3d74cbf1	0.059764806
183	0x3d2fa8aa	0.04288546
184	0xbcee72f1	-0.029107543
185	0x3ded9e43	0.11602452
186	0x3c6a9635	0.014318039
187	0xbd236cda	-0.03989873
188	0xbcf835f9	-0.030299174
189	0xbd9a7a2c	-0.07542834
190	0xbe27071c	-0.16311306
191	0x3caafc7b	0.020872345
192	0x3dd3b982	0.10338117
193	0x3de77ff8	0.11303705
194	0x3d1bd493	0.038044523
195	0x3e312e0a	0.17302719
196	0xbe01cb2b	-0.12675159
197	0x3d94af3b	0.07259985
198	0x3d515225	0.05110373
199	0xbcc2163c	-0.023692243
200	0xbda43995	-0.080187954
201	0xbd118b49	-0.035533223
202	0xbd3d5359	-0.046222065
203	0xbd891563	-0.06693532
204	0x3d845943	0.06462338
205	0xbdacc507	-0.084360175
206	0xbd8dbddb	-0.06920978
207	0x3dfbdadf	0.12297606
208	0xba8d599e	-0.0010784154
209	0x3d9c4a41	0.0763135
210	0xbe27a93f	-0.16373156
211	0xbd85a445	-0.065254726
212	0x3dbe0581	0.092783935
213	0xbda56499	-0.08075828
214	0x3d4fcd89	0.050733123
215	0x3d6b1c8c	0.05740027
216	0x3d900b79	0.07033438
217	0x3da2cebe	0.07949589
218	0xbe029d8e	-0.12755415
219	0xbdfaa7e7	-0.12239056
220	0x3c5aa661	0.013345332
221	0x3c893c90	0.016752511
222	0x3d850f93	0.06497111
223	0xbdda3a51	-0.10655654
224	0x3dbd4fc4	0.0924373
225	0xbdbfb949	-0.09361512
226	0x3d5ae53e	0.05344128
227	0xbde9f99a	-0.11424561
228	0xbb6665c1	-0.0035155865
229	0x3e0d57ea	0.13803068
230	0x3cfe9e62	0.031081382
231	0xbd94e5ee	-0.07270418
232	0x3a97c7de	0.0011579951
233	0x3c6590d8	0.014011584
234	0xbe223594	-0.15840751
235	0xbd68400a	-0.056701697
236	0xbd90725e	-0.07053064
237	0xbda0d218	-0.07852572
238	0x3d9b3268	0.075779736
239	0x3e08fdb4	0.1337803
240	0xbd5c994c	-0.053857133
241	0x3c95dc15	0.01829342
242	0xbd809663	-0.06278684
243	0xbe02b835	-0.12765582
244	0xba9de60c	-0.0012046709
245	0x3dc9c482	0.09851934
246	0x3dc6983d	0.09697006
247	0xbdd1c46c	-0.102425426
248	0xbb918d00	-0.0044418573
249	0xbdd09455	-0.10184542
250	0x3d650550	0.05591327
251	0xbcbbe261	-0.022935094
252	0xbc81e2c4	-0.0158552
253	0x3e4f89d6	0.20267424
254	0x3c670d67	0.014102316
255	0x3dc2c034	0.09509316

tcn.network.0.net.0.bias f4 [32]
0	0xbdb1359c	-0.08652803
1	0xbe7788e5	-0.24173315
2	0x3d65340a	0.05595783
3	0xbe52e530	-0.2059524
4	0xbe0350bb	-0.12823765
5	0xbd78e835	-0.060768325
6	0x3d25eebd	0.04051088
7	0xbdf62661	-0.12019039
8	0x3d990e92	0.07473482
9	0x3d356772	0.044288106
10	0xbd6c16b3	-0.057638835
11	0x3db233a2	0.087012544
12	0xbda820ea	-0.08209403
13	0xbd3f6d0a	-0.046734847
14	0xbe054666	-0.13015136
15	0xbdad9b74	-0.08476916
16	0xbc812116	-0.015762847
17	0x3b917afc	0.0044397097
18	0xbd0144f9	-0.031559918
19	0xbe1e39f1	-0.1545179
20	0xbe4b7da8	-0.19872153
21	0x3d9e56cf	0.07731401
22	0xbcd6d0ce	-0.026222613
23	0x3cae4bb9	0.021276342
24	0xbe15173d	-0.14559646
25	0xbd42c014	-0.04754646
26	0xbdc7423a	-0.097294286
27	0xbd0c7dd8	-0.0342997
28	0xbd938a08	-0.07204062
29	0xbe3cdbed	-0.1844327
30	0xbd080761	-0.033210162
31	0xbdfa13b2	-0.12210788

tcn.network.0.net.0.weight_g f4 [32, 1, 1]
0	0x3f0df44d	0.554509
1	0x3f0d27a4	0.5513861
2	0x3f00a108	0.50245714
3	0x3f1adb39	0.6049076
4	0x3f0afb78	0.5428996
5	0x3f0aff30	0.54295635
6	0x3f0a445b	0.5401055
7	0x3f108313	0.56450003
8	0x3ef3b7a3	0.4760104
9	0x3f06393e	0.52431095
10	0x3efe4388	0.49660897
11	0x3f08bc40	0.53412247
12	0x3efb01f0	0.49024916
13	0x3f2565fa	0.6460873
14	0x3efba0ac	0.4914602
15	0x3f142678	0.578712
16	0x3f03019a	0.5117432
17	0x3f0a4e90	0.54026127
18	0x3ef0ff9c	0.47070014
19	0x3f131d00	0.57466125
20	0x3f1f4f37	0.6223025
21	0x3f06a5fa	0.5259701
22	0x3f0774b5	0.52912456
23	0x3f1bdb4e	0.6088151
24	0x3f0b9c6e	0.5453557
25	0x3f03722d	0.51346093
26	0x3f076fd9	0.5290504
27	0x3f01617e	0.50539386
28	0x3f045fc6	0.5170864
29	0x3f165ccb	0.5873534
30	0x3f0f47ce	0.5596894
31	0x3f14ceb1	0.58127886

tcn.network.0.net.0.weight_v f4 [32, 32, 2]
0	0xbd4f92bf	-0.050677057
1	0x3e29470c	0.16531008
2	0xbdd3e4d6	-0.10346381
3	0xbdef3795	-0.11680523
4	0xbd5bd1ba	-0.053666808
5	0xbd3140eb	-0.0432748
6	0x3d3c153b	0.045918684
7	0xbd65c33e	-0.0560944
8	0x3dd08f93	0.101836346
9	0x3e44b66d	0.19210215
10	0x3dc9b603	0.09849169
11	0x3e1678a7	0.14694463
12	0xbca9a488	-0.020708337
13	0xbab1164d	-0.0013510674
14	0x3d2d1ee6	0.042265795
15	0xbded4c7d	-0.115868546
16	0x3dffb585	0.12485794
17	0x3e1a800f	0.15087913
18	0x3e048fd5	0.12945493
19	0xbd8f71b2	-0.070041075
20	0xbdb4ba64	-0.08824614
21	0xbbdf5aee	-0.0068162596
22	0x3e41601c	0.18884319
23	0x3df3914c	0.118929476
24	0xbdb27198	-0.087130725
25	0xbe01dc73	-0.12681751
26	0xbe01d21c	-0.12677807
27	0xbd2b9b16	-0.04189595
28	0xbd1e5785	-0.038657684
29	0xbd4e71a2	-0.050401337
30	0xbcef524d	-0.029214049
31	0x3d032b73	0.03202386
32	0xbc6572d9	-0.014004433
33	0x3e215b32	0.15757445
34	0x3dff1631	0.124554045
35	0xbc2f58b5	-0.010702302
36	0x3ce831b1	0.028344007
37	0xbe36e9cf	-0.17862628
38	0xbc2cde5c	-0.0105510615
39	0x3d3fc1cb	0.046815675
40	0x3e1e61ec	0.15467042
41	0xbda2e44b	-0.079537
42	0x3cdad1e7	0.026711417
43	0xbdd9d1c8	-0.10635716
44	0xbdea0cc6	-0.114282176
45	0x3c08f54a	0.008359263
46	0x3df41b91	0.119193204
47	0x3e1139b6	0.14182171
48	0x3dd6eed1	0.10494769
49	0x3d0c9325	0.034320015
50	0xbdd9bd27	-0.10631781
51	0x3caf15bb	0.021372667
52	0x3de19ae3	0.110158704
53	0x3cac9d25	0.021071026
54	0xbdb2b2f2	-0.08725537
55	0x3ae76c08	0.0017656097
56	0x3d9d7969	0.07689173
57	0xbdd6649f	-0.10468411
58	0xbd1eb571	-0.038747255
59	0x3cd779d3	0.026303208
60	0xbd9e3288	-0.07724482
61	0x3dcab28e	0.09897338
62	0xbd799a5f	-0.060938235
63	0x3e0de592	0.13857105
64	0xbda2f71b	-0.07957288
65	0x3d105be2	0.035243876
66	0xbe22e1e1	-0.15906478
67	0xbe8f014d	-0.2793068
68	0xbcf3f35e	-0.029779132
69	0x3c938f4b	0.018012663
70	0xbdb86887	-0.09004312
71	0xbd8b1699	-0.067914195
72	0x3e1fa2ff	0.15589522
73	0x3d178fb0	0.037002265
74	0x3da6a889	0.08137614
75	0x3d1ded34	0.038556293
76	0x3e9cd233	0.3062912
77	0x3ebb5a60	0.36592388
78	0x3d8a68ae	0.06758247
79	0xbcadcecf	-0.021216778
80	0x3d7227ea	0.059120096
81	0xbd0ff7b7	-0.03514835
82	0x3dd1a21c	0.10235998
83	0xbcd68531	-0.026186557
84	0x3e08749b	0.13325731
85	0x3e5722a1	0.21009304
86	0x3c52fe6c	0.012878042
87	0xbe25f0cb	-0.16205136
88	0xbdb11069	-0.08645708
89	0x3c11fab1	0.008909867
90	0xbe0dccb5	-0.13847621
91	0xbcf1bafe	-0.02950811
92	0x3bf0ff6d	0.007354668
93	0x3dc533bd	0.09629009
94	0x3ddc53a2	0.10758139
95	0x3d8454b1	0.06461466
96	0x3dd45b61	0.10368992
97	0xbd3f62d7	-0.04672512
98	0xbe0195c4	-0.12654787
99	0xbe154958	-0.1457876
100	0x3d571e1a	0.05251894
101	0xbcaf46ba	-0.02139603
102	0x3d965993	0.07341304
103	0xbe1b75fd	-0.15181728
104	0xbd118ccb	-0.03553466
105	0x3b903c5b	0.004401726
106	0x3c8fd9af	0.017559854
107	0x3d42ca10	0.047555983
108	0xbd2b6be0	-0.041850924
109	0xbc94e58f	-0.018175868
110	0x3e086891	0.13321139
111	0xbbf5f8c8	-0.0075064637
112	0x3d2ad216	0.04170426
113	0xbd264b8a	-0.040599383
114	0xbd338c01	-0.04383469
115	0xbd9b59f6	-0.07585518
116	0xbe4f5138	-0.20245826
117	0x3bc1bdb4	0.005912507
118	0xbdb78357	-0.08960598
119	0x3ba4d0da	0.00502978
120	0xbd96ffc0	-0.07372999
121	0x3e0e670e	0.139065
122	0xbcdf5ec3	-0.027266866
123	0xbdfdcf8e	-0.123931035
124	0xbd7c2240	-0.0615561
125	0xbcff9189	-0.031197326
126	0x3c2fec4f	0.010737493
127	0x3cdcf18f	0.026970653
128	0x3d622ab3	0.055216502
129	0xbc20a063	-0.009803864
130	0x3aecc6c6	0.001806461
131	0xbd8bd65d	-0.06827996
132	0xbe0b8e43	-0.13628487
133	0x3df5ba2d	0.11998401
134	0x3d743416	0.059619986
135	0xbdb8aa33	-0.09016838
136	0xbcbec244	-0.023285992
137	0xbd980f7e	-0.0742483
138	0x3acd64d7	0.0015670311
139	0xbcd99dc5	-0.026564488
140	0xbd5f98c4	-0.054589048
141	0xbd1e8746	-0.038703226
142	0x3dbf492e	0.0934013
143	0xbda2e387	-0.07953554
144	0x3da70339	0.081549115
145	0xbd5f282d	-0.054481674
146	0x3c417b3c	0.0118091665
147	0xbd928f4b	-0.07156237
148	0x3d50e24e	0.05099707
149	0x3c75f338	0.015011601
150	0xbb8908be	-0.0041819504
151	0x3d414b25	0.047190804
152	0x3da0c64c	0.07850322
153	0x3d9f8014	0.07788101
154	0x3d7a8e15	0.061170656
155	0xbdc1097c	-0.09425637
156	0xbdd0e5e7	-0.102001004
157	0x3cca1424	0.024667807
158	0xbd991a5b	-0.0747573
159	0xbd07222f	-0.032991584
160	0x3d170080	0.03686571
161	0xbbd15dd1	-0.0063893576
162	0xbc8f4a66	-0.01749153
163	0xbdfbca6a	-0.12294467
164	0x3d2542e1	0.040346984
165	0xbd60c10f	-0.054871615
166	0xbadead2c	-0.0016988865
167	0xbd91e832	-0.07124366
168	0x3db0c916	0.08632104
169	0x3cee033c	0.029054277
170	0xbcab6782	-0.02092338
171	0xbcc8d4e8	-0.024515584
172	0x3d901517	0.070352726
173	0x3cacd87a	0.021099318
174	0x3df1c81e	0.118057474
175	0x3dbc5bc0	0.091971874
176	0x3d918841	0.071060665
177	0x3db5c21b	0.08874913
178	0xbc6c05a3	-0.014405641
179	0xbdb23e42	-0.08703281
180	0x3cce7eea	0.025207002
181	0xbe09a561	-0.13441993
182	0xbce803d5	-0.02832214
183	0xbde739c0	-0.11290312
184	0x3e03892b	0.12845294
185	0xbc5e412c	-0.013565343
186	0xbddcf1ca	-0.10788305
187	0xbdd3c9b7	-0.103412084
188	0xbc268546	-0.010163611
189	0xbe0192e4	-0.1265369
190	0x3d325ff3	0.043548536
191	0x3d42e9eb	0.047586363
192	0xbdb7e029	-0.08978302
193	0x3ca84ee4	0.02054543
194	0xbdf98a21	-0.12184549
195	0xbe057cf2	-0.13035944
196	0xbd90445b	-0.07044288
197	0x3dccc89d	0.099992014
198	0xbdbcd8d7	-0.092210464
199	0xbdab26f6	-0.083570406
200	0x3d8ed214	0.06973663
201	0x3cf62531	0.030047031
202	0xbd276ed1	-0.040877167
203	0xbddcb6d2	-0.10777058
204	0xbc56a749	-0.013101407
205	0x3e5578f5	0.20846923
206	0xbdbfd3a1	-0.09366537
207	0x3e02a9af	0.12760042
208	0x3de0d902	0.10978891
209	0x3dcf4840	0.101212025
210	0xbd91b67a	-0.07114883
211	0x3dfeca77	0.12440961
212	0x3dff7fbd	0.12475536
213	0x3b1194bf	0.0022213904
214	0xbe2819df	-0.16416119
215	0xbd3dc3fe	-0.04632949
216	0xbe16c4df	-0.14723538
217	0xbdc4834d	-0.09595356
218	0xbc53965c	-0.012914266
219	0xbdd43cf8	-0.10363191
220	0x3dd4bde8	0.10387784
221	0x3e0f8251	0.14014556
222	0x3da2e35c	0.079535216
223	0x3c8f6f2e	0.01750907
224	0x3cf8220d	0.030289674
225	0xbd5bf2b4	-0.053698257
226	0xbe500f3f	-0.20318316
227	0xbe07ec71	-0.13273789
228	0x3d38f3a8	0.045154244
229	0x3d6f578a	0.058433093
230	0x3cddea4c	0.02708926
231	0xbda874ba	-0.08225389
232	0x3d9b4c0a	0.07582863
233	0x3c1b997a	0.009497041
234	0x3c971c5e	0.018446144
235	0xbcde2f20	-0.02712208
236	0xbc1d2598	-0.009591483
237	0xbbbbfa58	-0.0057366304
238	0xbd624dc9	-0.055249963
239	0xbd38a2b8	-0.045077056
240	0xbd217c8d	-0.03942542
241	0xbd7f82f1	-0.062380735
242	0xbe6e2528	-0.23256361
243	0xbe1f30ae	-0.15545914
244	0xbd4cf028	-0.05003372
245	0xbe6254a0	-0.22102594
246	0xbe23b67f	-0.15987585
247	0xbe048a19	-0.12943305
248	0x3ca0a56e	0.019610133
249	0x3d9d2794	0.076735646
250	0xbde5d2b8	-0.11221832
251	0x3cd02cf6	0.025412064
252	0xbd9ffaee	-0.07811533
253	0xbdc18776	-0.09449665
254	0xbdccf490	-0.10007584
255	0xbdddf1e7	-0.10837155

tcn.network.0.net.4.bias f4 [32]
0	0x3d5cef55	0.053939182
1	0x3cdd5c58	0.027021572
2	0xbda9231b	-0.08258649
3	0xbcc8cfb9	-0.024513112
4	0xbd91fe8a	-0.071286276
5	0xbe0d1ee4	-0.13781315
6	0x3d9936fd	0.07481191
7	0xbd63160c	-0.055440947
8	0xbe3f47fc	-0.18679804
9	0xbd592788	-0.053016216
10	0x3d52844e	0.051395707
11	0xbe2146e7	-0.15749703
12	0xbce9866a	-0.028506476
13	0xbda3fcf8	-0.08007234
14	0xbdd26bd6	-0.10274474
15	0x3dcb6f2e	0.09933315
16	0x3d3c2950	0.045937836
17	0x3c8a923b	0.016915431
18	0x3cb3ebe1	0.021963062
19	0x3d90dfad	0.07073913
20	0xbca265fa	-0.019824017
21	0xbd28939c	-0.041156396
22	0xbca8026a	-0.020508964
23	0x3ca4a0c9	0.0200962
24	0xbe2bd0e4	-0.16778904
25	0xbca05fc6	-0.019576918
26	0xbd0b4e4b	-0.034010213
27	0x3d5bffa2	0.053710587
28	0x3d03e99a	0.0322052
29	0x3db5b09f	0.088715784
30	0x3dcdd2ec	0.10049996
31	0xbd121321	-0.035662774

tcn.network.0.net.4.weight_g f4 [32, 1, 1]
0	0x3f085cbf	0.5326652
1	0x3ee02a86	0.43782443
2	0x3f1a3176	0.6023172
3	0x3f04c129	0.5185724
4	0x3f0be0e7	0.5464005
5	0x3f2467a4	0.64220643
6	0x3f520e89	0.8205343
7	0x3f0605a6	0.5235237
8	0x3f03d681	0.5149918
9	0x3ef3d66f	0.47624537
10	0x3f03bb25	0.51457435
11	0x3f1041a3	0.56350154
12	0x3f0f3778	0.55944014
13	0x3f00f902	0.50379956
14	0x3f04d7bc	0.51891685
15	0x3f1b27fd	0.6060789
16	0x3f051c11	0.5199595
17	0x3f08aaa3	0.5338537
18	0x3f06d8a1	0.526743
19	0x3ef6368f	0.480885
20	0x3f171145	0.59010726
21	0x3f0e5558	0.55598974
22	0x3f1407de	0.57824504
23	0x3f10fa98	0.56632376
24	0x3f06fc0a	0.5272833
25	0x3f13d0e5	0.5774062
26	0x3f180c12	0.5939342
27	0x3f0d6584	0.55233026
28	0x3ef4103f	0.47668645
29	0x3f2528bd	0.64515287
30	0x3f093d4b	0.5360915
31	0x3f0654d1	0.5247317

tcn.network.0.net.4.weight_v f4 [32, 32, 2]
0	0x3da253e1	0.07926155
1	0x3dfa7737	0.1222977
2	0xbd9cdebe	-0.07659672
3	0xbc1ab8b4	-0.009443451
4	0xbd1ba5c1	-0.037999872
5	0x3dd0fb5f	0.10204195
6	0x3ded44db	0.11585399
7	0xbcb0e4ad	-0.021593416
8	0xbce5c714	-0.02804903
9	0xbd47848b	-0.048710387
10	0xbe068f3e	-0.1314058
11	0xbe06db24	-0.13169533
12	0x3d5159f8	0.05111119
13	0x3dc27f5b	0.094969474
14	0x3cde6780	0.027148962
15	0xbd9079ec	-0.07054505
16	0xbdbf13d6	-0.09329955
17	0x3d2d5278	0.042314976
18	0xbc975c14	-0.018476523
19	0xbe063ce5	-0.13109167
20	0xbd3ca6be	-0.046057455
21	0x3bad22f0	0.005283706
22	0xbdc60258	-0.09668416
23	0xbd776f94	-0.060409144
24	0xbd973434	-0.07383004
25	0x3d212d13	0.039349627
26	0xbcf1ad30	-0.029501528
27	0xbe0882d6	-0.1333116
28	0x3dcb8bce	0.09938775
29	0xbd04d74f	-0.032431897
30	0xbd20766f	-0.039175447
31	0x3c60f305	0.013729815
32	0xbda74ab6	-0.08168547
33	0x3d145c62	0.036220916
34	0xbdeafe01	-0.11474229
35	0xbda885f7	-0.08228677
36	0xbb6557b5	-0.0034994904
37	0xbd990dd2	-0.07473339
38	0xbd847e00	-0.06469345
39	0xbdc6b0bd	-0.09701679
40	0xbdd8e2b0	-0.10590112
41	0xbe06cb54	-0.13163501
42	0x3dea3fee	0.11437975
43	0x3d98f36d	0.07468305
44	0x3d0735c9	0.033010278
45	0xbd616f07	-0.055037525
46	0xbe0a5343	-0.13508324
47	0x3c5330bc	0.012890037
48	0x3d96048d	0.07325087
49	0x3d38ac4b	0.045086186
50	0xbd64c9aa	-0.055856384
51	0xbdb3bab7	-0.087758474
52	0x3c934e08	0.017981544
53	0x3d2a86f5	0.04163261
54	0x3da7c1f3	0.0819129
55	0x3dbe2d53	0.09285989
56	0xbb90b89e	-0.0044165393
57	0x3d3111d0	0.043229878
58	0x3d3edff2	0.04660029
59	0xbda94c42	-0.08266498
60	0x3d74d243	0.059770834
61	0x3caacea7	0.020850493
62	0x3d9d4532	0.076792136
63	0xbde8a14f	-0.11358892
64	0x3dea9c3a	0.11455579
65	0xbdd11166	-0.102083966
66	0x3e21c501	0.15797807
67	0x3c59037a	0.013245458
68	0xbcd3dafe	-0.02586126
69	0x3d434f2d	0.04768293
70	0xbddf17d4	-0.10893217
71	0x3d9bb631	0.0760311
72	0xbe7f6871	-0.24942185
73	0xbe38e648	-0.18056595
74	0xbd61dbfc	-0.055141434
75	0x3dba742d	0.0910419
76	0xbe0e8264	-0.13916928
77	0x3deda330	0.11603391
78	0x3dd3c539	0.103403516
79	0xbce4b73a	-0.0279194
80	0xbe2b54ce	-0.16731569
81	0xbe15b96e	-0.14621517
82	0x3d9e7c8d	0.077386
83	0x3d789328	0.060687214
84	0x3e071b62	0.1319404
85	0x3e3ed455	0.18635686
86	0x3d827457	0.06369846
87	0xbd89c44b	-0.06726893
88	0xbe25e4bb	-0.16200535
89	0x3d62f800	0.055412292
90	0x3d12e95a	0.035867073
91	0xbd82057b	-0.063487016
92	0x3d5da171	0.05410904
93	0x3db98658	0.09058827
94	0xbe622ba9	-0.22086968
95	0xbe0dae48	-0.13836014
96	0xbe09d03d	-0.13458343
97	0xbe495f47	-0.19665252
98	0xbdf44728	-0.119276345
99	0xbe1107fa	-0.14163199
100	0x3dae0c8d	0.084984876
101	0xbd9325e2	-0.0718496
102	0xbe57b229	-0.21064056
103	0x3e424e11	0.18975092
104	0x3cff4cb3	0.031164503
105	0x3e1cb570	0.15303588
106	0xbce7c28b	-0.028291008
107	0x3dc1ed7e	0.09469126
108	0x3dc01a28	0.09379989
109	0x3e04c8ff	0.12967299
110	0xbb105e29	-0.002202878
111	0x3df910e5	0.121614255
112	0x3cf2dd39	0.029646503
113	0xbd8e6183	-0.06952193
114	0xbd87893f	-0.066179745
115	0x3d71b228	0.059007794
116	0xbdaac67f	-0.083386414
117	0x3e337eb0	0.17528796
118	0xbe1359ef	-0.14389776
119	0xbcd39b6f	-0.025830952
120	0xbd4409d9	-0.047860954
121	0xbc2ead01	-0.0106613645
122	0xbc2fb7aa	-0.010724941
123	0xbd954cce	-0.0729004
124	0x3ba4a053	0.005023995
125	0xbdec6356	-0.11542384
126	0xbcd8fc59	-0.026487516
127	0x3e2af3bf	0.16694544
128	0xbe11de97	-0.14245068
129	0xbe02b6e5	-0.12765081
130	0xbcf1a003	-0.029495245
131	0xbced0f5c	-0.028937988
132	0x3e0bfe23	0.13671164
133	0x3cfdf627	0.031001164
134	0x3c76c033	0.015060472
135	0xbd63c126	-0.055604123
136	0xbda51c11	-0.08061994
137	0x3d558f7e	0.052138798
138	0xbdbbead8	-0.09175652
139	0xbdfe2478	-0.124092996
140	0xbe0fc594	-0.14040214
141	0x3d0158ae	0.031578712
142	0x3dd025c9	0.10163457
143	0xbcc40955	-0.023930231
144	0x3e14d617	0.14534794
145	0x3dd9252a	0.106027916
146	0x3dc5df1d	0.09661696
147	0x3dae5898	0.08512992
148	0x3d6ae5f2	0.0573482
149	0xbbccd9cc	-0.0062515493
150	0x3d830aef	0.0639857
151	0x3b74e9ef	0.003737088
152	0xbd690a08	-0.056894332
153	0xbde30ac6	-0.11086039
154	0x3d50dc22	0.050991185
155	0xbe0c2b2c	-0.13688344
156	0x3da2e294	0.079533726
157	0x3cf9ad83	0.030478245
158	0xbd9ea4f7	-0.07746308
159	0xbd622dd2	-0.05521948
160	0x3b993114	0.00467504
161	0x3dc38084	0.09545997
162	0xbdba99c5	-0.091113605
163	0xbd900222	-0.07031657
164	0x3ce5f315	0.028070012
165	0xbd9eb3ce	-0.07749139
166	0xbdb92a05	-0.09041218
167	0x3af88654	0.0018960931
168	0xbd9aeb8c	-0.07564458
169	0xbd0644b4	-0.032780364
170	0xbd6ad93b	-0.057336073
171	0x3d940d70	0.072291255
172	0x3cd069db	0.0254411
173	0xbe049d4c	-0.12950629
174	0xbd3fc0a2	-0.04681457
175	0xbd2036df	-0.03911483
176	0xbe09d4b8	-0.13460052
177	0xbe10d163	-0.14142375
178	0x3d434396	0.047671877
179	0x3dcc3514	0.09971061
180	0xbc072e2e	-0.008250756
181	0x3bd06666	0.006359863
182	0x3d74cbf1	0.059764806
183	0x3d2fa8aa	0.04288546
184	0xbcee72f1	-0.029107543
185	0x3ded9e43	0.11602452
186	0x3c6a9635	0.014318039
187	0xbd236cda	-0.03989873
188	0xbcf835f9	-0.030299174
189	0xbd9a7a2c	-0.07542834
190	0xbe27071c	-0.16311306
191	0x3caafc7b	0.020872345
192	0x3dd3b982	0.10338117
193	0x3de77ff8	0.11303705
194	0x3d1bd493	0.038044523
195	0x3e312e0a	0.17302719
196	0xbe01cb2b	-0.12675159
197	0x3d94af3b	0.07259985
198	0x3d515225	0.05110373
199	0xbcc2163c	-0.023692243
200	0xbda43995	-0.080187954
201	0xbd118b49	-0.035533223
202	0xbd3d5359	-0.046222065
203	0xbd891563	-0.06693532
204	0x3d845943	0.06462338
205	0xbdacc507	-0.084360175
206	0xbd8dbddb	-0.06920978
207	0x3dfbdadf	0.12297606
208	0xba8d599e	-0.0010784154
209	0x3d9c4a41	0.0763135
210	0xbe27a93f	-0.16373156
211	0xbd85a445	-0.065254726
212	0x3dbe0581	0.092783935
213	0xbda56499	-0.08075828
214	0x3d4fcd89	0.050733123
215	0x3d6b1c8c	0.05740027
216	0x3d900b79	0.07033438
217	0x3da2cebe	0.07949589
218	0xbe029d8e	-0.12755415
219	0xbdfaa7e7	-0.12239056
220	0x3c5aa661	0.013345332
221	0x3c893c90	0.016752511
222	0x3d850f93	0.06497111
223	0xbdda3a51	-0.10655654
224	0x3dbd4fc4	0.0924373
225	0xbdbfb949	-0.09361512
226	0x3d5ae53e	0.05344128
227	0xbde9f99a	-0.11424561
228	0xbb6665c1	-0.0035155865
229	0x3e0d57ea	0.13803068
230	0x3cfe9e62	0.031081382
231	0xbd94e5ee	-0.07270418
232	0x3a97c7de	0.0011579951
233	0x3c6590d8	0.014011584
234	0xbe223594	-0.15840751
235	0xbd68400a	-0.056701697
236	0xbd90725e	-0.07053064
237	0xbda0d218	-0.07852572
238	0x3d9b3268	0.075779736
239	0x3e08fdb4	0.1337803
240	0xbd5c994c	-0.053857133
241	0x3c95dc15	0.01829342
242	0xbd809663	-0.06278684
243	0xbe02b835	-0.12765582
244	0xba9de60c	-0.0012046709
245	0x3dc9c482	0.09851934
246	0x3dc6983d	0.09697006
247	0xbdd1c46c	-0.102425426
248	0xbb918d00	-0.0044418573
249	0xbdd09455	-0.10184542
250	0x3d650550	0.05591327
251	0xbcbbe261	-0.022935094
252	0xbc81e2c4	-0.0158552
253	0x3e4f89d6	0.20267424
254	0x3c670d67	0.014102316
255	0x3dc2c034	0.09509316

tcn.network.0.downsample.weight f4 [32, 32, 1]
0	0x3dcdeb55	0.10054652
1	0xbe4c900c	-0.19976825
2	0xbdcf67f9	-0.10127253
3	0xbe3f3981	-0.1867428
4	0x3d768f98	0.060195535
5	0xbdac9f00	-0.08428764
6	0x3e102e56	0.14080176
7	0xbd677fcb	-0.056518357
8	0x3e220113	0.15820722
9	0x3d69df6a	0.05709783
10	0xbda14fb5	-0.07876531
11	0x3dc72335	0.09723512
12	0xbe2d8f00	-0.16949081
13	0xbcaef489	-0.021356838
14	0x3e32eabb	0.17472355
15	0x3d9ce4b0	0.07660806
16	0xbb3b2654	-0.002855678
17	0x3dc88914	0.097917706
18	0xbdda3827	-0.106552415
19	0xbc3ccfd2	-0.011524158
20	0xbdd5ae55	-0.10433642
21	0x3da36fe6	0.07980327
22	0x3dbc817f	0.09204387
23	0xbd976cd3	-0.073938034
24	0xbd3247ac	-0.043525383
25	0xbe13a4cb	-0.14418332
26	0xbe3526ee	-0.17690632
27	0x3bcbc0e2	0.006218062
28	0xbda8ea4e	-0.08247815
29	0x3dd55e59	0.10418386
30	0x3dfa4a84	0.12221244
31	0xbe3c38fe	-0.18381116
32	0xbd5c1a5f	-0.053736087
33	0xbdc65d16	-0.096857235
34	0xbe378ca1	-0.1792474
35	0xbdfb7b5d	-0.12279389
36	0xbcae7290	-0.021294862
37	0xbc7fec98	-0.015620373
38	0x3d204bb8	0.03913471
39	0x3e3861b0	0.18006015
40	0xbd661029	-0.056167755
41	0xbe201d01	-0.15636064
42	0x3e83c765	0.25738063
43	0xbe9a4a1e	-0.30134672
44	0xbba8262a	-0.0051315026
45	0xbdea9e7f	-0.11456012
46	0x3e20d7ad	0.15707274
47	0x3e195012	0.1497195
48	0xbe9321da	-0.28736764
49	0xbe21e412	-0.15809658
50	0x3e2d91f7	0.16950212
51	0xbd7b6125	-0.06137194
52	0xbcf7c09d	-0.030243212
53	0x3e073c7b	0.13206665
54	0xbc98d889	-0.01865794
55	0x3d8ad4df	0.06778883
56	0xbce15cd8	-0.027510092
57	0xbe5b9596	-0.21443781
58	0xbe7465c4	-0.23866946
59	0xbe3faeb1	-0.18718983
60	0x3e139a19	0.14414252
61	0xbe59e503	-0.21278767
62	0xbe88be7c	-0.26707828
63	0xbc9e6bc4	-0.019338496
64	0x3de312c8	0.110875666
65	0xbde85c21	-0.11345697
66	0x3e42de46	0.19030103
67	0x3dc251e9	0.09488279
68	0xbce4748a	-0.027887601
69	0xbc8d14fe	-0.017221924
70	0xbd87f723	-0.066389345
71	0xbdc003e0	-0.09375739
72	0x3dc0f501	0.09421731
73	0x3c38b525	0.011273657
74	0x3c8d874e	0.017276432
75	0xbd8463c2	-0.0646434
76	0x3dcac159	0.099001594
77	0x3d88d2f3	0.0668086
78	0x3caa5a2a	0.020794947
79	0x3e18e48c	0.14930934
80	0x3df3fae7	0.1191309
81	0xbe39fc25	-0.18162592
82	0xbd57872f	-0.052619155
83	0xbd532b85	-0.051555175
84	0xbe201b77	-0.15635477
85	0x3e20499b	0.15653078
86	0x3dfc2033	0.12310829
87	0x3d84ae5d	0.0647857
88	0xbda1933f	-0.07889413
89	0xbcbd5da1	-0.023115935
90	0xbe2cef90	-0.16888261
91	0x3c53fd3e	0.012938796
92	0x3d3dbbc3	0.04632164
93	0xbddadb6d	-0.106863834
94	0x3ceb012a	0.028687079
95	0x3e09568a	0.13411918
96	0xbe246907	-0.1605569
97	0xbe40bc68	-0.18821871
98	0xbe3fc4cf	-0.1872742
99	0x3de699d9	0.11259813
100	0xbcbb93cd	-0.022897625
101	0xbd0ecd76	-0.03486391
102	0x3e87ae85	0.26500335
103	0xbc792509	-0.015206584
104	0x3d2c8a86	0.042124294
105	0x3b24abcd	0.0025126815
106	0x3df1f38a	0.118140295
107	0xbd8654a3	-0.06559112
108	0x3d801ba0	0.06255269
109	0xbe07a8e3	-0.13248019
110	0x3df9e4ad	0.122018196
111	0xbe044bfc	-0.1291961
112	0xbd885d92	-0.06658472
113	0xbe650783	-0.22366147
114	0xbe03cd94	-0.1287139
115	0xbe2515d5	-0.1612161
116	0xbe2c8637	-0.16848074
117	0x3e66ca15	0.22538026
118	0xbe3acd56	-0.18242392
119	0xbdd69450	-0.10477507
120	0xbd9f99ea	-0.07793029
121	0xbe5f6481	-0.21815683
122	0xbe89710f	-0.2684407
123	0x3daed81d	0.08537314
124	0x3df182d4	0.117925316
125	0xbe2f5109	-0.17120756
126	0xbd8eccdb	-0.06972667
127	0xbe15f1a5	-0.14642961
128	0xbe3b2695	-0.18276437
129	0x3c378683	0.011201504
130	0xbe2092cd	-0.15681
131	0xbcc88658	-0.024478123
132	0x3dfbcf8b	0.12295445
133	0xbe381591	-0.17976977
134	0x3dce3489	0.10068614
135	0x3d6c31fe	0.057664864
136	0xbdeccb23	-0.11562183
137	0xbe2bd649	-0.16780962
138	0xbe058780	-0.1303997
139	0xbe3496e9	-0.17635693
140	0x3de321a5	0.110904016
141	0x3e1b0e7d	0.15142246
142	0xbe46e410	-0.19422936
143	0x3dffa7ec	0.124832004
144	0xbe518aa4	-0.20463043
145	0xbe5db640	-0.21651554
146	0x3e45d253	0.19318514
147	0x3d65896a	0.05603925
148	0xbc6655a2	-0.014058502
149	0x3e7e4ed7	0.24834763
150	0xbd99fa41	-0.07518435
151	0xbe5fdac3	-0.21860795
152	0xbd964a5b	-0.07338401
153	0xbd0b5cb0	-0.03402394
154	0xbe21f536	-0.15816197
155	0xbd640dd8	-0.055677265
156	0x3d1a9a87	0.037745025
157	0x3e4a28d3	0.19742136
158	0xbd830081	-0.063965805
159	0xbe0a8d38	-0.13530433
160	0x3cf55bd5	0.029951015
161	0xbe2738ef	-0.16330312
162	0x3daf0275	0.085453905
163	0x3c759868	0.01498995
164	0x3d9b84ff	0.07593726
165	0x3d99a1e4	0.07501581
166	0x3e098b7f	0.1343212
167	0x3df0f36f	0.11765181
168	0x3e11e85c	0.14248794
169	0x3c43901f	0.011936217
170	0x3e1c69e5	0.1527477
171	0x3d2b3f08	0.04180816
172	0xbd687aaf	-0.056757625
173	0xbda599d7	-0.08085983
174	0x3c32067b	0.010865803
175	0x3d23561f	0.039877053
176	0xbe2d2fc6	-0.16912755
177	0x3d4d4e97	0.050123777
178	0xbd64008f	-0.055664595
179	0xbd50c639	-0.05097029
180	0x3d89677b	0.067091905
181	0x3d3ba2f4	0.0458097
182	0x3dd52518	0.10407466
183	0xbd14e709	-0.036353145
184	0xbe2cd0cf	-0.16876529
185	0xbe3f41e6	-0.18677482
186	0xbe4f76ef	-0.20260213
187	0xbdbabae5	-0.091176786
188	0xbd912c0d	-0.0708848
189	0xbd0e606a	-0.034759916
190	0xbe2a8369	-0.16651691
191	0x3e182238	0.14856803
192	0xbcdc99d2	-0.026928816
193	0xbe008f99	-0.12554778
194	0x3c4b0557	0.01239141
195	0x3d935be9	0.07195265
196	0xbd93dd2a	-0.07219918
197	0x3e2644cf	0.16237186
198	0xbd187fa9	-0.03723112
199	0x3dd0250c	0.10163316
200	0xbdb5c2cc	-0.08875045
201	0x3d6f76d1	0.05846292
202	0xbcbeaef1	-0.023276778
203	0xbd0fe412	-0.035129614
204	0xbcdb487e	-0.026767965
205	0x3e0c0670	0.1367433
206	0x3e351c2b	0.17686526
207	0x3db4ce39	0.08828396
208	0xbb31338c	-0.002703878
209	0x3b4ea361	0.0031530487
210	0xbd22c9cd	-0.039743233
211	0xbc9e6501	-0.019335272
212	0xbd3781d6	-0.044801556
213	0xbdaf30a2	-0.08554198
214	0xb79d3ddd	-1.8744666e-05
215	0x3d53d30a	0.051714934
216	0xbd9df64b	-0.07712992
217	0xbd58393b	-0.052788954
218	0x3d03c367	0.032168772
219	0x3d393837	0.045219626
220	0xbd9f578e	-0.077803716
221	0xbd24bccd	-0.040219117
222	0xbd62141f	-0.05519497
223	0x3d8c97eb	0.068649136
224	0x3e0ca318	0.1373409
225	0xbdac5ea4	-0.08416489
226	0x3e669fb5	0.22521861
227	0xbdfca409	-0.12335975
228	0x3cb1079d	0.021610076
229	0xbca945d5	-0.020663181
230	0xbe14ef1d	-0.1454434
231	0x3c5e2cd2	0.013560491
232	0x3cef8d9a	0.029242326
233	0x3ead1c37	0.3381059
234	0x3bf26d32	0.007398271
235	0x3e87c102	0.2651444
236	0x3d227abe	0.039667837
237	0x3dcf6642	0.10126926
238	0x3e5c5c82	0.21519664
239	0x3e595e9e	0.212275
240	0x3e85f4fb	0.26163468
241	0x3e380082	0.17968944
242	0xbe8d6422	-0.27615458
243	0x3e8093c6	0.25112742
244	0x3e375ffe	0.17907712
245	0xbe3898b0	-0.18026996
246	0xbe768d7c	-0.2407741
247	0x3dd737c0	0.1050868
248	0x3db92b95	0.09041516
249	0x3e1ef6d5	0.15523846
250	0xbda52ec7	-0.08065563
251	0xbe667c57	-0.2250837
252	0xbe65df28	-0.22448409
253	0xbe547ef0	-0.20751548
254	0x3e1dcc8a	0.15410057
255	0x3e42f08d	0.19037075

tcn.network.0.downsample.bias f4 [32]
0	0x3d4de033	0.05026264
1	0x3c9c13f0	0.019052476
2	0x3de296b9	0.11063904
3	0xbe1cc50c	-0.15309542
4	0xbe006d04	-0.12541586
5	0xbdd03240	-0.101658344
6	0xbd9efc80	-0.07763004
7	0xbd3e3fff	-0.04644775
8	0x3dc773b7	0.09738868
9	0xbcb36f62	-0.021903697
10	0x3e08eaec	0.13370866
11	0xbdd0bd68	-0.101923764
12	0xbe02ba7c	-0.1276645
13	0x3d616644	0.05502917
14	0xbc54e0ac	-0.012993019
15	0xbdaea9e1	-0.085284956
16	0xbde21f7f	-0.11041164
17	0xbdfa5aad	-0.12224326
18	0x3dd91da4	0.106013566
19	0xbe38a406	-0.1803132
20	0x3e4def9c	0.20110935
21	0xbddd4738	-0.108045995
22	0x3d8c2e97	0.06844824
23	0x3e0b23e4	0.1358791
24	0xbe64a548	-0.22328675
25	0x3e0d2f73	0.13787632
26	0xbddc08f1	-0.10743893
27	0xbe31136f	-0.1729257
28	0xbd6211d6	-0.05519279
29	0xbe0d1164	-0.13776165
30	0xbd9f5971	-0.077807315
31	0xbdb7ddb9	-0.08977837

tcn.network.1.conv1.bias f4 [32]
0	0xbdaec2ef	-0.085332744
1	0x3d93e36d	0.072211124
2	0x3d2cdebb	0.0422046
3	0xbe8c4f70	-0.27404356
4	0xbcf73645	-0.030177245
5	0x3dcae52a	0.09906991
6	0xbcaa285b	-0.020771196
7	0xbe017e0d	-0.12645741
8	0x3daf71dd	0.085666396
9	0xbe000dcd	-0.12505265
10	0xbdd9669f	-0.106152765
11	0xbc7d45ac	-0.015458506
12	0xbd54a848	-0.051918298
13	0x3d2b9f3b	0.0418999
14	0x3d801ac1	0.06255103
15	0x3d096664	0.033544913
16	0xbc75a814	-0.014993686
17	0x3b7c73ae	0.00385211
18	0x3e023447	0.12715255
19	0x3dbb5f36	0.091490194
20	0x3db170dd	0.08664105
21	0xbca9e07c	-0.020736925
22	0xbda43a7b	-0.08018967
23	0xbd7acd60	-0.061231017
24	0xbe045d42	-0.129262
25	0x3dcc8ed6	0.09988181
26	0xbdebfbdc	-0.11522648
27	0xbd97f2cf	-0.07419359
28	0x3dcfb279	0.10141463
29	0x3da89a87	0.08232599
30	0xbd2da6f3	-0.042395543
31	0xbe167a50	-0.14695096

tcn.network.1.conv1.weight_g f4 [32, 1, 1]
0	0x3f15b339	0.584766
1	0x3f089d78	0.5336528
2	0x3f37f14b	0.7185256
3	0x3f270431	0.6524077
4	0x3f31eb99	0.6950012
5	0x3f69ef6b	0.9138095
6	0x3f512d11	0.8170939
7	0x3f0ecef5	0.5578454
8	0x3f3e1907	0.7425694
9	0x3f0e8031	0.55664355
10	0x3f091673	0.5354988
11	0x3f08a486	0.5337604
12	0x3f1b8a86	0.60758245
13	0x3f4b72cd	0.7947205
14	0x3eeb2f5b	0.45934567
15	0x3f19f65e	0.6014155
16	0x3f3a2f8b	0.72728795
17	0x3f0e7e8e	0.5566186
18	0x3f0eaccf	0.55732435
19	0x3f0b6765	0.5445464
20	0x3f0f496f	0.55971426
21	0x3f11db59	0.5697532
22	0x3f1e56ac	0.61851
23	0x3f347f63	0.70506877
24	0x3f09b20e	0.53787315
25	0x3f4fbb62	0.811453
26	0x3f0d02ae	0.55082214
27	0x3f0ffedc	0.5624826
28	0x3f392836	0.7232698
29	0x3f49a688	0.7876973
30	0x3f08e5d9	0.5347572
31	0x3f189bce	0.5961274
