models/prototyping6/tcn_fold_9/best.pth (torch, 224151 bytes, 130 tensors)

tcn.d_reduce.weight f4 [32, 1, 1]
0	0x3eb6fbad	0.35738888
1	0xbea0b998	-0.31391597
2	0x3f783a26	0.9696373
3	0x3f65f33d	0.8982428
4	0xbe39e065	-0.18152006
5	0xbe7ef389	-0.24897589
6	0x3ef85677	0.48503467
7	0x3e8624ec	0.26200044
8	0xbf051d46	-0.5199779
9	0xbf172367	-0.59038395
10	0x3f74c2ac	0.95609546
11	0x3ee6461e	0.4497537
12	0x3f27f3d8	0.6560645
13	0x3f34a082	0.70557415
14	0xbefe63ea	-0.49685603
15	0x3f2dc9c0	0.6788597
16	0xbf123cb0	-0.5712385
17	0x3f872c19	1.0560333
18	0x3f89acd6	1.075587
19	0x3f7f729b	0.9978425
20	0xbe909fb1	-0.28246835
21	0x3edaac12	0.42709404
22	0x3f908ec2	1.1293566
23	0x3f719201	0.9436341
24	0x3e23f89a	0.16012803
25	0xbf1681f2	-0.5879203
26	0xbecb7cf8	-0.3974378
27	0xbe78e836	-0.24307331
28	0x3f14ac36	0.58075273
29	0xbee1deae	-0.44115204
30	0xbf2ff6d4	-0.68736005
31	0xbf4db9fe	-0.80361927

tcn.d_reduce.bias f4 [32]
0	0x3f01c415	0.5068982
1	0x3ec19c4f	0.37814566
2	0xbf769c3b	-0.9633214
3	0xbef98469	-0.48733833
4	0xbecb7bb8	-0.39742827
5	0xbedf28e8	-0.43585896
6	0x3eb773ac	0.35830438
7	0xbf409c7d	-0.7523878
8	0xbf26d9c7	-0.6517605
9	0xbf6a1076	-0.9143137
10	0x3e9fa110	0.31177568
11	0xbdc29da0	-0.09502721
12	0xbf366a7b	-0.71256226
13	0x3cd58fc0	0.026069522
14	0x3e4f3adf	0.20237301
15	0x3f2b7ea4	0.66990113
16	0xbed7eee5	-0.4217445
17	0xbf4d7c6e	-0.8026799
18	0x3f1e80ff	0.6191558
19	0x3f0a0a24	0.53921723
20	0x3f579ae8	0.84220743
21	0x3ebbd611	0.36686757
22	0x3f71ef35	0.94505626
23	0x3f30784b	0.6893355
24	0x3e1bbf33	0.15209655
25	0xbe07567f	-0.1321659
26	0xbe315287	-0.17316638
27	0xbf175e1e	-0.59127986
28	0xbf740c27	-0.95331043
29	0x3eecca3d	0.46248046
30	0xbe15cda2	-0.14629224
31	0xbdb1fb74	-0.08690539

tcn.network.0.conv1.bias f4 [32]
0	0xbca51383	-0.020150905
1	0x3db260f1	0.08709896
2	0xbd4e7bae	-0.05041092
3	0x3c787401	0.015164376
4	0xbda7e1ca	-0.08197363
5	0xbe0a71d6	-0.13519987
6	0xbe1cb540	-0.15303516
7	0x3d8832ac	0.0665029
8	0xbe2f99ce	-0.17148516
9	0xbd3a164d	-0.045431424
10	0x3de70051	0.11279357
11	0x3d579287	0.052629974
12	0xbdcecfa5	-0.10098199
13	0xbd2f9620	-0.04286778
14	0xbe1cf432	-0.15327528
15	0xbca7bb63	-0.020475095
16	0xbd1ba970	-0.038003385
17	0xbcbf5fcd	-0.023361111
18	0xbdf19dd5	-0.11797682
19	0xbdb44868	-0.08802873
20	0x3d5440d3	0.051819634
21	0xbd33fdc4	-0.04394318
22	0xbd500632	-0.05078716
23	0x3afeec8e	0.0019449161
24	0xbde92094	-0.11383167
25	0x3da97560	0.08274341
26	0x3c57445f	0.0131388595
27	0xbdef3801	-0.11680604
28	0x3bbd32c4	0.005773874
29	0xbcc2aaab	-0.023763021
30	0xbd04d762	-0.032431968
31	0xbe11fbdd	-0.14256234

tcn.network.0.conv1.weight_g f4 [32, 1, 1]
0	0x3f0270c5	0.5095332
1	0x3eeb5cf0	0.45969343
2	0x3f0f6f04	0.5602877
3	0x3f084e49	0.53244454
4	0x3f185987	0.5951161
5	0x3f256f7b	0.6462323
6	0x3f042043	0.5161173
7	0x3f0b3d1b	0.54390115
8	0x3f10fdab	0.56637067
9	0x3f0c18b5	0.547252
10	0x3f0007c3	0.50011843
11	0x3f123cd4	0.57124066
12	0x3f12cbe7	0.5734238
13	0x3f1fb9c0	0.62392807
14	0x3f05e793	0.5230648
15	0x3f1afb3c	0.60539603
16	0x3f09f9b6	0.53896654
17	0x3efa2a7c	0.48860538
18	0x3f136fc1	0.575924
19	0x3f0ac894	0.5421231
20	0x3f115dd3	0.5678379
21	0x3f172909	0.5904699
22	0x3f0b2e31	0.5436736
23	0x3f1c68ba	0.610973
24	0x3f2f03ce	0.6836518
25	0x3f1ae5ec	0.6050708
26	0x3f02df0a	0.5112158
27	0x3f127224	0.57205415
28	0x3f3eec87	0.7457966
29	0x3f1266b2	0.5718795
30	0x3f050a00	0.51968384
31	0x3f0d2a7f	0.5514297

tcn.network.0.conv1.weight_v f4 [32, 32, 2]
0	0x3d44e0c2	0.04806591
1	0xbd059a87	-0.032618072
2	0xbde47f9c	-0.11157152
3	0xbdb286a9	-0.08717091
4	0x3d8cc0d4	0.068727165
5	0x3e14a499	0.14515914
6	0x3e04e639	0.12978448
7	0x3d991f41	0.07476664
8	0xbd801124	-0.06253269
9	0xbc172a61	-0.0092264125
10	0xbdb9ff14	-0.090818554
11	0x3dccf0d2	0.1000687
12	0x3de7f801	0.113266
13	0xbcc950f2	-0.02457473
14	0x3e0f7445	0.14009197
15	0x3e05756e	0.13033077
16	0x3d8931af	0.066989295
17	0x3d8651a5	0.06558541
18	0xba5d296e	-0.00084366545
19	0x3d9cf329	0.076635666
20	0x3ce25b7f	0.02763152
21	0x3de5f66b	0.11228641
22	0xbda4fa38	-0.08055538
23	0x3d8f9427	0.0701068
24	0x3dbdca17	0.09267061
25	0x3d925160	0.07144427
26	0xbd3103c7	-0.043216493
27	0x3ce37269	0.027764516
28	0xbd244470	-0.04010433
29	0xbd779e28	-0.060453564
30	0x3d6321f8	0.055452317
31	0x3d2d09b3	0.042245578
32	0xbd19ac32	-0.037517734
33	0x3e1712d0	0.1475327
34	0x3e4d455c	0.2004599
35	0xbb110df9	-0.0022133572
36	0x3d3c4984	0.045968547
37	0x3db4af1d	0.08822463
38	0xbbbcf7dd	-0.0057668523
39	0xbda55a4d	-0.08073864
40	0xbd07e995	-0.033181746
41	0xbe24dde5	-0.16100271
42	0xbd0f9bd6	-0.035060726
43	0x3d318932	0.04334373
44	0x3d0eee2c	0.034895107
45	0x3d97041c	0.07373831
46	0x3ccba50e	0.024858978
47	0xbb431f3d	-0.0029773258
48	0x3daa9ac1	0.08330298
49	0xbd88e9db	-0.066852294
50	0x3da22442	0.07917072
51	0xbe15613c	-0.14587873
52	0xbe2b3d64	-0.16722637
53	0x3e0a1144	0.13483149
54	0xbcb6ac01	-0.022298815
55	0x3d453b33	0.04815216
56	0x3d2fd065	0.04292335
57	0x3ddede50	0.108822465
58	0x3d4d60de	0.050141208
59	0xbc6d8429	-0.0144968415
60	0x3db91953	0.09038033
61	0x3c9085b7	0.017641885
62	0xbe8e91f9	-0.27845743
63	0x3c27c987	0.010240919
64	0x3cdd42ec	0.02700945
65	0x3e304549	0.1721393
66	0xbde00329	-0.10938103
67	0xbd537e70	-0.051634252
68	0x3dcf4d79	0.101221986
69	0x3e125b51	0.14292647
70	0xbdcf4b81	-0.10121823
71	0xbd91b942	-0.07115413
72	0xbda61cc5	-0.08110956
73	0x3d823a22	0.06358744
74	0x3d57239a	0.052524187
75	0xbd9e6576	-0.07734196
76	0xbd399c6b	-0.045315187
77	0x3e14ebef	0.14543127
78	0x3d72e777	0.059302773
79	0x3dfebc84	0.124383
80	0xbdddb98d	-0.10826407
81	0xbd0677e2	-0.032829173
82	0xbd87d15c	-0.06631729
83	0x3df9637a	0.12177177
84	0xbbe984e4	-0.0071264375
85	0xbd0bb74a	-0.034110345
86	0xbe00ede4	-0.12590748
87	0xbda37a5e	-0.07982324
88	0x3d54e749	0.051978383
89	0x3d75293d	0.05985378
90	0xbdc5d434	-0.09659615
91	0x3e2b5d1d	0.16734739
92	0xbcb96c01	-0.022634508
93	0x3de8e754	0.11372247
94	0x3c0718d2	0.008245664
95	0xbb1ace27	-0.0023621412
96	0x3dcb77f5	0.09934989
97	0xbe48da5d	-0.19614549
98	0xbd52268c	-0.051306292
99	0xbbd695d9	-0.006548625
100	0xbc9828a6	-0.01857407
101	0x3e1afc85	0.15135391
102	0xbd8677fe	-0.065658554
103	0xbb22565e	-0.0024770717
104	0x3dbf8c0c	0.09352884
105	0x3c6f105a	0.014591301
106	0x3df08483	0.117440246
107	0xbe03b80a	-0.12863174
108	0x3c361250	0.0111127645
109	0x3d224263	0.039614093
110	0xbe16320a	-0.14667526
111	0x3d4dc08c	0.050232455
112	0xbd95cb0a	-0.07314117
113	0x3e305ff2	0.172241
114	0xbe0a4bc1	-0.1350546
115	0xbd9a61c3	-0.07538178
116	0xbcc1c582	-0.02365375
117	0x3d1ccc54	0.0382808
118	0x3c80f18d	0.01574018
119	0xbde697f9	-0.11259455
120	0x3cda01b0	0.026612133
121	0x3ce23864	0.02761478
122	0xbc14dd51	-0.009085969
123	0xbd7bc4db	-0.061467033
124	0x3cfc8eab	0.030829748
125	0x3dae3159	0.08505506
126	0x3d8e85bf	0.06959104
127	0xbd60b01f	-0.054855462
128	0xbd6f078c	-0.058356807
129	0x3dce8cce	0.1008545
130	0x3cb61ec3	0.022231465
131	0xbce8d698	-0.028422639
132	0x3d731a35	0.059351165
133	0xbd4f51da	-0.05061517
134	0x3e0c187b	0.13681214
135	0xbd85ccb8	-0.06533188
136	0xbdcda374	-0.10040942
137	0x3dbbdf23	0.09173419
138	0x3d1cda79	0.03829429
139	0x3c9d03ed	0.019166911
140	0x3cd8a99d	0.026448065
141	0x3e9157c6	0.28387278
142	0xbe055500	-0.13020706
143	0x3defe404	0.117134124
144	0x3d754fd3	0.05989058
145	0xbd6bb22e	-0.057542972
146	0xbe0abf72	-0.13549593
147	0x3cbcbe70	0.023040026
148	0x3e01e04f	0.12683223
149	0x3e0fc79a	0.14040986
150	0xba3896f7	-0.00070415385
151	0x3ddbfad5	0.10741202
152	0x3d49a1df	0.049226638
153	0x3dee5a65	0.11638335
154	0xbd79ccb1	-0.060986225
155	0xbcaf35e9	-0.021388011
156	0x3d02d2e1	0.03193939
157	0x3c14e859	0.009088599
158	0xbda2a4df	-0.07941603
159	0x3e04d618	0.12972295
160	0x3d837593	0.0641891
161	0xbdab15ff	-0.08353805
162	0xbdd8aa32	-0.10579337
163	0xbd36bbbe	-0.04461264
164	0x3b8579c3	0.004073353
165	0xbdc9fb75	-0.09862415
166	0x3d646515	0.05576046
167	0x3c947503	0.018122202
168	0x3dd49740	0.10380411
169	0x3d85a930	0.065264106
170	0x3d946fff	0.07247924
171	0x3e892e1b	0.26792988
172	0x3e04d551	0.12971999
173	0x3ce8d83e	0.028423425
174	0xbdd13f3b	-0.102171384
175	0xbd9f91a9	-0.07791454
176	0x3e6a2c8b	0.22868554
177	0xbdbeeed0	-0.093228936
178	0xbe456055	-0.19275029
179	0x3c81660a	0.015795726
180	0xbe754ef2	-0.23955896
181	0xbe4b9397	-0.1988052
182	0xbd833004	-0.06405643
183	0xbd0c5de9	-0.034269247
184	0xbd19ec5f	-0.037578937
185	0x3e011003	0.12603764
186	0xbd6ba5f3	-0.05753131
187	0xbd099804	-0.03359224
188	0xbe55a599	-0.20863952
189	0xbd4c25db	-0.04984079
190	0xbe28dc30	-0.16490245
191	0xbe175399	-0.14777984
192	0x3b548f29	0.0032433963
193	0xbb4eb10a	-0.003153863
194	0xbdd6876e	-0.1047505
195	0x3d0f8106	0.035035156
196	0x3cea439d	0.028596694
197	0xbda2a714	-0.07942024
198	0xbdaceea8	-0.084439576
199	0xbd8b266a	-0.06794436
200	0x3e044c06	0.12919626
201	0x3d9afb6b	0.075674854
202	0x3c63984a	0.013891289
203	0x3ccf1afa	0.025281418
204	0x3ca9167b	0.020640602
205	0xbcd44785	-0.02591301
206	0x3d375360	0.044757247
207	0x3d968037	0.07348674
208	0xbb920625	-0.004456299
209	0x3c2a9665	0.010411833
210	0x3cc962dd	0.024583274
211	0x3db4688d	0.08809004
212	0xbde9b920	-0.11412263
213	0xbe000d23	-0.12505011
214	0x3db30911	0.08741964
215	0xbc2ce431	-0.010552452
216	0xbcaf9167	-0.021431638
217	0xbd9eeaa6	-0.077595994
218	0x3d9ef436	0.07761423
219	0x3dcb31b3	0.09921589
220	0xbd919e33	-0.07110252
221	0xbd4310ca	-0.047623433
222	0x3dd0bd8b	0.101924025
223	0xbdbc0602	-0.091808334
224	0x3dec6777	0.11543172
225	0x3df0e049	0.11761529
226	0x3d1cafc6	0.038253568
227	0x3e00558b	0.12532632
228	0x3d81c606	0.06336598
229	0x3b8f71b0	0.0043775663
230	0xbd3764e0	-0.044773936
231	0xbd031b48	-0.03200844
232	0xbd97a82f	-0.07405125
233	0xbe106fdb	-0.1410517
234	0xbd393b08	-0.045222312
235	0xbdeabff8	-0.114623964
236	0x3a1a7992	0.0005892749
237	0x3dd6a8ac	0.1048139
238	0x3d3acedc	0.045607433
239	0x3c9ca093	0.019119537
240	0xbdf3e1fe	-0.11908339
241	0xbc43eecf	-0.011958792
242	0xbc8a8b8c	-0.016912244
243	0xbd68de32	-0.056852527
244	0xbda5af67	-0.08090096
245	0xbde31206	-0.11087422
246	0xbdd25f5d	-0.10272095
247	0xbcbadd6b	-0.022810658
248	0x3dd57aa4	0.104237825
249	0xbd9638a1	-0.0733502
250	0x3d2fd004	0.04292299
251	0xbd0f9bd5	-0.035060722
252	0xbc4dcc29	-0.012560883
253	0x3e0c1af0	0.13682151
254	0x3dab0d66	0.08352165
255	0xbdc665ba	-0.096873716

tcn.network.0.conv2.bias f4 [32]
0	0x3db5a628	0.088695824
1	0xbdcdc1b9	-0.10046715
2	0xbe3cb220	-0.18427324
3	0xbcc60e7a	-0.024176825
4	0x3d7532de	0.059862964
5	0x3d4d593f	0.05013394
6	0xbe103ecf	-0.1408646
7	0x3d129c90	0.03579384
8	0x3d7b769e	0.06139242
9	0x3d87d7de	0.0663297
10	0xbe07ee67	-0.13274537
11	0x3dff5c36	0.1246876
12	0x3c841e74	0.016127802
13	0xbd1bb6ac	-0.038016006
14	0xbdbe04af	-0.09278237
15	0x3d5621b3	0.05227823
16	0x3d95bbc2	0.073112026
17	0xbdb7acd4	-0.08968511
18	0x3cb0efcc	0.021598719
19	0x3c8ecd49	0.017431872
20	0xbd83fe43	-0.06444981
21	0x3cb41e28	0.021987036
22	0x3defbf10	0.11706364
23	0x3cd695dc	0.026194505
24	0xbe281bc6	-0.16416845
25	0xbdf26a1e	-0.118366465
26	0xbdd64ebe	-0.10464238
27	0x3e04e772	0.12978914
28	0xbc95c73e	-0.018283483
29	0x3c9c0c43	0.019048816
30	0x3dc11a10	0.09428799
31	0xbd8147d8	-0.06312531

tcn.network.0.conv2.weight_g f4 [32, 1, 1]
0	0x3f0b5d4d	0.5443924
1	0x3f1f7ba4	0.62298036
2	0x3f043286	0.5163959
3	0x3f12f316	0.5740217
4	0x3efb0c8b	0.49033007
5	0x3f16b7ad	0.58874017
6	0x3f0e671e	0.55626094
7	0x3efc19c0	0.49238396
8	0x3f11ecf8	0.5700221
9	0x3f2baddf	0.6706218
10	0x3f046470	0.51715755
11	0x3f2ad883	0.6673662
12	0x3f12583b	0.5716588
13	0x3f19dfa4	0.60106874
14	0x3eedfbf7	0.46481296
15	0x3ed23c89	0.4106181
16	0x3f137277	0.57596534
17	0x3f130370	0.5742712
18	0x3f150a22	0.58218586
19	0x3f0169d6	0.5055212
20	0x3f04b14f	0.5183305
21	0x3f143e37	0.5790743
22	0x3ef73a58	0.482867
23	0x3ecbad41	0.3978062
24	0x3f0ced34	0.55049443
25	0x3ef855de	0.4850301
26	0x3f124414	0.5713513
27	0x3f13ec02	0.57781994
28	0x3f05ee55	0.5231679
29	0x3f158ab9	0.584148
30	0x3f0e17a9	0.5550485
31	0x3efb5ee2	0.49095827

tcn.network.0.conv2.weight_v f4 [32, 32, 2]
0	0xbda6d9d9	-0.0814702
1	0x3ce4abd7	0.02791397
2	0x3e19d470	0.15022445
3	0x3d88c24d	0.06677685
4	0xbcf878ce	-0.030331042
5	0x3e0926c7	0.13393699
6	0xba084e9b	-0.00051997014
7	0xbd898ebe	-0.06716679
8	0xbd11a2bf	-0.035555597
9	0xba460b5c	-0.0007554793
10	0x3e0e4858	0.13894784
11	0x3e364880	0.17801094
12	0xbd31461f	-0.043279763
13	0x3d959480	0.07303715
14	0x3c630985	0.01385725
15	0x3dcf0f91	0.10110391
16	0xbdfc74a1	-0.12326933
17	0x3df90a1e	0.12160133
18	0xbd8a5aaa	-0.06755574
19	0xba897049	-0.0010485734
20	0xbbf6c19a	-0.0075304033
21	0x3d82cb3d	0.06386421
22	0xbd4af58f	-0.04955059
23	0x3c864e04	0.016394623
24	0xbd49d295	-0.049273092
25	0x3c30c47a	0.010789031
26	0x3df248a6	0.11830263
27	0x3dd6bb99	0.10485
28	0xbd886894	-0.06660572
29	0x3d5046c3	0.050848734
30	0x3d937a02	0.072010055
31	0x3e762141	0.24036123
32	0xbc01da90	-0.0079256445
33	0x3dc95142	0.09829952
34	0x3deea8a6	0.11653261
35	0xbcc3c4c4	-0.023897536
36	0x3e49ca06	0.19705972
37	0x3e21f1eb	0.1581494
38	0x3dd2b5d8	0.1028859
39	0x3b868f2a	0.004106422
40	0xbe1890c3	-0.14898972
41	0xbd9eac96	-0.07747762
42	0x3e1b027d	0.15137668
43	0x3debc9cc	0.11513099
44	0xbcd7fcc8	-0.026365653
45	0x3d9954a7	0.07486849
46	0x3df0e1ad	0.11761794
47	0x3d97704e	0.07394467
48	0xbb9b76f7	-0.0047444063
49	0x3dbdc785	0.09266571
50	0x3e293979	0.1652583
51	0x3dcfd2f8	0.10147661
52	0xbc8afd87	-0.016966594
53	0x3df8593c	0.12126395
54	0xbcbbd6e1	-0.02292961
55	0x3d5c3381	0.053760055
56	0x3d1d060f	0.038335856
57	0x3d90d745	0.070723094
58	0xbdc00141	-0.09375239
59	0xbd8a4d5b	-0.06753036
60	0x3c8e6af8	0.017384991
61	0x3de7f5c2	0.113261715
62	0x3d639f9e	0.055572145
63	0x3d996577	0.07490056
64	0x3e75172a	0.23934618
65	0xbc7422e6	-0.014900899
66	0x3ca526bd	0.020160073
67	0xbd772aca	-0.06034354
68	0x3d524265	0.05133285
69	0x3df9e0fb	0.12201115
70	0xbb31d41a	-0.002713448
71	0xb23fc660	-1.11627685e-08
72	0xbd00a9d9	-0.03141198
73	0x38b8aeed	8.806386e-05
74	0xbc90c7d0	-0.017673403
75	0xbca3ec15	-0.020010034
76	0x3dfe9e78	0.12432569
77	0x3d9f850f	0.07789051
78	0xbce42f2e	-0.027854528
79	0xbaa8b3b7	-0.0012870942
80	0x3e47dae8	0.195171
81	0xbca8f37f	-0.02062392
82	0xbdbf0f8f	-0.093291394
83	0xbe0d2292	-0.13782719
84	0xbbf2c0da	-0.0074082436
85	0x3e07a580	0.13246727
86	0x3dc34528	0.09534675
87	0x3ccd7ab0	0.025082916
88	0xb179a57d	-3.6328338e-09
89	0x3d7c221e	0.061555974
90	0xbb15e216	-0.0022870353
91	0xbc72d04a	-0.014820168
92	0x3e7ba76f	0.2457559
93	0xbca89d2c	-0.020582758
94	0x3ad3a204	0.0016146307
95	0xbc1cc8a9	-0.0095693255
96	0x3e389e4f	0.1802914
97	0xbd0fc7c9	-0.03510264
98	0x3cb6bb81	0.022306206
99	0xbd7f7504	-0.062367454
100	0xb906725c	-0.00012821838
101	0xbd6520b6	-0.0559394
102	0xb919e4e4	-0.00014676485
103	0xbcef418e	-0.029206064
104	0x3deddb48	0.1161409
105	0x3ba9c29e	0.005180671
106	0xbd000db1	-0.031263057
107	0xbde92e1b	-0.11385747
108	0x3dc31338	0.0952515
109	0xbc550d1b	-0.013003613
110	0xbccff251	-0.0253841
111	0xbda9ae10	-0.08285153
112	0xb91c11df	-0.00014883977
113	0xbd003ec8	-0.031309873
114	0x3b6cbd61	0.003612362
115	0xbd87f7c1	-0.06639052
116	0x3e4b0a69	0.1982819
117	0x3de8ef19	0.11373729
118	0x3e91e39a	0.2849396
119	0x3e2810d2	0.16412666
120	0x3b04ea34	0.0020281198
121	0xbc65889a	-0.014009619
122	0x3db258ba	0.087083295
123	0x3dbbf811	0.09178174
124	0x3b610402	0.0034334664
125	0xbd66e48f	-0.056370314
126	0xbdad60e8	-0.08465749
127	0xbb6b36d3	-0.0035890832
128	0x3e01d99c	0.12680668
129	0xbdc97d18	-0.09838313
130	0xbddedf28	-0.108824074
131	0xbe0f953f	-0.14021777
132	0x3e0fecf9	0.14055242
133	0xbe256a36	-0.16153798
134	0x3e10a05e	0.14123675
135	0x3cadf95f	0.021237073
136	0xbdaa4892	-0.08314623
137	0xbdf1a50d	-0.11799059
138	0x3e5ef339	0.2177247
139	0xbcd359e3	-0.025799697
140	0xbe454689	-0.19265188
141	0xbe3af6a4	-0.18258148
142	0x3d5c89f8	0.053842515
143	0xbe48e11e	-0.19617125
144	0xbe3e8b3b	-0.186078
145	0x3dd992dc	0.10623714
146	0xbdf5f362	-0.12009312
147	0xbe3f41e2	-0.18677476
148	0xbe3023ff	-0.17201231
149	0x3ddd3ba0	0.10802388
150	0xbdc21d97	-0.094783
151	0x3e317be4	0.17332417
152	0x3e64e10d	0.22351475
153	0x3d96f06d	0.07370076
154	0xbd036473	-0.032078218
155	0xbb96f531	-0.004606866
156	0x3d7f6793	0.062354635
157	0xbd40b8f5	-0.04705139
158	0x3d808f7c	0.062773675
159	0xbe22c30e	-0.1589472
160	0x3df8216a	0.12115748
161	0xbddca0e8	-0.10772878
162	0x3d71ff4f	0.059081372
163	0xbd25187a	-0.040306546
164	0x3d527684	0.051382557
165	0xbdf9b8c4	-0.12193444
166	0x3d8485b2	0.06470813
167	0x3d87dafa	0.06633563
168	0xbe1665da	-0.14687291
169	0x3d2dc31f	0.04242241
170	0x3d6fbe95	0.058531363
171	0xbe32c70b	-0.17458741
172	0x3dca32cd	0.09872971
173	0x3d9119fb	0.070850335
174	0x3c85a0fd	0.016312117
175	0xbcd0a712	-0.02547029
176	0x3e129d97	0.14317928
177	0x3e3e5d7b	0.18590347
178	0x3d92f689	0.07175929
179	0x3c0e7494	0.008694787
180	0xbe05244e	-0.1300213
181	0xbda9b1ad	-0.08285842
182	0x3e0851c5	0.13312443
183	0xbe35f6ef	-0.17769979
184	0x3b3bec90	0.0028674938
185	0x3e08e7ca	0.1336967
186	0xbe170802	-0.14749148
187	0xba24ee78	-0.0006291638
188	0xbd9bcc54	-0.07607332
189	0xbe597525	-0.21236093
190	0x3cf528c1	0.02992666
191	0x3cbab081	0.022789242
192	0xb739f804	-1.1084605e-05
193	0x35c0e8a6	1.4372824e-06
194	0xbc2462b2	-0.010033296
195	0xbd218e2b	-0.039442223
196	0xbdbf6516	-0.093454525
197	0xbd67e601	-0.056615833
198	0xb9062edc	-0.00012796692
199	0x34a1cce0	3.0137653e-07
200	0x3860c31a	5.3587464e-05
201	0x3c7f2993	0.015573877
202	0x3d611b35	0.054957587
203	0xbd86a3c8	-0.065742075
204	0xbd64e480	-0.055881977
205	0xbdae13a4	-0.0849984
206	0xbc6bb39d	-0.014386085
207	0xbb81a22f	-0.0039561014
208	0xbcc5f4d4	-0.024164595
209	0xbccc2535	-0.024920085
210	0x3de36bbc	0.11104533
211	0x3dd71ffe	0.10504149
212	0xbd334b9a	-0.04377327
213	0xbd2af684	-0.041739002
214	0xbd3fcf2d	-0.046828438
215	0xbd03dcb6	-0.03219291
216	0x3b6bdf41	0.0035991224
217	0x3ae580b2	0.0017509668
218	0x3dd730a7	0.105073266
219	0x3dd02b78	0.10164541
220	0xbcc7aa18	-0.0243731
221	0xbd736ec4	-0.059431806
222	0x3e42ef4f	0.19036601
223	0x3e0231ac	0.12714261
224	0xbbd0c703	-0.0063713803
225	0xbdd84efa	-0.105619386
226	0x3e12f328	0.14350569
227	0xbb1c505a	-0.0023851604
228	0x3e1c5614	0.15267211
229	0x3d6adbb9	0.05733845
230	0x3cf27559	0.029596971
231	0x3dc3ba83	0.09557059
232	0x375f0593	1.3293134e-05
233	0x3d84be54	0.06481615
234	0xbe017c1c	-0.12645
235	0x3ce5ea08	0.028065696
236	0xbdd943a6	-0.10608606
237	0xbddd07df	-0.10792517
238	0x3d6f8556	0.05847677
239	0xbd2ee18c	-0.042695567
240	0x3ddcf67e	0.10789202
241	0x3d37fb40	0.044917345
242	0x3ccee175	0.02525399
243	0x3daeb431	0.085304625
244	0x3cf97a56	0.030453842
245	0xbd5d469f	-0.054022428
246	0xbd60930d	-0.05482774
247	0xbd6c96ea	-0.05776111
248	0x3d60f17c	0.054917797
249	0xbd09ae09	-0.03361324
250	0xbe0952bc	-0.13410467
251	0xbde21644	-0.11039403
252	0x3d84a662	0.064770475
253	0xbda31e4f	-0.07964765
254	0x3d63854e	0.05554705
255	0x3a16d0c7	0.0005753156

tcn.network.0.net.0.bias f4 [32]
0	0xbca51383	-0.020150905
1	0x3db260f1	0.08709896
2	0xbd4e7bae	-0.05041092
3	0x3c787401	0.015164376
4	0xbda7e1ca	-0.08197363
5	0xbe0a71d6	-0.13519987
6	0xbe1cb540	-0.15303516
7	0x3d8832ac	0.0665029
8	0xbe2f99ce	-0.17148516
9	0xbd3a164d	-0.045431424
10	0x3de70051	0.11279357
11	0x3d579287	0.052629974
12	0xbdcecfa5	-0.10098199
13	0xbd2f9620	-0.04286778
14	0xbe1cf432	-0.15327528
15	0xbca7bb63	-0.020475095
16	0xbd1ba970	-0.038003385
17	0xbcbf5fcd	-0.023361111
18	0xbdf19dd5	-0.11797682
19	0xbdb44868	-0.08802873
20	0x3d5440d3	0.051819634
21	0xbd33fdc4	-0.04394318
22	0xbd500632	-0.05078716
23	0x3afeec8e	0.0019449161
24	0xbde92094	-0.11383167
25	0x3da97560	0.08274341
26	0x3c57445f	0.0131388595
27	0xbdef3801	-0.11680604
28	0x3bbd32c4	0.005773874
29	0xbcc2aaab	-0.023763021
30	0xbd04d762	-0.032431968
31	0xbe11fbdd	-0.14256234

tcn.network.0.net.0.weight_g f4 [32, 1, 1]
0	0x3f0270c5	0.5095332
1	0x3eeb5cf0	0.45969343
2	0x3f0f6f04	0.5602877
3	0x3f084e49	0.53244454
4	0x3f185987	0.5951161
5	0x3f256f7b	0.6462323
6	0x3f042043	0.5161173
7	0x3f0b3d1b	0.54390115
8	0x3f10fdab	0.56637067
9	0x3f0c18b5	0.547252
10	0x3f0007c3	0.50011843
11	0x3f123cd4	0.57124066
12	0x3f12cbe7	0.5734238
13	0x3f1fb9c0	0.62392807
14	0x3f05e793	0.5230648
15	0x3f1afb3c	0.60539603
16	0x3f09f9b6	0.53896654
17	0x3efa2a7c	0.48860538
18	0x3f136fc1	0.575924
19	0x3f0ac894	0.5421231
20	0x3f115dd3	0.5678379
21	0x3f172909	0.5904699
22	0x3f0b2e31	0.5436736
23	0x3f1c68ba	0.610973
24	0x3f2f03ce	0.6836518
25	0x3f1ae5ec	0.6050708
26	0x3f02df0a	0.5112158
27	0x3f127224	0.57205415
28	0x3f3eec87	0.7457966
29	0x3f1266b2	0.5718795
30	0x3f050a00	0.51968384
31	0x3f0d2a7f	0.5514297

tcn.network.0.net.0.weight_v f4 [32, 32, 2]
0	0x3d44e0c2	0.04806591
1	0xbd059a87	-0.032618072
2	0xbde47f9c	-0.11157152
3	0xbdb286a9	-0.08717091
4	0x3d8cc0d4	0.068727165
5	0x3e14a499	0.14515914
6	0x3e04e639	0.12978448
7	0x3d991f41	0.07476664
8	0xbd801124	-0.06253269
9	0xbc172a61	-0.0092264125
10	0xbdb9ff14	-0.090818554
11	0x3dccf0d2	0.1000687
12	0x3de7f801	0.113266
13	0xbcc950f2	-0.02457473
14	0x3e0f7445	0.14009197
15	0x3e05756e	0.13033077
16	0x3d8931af	0.066989295
17	0x3d8651a5	0.06558541
18	0xba5d296e	-0.00084366545
19	0x3d9cf329	0.076635666
20	0x3ce25b7f	0.02763152
21	0x3de5f66b	0.11228641
22	0xbda4fa38	-0.08055538
23	0x3d8f9427	0.0701068
24	0x3dbdca17	0.09267061
25	0x3d925160	0.07144427
26	0xbd3103c7	-0.043216493
27	0x3ce37269	0.027764516
28	0xbd244470	-0.04010433
29	0xbd779e28	-0.060453564
30	0x3d6321f8	0.055452317
31	0x3d2d09b3	0.042245578
32	0xbd19ac32	-0.037517734
33	0x3e1712d0	0.1475327
34	0x3e4d455c	0.2004599
35	0xbb110df9	-0.0022133572
36	0x3d3c4984	0.045968547
37	0x3db4af1d	0.08822463
38	0xbbbcf7dd	-0.0057668523
39	0xbda55a4d	-0.08073864
40	0xbd07e995	-0.033181746
41	0xbe24dde5	-0.16100271
42	0xbd0f9bd6	-0.035060726
43	0x3d318932	0.04334373
44	0x3d0eee2c	0.034895107
45	0x3d97041c	0.07373831
46	0x3ccba50e	0.024858978
47	0xbb431f3d	-0.0029773258
48	0x3daa9ac1	0.08330298
49	0xbd88e9db	-0.066852294
50	0x3da22442	0.07917072
51	0xbe15613c	-0.14587873
52	0xbe2b3d64	-0.16722637
53	0x3e0a1144	0.13483149
54	0xbcb6ac01	-0.022298815
55	0x3d453b33	0.04815216
56	0x3d2fd065	0.04292335
57	0x3ddede50	0.108822465
58	0x3d4d60de	0.050141208
59	0xbc6d8429	-0.0144968415
60	0x3db91953	0.09038033
61	0x3c9085b7	0.017641885
62	0xbe8e91f9	-0.27845743
63	0x3c27c987	0.010240919
64	0x3cdd42ec	0.02700945
65	0x3e304549	0.1721393
66	0xbde00329	-0.10938103
67	0xbd537e70	-0.051634252
68	0x3dcf4d79	0.101221986
69	0x3e125b51	0.14292647
70	0xbdcf4b81	-0.10121823
71	0xbd91b942	-0.07115413
72	0xbda61cc5	-0.08110956
73	0x3d823a22	0.06358744
74	0x3d57239a	0.052524187
75	0xbd9e6576	-0.07734196
76	0xbd399c6b	-0.045315187
77	0x3e14ebef	0.14543127
78	0x3d72e777	0.059302773
79	0x3dfebc84	0.124383
80	0xbdddb98d	-0.10826407
81	0xbd0677e2	-0.032829173
82	0xbd87d15c	-0.06631729
83	0x3df9637a	0.12177177
84	0xbbe984e4	-0.0071264375
85	0xbd0bb74a	-0.034110345
86	0xbe00ede4	-0.12590748
87	0xbda37a5e	-0.07982324
88	0x3d54e749	0.051978383
89	0x3d75293d	0.05985378
90	0xbdc5d434	-0.09659615
91	0x3e2b5d1d	0.16734739
92	0xbcb96c01	-0.022634508
93	0x3de8e754	0.11372247
94	0x3c0718d2	0.008245664
95	0xbb1ace27	-0.0023621412
96	0x3dcb77f5	0.09934989
97	0xbe48da5d	-0.19614549
98	0xbd52268c	-0.051306292
99	0xbbd695d9	-0.006548625
100	0xbc9828a6	-0.01857407
101	0x3e1afc85	0.15135391
102	0xbd8677fe	-0.065658554
103	0xbb22565e	-0.0024770717
104	0x3dbf8c0c	0.09352884
105	0x3c6f105a	0.014591301
106	0x3df08483	0.117440246
107	0xbe03b80a	-0.12863174
108	0x3c361250	0.0111127645
109	0x3d224263	0.039614093
110	0xbe16320a	-0.14667526
111	0x3d4dc08c	0.050232455
112	0xbd95cb0a	-0.07314117
113	0x3e305ff2	0.172241
114	0xbe0a4bc1	-0.1350546
115	0xbd9a61c3	-0.07538178
116	0xbcc1c582	-0.02365375
117	0x3d1ccc54	0.0382808
118	0x3c80f18d	0.01574018
119	0xbde697f9	-0.11259455
120	0x3cda01b0	0.026612133
121	0x3ce23864	0.02761478
122	0xbc14dd51	-0.009085969
123	0xbd7bc4db	-0.061467033
124	0x3cfc8eab	0.030829748
125	0x3dae3159	0.08505506
126	0x3d8e85bf	0.06959104
127	0xbd60b01f	-0.054855462
128	0xbd6f078c	-0.058356807
129	0x3dce8cce	0.1008545
130	0x3cb61ec3	0.022231465
131	0xbce8d698	-0.028422639
132	0x3d731a35	0.059351165
133	0xbd4f51da	-0.05061517
134	0x3e0c187b	0.13681214
135	0xbd85ccb8	-0.06533188
136	0xbdcda374	-0.10040942
137	0x3dbbdf23	0.09173419
138	0x3d1cda79	0.03829429
139	0x3c9d03ed	0.019166911
140	0x3cd8a99d	0.026448065
141	0x3e9157c6	0.28387278
142	0xbe055500	-0.13020706
143	0x3defe404	0.117134124
144	0x3d754fd3	0.05989058
145	0xbd6bb22e	-0.057542972
146	0xbe0abf72	-0.13549593
147	0x3cbcbe70	0.023040026
148	0x3e01e04f	0.12683223
149	0x3e0fc79a	0.14040986
150	0xba3896f7	-0.00070415385
151	0x3ddbfad5	0.10741202
152	0x3d49a1df	0.049226638
153	0x3dee5a65	0.11638335
154	0xbd79ccb1	-0.060986225
155	0xbcaf35e9	-0.021388011
156	0x3d02d2e1	0.03193939
157	0x3c14e859	0.009088599
158	0xbda2a4df	-0.07941603
159	0x3e04d618	0.12972295
160	0x3d837593	0.0641891
161	0xbdab15ff	-0.08353805
162	0xbdd8aa32	-0.10579337
163	0xbd36bbbe	-0.04461264
164	0x3b8579c3	0.004073353
165	0xbdc9fb75	-0.09862415
166	0x3d646515	0.05576046
167	0x3c947503	0.018122202
168	0x3dd49740	0.10380411
169	0x3d85a930	0.065264106
170	0x3d946fff	0.07247924
171	0x3e892e1b	0.26792988
172	0x3e04d551	0.12971999
173	0x3ce8d83e	0.028423425
174	0xbdd13f3b	-0.102171384
175	0xbd9f91a9	-0.07791454
176	0x3e6a2c8b	0.22868554
177	0xbdbeeed0	-0.093228936
178	0xbe456055	-0.19275029
179	0x3c81660a	0.015795726
180	0xbe754ef2	-0.23955896
181	0xbe4b9397	-0.1988052
182	0xbd833004	-0.06405643
183	0xbd0c5de9	-0.034269247
184	0xbd19ec5f	-0.037578937
185	0x3e011003	0.12603764
186	0xbd6ba5f3	-0.05753131
187	0xbd099804	-0.03359224
188	0xbe55a599	-0.20863952
189	0xbd4c25db	-0.04984079
190	0xbe28dc30	-0.16490245
191	0xbe175399	-0.14777984
192	0x3b548f29	0.0032433963
193	0xbb4eb10a	-0.003153863
194	0xbdd6876e	-0.1047505
195	0x3d0f8106	0.035035156
196	0x3cea439d	0.028596694
197	0xbda2a714	-0.07942024
198	0xbdaceea8	-0.084439576
199	0xbd8b266a	-0.06794436
200	0x3e044c06	0.12919626
201	0x3d9afb6b	0.075674854
202	0x3c63984a	0.013891289
203	0x3ccf1afa	0.025281418
204	0x3ca9167b	0.020640602
205	0xbcd44785	-0.02591301
206	0x3d375360	0.044757247
207	0x3d968037	0.07348674
208	0xbb920625	-0.004456299
209	0x3c2a9665	0.010411833
210	0x3cc962dd	0.024583274
211	0x3db4688d	0.08809004
212	0xbde9b920	-0.11412263
213	0xbe000d23	-0.12505011
214	0x3db30911	0.08741964
215	0xbc2ce431	-0.010552452
216	0xbcaf9167	-0.021431638
217	0xbd9eeaa6	-0.077595994
218	0x3d9ef436	0.07761423
219	0x3dcb31b3	0.09921589
220	0xbd919e33	-0.07110252
221	0xbd4310ca	-0.047623433
222	0x3dd0bd8b	0.101924025
223	0xbdbc0602	-0.091808334
224	0x3dec6777	0.11543172
225	0x3df0e049	0.11761529
226	0x3d1cafc6	0.038253568
227	0x3e00558b	0.12532632
228	0x3d81c606	0.06336598
229	0x3b8f71b0	0.0043775663
230	0xbd3764e0	-0.044773936
231	0xbd031b48	-0.03200844
232	0xbd97a82f	-0.07405125
233	0xbe106fdb	-0.1410517
234	0xbd393b08	-0.045222312
235	0xbdeabff8	-0.114623964
236	0x3a1a7992	0.0005892749
237	0x3dd6a8ac	0.1048139
238	0x3d3acedc	0.045607433
239	0x3c9ca093	0.019119537
240	0xbdf3e1fe	-0.11908339
241	0xbc43eecf	-0.011958792
242	0xbc8a8b8c	-0.016912244
243	0xbd68de32	-0.056852527
244	0xbda5af67	-0.08090096
245	0xbde31206	-0.11087422
246	0xbdd25f5d	-0.10272095
247	0xbcbadd6b	-0.022810658
248	0x3dd57aa4	0.104237825
249	0xbd9638a1	-0.0733502
250	0x3d2fd004	0.04292299
251	0xbd0f9bd5	-0.035060722
252	0xbc4dcc29	-0.012560883
253	0x3e0c1af0	0.13682151
254	0x3dab0d66	0.08352165
255	0xbdc665ba	-0.096873716

tcn.network.0.net.4.bias f4 [32]
0	0x3db5a628	0.088695824
1	0xbdcdc1b9	-0.10046715
2	0xbe3cb220	-0.18427324
3	0xbcc60e7a	-0.024176825
4	0x3d7532de	0.059862964
5	0x3d4d593f	0.05013394
6	0xbe103ecf	-0.1408646
7	0x3d129c90	0.03579384
8	0x3d7b769e	0.06139242
9	0x3d87d7de	0.0663297
10	0xbe07ee67	-0.13274537
11	0x3dff5c36	0.1246876
12	0x3c841e74	0.016127802
13	0xbd1bb6ac	-0.038016006
14	0xbdbe04af	-0.09278237
15	0x3d5621b3	0.05227823
16	0x3d95bbc2	0.073112026
17	0xbdb7acd4	-0.08968511
18	0x3cb0efcc	0.021598719
19	0x3c8ecd49	0.017431872
20	0xbd83fe43	-0.06444981
21	0x3cb41e28	0.021987036
22	0x3defbf10	0.11706364
23	0x3cd695dc	0.026194505
24	0xbe281bc6	-0.16416845
25	0xbdf26a1e	-0.118366465
26	0xbdd64ebe	-0.10464238
27	0x3e04e772	0.12978914
28	0xbc95c73e	-0.018283483
29	0x3c9c0c43	0.019048816
30	0x3dc11a10	0.09428799
31	0xbd8147d8	-0.06312531

tcn.network.0.net.4.weight_g f4 [32, 1, 1]
0	0x3f0b5d4d	0.5443924
1	0x3f1f7ba4	0.62298036
2	0x3f043286	0.5163959
3	0x3f12f316	0.5740217
4	0x3efb0c8b	0.49033007
5	0x3f16b7ad	0.58874017
6	0x3f0e671e	0.55626094
7	0x3efc19c0	0.49238396
8	0x3f11ecf8	0.5700221
9	0x3f2baddf	0.6706218
10	0x3f046470	0.51715755
11	0x3f2ad883	0.6673662
12	0x3f12583b	0.5716588
13	0x3f19dfa4	0.60106874
14	0x3eedfbf7	0.46481296
15	0x3ed23c89	0.4106181
16	0x3f137277	0.57596534
17	0x3f130370	0.5742712
18	0x3f150a22	0.58218586
19	0x3f0169d6	0.5055212
20	0x3f04b14f	0.5183305
21	0x3f143e37	0.5790743
22	0x3ef73a58	0.482867
23	0x3ecbad41	0.3978062
24	0x3f0ced34	0.55049443
25	0x3ef855de	0.4850301
26	0x3f124414	0.5713513
27	0x3f13ec02	0.57781994
28	0x3f05ee55	0.5231679
29	0x3f158ab9	0.584148
30	0x3f0e17a9	0.5550485
31	0x3efb5ee2	0.49095827

tcn.network.0.net.4.weight_v f4 [32, 32, 2]
0	0xbda6d9d9	-0.0814702
1	0x3ce4abd7	0.02791397
2	0x3e19d470	0.15022445
3	0x3d88c24d	0.06677685
4	0xbcf878ce	-0.030331042
5	0x3e0926c7	0.13393699
6	0xba084e9b	-0.00051997014
7	0xbd898ebe	-0.06716679
8	0xbd11a2bf	-0.035555597
9	0xba460b5c	-0.0007554793
10	0x3e0e4858	0.13894784
11	0x3e364880	0.17801094
12	0xbd31461f	-0.043279763
13	0x3d959480	0.07303715
14	0x3c630985	0.01385725
15	0x3dcf0f91	0.10110391
16	0xbdfc74a1	-0.12326933
17	0x3df90a1e	0.12160133
18	0xbd8a5aaa	-0.06755574
19	0xba897049	-0.0010485734
20	0xbbf6c19a	-0.0075304033
21	0x3d82cb3d	0.06386421
22	0xbd4af58f	-0.04955059
23	0x3c864e04	0.016394623
24	0xbd49d295	-0.049273092
25	0x3c30c47a	0.010789031
26	0x3df248a6	0.11830263
27	0x3dd6bb99	0.10485
28	0xbd886894	-0.06660572
29	0x3d5046c3	0.050848734
30	0x3d937a02	0.072010055
31	0x3e762141	0.24036123
32	0xbc01da90	-0.0079256445
33	0x3dc95142	0.09829952
34	0x3deea8a6	0.11653261
35	0xbcc3c4c4	-0.023897536
36	0x3e49ca06	0.19705972
37	0x3e21f1eb	0.1581494
38	0x3dd2b5d8	0.1028859
39	0x3b868f2a	0.004106422
40	0xbe1890c3	-0.14898972
41	0xbd9eac96	-0.07747762
42	0x3e1b027d	0.15137668
43	0x3debc9cc	0.11513099
44	0xbcd7fcc8	-0.026365653
45	0x3d9954a7	0.07486849
46	0x3df0e1ad	0.11761794
47	0x3d97704e	0.07394467
48	0xbb9b76f7	-0.0047444063
49	0x3dbdc785	0.09266571
50	0x3e293979	0.1652583
51	0x3dcfd2f8	0.10147661
52	0xbc8afd87	-0.016966594
53	0x3df8593c	0.12126395
54	0xbcbbd6e1	-0.02292961
55	0x3d5c3381	0.053760055
56	0x3d1d060f	0.038335856
57	0x3d90d745	0.070723094
58	0xbdc00141	-0.09375239
59	0xbd8a4d5b	-0.06753036
60	0x3c8e6af8	0.017384991
61	0x3de7f5c2	0.113261715
62	0x3d639f9e	0.055572145
63	0x3d996577	0.07490056
64	0x3e75172a	0.23934618
65	0xbc7422e6	-0.014900899
66	0x3ca526bd	0.020160073
67	0xbd772aca	-0.06034354
68	0x3d524265	0.05133285
69	0x3df9e0fb	0.12201115
70	0xbb31d41a	-0.002713448
71	0xb23fc660	-1.11627685e-08
72	0xbd00a9d9	-0.03141198
73	0x38b8aeed	8.806386e-05
74	0xbc90c7d0	-0.017673403
75	0xbca3ec15	-0.020010034
76	0x3dfe9e78	0.12432569
77	0x3d9f850f	0.07789051
78	0xbce42f2e	-0.027854528
79	0xbaa8b3b7	-0.0012870942
80	0x3e47dae8	0.195171
81	0xbca8f37f	-0.02062392
82	0xbdbf0f8f	-0.093291394
83	0xbe0d2292	-0.13782719
84	0xbbf2c0da	-0.0074082436
85	0x3e07a580	0.13246727
86	0x3dc34528	0.09534675
87	0x3ccd7ab0	0.025082916
88	0xb179a57d	-3.6328338e-09
89	0x3d7c221e	0.061555974
90	0xbb15e216	-0.0022870353
91	0xbc72d04a	-0.014820168
92	0x3e7ba76f	0.2457559
93	0xbca89d2c	-0.020582758
94	0x3ad3a204	0.0016146307
95	0xbc1cc8a9	-0.0095693255
96	0x3e389e4f	0.1802914
97	0xbd0fc7c9	-0.03510264
98	0x3cb6bb81	0.022306206
99	0xbd7f7504	-0.062367454
100	0xb906725c	-0.00012821838
101	0xbd6520b6	-0.0559394
102	0xb919e4e4	-0.00014676485
103	0xbcef418e	-0.029206064
104	0x3deddb48	0.1161409
105	0x3ba9c29e	0.005180671
106	0xbd000db1	-0.031263057
107	0xbde92e1b	-0.11385747
108	0x3dc31338	0.0952515
109	0xbc550d1b	-0.013003613
110	0xbccff251	-0.0253841
111	0xbda9ae10	-0.08285153
112	0xb91c11df	-0.00014883977
113	0xbd003ec8	-0.031309873
114	0x3b6cbd61	0.003612362
115	0xbd87f7c1	-0.06639052
116	0x3e4b0a69	0.1982819
117	0x3de8ef19	0.11373729
118	0x3e91e39a	0.2849396
119	0x3e2810d2	0.16412666
120	0x3b04ea34	0.0020281198
121	0xbc65889a	-0.014009619
122	0x3db258ba	0.087083295
123	0x3dbbf811	0.09178174
124	0x3b610402	0.0034334664
125	0xbd66e48f	-0.056370314
126	0xbdad60e8	-0.08465749
127	0xbb6b36d3	-0.0035890832
128	0x3e01d99c	0.12680668
129	0xbdc97d18	-0.09838313
130	0xbddedf28	-0.108824074
131	0xbe0f953f	-0.14021777
132	0x3e0fecf9	0.14055242
133	0xbe256a36	-0.16153798
134	0x3e10a05e	0.14123675
135	0x3cadf95f	0.021237073
136	0xbdaa4892	-0.08314623
137	0xbdf1a50d	-0.11799059
138	0x3e5ef339	0.2177247
139	0xbcd359e3	-0.025799697
140	0xbe454689	-0.19265188
141	0xbe3af6a4	-0.18258148
142	0x3d5c89f8	0.053842515
143	0xbe48e11e	-0.19617125
144	0xbe3e8b3b	-0.186078
145	0x3dd992dc	0.10623714
146	0xbdf5f362	-0.12009312
147	0xbe3f41e2	-0.18677476
148	0xbe3023ff	-0.17201231
149	0x3ddd3ba0	0.10802388
150	0xbdc21d97	-0.094783
151	0x3e317be4	0.17332417
152	0x3e64e10d	0.22351475
153	0x3d96f06d	0.07370076
154	0xbd036473	-0.032078218
155	0xbb96f531	-0.004606866
156	0x3d7f6793	0.062354635
157	0xbd40b8f5	-0.04705139
158	0x3d808f7c	0.062773675
159	0xbe22c30e	-0.1589472
160	0x3df8216a	0.12115748
161	0xbddca0e8	-0.10772878
162	0x3d71ff4f	0.059081372
163	0xbd25187a	-0.040306546
164	0x3d527684	0.051382557
165	0xbdf9b8c4	-0.12193444
166	0x3d8485b2	0.06470813
167	0x3d87dafa	0.06633563
168	0xbe1665da	-0.14687291
169	0x3d2dc31f	0.04242241
170	0x3d6fbe95	0.058531363
171	0xbe32c70b	-0.17458741
172	0x3dca32cd	0.09872971
173	0x3d9119fb	0.070850335
174	0x3c85a0fd	0.016312117
175	0xbcd0a712	-0.02547029
176	0x3e129d97	0.14317928
177	0x3e3e5d7b	0.18590347
178	0x3d92f689	0.07175929
179	0x3c0e7494	0.008694787
180	0xbe05244e	-0.1300213
181	0xbda9b1ad	-0.08285842
182	0x3e0851c5	0.13312443
183	0xbe35f6ef	-0.17769979
184	0x3b3bec90	0.0028674938
185	0x3e08e7ca	0.1336967
186	0xbe170802	-0.14749148
187	0xba24ee78	-0.0006291638
188	0xbd9bcc54	-0.07607332
189	0xbe597525	-0.21236093
190	0x3cf528c1	0.02992666
191	0x3cbab081	0.022789242
192	0xb739f804	-1.1084605e-05
193	0x35c0e8a6	1.4372824e-06
194	0xbc2462b2	-0.010033296
195	0xbd218e2b	-0.039442223
196	0xbdbf6516	-0.093454525
197	0xbd67e601	-0.056615833
198	0xb9062edc	-0.00012796692
199	0x34a1cce0	3.0137653e-07
200	0x3860c31a	5.3587464e-05
201	0x3c7f2993	0.015573877
202	0x3d611b35	0.054957587
203	0xbd86a3c8	-0.065742075
204	0xbd64e480	-0.055881977
205	0xbdae13a4	-0.0849984
206	0xbc6bb39d	-0.014386085
207	0xbb81a22f	-0.0039561014
208	0xbcc5f4d4	-0.024164595
209	0xbccc2535	-0.024920085
210	0x3de36bbc	0.11104533
211	0x3dd71ffe	0.10504149
212	0xbd334b9a	-0.04377327
213	0xbd2af684	-0.041739002
214	0xbd3fcf2d	-0.046828438
215	0xbd03dcb6	-0.03219291
216	0x3b6bdf41	0.0035991224
217	0x3ae580b2	0.0017509668
218	0x3dd730a7	0.105073266
219	0x3dd02b78	0.10164541
220	0xbcc7aa18	-0.0243731
221	0xbd736ec4	-0.059431806
222	0x3e42ef4f	0.19036601
223	0x3e0231ac	0.12714261
224	0xbbd0c703	-0.0063713803
225	0xbdd84efa	-0.105619386
226	0x3e12f328	0.14350569
227	0xbb1c505a	-0.0023851604
228	0x3e1c5614	0.15267211
229	0x3d6adbb9	0.05733845
230	0x3cf27559	0.029596971
231	0x3dc3ba83	0.09557059
232	0x375f0593	1.3293134e-05
233	0x3d84be54	0.06481615
234	0xbe017c1c	-0.12645
235	0x3ce5ea08	0.028065696
236	0xbdd943a6	-0.10608606
237	0xbddd07df	-0.10792517
238	0x3d6f8556	0.05847677
239	0xbd2ee18c	-0.042695567
240	0x3ddcf67e	0.10789202
241	0x3d37fb40	0.044917345
242	0x3ccee175	0.02525399
243	0x3daeb431	0.085304625
244	0x3cf97a56	0.030453842
245	0xbd5d469f	-0.054022428
246	0xbd60930d	-0.05482774
247	0xbd6c96ea	-0.05776111
248	0x3d60f17c	0.054917797
249	0xbd09ae09	-0.03361324
250	0xbe0952bc	-0.13410467
251	0xbde21644	-0.11039403
252	0x3d84a662	0.064770475
253	0xbda31e4f	-0.07964765
254	0x3d63854e	0.05554705
255	0x3a16d0c7	0.0005753156

tcn.network.0.downsample.weight f4 [32, 32, 1]
0	0x3e0e24a8	0.13881171
1	0x3da77c20	0.08177972
2	0x3e55df9a	0.20886078
3	0x3e7a58ec	0.24447984
4	0x3d28ec9e	0.04124128
5	0x3db46324	0.08807972
6	0x3c4fc1b9	0.012680464
7	0x3d0c8d25	0.034314293
8	0x3e049b7e	0.1294994
9	0x3d41c6e1	0.047308806
10	0xbc9630f0	-0.018333882
11	0x3e831715	0.25603548
12	0x3d894c60	0.067040205
13	0x3e8f430f	0.2798085
14	0x3d4b9b30	0.049708545
15	0xbe23c47a	-0.15992919
16	0xbe1eaa78	-0.15494716
17	0x3de66496	0.11249654
18	0xbcf67151	-0.03008333
19	0x3d093472	0.03349728
20	0x3da8aba5	0.082358636
21	0xbdcb0c07	-0.099144034
22	0xbe362911	-0.17789103
23	0x3e0b8ac7	0.13627158
24	0xbdaf5eea	-0.08563025
25	0xbd080940	-0.033211946
26	0xbd80b666	-0.0628479
27	0xbde138f7	-0.10997193
28	0x3d868c2e	0.06569706
29	0x3d84c897	0.06483572
30	0xbe0386a6	-0.12844333
31	0x3cfc78f2	0.03081939
32	0xbe66ecc4	-0.22551256
33	0x3e18cc0d	0.14921589
34	0xbe200bad	-0.15629454
35	0xbe48bb00	-0.19602585
36	0x3e4869f4	0.19571668
37	0x3e2fc71e	0.17165801
38	0xbd3a6709	-0.04550842
39	0x3d2e42b1	0.04254407
40	0x3da8a45e	0.082344756
41	0xbbde1f8e	-0.006778664
42	0x3cd3de84	0.02586294
43	0xbdc38937	-0.09547656
44	0x3de06470	0.10956657
45	0xbdb31b3d	-0.0874543
46	0xbdc7e637	-0.09760707
47	0xbe4689c3	-0.1938849
48	0x3e008f18	0.12554586
49	0xbd82bebc	-0.06384036
50	0xbe44b799	-0.19210662
51	0xbbdeaa2f	-0.00679519
52	0x3d24e578	0.0402579
53	0xbd82564a	-0.063641146
54	0xbe09456f	-0.13405393
55	0xbe39660b	-0.18105333
56	0x3d7298d6	0.059227787
57	0x3e9189d3	0.28425464
58	0x3e5cb0b0	0.21551776
59	0x3ded8018	0.115966976
60	0xbe3015bd	-0.17195792
61	0x3e2819f3	0.16416149
62	0x3e85cb79	0.261318
63	0x3d07739d	0.03306924
64	0xbd23e520	-0.040013433
65	0xbe55a249	-0.20862688
66	0x3e84ec3b	0.2596148
67	0x3e045e66	0.12926635
68	0xbd618f1f	-0.05506813
69	0x3e2de56e	0.16982052
70	0x3d29c165	0.0414442
71	0x3e8112bd	0.2520961
72	0x3e00667e	0.12539098
73	0x3e60f1d1	0.21967246
74	0x3db438d3	0.08799901
75	0x3db45e77	0.0880708
76	0xbda68487	-0.08130746
77	0xbe035d1e	-0.1282849
78	0x3dcf4a72	0.10121621
79	0xbdc4b09e	-0.096039996
80	0x3e7db035	0.24774249
81	0x3cf748b5	0.030186037
82	0xbe2099c6	-0.1568366
83	0x3caef805	0.0213585
84	0xbe3734ad	-0.17891188
85	0x3c075bf0	0.008261666
86	0xbe5df2c1	-0.21674635
87	0xbe3a5bfb	-0.1819915
88	0xbdd9b769	-0.10630686
89	0x3e471442	0.19441321
90	0x3e4e4646	0.20143995
91	0xbd8cd640	-0.068768024
92	0x3de4f345	0.111792125
93	0xbe1066fa	-0.14101782
94	0x3da1999c	0.07890627
95	0xbd203b22	-0.039118893
96	0xbe16d942	-0.14731315
97	0x3de91bd7	0.11382263
98	0xbdd4686b	-0.10371479
99	0x3e20ebe3	0.15714984
100	0x3dcdf926	0.10057287
101	0x3d9b853e	0.07593773
102	0x3de6c81b	0.11268636
103	0xbda9f1b9	-0.08298058
104	0xbd60fda6	-0.054929398
105	0x3dcafd74	0.099116236
106	0xbd0b2303	-0.033968937
107	0xbd9d313b	-0.076754056
108	0xb91d4021	-0.00014996577
109	0xbd93f28b	-0.07223996
110	0x3d8b691e	0.06807159
111	0x3e1ad7db	0.15121405
112	0xbe125b8a	-0.14292732
113	0x3e10016f	0.14063047
114	0x3d3246ca	0.04352454
115	0xbd102f86	-0.035201572
116	0x3d81f06a	0.063446835
117	0x3e19027f	0.14942358
118	0x3df2d251	0.11856521
119	0xbe0fc98b	-0.14041726
120	0xbe0a0152	-0.13477066
121	0xbe4e6672	-0.20156267
122	0xbd926b42	-0.07149364
123	0xbda5b9b0	-0.08092058
124	0x3de7e21e	0.11322425
125	0x3d74f3f6	0.05980297
126	0xbd995c81	-0.07488347
127	0xbd91cb99	-0.07118911
128	0x3e2386a2	0.15969327
129	0xbca91510	-0.020639926
130	0x3d91b6db	0.07114955
131	0xbd42b19b	-0.04753266
132	0xbd8709d7	-0.06593674
133	0xbe311ea9	-0.17296852
134	0x3d9163c4	0.07099107
135	0xbcb69102	-0.022285942
136	0xbe704fb0	-0.23467898
137	0xbe14eea6	-0.14544162
138	0x3ea38bdd	0.31942645
139	0xbe2e299f	-0.17008065
140	0xbe2a4f11	-0.16631724
141	0x3dc36e4c	0.09542522
142	0x3dfacfe9	0.12246687
143	0xbc8a7ec7	-0.016906155
144	0xbcdb465c	-0.026766948
145	0x3e070e24	0.13188988
146	0x3e63ac50	0.22233701
147	0x3e4b22c5	0.19837482
148	0x3d16482c	0.036689922
149	0x3e1ca03b	0.15295498
150	0x3e6182ae	0.22022507
151	0x3dd70928	0.10499793
152	0x3e6c6612	0.23085812
153	0xbe066868	-0.13125765
154	0xbe412c6b	-0.188646
155	0x3d7b28a3	0.06131805
156	0xbe34ba3e	-0.17649171
157	0x3e10205c	0.14074844
158	0xbdce03ab	-0.10059293
159	0xbe632994	-0.2218383
160	0xbde9e9ec	-0.1142157
161	0x3dca2dfb	0.09872051
162	0x3d599610	0.053121626
163	0x3e38958b	0.18025796
164	0x3e1efa2b	0.15525119
165	0x3ce46a67	0.027882768
166	0xbd92ce18	-0.071682155
167	0x3e7b8859	0.24563731
168	0x3e802fe5	0.2503654
169	0x3e92a8ee	0.28644508
170	0xbe2bec46	-0.1678935
171	0x3d5e65c3	0.054296266
172	0x3d23a484	0.039951816
173	0xbe6d2646	-0.23159131
174	0x3d203d91	0.039121214
175	0xbe24ccfa	-0.16093817
176	0x3e15b8d9	0.14621295
177	0x3d963853	0.07334962
178	0xbe8da434	-0.2766434
179	0xbe0a6359	-0.1351446
180	0x3cf76d35	0.030203441
181	0xbe92d9ce	-0.28681797
182	0xbe40542e	-0.18782112
183	0xbea27f90	-0.31737947
184	0x3cb21ea2	0.021743122
185	0x3e383a73	0.17991047
186	0x3b7e4600	0.0038799047
187	0x3b44329d	0.0029937394
188	0x3e209d8f	0.15685104
189	0x3d154b67	0.036448862
190	0x3e8b458a	0.27201492
191	0x3d386c74	0.045025304
192	0xbe158024	-0.14599663
193	0xbe580e2d	-0.21099158
194	0x3e76a523	0.24086432
195	0x3c77a7af	0.0151156625
196	0x3e552792	0.20815876
197	0xbdea76f3	-0.11448469
198	0xbe095281	-0.13410379
199	0x3d92dc0c	0.07170877
200	0xbdca0b48	-0.09865433
201	0xbdc8dde8	-0.0980795
202	0x3e28d820	0.16488695
203	0x3e26be8f	0.1628363
204	0xbdb7f71b	-0.089826785
205	0x3e4a3a93	0.19748907
206	0xbbb36af0	-0.0054753944
207	0xbddfd226	-0.109287545
208	0x3e1f0fdd	0.15533395
209	0x3d9ff37d	0.078101136
210	0xbd0e1782	-0.034690388
211	0xbdf6ba1e	-0.12047218
212	0x3da33546	0.079691455
213	0xbde545c3	-0.111949466
214	0x3dac0c5e	0.08400796
215	0xbe2f0ae5	-0.17094
216	0xbd14a028	-0.03628555
217	0xbdaf3f94	-0.085570484
218	0xbe110564	-0.14162213
219	0x3db5fbd4	0.08885923
220	0xbda53144	-0.08066037
221	0xbd331b50	-0.04372722
222	0xbcbe73a1	-0.023248496
223	0xbde93d06	-0.113885924
224	0x3e494c79	0.19658078
225	0xbd9e647d	-0.0773401
226	0xbdfa9b19	-0.12236614
227	0x3e28dbc2	0.16490081
228	0x3dafeca4	0.085900575
229	0xbe58ecde	-0.21184108
230	0xbd58a4c3	-0.052891504
231	0xbd844dea	-0.064601734
232	0x3d963aad	0.0733541
233	0xbdcd8d6e	-0.10036741
234	0x3d53d27c	0.051714405
235	0xbb747c0f	-0.003730539
236	0x3d9e72cd	0.0773674
237	0x3d5ea82b	0.054359596
238	0x3b99506b	0.004678776
239	0x3c256a4f	0.010096147
240	0x3de9511e	0.11392425
241	0x3e1e9a72	0.15488604
242	0xbd01a0e3	-0.031647574
243	0x3c8067c0	0.015674472
244	0x3e20da60	0.15708303
245	0x3cc648f1	0.024204703
246	0x3e2667ff	0.16250609
247	0x3e5e047a	0.21681395
248	0x3d5ce733	0.053931426
249	0xbe76ff39	-0.24120797
250	0xbe738030	-0.23779368
251	0xbdfdcc43	-0.123924755
252	0xbe244722	-0.1604276
253	0x3cdceb28	0.0269676
254	0xbd818544	-0.063242465
255	0xbeaf3649	-0.34221104

tcn.network.0.downsample.bias f4 [32]
0	0x3ba56fb2	0.0050487155
1	0xbce950c9	-0.028480904
2	0xbe4df797	-0.2011398
3	0xbe485207	-0.19562541
4	0x3db2980a	0.087204054
5	0xbe14730f	-0.14497016
6	0xbe1d62b4	-0.15369684
7	0x3b44d439	0.003003372
8	0x3e095ca6	0.13414249
9	0xbe53e466	-0.20692596
10	0x3d91bd3a	0.0711617
11	0xbdbfd2a6	-0.0936635
12	0xbddbcdbe	-0.107326016
13	0xbd840803	-0.064468406
14	0x3d3343a5	0.043765683
15	0x3e0ba2f9	0.13636388
16	0x3e463a8e	0.19358274
17	0x3e3340f8	0.17505252
18	0xbd2712ae	-0.0407893
19	0x3d7fa4bf	0.062412973
20	0xbdbe09c1	-0.09279204
21	0x3e2ba0d9	0.16760577
22	0xbe3c692a	-0.18399492
23	0x3d6a11f3	0.057146024
24	0xbe0d8d48	-0.13823426
25	0xbe1dc2d7	-0.15406357
26	0xbdcb1d6f	-0.099177234
27	0x3e4dac22	0.20085195
28	0x3e5a59be	0.21323296
29	0xbd9f8141	-0.07788325
30	0x3d3228cd	0.043495942
31	0xbe01ee17	-0.1268848

tcn.network.1.conv1.bias f4 [32]
0	0x3d0f79f7	0.035028424
1	0xbc7a0dfb	-0.015262122
2	0x3d6daad4	0.058024243
3	0x3dec8512	0.11548819
4	0x3df418ad	0.11918769
5	0xbd3c43c5	-0.045963068
6	0x3da9c0c2	0.08288719
7	0x3e23b725	0.15987833
8	0xbdde6845	-0.108597316
9	0xbe4c7173	-0.19965152
10	0xbe2f759c	-0.17134708
11	0xbcf18d33	-0.029486274
12	0x3d43b848	0.047783166
13	0xbdc939f2	-0.09825505
14	0xbe47db60	-0.19517279
15	0xbdc4bdee	-0.09606539
16	0x3da6226c	0.08112034
17	0xbd24487d	-0.040108193
18	0x3d4dff21	0.050292138
19	0x3cb61809	0.022228258
20	0x3c723c30	0.014784858
21	0xbdb6f6a7	-0.08933764
22	0xbda7540a	-0.08170326
23	0x3d84ec76	0.06490414
24	0x3d512c29	0.051067505
25	0x3d39a462	0.045322783
26	0x3d36b66f	0.044607576
27	0x3ce7c111	0.028290303
28	0xbc86996c	-0.01643058
29	0xbdbf9dbd	-0.09356258
30	0xbce2098e	-0.027592447
31	0xbb8ef815	-0.00436307

tcn.network.1.conv1.weight_g f4 [32, 1, 1]
0	0x3f1e622e	0.6186856
1	0x3f155c50	0.5834398
2	0x3f03e4d7	0.51521057
3	0x3f1937e3	0.598509
4	0x3f1a7f48	0.60350466
5	0x3f240768	0.640738
6	0x3f19b368	0.6003938
7	0x3f190a3a	0.5978123
8	0x3f075d91	0.52877146
9	0x3f12d6aa	0.573588
10	0x3f3bf5b9	0.7342182
11	0x3f154965	0.58315116
12	0x3f0b6ab0	0.5445967
13	0x3f40d214	0.75320554
14	0x3f303e6c	0.6884525
15	0x3f18500e	0.59497154
16	0x3f1f0710	0.6212015
17	0x3f1a603b	0.60303086
18	0x3f229502	0.6350862
19	0x3f136f4f	0.5759172
20	0x3f1dcce0	0.6164074
21	0x3f1a039d	0.60161763
22	0x3f1d9b01	0.6156464
23	0x3f13f703	0.57798785
24	0x3f12f20d	0.5740059
25	0x3f4af3b9	0.7927814
26	0x3f14c092	0.5810634
27	0x3f06111a	0.52369845
28	0x3f2a0c0d	0.6642464
29	0x3f185bb1	0.5951491
30	0x3f131b37	0.574634
31	0x3ef9362b	0.4867414
