models/prototyping6/tcn_fold_10/best.pth (torch, 224151 bytes, 130 tensors)

tcn.d_reduce.weight f4 [32, 1, 1]
000000 f7 11 c3 bd 79 01 41 bd 04 65 21 bf 9c e3 8f 3e
       -0.09524911 -0.047120545 -0.6304476 0.2810334
000010 48 11 1a 3f 90 00 79 3f 5e f4 6a 3f 72 ba 1e bf
       0.6018262 0.97266483 0.91779125 -0.6200324
000020 34 41 c5 be 37 8e 84 3f 18 fa ce be 45 36 7b 3f
       -0.3852631 1.03559 -0.4042518 0.98129684
000030 73 39 ff 3e e9 a6 2f 3f 45 ac 6f 3f 94 1f 83 3d
       0.49848518 0.6861406 0.9362224 0.064025074
000040 15 07 a8 3e 56 e0 60 3e 5c 6c 73 3f 37 8d 42 bf
       0.32817903 0.21960577 0.9508722 -0.75996727
000050 d3 39 36 3f d2 e5 41 3e 79 3f 7d 3f 8b 52 b7 be
       0.7118198 0.18935326 0.98924977 -0.35805163
000060 35 23 82 3f ca 68 2c bf b3 87 80 3f ac 8a 8c bf
       1.0166994 -0.67347395 1.0041412 -1.0979819
000070 46 4f a6 bd fc 66 8a bf 57 73 8d be c4 e1 66 bf
       -0.08120589 -1.0812678 -0.2762706 -0.9018824

tcn.d_reduce.bias f4 [32]
000000 2c da 0b 3f 90 ce 82 3e f3 af 77 3f f9 6e 2d 3f
       0.5462978 0.2554822 0.9675285 0.67747456
000010 52 bd 23 bf d1 e8 fe 3e e7 20 23 3f 27 78 64 3f
       -0.63960755 0.49787 0.6372208 0.8924584
000020 5e ac d4 be 34 27 4c 3f 6d e0 6c be 32 a7 77 be
       -0.41537756 0.7974732 -0.23132487 -0.24184874
000030 e1 ae 16 bf ce f1 d8 3e cd bc 05 be 3a b2 0d be
       -0.58860594 0.42371982 -0.13060303 -0.1383752
000040 4f f4 1a 3f 92 eb 5e 3f ed 86 cb 3e bb 48 3d bf
       0.60529035 0.870782 0.39751378 -0.739391
000050 6f 0b 36 3f ca 60 d8 3e 3a 9f 32 bf 27 a4 12 bf
       0.71111196 0.42261344 -0.6977421 -0.57281727
000060 5e 5f c0 3e 54 9f e0 3e 03 18 e6 3e 99 37 19 bf
       0.3757276 0.43871558 0.44940194 -0.5985046
000070 fd 88 11 bd 84 b9 d5 be 89 61 a6 3e ac 66 24 bf
       -0.035531033 -0.417431 0.32496288 -0.64219165

tcn.network.0.conv1.bias f4 [32]
000000 65 3b f8 bd 06 36 25 bd 3e 93 76 bd cf 74 ca bd
       -0.121207036 -0.040334724 -0.060199015 -0.09885561
000010 12 af 12 bd 01 e3 1c be 6a d1 22 be 1d 40 0f be
       -0.03581149 -0.1532097 -0.15900198 -0.13989301
000020 38 e3 6a 3c d4 89 82 3d 7e 07 bc 3c 8f a0 cc bc
       0.0143364 0.06373945 0.022952791 -0.024978904
000030 3a 65 85 3d 8f 2c 26 bc 4b a3 f9 bd b7 34 20 bd
       0.06513448 -0.0101424595 -0.12189349 -0.039112773
000040 60 6f 4f bd 79 fb e1 bd 52 d7 e0 3d 42 b7 48 be
       -0.050643325 -0.11034293 0.10978569 -0.19601157
000050 6b 30 65 bc bd 69 09 3d 9b a3 e9 bd 6d 47 26 3d
       -0.0139885945 0.033548106 -0.114081584 0.04059546
000060 5f db 0b be f5 3a 50 3d 38 26 04 be b3 7d 26 be
       -0.13657902 0.050837476 -0.12905204 -0.16258888
000070 5c f9 b5 3d 1b 77 05 be 5e 5a 87 3d 90 e1 ba 3d
       0.08885452 -0.13033716 0.06609033 0.09125054

tcn.network.0.conv1.weight_g f4 [32, 1, 1]
000000 7f 01 1d 3f b7 e5 f1 3e 5d 4a 1d 3f 8f e9 09 3f
       0.6133041 0.4724557 0.61441594 0.5387201
000010 da 03 0b 3f ea 78 09 3f 4c 11 e7 3e f2 4c 19 3f
       0.5430275 0.53700125 0.45130384 0.59883034
000020 d4 04 04 3f 18 7c 07 3f e3 65 18 3f b8 44 0d 3f
       0.5156987 0.5292373 0.59530467 0.5518298
000030 1e bd 10 3f fd b7 3b 3f 2c 20 00 3f df 88 10 3f
       0.5653857 0.7332762 0.5004909 0.5645885
000040 8d 5c 0b 3f d0 29 0c 3f b7 98 0b 3f 34 9c 12 3f
       0.54438096 0.547513 0.545299 0.572696
000050 dc fe 1f 3f 6b 61 0e 3f 1e 10 25 3f 5d 07 11 3f
       0.6249826 0.556174 0.6447772 0.5665186
000060 68 ea ee 3e 25 da 08 3f bb b7 06 3f c6 69 04 3f
       0.46663213 0.5345786 0.526241 0.517239
000070 53 a6 0a 3f d6 d8 0d 3f d8 3f 11 3f b3 6d 0e 3f
       0.5416004 0.5540899 0.5673804 0.5563614

tcn.network.0.conv1.weight_v f4 [32, 32, 2]
000000 27 b7 5c bc 50 d7 23 3d 26 5f bb bd 9c 34 ce bc
       -0.013471401 0.04000026 -0.091490075 -0.02517157
000010 27 a6 28 bd d1 67 5e 3d 96 d5 0d be d8 8e f6 bd
       -0.04117408 0.054298226 -0.13851008 -0.12038964
000020 8c cd 98 3d 01 f4 4a 3d c9 95 99 3d 2f 32 b2 3c
       0.0746108 0.049549107 0.074992724 0.021752445
000030 13 d1 10 be 03 16 90 bd cf 32 ed bd 30 a8 fc 3c
       -0.14142255 -0.070354484 -0.115819566 0.030841917
000040 91 81 fe 3d 33 99 6c 3e d3 4b 05 be 52 a6 f5 3c
       0.124270566 0.23105316 -0.13017206 0.029986534
000050 17 28 e2 3d ec 1e 74 3b d3 e7 01 bd 07 fc ee bd
       0.11042803 0.0037249876 -0.031715225 -0.11669164
000060 09 84 92 3c ce 73 5d bc d7 12 9e 3d 36 d6 71 bb
       0.017885225 -0.0135163795 0.07718437 -0.0036901361
000070 3a cc 6f bd 79 fe c6 3d 28 a6 49 3d 3b d5 83 bb
       -0.058544375 0.097165056 0.049230725 -0.004023222
000080 50 c4 36 bd 77 e8 91 bd 7e 01 2e be e9 c4 9c bd
       -0.044620812 -0.07124417 -0.16992757 -0.07654745
000090 23 bc e4 bd 84 00 9c 3d 15 90 2d 3b ef 34 63 3e
       -0.11168697 0.07617286 0.0026483585 0.22188161
0000a0 1d 6d ea bd bd e5 4a be b1 37 36 be f7 35 1f be
       -0.11446593 -0.198142 -0.17794682 -0.1554793
0000b0 cf a1 26 3d f3 02 3c 3d 61 73 b5 3d 42 51 68 3e
       0.040681656 0.04590125 0.088598974 0.22687247
0000c0 d0 80 b4 3d 8a 6c 09 be 4d 3f 8e bd 1e 2b 1e 3c
       0.088136315 -0.1342031 -0.069456674 0.009653835
0000d0 19 1f 94 bd 10 57 28 be bd d3 04 3d 9c 08 02 3e
       -0.07232494 -0.16439462 0.03242849 0.12698597
0000e0 49 2a 3d 3d 53 26 ce 3d 77 99 51 bc bd b7 21 3e
       0.046182904 0.100659035 -0.0127929365 0.15792747
0000f0 d2 34 fa bd a9 81 94 bd c5 7d 1d 3e 4b 96 1a bd
       -0.12217106 -0.07251293 0.15380009 -0.037740987
000100 94 fc 45 bd d6 28 5d 3d b6 06 24 bd 60 0a d3 bc
       -0.04833658 0.053994022 -0.040045463 -0.025761783
000110 d3 a3 a6 bd 08 57 5b 3d dc 00 98 3c 6f 14 d8 3b
       -0.08136716 0.053549796 0.018555097 0.0065942327
000120 1b 4b b4 3c 46 7c ae bc 98 32 4f bc bf 4a 41 be
       0.02200847 -0.021299493 -0.01264634 -0.1887617
000130 0b 00 4d be 8a 1c 8e 3d 27 95 c2 bd f2 6d dc bd
       -0.20019548 0.06939037 -0.09501105 -0.10763158
000140 b8 21 d4 3d 2f 2d 96 3c a5 f3 b3 bc 77 00 35 be
       0.10357994 0.018332092 -0.021966765 -0.17675959
000150 63 cc 36 bd 40 86 90 bd 5c 10 53 3d c6 0c 9c bd
       -0.044628512 -0.07056856 0.051529273 -0.07619624
000160 4f 59 49 3d f7 30 ff bc 80 d8 93 bd 21 cb 0f be
       0.049157437 -0.031151278 -0.072190285 -0.14042331
000170 70 f0 1c 3d a0 67 12 bb 7c 25 08 3e fd dd 2e 3c
       0.038315237 -0.0022339597 0.13295549 0.010673043
000180 29 bb 1d be 0f c8 3f be bc f8 c7 bb 05 e8 63 bd
       -0.15403427 -0.1872866 -0.0061026495 -0.055641193
000190 db 20 b5 bd 38 66 8e 3c af 10 54 3e f3 48 84 3d
       -0.08844157 0.017382726 0.2070949 0.064592265
0001a0 b0 e6 cb bd c2 e3 db bb fd 6e d8 bc dc e8 06 3d
       -0.099561095 -0.0067105005 -0.02642011 0.032936916
0001b0 d1 41 a0 bd ab 41 b9 bd 2d fe 1d 3c e5 af 64 3d
       -0.078250535 -0.09045728 0.00964312 0.05583181
0001c0 41 19 3c bc c7 47 09 3d 67 64 c9 bd b7 b3 b9 3d
       -0.01148063 0.033515718 -0.09833603 0.09067481
0001d0 1a 79 cc 3d 40 f5 40 bd d5 ac b5 3b a8 c4 35 3d
       0.09984036 -0.04710889 0.005544285 0.044377
0001e0 d9 dd d2 bd 79 4e 87 bd 53 4e 5c bd 03 05 10 3d
       -0.1029622 -0.06606764 -0.053785633 0.03516103
0001f0 87 80 84 bc ff 7b 08 3c c0 4b f2 3d d1 43 08 3e
       -0.016174568 0.008330344 0.118308544 0.1330712
000200 28 38 3c be ce d4 cb bd 0d 2a 01 bd 22 67 ab bd
       -0.18380797 -0.09952699 -0.031534243 -0.083692804
000210 79 9c 85 be 1a 09 1e 3c d0 66 19 be 97 36 23 bb
       -0.26095942 0.009645725 -0.14980626 -0.0024904364
000220 e4 97 8e 3e a8 a1 3a 3e a4 1c 6a 3d f6 e9 05 bd
       0.27850258 0.1822573 0.05715622 -0.032693826
000230 90 14 9e bd 14 83 bc bb 76 23 3c be a1 d5 84 bd
       -0.07718766 -0.0057529304 -0.18372902 -0.06486059
000240 61 c1 35 bd cf 58 71 bb f5 ed a9 bd 83 14 81 bd
       -0.044373874 -0.0036826616 -0.0829734 -0.063027404
000250 9f 81 38 bd 57 71 de 3c a8 3d 43 bd fe 55 28 3d
       -0.04504549 0.027153654 -0.04766622 0.041097634
000260 51 bc 6a 3e bd 43 b1 3c 12 9f 92 3d 2a d2 e9 bd
       0.229234 0.021638745 0.071592465 -0.11417039
000270 b3 e6 04 bd a1 f5 d5 bc 62 8b 08 3e 79 89 84 3d
       -0.032446574 -0.026118102 0.1333442 0.06471533
000280 46 98 40 3d 1b 7a 91 bc 37 5b 7f 3c 14 d8 f7 bd
       0.04702022 -0.01775842 0.015585712 -0.121017605
000290 2c 15 f6 3d 43 3c eb bd f0 28 aa bd ac 70 33 bd
       0.12015757 -0.114861034 -0.083085895 -0.043808624
0002a0 d0 e3 08 3d 8b 61 4f bc d4 1c 12 be 62 5b c7 bc
       0.033420384 -0.012657533 -0.1426881 -0.024335567
0002b0 11 67 1f 3e 91 7e 09 3e 75 01 8f 3d 50 a0 8e 3b
       0.1556666 0.13427188 0.069827 0.004352607
0002c0 cb 94 f4 3c cc db 7d 3c 01 b2 58 be 3f 38 b4 bd
       0.029856106 0.015494298 -0.21161653 -0.087997906
0002d0 d3 09 aa 3b 9d b1 69 bd 72 ae a6 bd bf 76 02 3e
       0.0051891594 -0.05705415 -0.081387416 0.1274061
0002e0 3b a6 05 3d 8f af 9a 3d fa 8d 44 bd 13 fc 88 bc
       0.032629233 0.075530164 -0.047986962 -0.01672176
0002f0 c7 7e 34 be 78 da a1 bd 52 f5 a6 bd 43 d0 a5 3d
       -0.17626487 -0.07902998 -0.0815226 0.080963634
000300 de dd 79 3c f2 8f 6d 3c a1 a4 90 3d 0f 00 82 bd
       0.015250651 0.014499651 0.070626505 -0.063476674
000310 30 84 f5 bc 64 a4 5c 3c da dc 5e 3c 78 fe 8f bd
       -0.029970258 0.013466928 0.01360246 -0.07030958
000320 b8 3d c8 bd c6 cc 8a bd 5e 33 df bd 14 a7 f2 bb
       -0.09777397 -0.06777339 -0.108984694 -0.007405171
000330 f4 60 c9 bd e2 52 97 bd cc da 74 bc 01 d3 f5 3c
       -0.098329455 -0.073888555 -0.014944743 0.030007841
000340 f6 bf 4a 3c cf 94 fb 3c 74 6b 50 be 46 d8 b2 bd
       0.012374869 0.030710606 -0.2035349 -0.08732657
000350 de 9e e5 bc f9 a7 d2 bd a9 34 ba bc 24 7f 23 bd
       -0.028029855 -0.102859445 -0.022730188 -0.039916173
000360 27 21 87 bd 73 33 93 bd de 96 97 3c 85 55 b2 3d
       -0.0659812 -0.071875475 0.018504556 0.08707718
000370 e6 e5 fe b9 b4 55 2e 3c 0f 23 7b bd a8 ba cc bd
       -0.00048617943 0.01064055 -0.06131273 -0.09996539
000380 35 10 f9 bd 2b 2e 56 3d 71 de 41 bd 12 a8 14 be
       -0.12161294 0.052290123 -0.047331277 -0.14517239
000390 55 c9 ce bd 72 ac 39 be f2 ec 0e 3e ca 16 ea 3c
       -0.10096995 -0.18132189 0.13957575 0.02857532
0003a0 d9 19 19 be 93 b8 18 be bf d0 29 be f0 01 b3 bd
       -0.14951266 -0.1491416 -0.16583537 -0.08740604
0003b0 e1 32 33 bd 28 33 01 3e 02 72 8f 3d 1d 4b 20 3d
       -0.043749694 0.12617171 0.07004167 0.039134134
0003c0 a7 d7 32 be ce b2 d1 3d ff 3e 13 bd 0f 01 98 3d
       -0.17465077 0.102391824 -0.03594875 0.07422077
0003d0 3c 0f 8c bd b0 62 17 3d 42 83 60 3e 04 a4 1e 3e
       -0.06838843 0.03695935 0.21925071 0.15492254
0003e0 78 30 3e bd f5 3d 82 3d e6 e9 5a 3d a2 5c e3 bd
       -0.046432942 0.063594736 0.05344572 -0.11101653
0003f0 03 43 03 3e 3e 3e e1 bd ce f3 26 bd 70 ee 93 3c
       0.12818532 -0.109982 -0.040759854 0.018058032

tcn.network.0.conv2.bias f4 [32]
000000 e9 14 04 be 5a 6d 3d bd fc 3b 07 be f5 11 85 3d
       -0.12898602 -0.046246864 -0.13206476 0.06497566
000010 3c 29 16 bc cb 17 ec 3c dd 50 a2 3c 17 ef c3 bc
       -0.0091651045 0.02881994 0.01981395 -0.023917718
000020 ac 39 de bd 86 4e c5 bc 7f b9 a4 bd ee 49 34 be
       -0.10850844 -0.024085294 -0.08043193 -0.17606327
000030 81 ae 92 bd 96 5b 58 be b3 77 2a be 8e 8c 56 bd
       -0.0716219 -0.21128687 -0.16647224 -0.052380137
000040 f1 88 ea bb 9d b7 af bd 95 9b 38 bd cd 30 45 3d
       -0.007157438 -0.08579943 -0.04507025 0.048142243
000050 cf 80 13 bd af 69 db bd e0 af 7a 3d a0 1e 78 bc
       -0.036011513 -0.10713517 0.061202884 -0.01514402
000060 41 fb 4f bb b6 19 32 bd 08 d5 00 be c3 6a 7f bd
       -0.0031735452 -0.04348155 -0.12581265 -0.062357675
000070 28 61 ec bb 5c c0 0f be 41 4a a5 bc ed cd 1a be
       -0.0072137304 -0.14038223 -0.020177009 -0.15117617

tcn.network.0.conv2.weight_g f4 [32, 1, 1]
000000 c5 76 1b 3f 21 79 0f 3f 94 37 f2 3e 25 bf 15 3f
       0.607281 0.56044203 0.47308028 0.5849479
000010 72 72 13 3f f6 e0 0e 3f fe 81 f2 3e 10 e7 15 3f
       0.57596505 0.55812013 0.473648 0.585557
000020 8b e8 10 3f 99 89 12 3f b7 ea 15 3f 5c 1c 0a 3f
       0.5660483 0.5724121 0.5856127 0.5394952
000030 7e 24 0c 3f a5 ae 01 3f db f8 f4 3e 03 2b 0b 3f
       0.5474318 0.5065711 0.47846112 0.54362506
000040 76 4c 12 3f 05 72 07 3f d1 f9 0c 3f 67 26 f5 3e
       0.5714792 0.52908355 0.5506869 0.4788086
000050 73 9a 0c 3f 9f 9f 25 3f cb b9 08 3f 2e 10 18 3f
       0.5492317 0.6469669 0.534085 0.5939969
000060 68 81 02 3f 13 3f 0e 3f a5 6e f7 3e 9f 7b 08 3f
       0.5097871 0.55564994 0.48326603 0.5331363
000070 b3 c6 0c 3f 69 d7 0f 3f aa d5 0f 3f 13 2e 22 3f
       0.5499069 0.56188065 0.561854 0.63351554

tcn.network.0.conv2.weight_v f4 [32, 32, 2]
000000 86 8f 74 bc 74 d2 69 bc b1 83 bc bd 85 ec a6 bc
       -0.014926797 -0.014271367 -0.09204806 -0.020376453
000010 f9 e0 22 3e bb fa 67 3d 30 04 b0 3d a4 78 82 3d
       0.15906133 0.0566356 0.08594549 0.063706666
000020 2a a4 48 3d 71 d9 a3 3d 1b 78 b0 bc 73 23 d8 bd
       0.048984684 0.08000458 -0.021541646 -0.105536364
000030 f8 53 9f 3d 26 22 c0 bc ae 77 90 bd 33 92 bf 3d
       0.07779688 -0.023453783 -0.07054077 0.09354057
000040 7d d1 aa bc 9e 48 0d 3d ce 40 46 bc 28 a7 6d 3c
       -0.020851845 0.03449308 -0.012100412 0.014505185
000050 02 f9 39 3e 92 48 4e bd 42 8d 05 bd 82 05 b7 bd
       0.18161395 -0.050362177 -0.032605417 -0.089365974
000060 74 51 ba bc df 18 e3 bd 38 7a 59 3e 58 4b 08 3c
       -0.022743918 -0.11088728 0.21238029 0.008318745
000070 80 0f 96 b9 dd 18 c9 bb 74 a7 26 bd a3 6e 58 3d
       -0.00028621778 -0.006136997 -0.04068704 0.052839886
000080 49 db a6 bc ac 6c 6e bd fb b1 cf 3c 4b 1d 19 3e
       -0.020368235 -0.058209106 0.025353422 0.1495258
000090 9b 6e a9 bd 20 e6 7a bd 8e fb 07 3e 3a 42 68 3c
       -0.082730494 -0.06125462 0.13279554 0.014175946
0000a0 db 54 e2 bc 2b 2b a5 3d 09 38 e5 34 18 2e a8 3b
       -0.027628353 0.08064874 4.2695345e-07 0.005132448
0000b0 08 7f 21 3d 89 45 b7 bc 26 35 01 be f6 f2 bc 3d
       0.039427787 -0.022372024 -0.12617931 0.092260286
0000c0 75 d9 b5 3c 93 10 4e 3d 5f 6e a3 bc ec 19 5e bd
       0.022198418 0.050308775 -0.01995009 -0.05422394
0000d0 41 31 87 3d 18 25 8d 3c f9 fd 0c 3e cd bf 9b bd
       0.06601191 0.017229602 0.13768758 -0.076049425
0000e0 5b 3f 97 bc c7 74 35 bd 54 0a ce bd 03 42 b1 3d
       -0.018462827 -0.04430082 -0.10060564 0.08655169
0000f0 72 b1 38 bd 0c a6 9a bd 27 0d 99 3c f7 cb ca 3c
       -0.0450911 -0.07551202 0.01868303 0.024755461
000100 79 c0 3c bd af 67 f3 3d d5 ac ab bd 31 dd 2d bd
       -0.046081994 0.118850105 -0.083825745 -0.042447273
000110 37 8e 3e bd 05 fe 35 bc ac 0e 9e bc 17 65 66 bd
       -0.046522345 -0.011107926 -0.019294105 -0.05624875
000120 ce 08 19 bd 5b 50 5b bd 22 5d 04 be a9 c0 db 3d
       -0.037361912 -0.05354343 -0.12926152 0.107301064
000130 17 29 95 3d 17 dd 78 bd fa 82 5b 3c 42 3c 9c 3d
       0.07283228 -0.060757723 0.013397926 0.07628681
000140 fe 3c 18 3d d1 f4 e3 3d 9f 71 de bc 23 ca 02 bd
       0.03716754 0.111306794 -0.027153788 -0.031931054
000150 92 71 0d be 1e 8e f1 bd 04 83 00 be 2e df 02 be
       -0.13812855 -0.11794685 -0.12549978 -0.12780449
000160 e7 a6 15 bd 44 2b 16 bd a0 ca 96 bd de fc 74 bc
       -0.036536124 -0.036662355 -0.073628664 -0.014952866
000170 4b 4d e2 3b a6 70 9f 3d eb 36 a2 3c e9 f2 76 bd
       0.0069061867 0.07785158 0.019801578 -0.06029025
000180 76 f2 bf 3d fd 5b dc bd 5a 87 d2 bc 31 8c 36 bd
       0.09372418 -0.10759733 -0.025699306 -0.04456729
000190 7b bf 77 3d 35 17 01 3e 26 4d 04 be d6 9e 6d 3c
       0.060485344 0.12606509 -0.12920055 0.0145032015
0001a0 52 b1 91 bd 11 0e b8 3b e7 48 26 3d cd 15 0d be
       -0.07113899 0.005616911 0.04059687 -0.13777848
0001b0 cb c8 bf bd d9 22 da bd 36 db 8d bd 4f 5a 09 bd
       -0.0936447 -0.10651178 -0.06926577 -0.03353339
0001c0 24 a8 b3 3d 1b 0b a2 bc 6d 45 9a 3d 57 34 e7 3d
       0.08772305 -0.019780686 0.07532773 0.1128928
0001d0 fa 50 14 be 71 87 19 bc 28 e4 10 3d 4a 1b d7 bd
       -0.14484015 -0.009370671 0.035373837 -0.10503252
0001e0 f9 4c aa 3d 40 d3 83 bd 77 27 d1 bd 14 62 1e be
       0.083154626 -0.06436777 -0.102126054 -0.15467101
0001f0 ce aa a0 bc 77 ff 9f 3c cc 5d a8 bd e7 e4 13 bd
       -0.019612696 0.019530995 -0.08221015 -0.03610697
000200 83 11 21 3d 4e 60 b7 3d 04 51 c2 3d 62 3e de bd
       0.03932334 0.089539155 0.09488109 -0.10851742
000210 a6 d7 4c bd 7b bb cc 3d b7 80 02 3e 40 95 0d bd
       -0.050010346 0.099966966 0.12744413 -0.034566164
000220 0e 4f 16 3d c0 42 84 3d c9 3a e8 3d a5 ea c9 bd
       0.036696486 0.06458044 0.113393374 -0.09859208
000230 40 40 01 3e 3e ac 09 be 3e 04 3b bd 80 f6 44 3d
       0.12622166 -0.13444611 -0.045658343 0.048086643
000240 c2 64 af bd ad bc a8 bd 41 98 5a 3d f0 5c c9 3d
       -0.0856414 -0.08239112 0.053367857 0.098321795
000250 21 f3 2b be 73 95 c1 3d e3 82 90 bd 3c a1 6c bc
       -0.16791965 0.09452333 -0.07056215 -0.014442738
000260 01 dc a9 3c 05 45 23 bd d6 dd 0e be f7 2d 81 3c
       0.020734789 -0.039860744 -0.13951811 0.015768988
000270 bf ed 2a be 2b 7f be 3d 6b 28 07 bd 65 57 c0 bd
       -0.16692255 0.09301599 -0.03299753 -0.09391669
000280 97 bf 32 3e a0 ee f2 3d e7 93 05 be 2f 55 e9 bb
       0.17455898 0.1186192 -0.13044702 -0.0071207504
000290 02 a1 7a 3d 9b 1d ef bd bb 72 5c bd 26 7f cf 3c
       0.061188705 -0.11675569 -0.053820353 0.025329184
0002a0 21 35 3b bd e6 33 b9 3d f7 6d f7 3d ff bd b3 bc
       -0.045704965 0.09043102 0.12081521 -0.021941183
0002b0 b8 8c d1 bc e9 e7 e6 bd bc 93 c4 3d 7b aa 1b 3e
       -0.025579795 -0.11274702 0.095984906 0.15201752
0002c0 3c e3 d8 3d 78 e2 a1 bd 7c 4f 3e 3e 6a b3 ab 3d
       0.105902165 -0.079045236 0.18585008 0.0838383
0002d0 d7 5b a1 bd c3 b2 06 3e 61 35 b4 3c d1 85 17 bd
       -0.07878845 0.1315413 0.02199811 -0.03699285
0002e0 32 0c a5 bd f0 7d e6 3d 43 0f a7 3d 63 41 8c bd
       -0.08058967 0.112544894 0.08157208 -0.06848409
0002f0 8e 60 bc 3d 1c 86 e8 3c 2b c7 d5 3d 44 4e fd bd
       0.09198104 0.02838426 0.10438379 -0.123684436
000300 5e 45 59 bd 58 a6 bd bc e7 33 eb 3d 25 06 39 3e
       -0.05304467 -0.023150608 0.11484509 0.1806875
000310 68 18 94 bd 56 e1 bb 3d 6b 9d a3 3d 42 c5 37 bd
       -0.072312176 0.09173839 0.079890095 -0.044865854
000320 f5 5a 93 3d 45 37 81 3d e1 7f b5 3d b9 3f fe 3d
       0.07195083 0.0630937 0.088622816 0.12414498
000330 8f ce 64 bb a1 d7 5f bd 0b 36 06 3e a9 54 34 bd
       -0.0034913158 -0.054649 0.13106553 -0.04402605
000340 c2 65 19 3d 3c 91 18 bd 54 c3 1d bd b4 6b a3 3d
       0.03745056 -0.03724788 -0.038516358 0.07979527
000350 36 14 87 bd 4d 3e 81 3d 67 b8 e9 3d e1 6c b0 3d
       -0.06595652 0.06310711 0.11412125 0.08614517
000360 3b df 39 3e 7c 00 9e bc 33 3e ad bd eb 00 0f 3e
       0.18151562 -0.01928734 -0.08459129 0.13965194
000370 f4 cc b8 3c df 7a a3 bd e2 e4 55 bd 4e 8e a2 3d
       0.022558667 -0.0798242 -0.052220233 0.07937299
000380 79 d7 73 3d 79 d4 72 bd 76 a8 b3 bd d0 30 77 3d
       0.059531663 -0.05928466 -0.08772366 0.060349286
000390 18 17 84 bd 3a a8 68 bd c1 0d 18 be f6 3b d2 3d
       -0.06449717 -0.05680106 -0.14848997 0.10265343
0003a0 c7 e3 be 3b 6e 01 41 3e 9e a9 2b 3d 67 b9 5d 3d
       0.005825493 0.18848202 0.041909806 0.05413189
0003b0 c4 43 38 3e 1e ac 4c 3d a1 d3 c8 bc 6b 51 56 3d
       0.179946 0.04996883 -0.024514975 0.05232374
0003c0 79 de 90 3c af f3 05 3d f1 6c 6c 3e dd d7 e3 3d
       0.017684208 0.032703098 0.23088433 0.11125157
0003d0 4e 07 77 3d f0 e5 dc 3d 12 16 63 bd 08 63 c5 3d
       0.0603097 0.107860446 -0.05544097 0.09638029
0003e0 70 41 b9 3d 62 ed 0f bd 96 7f 1a ba ef f8 7d 3d
       0.09045684 -0.035138495 -0.00058936456 0.06200498
0003f0 7f a2 22 3e 03 72 5e 3e 94 c1 18 3e b8 68 94 3d
       0.158823 0.2172318 0.14917594 0.07246536

tcn.network.0.net.0.bias f4 [32]
000000 65 3b f8 bd 06 36 25 bd 3e 93 76 bd cf 74 ca bd
       -0.121207036 -0.040334724 -0.060199015 -0.09885561
000010 12 af 12 bd 01 e3 1c be 6a d1 22 be 1d 40 0f be
       -0.03581149 -0.1532097 -0.15900198 -0.13989301
000020 38 e3 6a 3c d4 89 82 3d 7e 07 bc 3c 8f a0 cc bc
       0.0143364 0.06373945 0.022952791 -0.024978904
000030 3a 65 85 3d 8f 2c 26 bc 4b a3 f9 bd b7 34 20 bd
       0.06513448 -0.0101424595 -0.12189349 -0.039112773
000040 60 6f 4f bd 79 fb e1 bd 52 d7 e0 3d 42 b7 48 be
       -0.050643325 -0.11034293 0.10978569 -0.19601157
000050 6b 30 65 bc bd 69 09 3d 9b a3 e9 bd 6d 47 26 3d
       -0.0139885945 0.033548106 -0.114081584 0.04059546
000060 5f db 0b be f5 3a 50 3d 38 26 04 be b3 7d 26 be
       -0.13657902 0.050837476 -0.12905204 -0.16258888
000070 5c f9 b5 3d 1b 77 05 be 5e 5a 87 3d 90 e1 ba 3d
       0.08885452 -0.13033716 0.06609033 0.09125054

tcn.network.0.net.0.weight_g f4 [32, 1, 1]
000000 7f 01 1d 3f b7 e5 f1 3e 5d 4a 1d 3f 8f e9 09 3f
       0.6133041 0.4724557 0.61441594 0.5387201
000010 da 03 0b 3f ea 78 09 3f 4c 11 e7 3e f2 4c 19 3f
       0.5430275 0.53700125 0.45130384 0.59883034
000020 d4 04 04 3f 18 7c 07 3f e3 65 18 3f b8 44 0d 3f
       0.5156987 0.5292373 0.59530467 0.5518298
000030 1e bd 10 3f fd b7 3b 3f 2c 20 00 3f df 88 10 3f
       0.5653857 0.7332762 0.5004909 0.5645885
000040 8d 5c 0b 3f d0 29 0c 3f b7 98 0b 3f 34 9c 12 3f
       0.54438096 0.547513 0.545299 0.572696
000050 dc fe 1f 3f 6b 61 0e 3f 1e 10 25 3f 5d 07 11 3f
       0.6249826 0.556174 0.6447772 0.5665186
000060 68 ea ee 3e 25 da 08 3f bb b7 06 3f c6 69 04 3f
       0.46663213 0.5345786 0.526241 0.517239
000070 53 a6 0a 3f d6 d8 0d 3f d8 3f 11 3f b3 6d 0e 3f
       0.5416004 0.5540899 0.5673804 0.5563614

tcn.network.0.net.0.weight_v f4 [32, 32, 2]
000000 27 b7 5c bc 50 d7 23 3d 26 5f bb bd 9c 34 ce bc
       -0.013471401 0.04000026 -0.091490075 -0.02517157
000010 27 a6 28 bd d1 67 5e 3d 96 d5 0d be d8 8e f6 bd
       -0.04117408 0.054298226 -0.13851008 -0.12038964
000020 8c cd 98 3d 01 f4 4a 3d c9 95 99 3d 2f 32 b2 3c
       0.0746108 0.049549107 0.074992724 0.021752445
000030 13 d1 10 be 03 16 90 bd cf 32 ed bd 30 a8 fc 3c
       -0.14142255 -0.070354484 -0.115819566 0.030841917
000040 91 81 fe 3d 33 99 6c 3e d3 4b 05 be 52 a6 f5 3c
       0.124270566 0.23105316 -0.13017206 0.029986534
000050 17 28 e2 3d ec 1e 74 3b d3 e7 01 bd 07 fc ee bd
       0.11042803 0.0037249876 -0.031715225 -0.11669164
000060 09 84 92 3c ce 73 5d bc d7 12 9e 3d 36 d6 71 bb
       0.017885225 -0.0135163795 0.07718437 -0.0036901361
000070 3a cc 6f bd 79 fe c6 3d 28 a6 49 3d 3b d5 83 bb
       -0.058544375 0.097165056 0.049230725 -0.004023222
000080 50 c4 36 bd 77 e8 91 bd 7e 01 2e be e9 c4 9c bd
       -0.044620812 -0.07124417 -0.16992757 -0.07654745
000090 23 bc e4 bd 84 00 9c 3d 15 90 2d 3b ef 34 63 3e
       -0.11168697 0.07617286 0.0026483585 0.22188161
0000a0 1d 6d ea bd bd e5 4a be b1 37 36 be f7 35 1f be
       -0.11446593 -0.198142 -0.17794682 -0.1554793
0000b0 cf a1 26 3d f3 02 3c 3d 61 73 b5 3d 42 51 68 3e
       0.040681656 0.04590125 0.088598974 0.22687247
0000c0 d0 80 b4 3d 8a 6c 09 be 4d 3f 8e bd 1e 2b 1e 3c
       0.088136315 -0.1342031 -0.069456674 0.009653835
0000d0 19 1f 94 bd 10 57 28 be bd d3 04 3d 9c 08 02 3e
       -0.07232494 -0.16439462 0.03242849 0.12698597
0000e0 49 2a 3d 3d 53 26 ce 3d 77 99 51 bc bd b7 21 3e
       0.046182904 0.100659035 -0.0127929365 0.15792747
0000f0 d2 34 fa bd a9 81 94 bd c5 7d 1d 3e 4b 96 1a bd
       -0.12217106 -0.07251293 0.15380009 -0.037740987
000100 94 fc 45 bd d6 28 5d 3d b6 06 24 bd 60 0a d3 bc
       -0.04833658 0.053994022 -0.040045463 -0.025761783
000110 d3 a3 a6 bd 08 57 5b 3d dc 00 98 3c 6f 14 d8 3b
       -0.08136716 0.053549796 0.018555097 0.0065942327
000120 1b 4b b4 3c 46 7c ae bc 98 32 4f bc bf 4a 41 be
       0.02200847 -0.021299493 -0.01264634 -0.1887617
000130 0b 00 4d be 8a 1c 8e 3d 27 95 c2 bd f2 6d dc bd
       -0.20019548 0.06939037 -0.09501105 -0.10763158
000140 b8 21 d4 3d 2f 2d 96 3c a5 f3 b3 bc 77 00 35 be
       0.10357994 0.018332092 -0.021966765 -0.17675959
000150 63 cc 36 bd 40 86 90 bd 5c 10 53 3d c6 0c 9c bd
       -0.044628512 -0.07056856 0.051529273 -0.07619624
000160 4f 59 49 3d f7 30 ff bc 80 d8 93 bd 21 cb 0f be
       0.049157437 -0.031151278 -0.072190285 -0.14042331
000170 70 f0 1c 3d a0 67 12 bb 7c 25 08 3e fd dd 2e 3c
       0.038315237 -0.0022339597 0.13295549 0.010673043
000180 29 bb 1d be 0f c8 3f be bc f8 c7 bb 05 e8 63 bd
       -0.15403427 -0.1872866 -0.0061026495 -0.055641193
000190 db 20 b5 bd 38 66 8e 3c af 10 54 3e f3 48 84 3d
       -0.08844157 0.017382726 0.2070949 0.064592265
0001a0 b0 e6 cb bd c2 e3 db bb fd 6e d8 bc dc e8 06 3d
       -0.099561095 -0.0067105005 -0.02642011 0.032936916
0001b0 d1 41 a0 bd ab 41 b9 bd 2d fe 1d 3c e5 af 64 3d
       -0.078250535 -0.09045728 0.00964312 0.05583181
0001c0 41 19 3c bc c7 47 09 3d 67 64 c9 bd b7 b3 b9 3d
       -0.01148063 0.033515718 -0.09833603 0.09067481
0001d0 1a 79 cc 3d 40 f5 40 bd d5 ac b5 3b a8 c4 35 3d
       0.09984036 -0.04710889 0.005544285 0.044377
0001e0 d9 dd d2 bd 79 4e 87 bd 53 4e 5c bd 03 05 10 3d
       -0.1029622 -0.06606764 -0.053785633 0.03516103
0001f0 87 80 84 bc ff 7b 08 3c c0 4b f2 3d d1 43 08 3e
       -0.016174568 0.008330344 0.118308544 0.1330712
000200 28 38 3c be ce d4 cb bd 0d 2a 01 bd 22 67 ab bd
       -0.18380797 -0.09952699 -0.031534243 -0.083692804
000210 79 9c 85 be 1a 09 1e 3c d0 66 19 be 97 36 23 bb
       -0.26095942 0.009645725 -0.14980626 -0.0024904364
000220 e4 97 8e 3e a8 a1 3a 3e a4 1c 6a 3d f6 e9 05 bd
       0.27850258 0.1822573 0.05715622 -0.032693826
000230 90 14 9e bd 14 83 bc bb 76 23 3c be a1 d5 84 bd
       -0.07718766 -0.0057529304 -0.18372902 -0.06486059
000240 61 c1 35 bd cf 58 71 bb f5 ed a9 bd 83 14 81 bd
       -0.044373874 -0.0036826616 -0.0829734 -0.063027404
000250 9f 81 38 bd 57 71 de 3c a8 3d 43 bd fe 55 28 3d
       -0.04504549 0.027153654 -0.04766622 0.041097634
000260 51 bc 6a 3e bd 43 b1 3c 12 9f 92 3d 2a d2 e9 bd
       0.229234 0.021638745 0.071592465 -0.11417039
000270 b3 e6 04 bd a1 f5 d5 bc 62 8b 08 3e 79 89 84 3d
       -0.032446574 -0.026118102 0.1333442 0.06471533
000280 46 98 40 3d 1b 7a 91 bc 37 5b 7f 3c 14 d8 f7 bd
       0.04702022 -0.01775842 0.015585712 -0.121017605
000290 2c 15 f6 3d 43 3c eb bd f0 28 aa bd ac 70 33 bd
       0.12015757 -0.114861034 -0.083085895 -0.043808624
0002a0 d0 e3 08 3d 8b 61 4f bc d4 1c 12 be 62 5b c7 bc
       0.033420384 -0.012657533 -0.1426881 -0.024335567
0002b0 11 67 1f 3e 91 7e 09 3e 75 01 8f 3d 50 a0 8e 3b
       0.1556666 0.13427188 0.069827 0.004352607
0002c0 cb 94 f4 3c cc db 7d 3c 01 b2 58 be 3f 38 b4 bd
       0.029856106 0.015494298 -0.21161653 -0.087997906
0002d0 d3 09 aa 3b 9d b1 69 bd 72 ae a6 bd bf 76 02 3e
       0.0051891594 -0.05705415 -0.081387416 0.1274061
0002e0 3b a6 05 3d 8f af 9a 3d fa 8d 44 bd 13 fc 88 bc
       0.032629233 0.075530164 -0.047986962 -0.01672176
0002f0 c7 7e 34 be 78 da a1 bd 52 f5 a6 bd 43 d0 a5 3d
       -0.17626487 -0.07902998 -0.0815226 0.080963634
000300 de dd 79 3c f2 8f 6d 3c a1 a4 90 3d 0f 00 82 bd
       0.015250651 0.014499651 0.070626505 -0.063476674
000310 30 84 f5 bc 64 a4 5c 3c da dc 5e 3c 78 fe 8f bd
       -0.029970258 0.013466928 0.01360246 -0.07030958
000320 b8 3d c8 bd c6 cc 8a bd 5e 33 df bd 14 a7 f2 bb
       -0.09777397 -0.06777339 -0.108984694 -0.007405171
000330 f4 60 c9 bd e2 52 97 bd cc da 74 bc 01 d3 f5 3c
       -0.098329455 -0.073888555 -0.014944743 0.030007841
000340 f6 bf 4a 3c cf 94 fb 3c 74 6b 50 be 46 d8 b2 bd
       0.012374869 0.030710606 -0.2035349 -0.08732657
000350 de 9e e5 bc f9 a7 d2 bd a9 34 ba bc 24 7f 23 bd
       -0.028029855 -0.102859445 -0.022730188 -0.039916173
000360 27 21 87 bd 73 33 93 bd de 96 97 3c 85 55 b2 3d
       -0.0659812 -0.071875475 0.018504556 0.08707718
000370 e6 e5 fe b9 b4 55 2e 3c 0f 23 7b bd a8 ba cc bd
       -0.00048617943 0.01064055 -0.06131273 -0.09996539
000380 35 10 f9 bd 2b 2e 56 3d 71 de 41 bd 12 a8 14 be
       -0.12161294 0.052290123 -0.047331277 -0.14517239
000390 55 c9 ce bd 72 ac 39 be f2 ec 0e 3e ca 16 ea 3c
       -0.10096995 -0.18132189 0.13957575 0.02857532
0003a0 d9 19 19 be 93 b8 18 be bf d0 29 be f0 01 b3 bd
       -0.14951266 -0.1491416 -0.16583537 -0.08740604
0003b0 e1 32 33 bd 28 33 01 3e 02 72 8f 3d 1d 4b 20 3d
       -0.043749694 0.12617171 0.07004167 0.039134134
0003c0 a7 d7 32 be ce b2 d1 3d ff 3e 13 bd 0f 01 98 3d
       -0.17465077 0.102391824 -0.03594875 0.07422077
0003d0 3c 0f 8c bd b0 62 17 3d 42 83 60 3e 04 a4 1e 3e
       -0.06838843 0.03695935 0.21925071 0.15492254
0003e0 78 30 3e bd f5 3d 82 3d e6 e9 5a 3d a2 5c e3 bd
       -0.046432942 0.063594736 0.05344572 -0.11101653
0003f0 03 43 03 3e 3e 3e e1 bd ce f3 26 bd 70 ee 93 3c
       0.12818532 -0.109982 -0.040759854 0.018058032

tcn.network.0.net.4.bias f4 [32]
000000 e9 14 04 be 5a 6d 3d bd fc 3b 07 be f5 11 85 3d
       -0.12898602 -0.046246864 -0.13206476 0.06497566
000010 3c 29 16 bc cb 17 ec 3c dd 50 a2 3c 17 ef c3 bc
       -0.0091651045 0.02881994 0.01981395 -0.023917718
000020 ac 39 de bd 86 4e c5 bc 7f b9 a4 bd ee 49 34 be
       -0.10850844 -0.024085294 -0.08043193 -0.17606327
000030 81 ae 92 bd 96 5b 58 be b3 77 2a be 8e 8c 56 bd
       -0.0716219 -0.21128687 -0.16647224 -0.052380137
000040 f1 88 ea bb 9d b7 af bd 95 9b 38 bd cd 30 45 3d
       -0.007157438 -0.08579943 -0.04507025 0.048142243
000050 cf 80 13 bd af 69 db bd e0 af 7a 3d a0 1e 78 bc
       -0.036011513 -0.10713517 0.061202884 -0.01514402
000060 41 fb 4f bb b6 19 32 bd 08 d5 00 be c3 6a 7f bd
       -0.0031735452 -0.04348155 -0.12581265 -0.062357675
000070 28 61 ec bb 5c c0 0f be 41 4a a5 bc ed cd 1a be
       -0.0072137304 -0.14038223 -0.020177009 -0.15117617

tcn.network.0.net.4.weight_g f4 [32, 1, 1]
000000 c5 76 1b 3f 21 79 0f 3f 94 37 f2 3e 25 bf 15 3f
       0.607281 0.56044203 0.47308028 0.5849479
000010 72 72 13 3f f6 e0 0e 3f fe 81 f2 3e 10 e7 15 3f
       0.57596505 0.55812013 0.473648 0.585557
000020 8b e8 10 3f 99 89 12 3f b7 ea 15 3f 5c 1c 0a 3f
       0.5660483 0.5724121 0.5856127 0.5394952
000030 7e 24 0c 3f a5 ae 01 3f db f8 f4 3e 03 2b 0b 3f
       0.5474318 0.5065711 0.47846112 0.54362506
000040 76 4c 12 3f 05 72 07 3f d1 f9 0c 3f 67 26 f5 3e
       0.5714792 0.52908355 0.5506869 0.4788086
000050 73 9a 0c 3f 9f 9f 25 3f cb b9 08 3f 2e 10 18 3f
       0.5492317 0.6469669 0.534085 0.5939969
000060 68 81 02 3f 13 3f 0e 3f a5 6e f7 3e 9f 7b 08 3f
       0.5097871 0.55564994 0.48326603 0.5331363
000070 b3 c6 0c 3f 69 d7 0f 3f aa d5 0f 3f 13 2e 22 3f
       0.5499069 0.56188065 0.561854 0.63351554

tcn.network.0.net.4.weight_v f4 [32, 32, 2]
000000 86 8f 74 bc 74 d2 69 bc b1 83 bc bd 85 ec a6 bc
       -0.014926797 -0.014271367 -0.09204806 -0.020376453
000010 f9 e0 22 3e bb fa 67 3d 30 04 b0 3d a4 78 82 3d
       0.15906133 0.0566356 0.08594549 0.063706666
000020 2a a4 48 3d 71 d9 a3 3d 1b 78 b0 bc 73 23 d8 bd
       0.048984684 0.08000458 -0.021541646 -0.105536364
000030 f8 53 9f 3d 26 22 c0 bc ae 77 90 bd 33 92 bf 3d
       0.07779688 -0.023453783 -0.07054077 0.09354057
000040 7d d1 aa bc 9e 48 0d 3d ce 40 46 bc 28 a7 6d 3c
       -0.020851845 0.03449308 -0.012100412 0.014505185
000050 02 f9 39 3e 92 48 4e bd 42 8d 05 bd 82 05 b7 bd
       0.18161395 -0.050362177 -0.032605417 -0.089365974
000060 74 51 ba bc df 18 e3 bd 38 7a 59 3e 58 4b 08 3c
       -0.022743918 -0.11088728 0.21238029 0.008318745
000070 80 0f 96 b9 dd 18 c9 bb 74 a7 26 bd a3 6e 58 3d
       -0.00028621778 -0.006136997 -0.04068704 0.052839886
000080 49 db a6 bc ac 6c 6e bd fb b1 cf 3c 4b 1d 19 3e
       -0.020368235 -0.058209106 0.025353422 0.1495258
000090 9b 6e a9 bd 20 e6 7a bd 8e fb 07 3e 3a 42 68 3c
       -0.082730494 -0.06125462 0.13279554 0.014175946
0000a0 db 54 e2 bc 2b 2b a5 3d 09 38 e5 34 18 2e a8 3b
       -0.027628353 0.08064874 4.2695345e-07 0.005132448
0000b0 08 7f 21 3d 89 45 b7 bc 26 35 01 be f6 f2 bc 3d
       0.039427787 -0.022372024 -0.12617931 0.092260286
0000c0 75 d9 b5 3c 93 10 4e 3d 5f 6e a3 bc ec 19 5e bd
       0.022198418 0.050308775 -0.01995009 -0.05422394
0000d0 41 31 87 3d 18 25 8d 3c f9 fd 0c 3e cd bf 9b bd
       0.06601191 0.017229602 0.13768758 -0.076049425
0000e0 5b 3f 97 bc c7 74 35 bd 54 0a ce bd 03 42 b1 3d
       -0.018462827 -0.04430082 -0.10060564 0.08655169
0000f0 72 b1 38 bd 0c a6 9a bd 27 0d 99 3c f7 cb ca 3c
       -0.0450911 -0.07551202 0.01868303 0.024755461
000100 79 c0 3c bd af 67 f3 3d d5 ac ab bd 31 dd 2d bd
       -0.046081994 0.118850105 -0.083825745 -0.042447273
000110 37 8e 3e bd 05 fe 35 bc ac 0e 9e bc 17 65 66 bd
       -0.046522345 -0.011107926 -0.019294105 -0.05624875
000120 ce 08 19 bd 5b 50 5b bd 22 5d 04 be a9 c0 db 3d
       -0.037361912 -0.05354343 -0.12926152 0.107301064
000130 17 29 95 3d 17 dd 78 bd fa 82 5b 3c 42 3c 9c 3d
       0.07283228 -0.060757723 0.013397926 0.07628681
000140 fe 3c 18 3d d1 f4 e3 3d 9f 71 de bc 23 ca 02 bd
       0.03716754 0.111306794 -0.027153788 -0.031931054
000150 92 71 0d be 1e 8e f1 bd 04 83 00 be 2e df 02 be
       -0.13812855 -0.11794685 -0.12549978 -0.12780449
000160 e7 a6 15 bd 44 2b 16 bd a0 ca 96 bd de fc 74 bc
       -0.036536124 -0.036662355 -0.073628664 -0.014952866
000170 4b 4d e2 3b a6 70 9f 3d eb 36 a2 3c e9 f2 76 bd
       0.0069061867 0.07785158 0.019801578 -0.06029025
000180 76 f2 bf 3d fd 5b dc bd 5a 87 d2 bc 31 8c 36 bd
       0.09372418 -0.10759733 -0.025699306 -0.04456729
000190 7b bf 77 3d 35 17 01 3e 26 4d 04 be d6 9e 6d 3c
       0.060485344 0.12606509 -0.12920055 0.0145032015
0001a0 52 b1 91 bd 11 0e b8 3b e7 48 26 3d cd 15 0d be
       -0.07113899 0.005616911 0.04059687 -0.13777848
0001b0 cb c8 bf bd d9 22 da bd 36 db 8d bd 4f 5a 09 bd
       -0.0936447 -0.10651178 -0.06926577 -0.03353339
0001c0 24 a8 b3 3d 1b 0b a2 bc 6d 45 9a 3d 57 34 e7 3d
       0.08772305 -0.019780686 0.07532773 0.1128928
0001d0 fa 50 14 be 71 87 19 bc 28 e4 10 3d 4a 1b d7 bd
       -0.14484015 -0.009370671 0.035373837 -0.10503252
0001e0 f9 4c aa 3d 40 d3 83 bd 77 27 d1 bd 14 62 1e be
       0.083154626 -0.06436777 -0.102126054 -0.15467101
0001f0 ce aa a0 bc 77 ff 9f 3c cc 5d a8 bd e7 e4 13 bd
       -0.019612696 0.019530995 -0.08221015 -0.03610697
000200 83 11 21 3d 4e 60 b7 3d 04 51 c2 3d 62 3e de bd
       0.03932334 0.089539155 0.09488109 -0.10851742
000210 a6 d7 4c bd 7b bb cc 3d b7 80 02 3e 40 95 0d bd
       -0.050010346 0.099966966 0.12744413 -0.034566164
000220 0e 4f 16 3d c0 42 84 3d c9 3a e8 3d a5 ea c9 bd
       0.036696486 0.06458044 0.113393374 -0.09859208
000230 40 40 01 3e 3e ac 09 be 3e 04 3b bd 80 f6 44 3d
       0.12622166 -0.13444611 -0.045658343 0.048086643
000240 c2 64 af bd ad bc a8 bd 41 98 5a 3d f0 5c c9 3d
       -0.0856414 -0.08239112 0.053367857 0.098321795
000250 21 f3 2b be 73 95 c1 3d e3 82 90 bd 3c a1 6c bc
       -0.16791965 0.09452333 -0.07056215 -0.014442738
000260 01 dc a9 3c 05 45 23 bd d6 dd 0e be f7 2d 81 3c
       0.020734789 -0.039860744 -0.13951811 0.015768988
000270 bf ed 2a be 2b 7f be 3d 6b 28 07 bd 65 57 c0 bd
       -0.16692255 0.09301599 -0.03299753 -0.09391669
000280 97 bf 32 3e a0 ee f2 3d e7 93 05 be 2f 55 e9 bb
       0.17455898 0.1186192 -0.13044702 -0.0071207504
000290 02 a1 7a 3d 9b 1d ef bd bb 72 5c bd 26 7f cf 3c
       0.061188705 -0.11675569 -0.053820353 0.025329184
0002a0 21 35 3b bd e6 33 b9 3d f7 6d f7 3d ff bd b3 bc
       -0.045704965 0.09043102 0.12081521 -0.021941183
0002b0 b8 8c d1 bc e9 e7 e6 bd bc 93 c4 3d 7b aa 1b 3e
       -0.025579795 -0.11274702 0.095984906 0.15201752
0002c0 3c e3 d8 3d 78 e2 a1 bd 7c 4f 3e 3e 6a b3 ab 3d
       0.105902165 -0.079045236 0.18585008 0.0838383
0002d0 d7 5b a1 bd c3 b2 06 3e 61 35 b4 3c d1 85 17 bd
       -0.07878845 0.1315413 0.02199811 -0.03699285
0002e0 32 0c a5 bd f0 7d e6 3d 43 0f a7 3d 63 41 8c bd
       -0.08058967 0.112544894 0.08157208 -0.06848409
0002f0 8e 60 bc 3d 1c 86 e8 3c 2b c7 d5 3d 44 4e fd bd
       0.09198104 0.02838426 0.10438379 -0.123684436
000300 5e 45 59 bd 58 a6 bd bc e7 33 eb 3d 25 06 39 3e
       -0.05304467 -0.023150608 0.11484509 0.1806875
000310 68 18 94 bd 56 e1 bb 3d 6b 9d a3 3d 42 c5 37 bd
       -0.072312176 0.09173839 0.079890095 -0.044865854
000320 f5 5a 93 3d 45 37 81 3d e1 7f b5 3d b9 3f fe 3d
       0.07195083 0.0630937 0.088622816 0.12414498
000330 8f ce 64 bb a1 d7 5f bd 0b 36 06 3e a9 54 34 bd
       -0.0034913158 -0.054649 0.13106553 -0.04402605
000340 c2 65 19 3d 3c 91 18 bd 54 c3 1d bd b4 6b a3 3d
       0.03745056 -0.03724788 -0.038516358 0.07979527
000350 36 14 87 bd 4d 3e 81 3d 67 b8 e9 3d e1 6c b0 3d
       -0.06595652 0.06310711 0.11412125 0.08614517
000360 3b df 39 3e 7c 00 9e bc 33 3e ad bd eb 00 0f 3e
       0.18151562 -0.01928734 -0.08459129 0.13965194
000370 f4 cc b8 3c df 7a a3 bd e2 e4 55 bd 4e 8e a2 3d
       0.022558667 -0.0798242 -0.052220233 0.07937299
000380 79 d7 73 3d 79 d4 72 bd 76 a8 b3 bd d0 30 77 3d
       0.059531663 -0.05928466 -0.08772366 0.060349286
000390 18 17 84 bd 3a a8 68 bd c1 0d 18 be f6 3b d2 3d
       -0.06449717 -0.05680106 -0.14848997 0.10265343
0003a0 c7 e3 be 3b 6e 01 41 3e 9e a9 2b 3d 67 b9 5d 3d
       0.005825493 0.18848202 0.041909806 0.05413189
0003b0 c4 43 38 3e 1e ac 4c 3d a1 d3 c8 bc 6b 51 56 3d
       0.179946 0.04996883 -0.024514975 0.05232374
0003c0 79 de 90 3c af f3 05 3d f1 6c 6c 3e dd d7 e3 3d
       0.017684208 0.032703098 0.23088433 0.11125157
0003d0 4e 07 77 3d f0 e5 dc 3d 12 16 63 bd 08 63 c5 3d
       0.0603097 0.107860446 -0.05544097 0.09638029
0003e0 70 41 b9 3d 62 ed 0f bd 96 7f 1a ba ef f8 7d 3d
       0.09045684 -0.035138495 -0.00058936456 0.06200498
0003f0 7f a2 22 3e 03 72 5e 3e 94 c1 18 3e b8 68 94 3d
       0.158823 0.2172318 0.14917594 0.07246536

tcn.network.0.downsample.weight f4 [32, 32, 1]
000000 2b 1d d0 3d 98 1c ce 3d d9 e7 83 bc 0d ff 02 3c
       0.10161813 0.100640476 -0.016101765 0.007995379
000010 2a de b6 3d 68 da f6 3d 66 12 19 be 83 ec 34 3d
       0.08929093 0.120533764 -0.14948425 0.044170868
000020 d2 03 de 3d 62 fc 05 3e 3b 75 10 3d ab 51 ba bc
       0.108405724 0.13084558 0.03526805 -0.02274402
000030 7e ce 3c 3c 0b 93 a6 3c 0e 00 84 3c 3c 98 34 3e
       0.011523841 0.020333787 0.016113307 0.17636198
000040 46 42 a9 3d a8 e5 12 be 5c 8b 36 bc 90 97 db 3c
       0.08264594 -0.1434542 -0.011141624 0.02680567
000050 c1 ed 23 be d4 5e e4 bd c2 c8 ad bd 79 99 d3 bd
       -0.16008665 -0.111508995 -0.08485557 -0.10332007
000060 16 a7 d7 3d 69 5f 58 be 1c fd 70 bd c1 56 d6 3d
       0.10529916 -0.21130146 -0.058835134 0.10465766
000070 2c fd 2f 3e 48 73 4e bd 37 0c 27 3d 9d f6 b2 3d
       0.17186421 -0.05040291 0.040783133 0.08738444
000080 05 50 0a be 8c 34 29 3b 54 72 bf bd c4 11 fa bc
       -0.13507088 0.0025818674 -0.09347978 -0.03052605
000090 7b eb 18 3e e7 ef a1 bd ba 62 dd 3d bd 0a dc bd
       0.14933579 -0.07907086 0.10809846 -0.10744236
0000a0 49 2e 69 3e 19 05 08 3e 6c 51 2e 3d 3e 00 04 3e
       0.22771563 0.13283195 0.04255812 0.12890717
0000b0 2b 7a da 3c a7 3a 1e be b2 81 d3 bd 16 7b 35 3c
       0.026669582 -0.15452062 -0.10327472 0.011076709
0000c0 78 b7 d7 bd d9 f3 98 3d 8f 30 fb 3d 03 9c d2 3c
       -0.10533041 0.07468385 0.12265121 0.025709158
0000d0 7d 80 27 be 65 3a ae bd 37 a0 01 bd 14 e0 8f bd
       -0.16357608 -0.085072316 -0.031646933 -0.070251614
0000e0 62 d7 87 bc ed 30 cd 3b c9 e5 e8 3d c2 8d d0 3c
       -0.016582195 0.006261936 0.11371953 0.02545822
0000f0 f9 62 aa bb de 89 81 bc a5 09 5e be 07 02 1f 3d
       -0.0051997867 -0.01581281 -0.21683367 0.038820293
000100 cb a0 21 be e5 ae 53 3d b9 0b 91 be ad 53 bf 3d
       -0.15783994 0.051680464 -0.28329256 0.09342132
000110 1c 77 9e 3e 69 e4 46 3e fc 78 bd bd 41 4a 49 be
       0.30950248 0.19423069 -0.092515916 -0.19657232
000120 d4 fc 97 3c 50 3c 14 3e 2d dd 06 be 38 24 65 3e
       0.018553175 0.14476132 -0.1317031 0.22377098
000130 99 59 6a 3e 71 86 86 3d 04 60 35 bc 53 2a 7d 3e
       0.22885741 0.065686114 -0.011070255 0.24723177
000140 04 37 8e bd 84 d0 9c bd fd 4b 98 39 b0 ef d5 bd
       -0.06944087 -0.07656959 0.00029048315 -0.104461074
000150 81 3a 55 3c a1 5e 13 be 70 9d 1e 3d a2 ff 0d be
       0.013014437 -0.14391567 0.038724363 -0.13867047
000160 44 07 56 3e 5a 94 11 be 88 63 17 3e 10 7f 4c be
       0.20901209 -0.14216748 0.14784062 -0.19970345
000170 8e 88 5d be e2 96 8b be 43 13 0c be c9 ea 1c be
       -0.21634123 -0.27263552 -0.13679223 -0.15323938
000180 47 aa 88 be 93 ec 96 be 0a 12 71 be b8 27 45 bd
       -0.2669241 -0.29477367 -0.23542038 -0.048133582
000190 7f e9 75 3e 95 46 bf bd 98 9e e2 3d 24 f4 bc be
       0.24014853 -0.09339634 0.110654056 -0.36905015
0001a0 ed fa 50 bd fe 34 c9 3d 81 14 eb bc 41 df 5b 3e
       -0.05102055 0.098245606 -0.0286963 0.21471883
0001b0 57 ca 10 3e 2d 8d b3 bd 55 24 74 3d 70 21 3d 3d
       0.14139687 -0.087671615 0.05960496 0.046174467
0001c0 da ce 2a 3d 06 c6 0b bd 52 44 26 3e 6f bf c0 bd
       0.041701175 -0.034124397 0.16237 -0.09411513
0001d0 3f 59 39 bc 55 d6 56 be b2 5c fb 3d f2 83 62 bd
       -0.011312782 -0.20980199 0.122735396 -0.055301614
0001e0 83 ba fb 3d 0d 83 4e bd a0 c5 3b bd 29 6f 68 bc
       0.12291434 -0.05041795 -0.045842767 -0.014186659
0001f0 8b 77 07 bd 42 91 1d 3e 38 1f a8 be 47 f2 06 be
       -0.03307299 0.15387443 -0.32836318 -0.13178359
000200 de 34 4a 3e d1 cb 57 3e 66 fe c0 3d ef a1 24 bd
       0.1974673 0.21073844 0.09423523 -0.040193494
000210 45 17 36 be 3e 5c b3 bb 0f 18 49 be cf 52 81 3e
       -0.17782314 -0.0054736426 -0.19638084 0.2525849
000220 97 fe 4f bd 8d b4 3f be 51 8e 1b 3e dc a0 51 bc
       -0.050779905 -0.18721218 0.15191008 -0.0127946995
000230 63 ce 4c be 35 de 44 bc c0 13 2c be 66 37 3a be
       -0.20000605 -0.012015869 -0.16804409 -0.18185195
000240 d3 dc 9c 3c 8a 79 47 3e 58 cf 20 be 5a f3 64 3d
       0.019148266 0.19479957 -0.15704095 0.05589614
000250 51 67 c1 bd 4b b4 86 bd a7 fe 84 bd 14 89 3b be
       -0.09443534 -0.06577357 -0.064938836 -0.1831401
000260 d7 9e 28 3d 88 d8 32 3e 00 76 82 be e7 b4 1c 3e
       0.041167106 0.17465413 -0.25480652 0.15303384
000270 a9 45 fe 3d 3b 08 51 bd 1f 7f 1c 3d fd 11 63 3e
       0.1241563 -0.05103324 0.03820717 0.2217483
000280 58 0a 1d be b7 81 89 3d e0 7c c3 3c 69 81 c8 bd
       -0.15335977 0.06714194 0.023863256 -0.09790308
000290 53 8f ce 3d 31 83 89 3d 2a 2a 89 bd 2c 5d 6d be
       0.10085931 0.06714476 -0.06697495 -0.23180073
0002a0 f8 7e 01 3e 12 29 97 3c 76 cf 4a be 34 76 31 3e
       0.12646091 0.018452201 -0.19805703 0.17330247
0002b0 0d 13 68 3e e5 8b db 3d ba 0b b9 3c 68 05 61 3e
       0.22663517 0.10720042 0.0225886 0.21974719
0002c0 8e ff c2 bc 3f a3 ad bd 0c 94 01 3c 2a cd 00 be
       -0.023803499 -0.08478402 0.007908832 -0.12578264
0002d0 67 dd c8 3d fd 2a 20 bc e3 b7 00 bd 44 1e 18 3e
       0.09807854 -0.009775874 -0.031425368 0.14855295
0002e0 08 10 5b 3e db 17 91 3c 7c 37 83 bd f7 47 37 be
       0.21392834 0.01771157 -0.06407067 -0.17898546
0002f0 a4 ee 33 be fd 6c 2e be 96 40 60 be cc 14 3e be
       -0.17571503 -0.17033763 -0.21899638 -0.18562621
000300 60 08 4e bd 07 5c 2d ba 37 0b f7 3c 09 ca 04 be
       -0.050300956 -0.00066131394 0.030156715 -0.12967695
000310 2c 61 17 bd 68 6e 85 be fc 15 8d be 00 38 ca bd
       -0.036957905 -0.26060796 -0.27555835 -0.098739624
000320 db ab 03 3e a6 a6 88 be 96 66 5d 3e 37 36 92 bd
       0.12858526 -0.26689643 0.21621165 -0.07139247
000330 1e 03 ad bd 02 3a b9 3c 50 85 0e 3d 72 44 25 3d
       -0.0844786 0.022610668 0.034795105 0.040348478
000340 fc 8a d9 3d e4 84 48 be 5b 1a 36 be ad f8 f0 3c
       0.10622212 -0.19581944 -0.17783491 0.029415453
000350 f5 cc 7b be 7a 45 ca bb 87 be 39 be 95 f1 0c 3c
       -0.24589904 -0.006172833 -0.18139087 0.0086025195
000360 76 2c a0 be 3d 36 c1 3d 90 77 b0 bc 19 3e 38 3e
       -0.3128392 0.09434173 -0.021541387 0.17992438
000370 cd 05 1a bd 16 9d 0c 3e ad 23 c3 bd bc b6 2b 3d
       -0.03760319 0.13731799 -0.09528289 0.041922316
000380 89 d6 bd bd db a3 91 3d 9b c7 c2 bc 19 4a d9 3d
       -0.09269435 0.07111331 -0.02377682 0.10609836
000390 c9 fd 70 3e 7d 54 8a 3d 69 0d 60 3c 39 7f 84 bc
       0.23534311 0.06754396 0.013675072 -0.016173946
0003a0 3a 18 aa 3d f3 11 e0 3c 21 da 3c be 22 bc 28 3e
       0.08305402 0.027352309 -0.18442585 0.16478017
0003b0 cd 8d 5a 3e 25 0c 04 3d 67 df 7d 3e 36 78 39 bd
       0.21343155 0.032238144 0.24792252 -0.045280658
0003c0 1c 81 b1 3d f0 f2 5f 3d 16 31 29 3d fa 09 16 bb
       0.08667204 0.054675043 0.041306578 -0.002289413
0003d0 01 11 05 bd 38 5e f2 3d 2f 12 83 3e f8 98 bb 3d
       -0.03248692 0.11834377 0.2559981 0.09160036
0003e0 a7 2b b6 ba 37 df 02 bd 1f 5b 47 3b e4 c5 48 3c
       -0.0013898507 -0.031951156 0.0030419303 0.012254212
0003f0 14 3c 94 bd d1 db d3 3d 08 aa 96 bd 5d ee d7 bd
       -0.072380215 0.10344661 -0.0735665 -0.10543511

tcn.network.0.downsample.bias f4 [32]
000000 81 9f 25 ba a5 32 0f 3c 04 bd 98 bd d5 b2 c4 bd
       -0.00063180184 0.008740102 -0.07457927 -0.09604422
000010 57 c2 92 3d e1 fb d5 3d 72 aa f8 3d 50 8a 99 bd
       0.07165974 0.10448433 0.12141885 -0.07497084
000020 f7 27 d9 bc 9d c1 32 3e 5d 55 f2 3d c4 b2 37 bd
       -0.026508315 0.1745667 0.11832688 -0.04484822
000030 90 db 28 bd 6b 08 a7 bd 9c cc 1e bc 2d a3 c3 3c
       -0.041225016 -0.081559025 -0.009692337 0.02388152
000040 90 6d fe 3c 73 e2 26 3e 1e 77 b2 3d ec d4 ca bd
       0.031058103 0.16297321 0.08714126 -0.09903893
000050 ed 46 67 3c 9a 99 b8 bd c3 ee b8 bd 24 cd a6 bd
       0.014116031 -0.09013672 -0.09029915 -0.08144596
000060 cb c7 d4 3d 6e 60 b5 3d 27 c3 0e be 2d 7b 7a bd
       0.1038967 0.08856283 -0.13941632 -0.061152626
000070 01 f0 40 3e c6 d9 d5 bc b7 ab 28 3d f1 b9 c9 bc
       0.18841554 -0.026104819 0.041179385 -0.024624797

tcn.network.1.conv1.bias f4 [32]
000000 eb 08 67 bd e7 9b a3 3c bb 21 47 3d 6b 2e 66 bd
       -0.05640499 0.019971801 0.048616152 -0.05619661
000010 89 18 1f 3c c8 2d d6 bd cf dd 9e 3d 5c 56 93 3d
       0.0097104395 -0.10457951 0.077571504 0.07194206
000020 47 97 d9 3c b9 bc 88 bd 4f 67 01 bd 43 97 6e be
       0.026561392 -0.06676621 -0.031592663 -0.2329989
000030 a1 69 d2 bd 1c 81 13 bd 40 47 31 bd 00 e1 ee bd
       -0.10274053 -0.0360118 -0.04328084 -0.11664009
000040 46 06 a4 3d 16 a2 68 bd 6d 91 ae 3d 44 45 ac bc
       0.08009009 -0.056795202 0.085238315 -0.021029122
000050 f9 a3 43 3d db 41 1d 3d d8 21 5c 3d d5 a8 32 bc
       0.0477638 0.038392883 0.053743213 -0.0109045105
000060 82 70 04 be 33 6b 52 bd 91 6c bc 3c 37 6a c2 3d
       -0.12933543 -0.051371764 0.023000987 0.09492915
000070 22 86 9e bd 6a 89 3a bd d1 31 9d bd 53 da 27 bd
       -0.077404276 -0.045541205 -0.07675517 -0.040979695

tcn.network.1.conv1.weight_g f4 [32, 1, 1]
000000 7d 9f 1f 3f 0c b7 3e 3f 55 d6 33 3f 53 ba 2c 3f
       0.62352735 0.7449806 0.7024892 0.6747181
000010 0b 8d 10 3f 6b 43 0c 3f ab b8 1a 3f 7b f2 1c 3f
       0.56465214 0.5479037 0.6043803 0.61307496
000020 b8 82 1a 3f 99 48 1b 3f 75 23 74 3f 5f ed 3e 3f
       0.6035571 0.6065765 0.95366603 0.7458095
000030 16 5c 00 3f c1 c9 3b 3f 15 3b 1c 3f 30 54 0b 3f
       0.5014051 0.7335473 0.6102765 0.54425335
000040 c8 22 29 3f b1 03 e0 3e e9 f9 18 3f 74 23 42 3f
       0.66068697 0.43752816 0.5975633 0.7583535
000050 7d b0 07 3f 0b 92 12 3f b7 5d 1e 3f a9 75 38 3f
       0.53003675 0.57254094 0.6186175 0.72054535
000060 aa b5 0c 3f 56 cf 0d 3f 93 45 50 3f 09 65 13 3f
       0.549647 0.55394495 0.8135616 0.5757604
000070 89 54 43 3f 03 49 17 3f 3e 7a 08 3f cf bd 01 3f
       0.76300865 0.5909578 0.53311527 0.5068025
