models/prototyping6/tcn_fold_10/best.pth (torch, 224151 bytes, 130 tensors)

tcn.d_reduce.weight f4 [32, 1, 1]
0	0x3f0d5250	0.55203724
1	0xbf9013eb	-1.1256078
2	0x3e2d522e	0.1692588
3	0xbf10e0e5	-0.5659316
4	0x3e59883a	0.21243373
5	0x3e3da310	0.18519235
6	0xbd5d390d	-0.054009486
7	0xbec205f5	-0.3789517
8	0x3f880ff0	1.0629864
9	0xbece7ebe	-0.40331072
10	0x3cbd14da	0.023081232
11	0x3e9311d2	0.28724533
12	0x3f2dcf82	0.67894757
13	0xbe792209	-0.2432939
14	0xbf6ff4a0	-0.93732643
15	0x3eeadabd	0.4587001
16	0x3ee9137a	0.45522672
17	0x3eb6b4bc	0.35684764
18	0xbf5464a4	-0.82966065
19	0xbe4621b2	-0.19348791
20	0xbe542ea0	-0.20720911
21	0x3f955d18	1.1669035
22	0x3de4c515	0.11170403
23	0x3f7b70be	0.98218906
24	0x3eeb0845	0.45904747
25	0x3e639028	0.2222296
26	0x3f420a05	0.7579654
27	0x3f71bbc3	0.94427127
28	0x3f6464df	0.8921642
29	0x3f324a8c	0.69645
30	0xbf1f4b5a	-0.6222435
31	0xbf6ee048	-0.93310976

tcn.d_reduce.bias f4 [32]
0	0x3edac6b9	0.42729738
1	0xbc00bc8c	-0.007857453
2	0x3e9e63e6	0.3093559
3	0xbc9b950c	-0.01899197
4	0xbf1a0429	-0.601626
5	0xbe36d0dc	-0.17853111
6	0xbe04dd4d	-0.12975045
7	0xbf73607d	-0.95069104
8	0x3effaca2	0.49936396
9	0xbf248c60	-0.64276695
10	0x3f3f9bb1	0.7484694
11	0xbf442a72	-0.76627266
12	0x3f29dcdd	0.66352636
13	0xbf21afe1	-0.63158995
14	0xbf492ab4	-0.78580785
15	0xbb8dd47f	-0.00432831
16	0x3ef76ec4	0.48326695
17	0xbe16683a	-0.14688197
18	0x3d825c81	0.063653
19	0xbf198324	-0.5996573
20	0xbf56597f	-0.8373031
21	0xbeccd558	-0.40006518
22	0x3f4f3b2e	0.80949676
23	0x3ee0656a	0.43827373
24	0xbf3a8811	-0.7286387
25	0x3f5f254b	0.8716628
26	0xbe9d72ee	-0.30751747
27	0xbe89cbda	-0.2691334
28	0x3f5aeee4	0.8552077
29	0xbe63a97a	-0.22232619
30	0x3f3c288a	0.7349936
31	0xbf4c48ad	-0.79798394

tcn.network.0.conv1.bias f4 [32]
0	0x3cfe72c2	0.03106058
1	0xbe1968ce	-0.14981386
2	0x3d0e8c54	0.034801796
3	0x3d0d9ca0	0.034573197
4	0x3dbcab7e	0.09212397
5	0x3d8d6f81	0.06906033
6	0xbda7eca3	-0.08199432
7	0xbd7f7f88	-0.062377483
8	0x3c713b02	0.014723541
9	0xbd869c46	-0.065727755
10	0x3d60a1ac	0.054841682
11	0x3dbcd28e	0.092198476
12	0x3b93b3eb	0.004507532
13	0x3d535c29	0.051601563
14	0x3d010bb7	0.031505313
15	0xba87691e	-0.001033101
16	0xbc0f79bb	-0.00875705
17	0xbc95acef	-0.018270938
18	0xbd905a53	-0.07048478
19	0x3d6e4e90	0.05818039
20	0x3dd58ade	0.104268774
21	0x3b21b8a9	0.0024676716
22	0xbd1436d2	-0.036185093
23	0xbdde11a4	-0.108432084
24	0xbe0c57f5	-0.13705428
25	0x3c4285a5	0.011872684
26	0xbd81f08b	-0.06344708
27	0xbe730ad0	-0.23734593
28	0xbd2d9763	-0.0423807
29	0xbd80d3a8	-0.0629037
30	0x3db0c491	0.08631242
31	0x3d9eeae0	0.077596426

tcn.network.0.conv1.weight_g f4 [32, 1, 1]
0	0x3f060dda	0.52364886
1	0x3f1c6761	0.61095244
2	0x3f09b048	0.5378461
3	0x3f155634	0.5833466
4	0x3f05d219	0.5227371
5	0x3f0bd3c6	0.54620016
6	0x3f0bd446	0.5462078
7	0x3f16a07e	0.5883864
8	0x3f1cbd13	0.61226004
9	0x3f06eccf	0.5270509
10	0x3f047628	0.5174279
11	0x3f0afd99	0.5429321
12	0x3f3cd1e6	0.7375778
13	0x3f08c193	0.5342037
14	0x3ef89e7f	0.48558423
15	0x3f102d27	0.56318897
16	0x3ee4abe5	0.44662395
17	0x3f12ee56	0.5739492
18	0x3f13ca18	0.57730246
19	0x3f01aab6	0.5065111
20	0x3f0cba5d	0.5497187
21	0x3f10868f	0.5645532
22	0x3f09df49	0.5385633
23	0x3f091350	0.53545094
24	0x3f0abc27	0.5419335
25	0x3f2519c2	0.6449243
26	0x3f037689	0.51352745
27	0x3f1fbb7d	0.6239546
28	0x3f171381	0.59014136
29	0x3f28f36a	0.6599642
30	0x3f2bf55f	0.6717128
31	0x3f1c0324	0.6094229

tcn.network.0.conv1.weight_v f4 [32, 32, 2]
0	0xbe3b98c5	-0.18319996
1	0xbc7cb325	-0.015423571
2	0x3d5ac8c1	0.05341411
3	0xbc82017b	-0.015869847
4	0x3d44734d	0.047961522
5	0xbda1f525	-0.07908086
6	0x3e0e6387	0.13905154
7	0x3d5d7fd4	0.054076985
8	0x3dde60f2	0.108583346
9	0xbda40b57	-0.080099754
10	0xbe2a6a5b	-0.16642134
11	0x3d05be76	0.03265234
12	0xbdb8b9ae	-0.090197906
13	0x3e28b561	0.1647544
14	0x3b406142	0.0029354845
15	0x3ccea5ee	0.025225606
16	0xbdd893cc	-0.10575065
17	0x3d90dc74	0.07073298
18	0xbd18f14c	-0.037339494
19	0xbd58dbca	-0.052943982
20	0xbd1f875d	-0.03894745
21	0xbc1d20e1	-0.0095903585
22	0x3b4d9874	0.0031371387
23	0x3532b122	6.656793e-07
24	0xbde78c8b	-0.11306103
25	0xbc9add8c	-0.01890447
26	0xb9bdfe5d	-0.00036238405
27	0x3d8679d2	0.06566204
28	0x3dbae8a0	0.09126401
29	0x3d44d95e	0.04805886
30	0xbcdd9241	-0.027047278
31	0x3dfa0bc3	0.122092746
32	0xbda1c883	-0.07899573
33	0xbe270876	-0.16311821
34	0xbe34e79e	-0.1766648
35	0xbe07823b	-0.13233273
36	0xbd39b43a	-0.045337893
37	0xbd5c22a5	-0.053743977
38	0x3df5ee66	0.120083615
39	0x3d42ea99	0.04758701
40	0xbd91af68	-0.07113534
41	0x3d43f39c	0.047839746
42	0xbdb99336	-0.090612814
43	0xbdab8810	-0.08375561
44	0x3c9dad91	0.019247802
45	0x3d5d0c1d	0.05396663
46	0xbc37cd09	-0.011218318
47	0x3d85a189	0.06524951
48	0xbdc7e595	-0.09760586
49	0xbd370f1a	-0.044692136
50	0xbd5b488c	-0.053535983
51	0x3d558104	0.052124992
52	0x3c5c44ed	0.013444168
53	0x3dbdc82d	0.09266696
54	0x3ddf5a4f	0.10905897
55	0x3d8dba90	0.069203496
56	0xbdfa0fde	-0.12210058
57	0xbe164c5a	-0.14677563
58	0x3d81f399	0.06345291
59	0x3e16cd5b	0.14726774
60	0x3d861b14	0.065481335
61	0xba720ae2	-0.0009233189
62	0x3d7dbfa1	0.06195033
63	0x3c8f4509	0.017488973
64	0xbd35848b	-0.044315856
65	0x3db252e3	0.08707216
66	0x3c05765d	0.008145896
67	0x3d7960f0	0.060883462
68	0xbcf0f591	-0.02941397
69	0x3d665b41	0.05623937
70	0xbe0762a1	-0.13221218
71	0x3a6ed105	0.0009110126
72	0x3d1420ba	0.036164023
73	0x3daadffe	0.08343504
74	0x3e0c7a56	0.13718542
75	0x3ddc4cd5	0.10756842
76	0x3d9b7448	0.07590538
77	0x3b406f7b	0.0029363323
78	0x3e16a93a	0.14712992
79	0xbd8314d3	-0.06400456
80	0x3d520e98	0.05128345
81	0xbd215b22	-0.03939355
82	0x3d8cd5b5	0.06876699
83	0x3e0833f2	0.13301066
84	0xbde6ef92	-0.11276163
85	0xbd1d9b9b	-0.038478475
86	0x3caff00d	0.02147677
87	0x3d12c2ae	0.035830192
88	0x3d0b0aba	0.033945777
89	0xbe04c2bd	-0.12964912
90	0x3d1f257a	0.0388541
91	0x3debef94	0.11520305
92	0x3b64bde8	0.0034903232
93	0x3d725999	0.05916748
94	0x3df2076b	0.11817821
95	0xbd92874b	-0.07154711
96	0x3d12ae75	0.035810906
97	0xbbc72ebe	-0.00607857
98	0xbce90ee8	-0.02844949
99	0x3cface32	0.0306159
100	0xbd31ca48	-0.0434058
101	0xbd76b30d	-0.06022935
102	0x3cea8e46	0.028632294
103	0x3c6cd877	0.014455906
104	0x3cf9dfe2	0.030502263
105	0x3ddb62cf	0.107122056
106	0xbc588542	-0.013215365
107	0xbdc6c0c5	-0.097047366
108	0xbe21c2fb	-0.15797035
109	0xbd36b1c0	-0.04460311
110	0xbd49f9ea	-0.049310602
111	0xbddd7008	-0.10812384
112	0x3e3178e0	0.17331266
113	0x3db43cfc	0.08800694
114	0xbdaeb221	-0.08530069
115	0x3ccfc375	0.025361756
116	0x3db11106	0.08645825
117	0xbd896422	-0.06708552
118	0x3d00c53b	0.031438094
119	0x3d51a2c2	0.05118061
120	0xbc9dd4d8	-0.01926653
121	0xbda2fc6d	-0.07958303
122	0x3d6c4fb7	0.05769321
123	0xbbc916a6	-0.006136733
124	0xbdf2f26c	-0.118626446
125	0xbd8139a9	-0.06309826
126	0xbdd5694d	-0.10420475
127	0x3d92a1d7	0.07159775
128	0xbdc61dd4	-0.09673658
129	0x3c39dfd3	0.011344868
130	0xbe388d4c	-0.1802265
131	0x3d1ff869	0.03905526
132	0xbdbbff5a	-0.09179564
133	0xbd2b8599	-0.041875456
134	0xbdc0e2c4	-0.09418252
135	0xbd9ce356	-0.076605484
136	0xbd8aff21	-0.06786943
137	0x3e2132cd	0.15742035
138	0x3e29f7c0	0.16598415
139	0x3d8a6b3a	0.06758733
140	0x3e115ac3	0.14194779
141	0xbc4f2c37	-0.012644819
142	0x3e24443f	0.16041659
143	0x3cdd4147	0.027008666
144	0x3c868eab	0.016425451
145	0x3db4c47d	0.0882654
146	0xbd797cda	-0.060910083
147	0x3bc455ba	0.0059916647
148	0xbbfe1c4c	-0.007754838
149	0x3d3bc36a	0.04584066
150	0xbbf8f6e4	-0.007597791
151	0xbce0d1e0	-0.027443826
152	0xbde8a7e4	-0.113601476
153	0xbccefe88	-0.025267854
154	0x3d0a3af9	0.033747647
155	0x3d82f020	0.063934565
156	0x3d58a719	0.05289373
157	0xbdc0683f	-0.09394883
158	0xbd4064cc	-0.046971127
159	0x3d73261e	0.059362523
160	0xbe050495	-0.12990029
161	0xbde0d8c8	-0.10978848
162	0x3e14717d	0.14496417
163	0x3e60c3dd	0.21949716
164	0xbbbb2763	-0.0057114824
165	0xbd4a8fc8	-0.049453527
166	0xbd161f4a	-0.036650933
167	0xbd94db97	-0.07268446
168	0x3d9ec720	0.07752824
169	0xbd9d05ed	-0.07667146
170	0xbd803fc9	-0.06262166
171	0x3daf0a03	0.085468315
172	0xbdabc0af	-0.08386361
173	0x3d9b88f5	0.07594482
174	0x3ce87ea4	0.0283807
175	0xbdea22e8	-0.11432439
176	0xbdc14898	-0.09437674
177	0xbd5d0bf2	-0.05396647
178	0x3cf84358	0.03030555
179	0xbe03bf23	-0.12865882
180	0x3da1157a	0.078654245
181	0x3dae8c22	0.08522822
182	0x3db5317b	0.08847328
183	0x3de736c1	0.1128974
184	0xbd16bd8c	-0.03680186
185	0x3cc8056a	0.024416644
186	0x3e3775d1	0.17916037
187	0xbd8a7d27	-0.06762152
188	0xbe2fa748	-0.17153656
189	0x3d8d8d82	0.06911756
190	0x3e1bcdb1	0.15215184
191	0x3db03511	0.086038716
192	0xbe0c16ce	-0.13680574
193	0xbd8e7c81	-0.06957341
194	0x3ddad038	0.10684246
195	0xbdf59c4a	-0.119927004
196	0xbdbfd285	-0.09366325
197	0xbdb95235	-0.09048883
198	0x3ddb973b	0.10722204
199	0xbe016ccc	-0.12639159
200	0xbc1ad911	-0.009451167
201	0x3d702657	0.058630314
202	0xbdd07576	-0.10178654
203	0x3e18cd25	0.14922006
204	0xbd4e7877	-0.050407853
205	0x3dbc8ec2	0.092069164
206	0x3d252e42	0.040327318
207	0xbcbf3fdc	-0.02334588
208	0x3d791360	0.060809493
209	0x3dccaf45	0.099943675
210	0x3d3e50a0	0.04646361
211	0x3dbefc28	0.09325439
212	0xbe391286	-0.18073472
213	0x3c95e438	0.0182973
214	0xbd24c2ca	-0.040224828
215	0x3de6cc20	0.112694025
216	0xbdccbc38	-0.099968374
217	0x3d692829	0.056923065
218	0x3dc17347	0.094458155
219	0x3dcdfa9f	0.10057568
220	0xbcbda7ff	-0.023151396
221	0xbd281d06	-0.041043304
222	0x3c3170f1	0.01083015
223	0xbc608fad	-0.01370613
224	0x3d4a83c4	0.049442068
225	0xbccaec60	-0.024770916
226	0xbdf9d45f	-0.1219871
227	0xbd9c1f11	-0.07623113
228	0xbd1aa4a3	-0.037754666
229	0x3d4d0353	0.050052
230	0x3d7c6a92	0.06162507
231	0x3ddf7950	0.109118104
232	0x3d64ba62	0.05584181
233	0xbd9901cb	-0.07471045
234	0x3d2be3d2	0.041965313
235	0x3e15ecd6	0.14641127
236	0xbe3c11de	-0.18366191
237	0x3d33cf27	0.043898728
238	0xbe196653	-0.1498044
239	0xbd8af084	-0.06784156
240	0xbca0efef	-0.01964566
241	0x3e1e6077	0.15466486
242	0xbcef93b8	-0.029245242
243	0xbdec32a1	-0.11533094
244	0xbdd1b089	-0.102387495
245	0xbda0598e	-0.07829581
246	0xbde3a7c5	-0.11115984
247	0x3e1974c3	0.14985947
248	0xbd836a96	-0.06416814
249	0x3df19eea	0.117978886
250	0xbd5939d3	-0.05303366
251	0xbc8e41c4	-0.017365344
252	0x3da645a3	0.08118751
253	0xbe283e0b	-0.16429918
254	0x3e09a12b	0.13440387
255	0x3d817a85	0.06322197

tcn.network.0.conv2.bias f4 [32]
0	0x3d856a3f	0.065144055
1	0x3a5d2083	0.00084353256
2	0xbd48582a	-0.048912205
3	0x3e06559f	0.131186
4	0xbdcc6082	-0.09979345
5	0xbe296a62	-0.16544488
6	0xbe0fab3d	-0.14030166
7	0xbdabe217	-0.083927326
8	0x3cae1977	0.021252377
9	0xbd04e4d2	-0.032444783
10	0xbcbd630a	-0.023118515
11	0x3d37d3dc	0.04487978
12	0xbd7022f8	-0.0586271
13	0x3c64659c	0.013940241
14	0xbbb2ba0a	-0.0054543065
15	0x3c9a2aad	0.018819178
16	0xbd141679	-0.036154244
17	0x3c880f70	0.016608924
18	0xbd138bdf	-0.036022063
19	0xbdd2127c	-0.10257432
20	0xbce7167a	-0.02820896
21	0x3cf03eab	0.029326757
22	0x3bb264bb	0.005444137
23	0x3d5e2f91	0.05424458
24	0x3c589d81	0.013221146
25	0x3ca6bd34	0.020353891
26	0xbdd4b9d2	-0.10387005
27	0x3d1d22a9	0.038363133
28	0x3bdfa4f5	0.0068250843
29	0xbd478e5c	-0.04871975
30	0x3ce570b1	0.028007837
31	0xbd7b8502	-0.061406143

tcn.network.0.conv2.weight_g f4 [32, 1, 1]
0	0x3ef6ffcf	0.4824204
1	0x3f0d5047	0.5520062
2	0x3f016a25	0.5055259
3	0x3f062a2f	0.5240812
4	0x3efe69ef	0.49690196
5	0x3f13fe2c	0.5780971
6	0x3f0fc0e0	0.5615368
7	0x3ef55b92	0.47921425
8	0x3f07b411	0.53009135
9	0x3f2670a1	0.6501561
10	0x3f0c6617	0.54843277
11	0x3f0d9b4d	0.55315095
12	0x3f1595d5	0.5843175
13	0x3ef7028c	0.4824413
14	0x3f2042a9	0.62601715
15	0x3f111c3f	0.56683725
16	0x3f124ee7	0.57151645
17	0x3f181be3	0.5941755
18	0x3f1002d0	0.5625429
19	0x3f1bbade	0.6083201
20	0x3f12f027	0.57397693
21	0x3f0501f6	0.5195612
22	0x3f13001a	0.5742203
23	0x3f0e41a3	0.55568904
24	0x3f0a63e1	0.54058653
25	0x3f04899d	0.5177248
26	0x3f192a62	0.59830296
27	0x3f1f0691	0.62119395
28	0x3f136550	0.57576466
29	0x3f126fc8	0.57201815
30	0x3f0d860e	0.55282676
31	0x3f105a86	0.5638813

tcn.network.0.conv2.weight_v f4 [32, 32, 2]
0	0x3e0100b7	0.12597929
1	0x3bc5a855	0.0060320296
2	0xbcaae45f	-0.020860849
3	0x373f673c	1.1408523e-05
4	0xbe02bf14	-0.12768203
5	0xbd387644	-0.045034662
6	0xbe27ea2c	-0.16397923
7	0x3e183d23	0.14867072
8	0xbe01e438	-0.12684715
9	0x3df0a0c6	0.11749415
10	0x3d4ef603	0.050527584
11	0x3d87d64f	0.06632673
12	0xbd8fef9c	-0.07028124
13	0xbdcbcbd4	-0.099509865
14	0x3d8de554	0.069285065
15	0xa46137a2	-4.883622e-17
16	0x3e2f80d7	0.17138992
17	0x3d0f8ff5	0.035049397
18	0xbd85c7d2	-0.06532253
19	0x3dfa0a9a	0.12209053
20	0x3e268d5b	0.1626486
21	0xbdc37d89	-0.09545428
22	0xbcfa5aaa	-0.03056081
23	0x3d82fd1e	0.063959345
24	0x3e36457d	0.17799945
25	0xbdc2533e	-0.094885334
26	0x3cb6299a	0.022236634
27	0xbd9c6bc2	-0.07637741
28	0x3ccd04a2	0.025026623
29	0xbd91fc00	-0.07128143
30	0x3e0850a3	0.1331201
31	0xbd576712	-0.05258853
32	0x3e299744	0.1656161
33	0x3de887c7	0.113540225
34	0x3e00d525	0.12581308
35	0xbdca05b0	-0.09864366
36	0xbdd195c0	-0.10233641
37	0x3d974d24	0.0738776
38	0x3e130f2e	0.1436126
39	0x3e08cbd1	0.13359
40	0x3c05b91b	0.008161808
41	0x3cfa9db2	0.030592773
42	0x3e0cf917	0.13766895
43	0x3dce0d0f	0.100610845
44	0xbdfa6600	-0.12226486
45	0x3ddebec4	0.108762294
46	0x3e19e305	0.15028007
47	0x3ddace35	0.10683862
48	0xbd0e12ee	-0.03468602
49	0x3cfefe5a	0.031127144
50	0x3d41b7ff	0.047294613
51	0xbde8ef29	-0.11373741
52	0x3d5132de	0.0510739
53	0x3e0a24d2	0.13490608
54	0xbd8e2cd6	-0.069421455
55	0xbdfafb29	-0.12254936
56	0xbdf0eaf1	-0.117635615
57	0x3d6fe722	0.058570035
58	0x3d35c09c	0.04437314
59	0xbd8ace4b	-0.067776285
60	0x3dc82d20	0.09774232
61	0x3e21adb6	0.15788922
62	0xbdbe0087	-0.09277444
63	0x3d8aed63	0.06783559
64	0x3c34e064	0.011039827
65	0x3d3b0047	0.04565456
66	0x3b7a20b2	0.003816646
67	0xbd98d50f	-0.07462513
68	0xbdd0ad24	-0.10189274
69	0x3d2cfec2	0.042235143
70	0xbd16a425	-0.036777634
71	0x3ddafde2	0.106929556
72	0xbdb3828d	-0.08765135
73	0xbcd784a2	-0.026308361
74	0xbdca5511	-0.098795064
75	0xbce355b6	-0.027750831
76	0x3d4bf5d4	0.049794987
77	0xbd080668	-0.033209234
78	0x3de6ce7a	0.11269851
79	0x3de5b4ec	0.11216149
80	0xbd4617fc	-0.048362717
81	0xbd4529e3	-0.04813565
82	0xbd436b95	-0.04771002
83	0x3c07a05c	0.008277979
84	0x3d35c0fd	0.0443735
85	0xbdddf460	-0.108376265
86	0xbdb8ce89	-0.090237685
87	0xbca963e6	-0.020677518
88	0xbc90ecb7	-0.017691
89	0x3d9bf61c	0.07615301
90	0xbdcf76aa	-0.10130055
91	0xbdbb019e	-0.09131168
92	0x3d986757	0.074415855
93	0xbc4442a5	-0.01197878
94	0x3d517530	0.05113715
95	0xbe2600f2	-0.16211298
96	0xbdfe249d	-0.12409327
97	0xbdf57f89	-0.11987216
98	0xbe1ade2b	-0.15123813
99	0x3d92b471	0.07163323
100	0xbc25392a	-0.01008443
101	0xbdb2938f	-0.08719551
102	0xbdc0c39e	-0.09412311
103	0x3a015dbe	0.0004934928
104	0xbce983a6	-0.028505158
105	0x3d340523	0.04395021
106	0xbbd1a4f2	-0.006397837
107	0x3d9422d0	0.072332025
108	0x3c81ea1c	0.015858702
109	0xbde97755	-0.11399714
110	0x3d4543c6	0.048160337
111	0xbde9bf47	-0.114134364
112	0x3deeed7f	0.116663925
113	0xbe06bf6b	-0.13158958
114	0xbd24cbd3	-0.040233444
115	0xbbfd3629	-0.0077274037
116	0x3d188ce8	0.037243754
117	0x3d67100b	0.056411784
118	0xbc7a6de5	-0.01528499
119	0x3db11aef	0.08647715
120	0x3ba3746f	0.004988245
121	0xbdd34f77	-0.10317891
122	0x3e03bcdc	0.12865013
123	0x3cf22683	0.02955938
124	0xbdbf927b	-0.09354111
125	0xbd798d01	-0.060925487
126	0xbc72385f	-0.014783948
127	0x3df10c47	0.1176992
128	0x3d514b2b	0.051097076
129	0xbdcccf7a	-0.100005105
130	0x3e05743c	0.13032621
131	0x3e453121	0.19257022
132	0x3d8a57ae	0.06755005
133	0xbd4bb865	-0.0497364
134	0x3e0b1842	0.13583472
135	0xbe044459	-0.12916698
136	0xbdb2f8bd	-0.08738849
137	0xbe0feaea	-0.14054456
138	0x3e12daa1	0.14341213
139	0xbde1e14a	-0.110292986
140	0xbd6e8ee5	-0.058241744
141	0xbd5f98c3	-0.054589044
142	0xbddbbb18	-0.10729045
143	0xbc361efd	-0.011115787
144	0x3d86bf0c	0.06579408
145	0xbc186761	-0.009301991
146	0x3da0a3af	0.0784372
147	0x3b9918e2	0.0046721557
148	0x3aa983ef	0.0012932996
149	0x3d231f8c	0.039825007
150	0xbe295a31	-0.16538312
151	0xbcce4fb8	-0.025184497
152	0x3d9a510b	0.07534989
153	0x3dfb93f7	0.122840814
154	0x3d77349c	0.060352907
155	0xbd77b69d	-0.060476888
156	0xbe187bc0	-0.14890957
157	0xbde4bad4	-0.11168447
158	0x3df82afc	0.121175736
159	0xbd84e413	-0.06488814
160	0x3d892aff	0.06697654
161	0xbc3a2b98	-0.011362933
162	0x3dae639e	0.08515094
163	0xbdd79b5b	-0.105276786
164	0xbda500d6	-0.080568
165	0x3df8b984	0.12144759
166	0xbcafba8b	-0.021451255
167	0xbdadaec2	-0.08480598
168	0x3e109c98	0.14122236
169	0x3e03f843	0.12887673
170	0xbd8d3ffb	-0.06896969
171	0xbd71940b	-0.058979075
172	0xbdf03c7d	-0.11730287
173	0xbdfc965b	-0.123333655
174	0xbe029c2b	-0.12754886
175	0xbdf454e1	-0.11930252
176	0xbe19fa9f	-0.1503701
177	0x3dd3e948	0.10347229
178	0x3dfab62b	0.12241777
179	0x3df0d92b	0.117601715
180	0xbe185697	-0.14876781
181	0xbdc9ce89	-0.098538466
182	0x3e146d81	0.14494897
183	0x3e640af4	0.22269803
184	0x3df316ab	0.11869558
185	0x3d4f7d1f	0.050656434
186	0x3dff0611	0.12452329
187	0xbe00f39a	-0.12592927
188	0xbe030951	-0.12796523
189	0xbdefadac	-0.11703047
190	0x3e05ca21	0.13065387
191	0x3df10e48	0.11770302
192	0xbdfd814e	-0.123781785
193	0x3dc6f553	0.09714761
194	0x3de4a0e9	0.11163504
195	0x3d70dcf5	0.05880447
196	0x3d02f074	0.031967595
197	0x3dde969a	0.10868569
198	0xbd81a9bb	-0.06331202
199	0xbd84b130	-0.06479108
200	0x3e262040	0.1622324
201	0xbe1f3ef6	-0.15551361
202	0xbd3d3a72	-0.046198316
203	0x3c890259	0.016724752
204	0x39eaedc7	0.00044809116
205	0x3e0d35f1	0.13790108
206	0x3df14da1	0.11782385
207	0x3d9545ac	0.072886795
208	0xbe12638f	-0.14295791
209	0xbe0bd7d5	-0.13656552
210	0x3ddbb200	0.1072731
211	0x3dcac320	0.099004984
212	0x3c6d2f70	0.014476642
213	0x3d97dad3	0.07414784
214	0xbd9552ef	-0.07291209
215	0xbda092cf	-0.078405015
216	0x3e514606	0.20436868
217	0x3dcf9fd5	0.101379074
218	0x3d599706	0.053122543
219	0x3df8ddee	0.12151705
220	0x3d804c3b	0.0626454
221	0xbc9c3b67	-0.019071294
222	0x3e1d35f8	0.15352619
223	0xbe15fae2	-0.14646485
224	0x3def8d26	0.11696844
225	0xbd8d0783	-0.06886198
226	0x3e67de95	0.22643502
227	0xbde98b3b	-0.11403509
228	0x3c9b62d3	0.018968021
229	0x3d4f42ef	0.050600942
230	0xbce25dec	-0.027632676
231	0x3dc8ca43	0.09804203
232	0xbd6fbff4	-0.05853267
233	0x3d95c7ad	0.07313476
234	0xbd0aaf80	-0.033858776
235	0x3dc839fc	0.09776685
236	0x3e0ef3f5	0.1396025
237	0xbe1647b6	-0.14675793
238	0xbc58d5f3	-0.013234603
239	0x3ddc04cf	0.10743105
240	0x3c6ee69d	0.01458135
241	0x3d59d9f7	0.053186383
242	0x3dff28ea	0.124589756
243	0xbe1de06c	-0.15417641
244	0xbe024a28	-0.12723601
245	0x3d9208f4	0.07130614
246	0x3e0c7719	0.13717307
247	0x3e03ddbd	0.12877555
248	0xbd594e7c	-0.053053364
249	0xbd16f0a2	-0.03685058
250	0xbd75f623	-0.060049187
251	0xbe083938	-0.13303077
252	0x3dad98e5	0.08476428
253	0x3d4098b5	0.047020633
254	0x3df203cf	0.11817133
255	0x3dbb1f71	0.09136856

tcn.network.0.net.0.bias f4 [32]
0	0x3cfe72c2	0.03106058
1	0xbe1968ce	-0.14981386
2	0x3d0e8c54	0.034801796
3	0x3d0d9ca0	0.034573197
4	0x3dbcab7e	0.09212397
5	0x3d8d6f81	0.06906033
6	0xbda7eca3	-0.08199432
7	0xbd7f7f88	-0.062377483
8	0x3c713b02	0.014723541
9	0xbd869c46	-0.065727755
10	0x3d60a1ac	0.054841682
11	0x3dbcd28e	0.092198476
12	0x3b93b3eb	0.004507532
13	0x3d535c29	0.051601563
14	0x3d010bb7	0.031505313
15	0xba87691e	-0.001033101
16	0xbc0f79bb	-0.00875705
17	0xbc95acef	-0.018270938
18	0xbd905a53	-0.07048478
19	0x3d6e4e90	0.05818039
20	0x3dd58ade	0.104268774
21	0x3b21b8a9	0.0024676716
22	0xbd1436d2	-0.036185093
23	0xbdde11a4	-0.108432084
24	0xbe0c57f5	-0.13705428
25	0x3c4285a5	0.011872684
26	0xbd81f08b	-0.06344708
27	0xbe730ad0	-0.23734593
28	0xbd2d9763	-0.0423807
29	0xbd80d3a8	-0.0629037
30	0x3db0c491	0.08631242
31	0x3d9eeae0	0.077596426

tcn.network.0.net.0.weight_g f4 [32, 1, 1]
0	0x3f060dda	0.52364886
1	0x3f1c6761	0.61095244
2	0x3f09b048	0.5378461
3	0x3f155634	0.5833466
4	0x3f05d219	0.5227371
5	0x3f0bd3c6	0.54620016
6	0x3f0bd446	0.5462078
7	0x3f16a07e	0.5883864
8	0x3f1cbd13	0.61226004
9	0x3f06eccf	0.5270509
10	0x3f047628	0.5174279
11	0x3f0afd99	0.5429321
12	0x3f3cd1e6	0.7375778
13	0x3f08c193	0.5342037
14	0x3ef89e7f	0.48558423
15	0x3f102d27	0.56318897
16	0x3ee4abe5	0.44662395
17	0x3f12ee56	0.5739492
18	0x3f13ca18	0.57730246
19	0x3f01aab6	0.5065111
20	0x3f0cba5d	0.5497187
21	0x3f10868f	0.5645532
22	0x3f09df49	0.5385633
23	0x3f091350	0.53545094
24	0x3f0abc27	0.5419335
25	0x3f2519c2	0.6449243
26	0x3f037689	0.51352745
27	0x3f1fbb7d	0.6239546
28	0x3f171381	0.59014136
29	0x3f28f36a	0.6599642
30	0x3f2bf55f	0.6717128
31	0x3f1c0324	0.6094229

tcn.network.0.net.0.weight_v f4 [32, 32, 2]
0	0xbe3b98c5	-0.18319996
1	0xbc7cb325	-0.015423571
2	0x3d5ac8c1	0.05341411
3	0xbc82017b	-0.015869847
4	0x3d44734d	0.047961522
5	0xbda1f525	-0.07908086
6	0x3e0e6387	0.13905154
7	0x3d5d7fd4	0.054076985
8	0x3dde60f2	0.108583346
9	0xbda40b57	-0.080099754
10	0xbe2a6a5b	-0.16642134
11	0x3d05be76	0.03265234
12	0xbdb8b9ae	-0.090197906
13	0x3e28b561	0.1647544
14	0x3b406142	0.0029354845
15	0x3ccea5ee	0.025225606
16	0xbdd893cc	-0.10575065
17	0x3d90dc74	0.07073298
18	0xbd18f14c	-0.037339494
19	0xbd58dbca	-0.052943982
20	0xbd1f875d	-0.03894745
21	0xbc1d20e1	-0.0095903585
22	0x3b4d9874	0.0031371387
23	0x3532b122	6.656793e-07
24	0xbde78c8b	-0.11306103
25	0xbc9add8c	-0.01890447
26	0xb9bdfe5d	-0.00036238405
27	0x3d8679d2	0.06566204
28	0x3dbae8a0	0.09126401
29	0x3d44d95e	0.04805886
30	0xbcdd9241	-0.027047278
31	0x3dfa0bc3	0.122092746
32	0xbda1c883	-0.07899573
33	0xbe270876	-0.16311821
34	0xbe34e79e	-0.1766648
35	0xbe07823b	-0.13233273
36	0xbd39b43a	-0.045337893
37	0xbd5c22a5	-0.053743977
38	0x3df5ee66	0.120083615
39	0x3d42ea99	0.04758701
40	0xbd91af68	-0.07113534
41	0x3d43f39c	0.047839746
42	0xbdb99336	-0.090612814
43	0xbdab8810	-0.08375561
44	0x3c9dad91	0.019247802
45	0x3d5d0c1d	0.05396663
46	0xbc37cd09	-0.011218318
47	0x3d85a189	0.06524951
48	0xbdc7e595	-0.09760586
49	0xbd370f1a	-0.044692136
50	0xbd5b488c	-0.053535983
51	0x3d558104	0.052124992
52	0x3c5c44ed	0.013444168
53	0x3dbdc82d	0.09266696
54	0x3ddf5a4f	0.10905897
55	0x3d8dba90	0.069203496
56	0xbdfa0fde	-0.12210058
57	0xbe164c5a	-0.14677563
58	0x3d81f399	0.06345291
59	0x3e16cd5b	0.14726774
60	0x3d861b14	0.065481335
61	0xba720ae2	-0.0009233189
62	0x3d7dbfa1	0.06195033
63	0x3c8f4509	0.017488973
64	0xbd35848b	-0.044315856
65	0x3db252e3	0.08707216
66	0x3c05765d	0.008145896
67	0x3d7960f0	0.060883462
68	0xbcf0f591	-0.02941397
69	0x3d665b41	0.05623937
70	0xbe0762a1	-0.13221218
71	0x3a6ed105	0.0009110126
72	0x3d1420ba	0.036164023
73	0x3daadffe	0.08343504
74	0x3e0c7a56	0.13718542
75	0x3ddc4cd5	0.10756842
76	0x3d9b7448	0.07590538
77	0x3b406f7b	0.0029363323
78	0x3e16a93a	0.14712992
79	0xbd8314d3	-0.06400456
80	0x3d520e98	0.05128345
81	0xbd215b22	-0.03939355
82	0x3d8cd5b5	0.06876699
83	0x3e0833f2	0.13301066
84	0xbde6ef92	-0.11276163
85	0xbd1d9b9b	-0.038478475
86	0x3caff00d	0.02147677
87	0x3d12c2ae	0.035830192
88	0x3d0b0aba	0.033945777
89	0xbe04c2bd	-0.12964912
90	0x3d1f257a	0.0388541
91	0x3debef94	0.11520305
92	0x3b64bde8	0.0034903232
93	0x3d725999	0.05916748
94	0x3df2076b	0.11817821
95	0xbd92874b	-0.07154711
96	0x3d12ae75	0.035810906
97	0xbbc72ebe	-0.00607857
98	0xbce90ee8	-0.02844949
99	0x3cface32	0.0306159
100	0xbd31ca48	-0.0434058
101	0xbd76b30d	-0.06022935
102	0x3cea8e46	0.028632294
103	0x3c6cd877	0.014455906
104	0x3cf9dfe2	0.030502263
105	0x3ddb62cf	0.107122056
106	0xbc588542	-0.013215365
107	0xbdc6c0c5	-0.097047366
108	0xbe21c2fb	-0.15797035
109	0xbd36b1c0	-0.04460311
110	0xbd49f9ea	-0.049310602
111	0xbddd7008	-0.10812384
112	0x3e3178e0	0.17331266
113	0x3db43cfc	0.08800694
114	0xbdaeb221	-0.08530069
115	0x3ccfc375	0.025361756
116	0x3db11106	0.08645825
117	0xbd896422	-0.06708552
118	0x3d00c53b	0.031438094
119	0x3d51a2c2	0.05118061
120	0xbc9dd4d8	-0.01926653
121	0xbda2fc6d	-0.07958303
122	0x3d6c4fb7	0.05769321
123	0xbbc916a6	-0.006136733
124	0xbdf2f26c	-0.118626446
125	0xbd8139a9	-0.06309826
126	0xbdd5694d	-0.10420475
127	0x3d92a1d7	0.07159775
128	0xbdc61dd4	-0.09673658
129	0x3c39dfd3	0.011344868
130	0xbe388d4c	-0.1802265
131	0x3d1ff869	0.03905526
132	0xbdbbff5a	-0.09179564
133	0xbd2b8599	-0.041875456
134	0xbdc0e2c4	-0.09418252
135	0xbd9ce356	-0.076605484
136	0xbd8aff21	-0.06786943
137	0x3e2132cd	0.15742035
138	0x3e29f7c0	0.16598415
139	0x3d8a6b3a	0.06758733
140	0x3e115ac3	0.14194779
141	0xbc4f2c37	-0.012644819
142	0x3e24443f	0.16041659
143	0x3cdd4147	0.027008666
144	0x3c868eab	0.016425451
145	0x3db4c47d	0.0882654
146	0xbd797cda	-0.060910083
147	0x3bc455ba	0.0059916647
148	0xbbfe1c4c	-0.007754838
149	0x3d3bc36a	0.04584066
150	0xbbf8f6e4	-0.007597791
151	0xbce0d1e0	-0.027443826
152	0xbde8a7e4	-0.113601476
153	0xbccefe88	-0.025267854
154	0x3d0a3af9	0.033747647
155	0x3d82f020	0.063934565
156	0x3d58a719	0.05289373
157	0xbdc0683f	-0.09394883
158	0xbd4064cc	-0.046971127
159	0x3d73261e	0.059362523
160	0xbe050495	-0.12990029
161	0xbde0d8c8	-0.10978848
162	0x3e14717d	0.14496417
163	0x3e60c3dd	0.21949716
164	0xbbbb2763	-0.0057114824
165	0xbd4a8fc8	-0.049453527
166	0xbd161f4a	-0.036650933
167	0xbd94db97	-0.07268446
168	0x3d9ec720	0.07752824
169	0xbd9d05ed	-0.07667146
170	0xbd803fc9	-0.06262166
171	0x3daf0a03	0.085468315
172	0xbdabc0af	-0.08386361
173	0x3d9b88f5	0.07594482
174	0x3ce87ea4	0.0283807
175	0xbdea22e8	-0.11432439
176	0xbdc14898	-0.09437674
177	0xbd5d0bf2	-0.05396647
178	0x3cf84358	0.03030555
179	0xbe03bf23	-0.12865882
180	0x3da1157a	0.078654245
181	0x3dae8c22	0.08522822
182	0x3db5317b	0.08847328
183	0x3de736c1	0.1128974
184	0xbd16bd8c	-0.03680186
185	0x3cc8056a	0.024416644
186	0x3e3775d1	0.17916037
187	0xbd8a7d27	-0.06762152
188	0xbe2fa748	-0.17153656
189	0x3d8d8d82	0.06911756
190	0x3e1bcdb1	0.15215184
191	0x3db03511	0.086038716
192	0xbe0c16ce	-0.13680574
193	0xbd8e7c81	-0.06957341
194	0x3ddad038	0.10684246
195	0xbdf59c4a	-0.119927004
196	0xbdbfd285	-0.09366325
197	0xbdb95235	-0.09048883
198	0x3ddb973b	0.10722204
199	0xbe016ccc	-0.12639159
200	0xbc1ad911	-0.009451167
201	0x3d702657	0.058630314
202	0xbdd07576	-0.10178654
203	0x3e18cd25	0.14922006
204	0xbd4e7877	-0.050407853
205	0x3dbc8ec2	0.092069164
206	0x3d252e42	0.040327318
207	0xbcbf3fdc	-0.02334588
208	0x3d791360	0.060809493
209	0x3dccaf45	0.099943675
210	0x3d3e50a0	0.04646361
211	0x3dbefc28	0.09325439
212	0xbe391286	-0.18073472
213	0x3c95e438	0.0182973
214	0xbd24c2ca	-0.040224828
215	0x3de6cc20	0.112694025
216	0xbdccbc38	-0.099968374
217	0x3d692829	0.056923065
218	0x3dc17347	0.094458155
219	0x3dcdfa9f	0.10057568
220	0xbcbda7ff	-0.023151396
221	0xbd281d06	-0.041043304
222	0x3c3170f1	0.01083015
223	0xbc608fad	-0.01370613
224	0x3d4a83c4	0.049442068
225	0xbccaec60	-0.024770916
226	0xbdf9d45f	-0.1219871
227	0xbd9c1f11	-0.07623113
228	0xbd1aa4a3	-0.037754666
229	0x3d4d0353	0.050052
230	0x3d7c6a92	0.06162507
231	0x3ddf7950	0.109118104
232	0x3d64ba62	0.05584181
233	0xbd9901cb	-0.07471045
234	0x3d2be3d2	0.041965313
235	0x3e15ecd6	0.14641127
236	0xbe3c11de	-0.18366191
237	0x3d33cf27	0.043898728
238	0xbe196653	-0.1498044
239	0xbd8af084	-0.06784156
240	0xbca0efef	-0.01964566
241	0x3e1e6077	0.15466486
242	0xbcef93b8	-0.029245242
243	0xbdec32a1	-0.11533094
244	0xbdd1b089	-0.102387495
245	0xbda0598e	-0.07829581
246	0xbde3a7c5	-0.11115984
247	0x3e1974c3	0.14985947
248	0xbd836a96	-0.06416814
249	0x3df19eea	0.117978886
250	0xbd5939d3	-0.05303366
251	0xbc8e41c4	-0.017365344
252	0x3da645a3	0.08118751
253	0xbe283e0b	-0.16429918
254	0x3e09a12b	0.13440387
255	0x3d817a85	0.06322197

tcn.network.0.net.4.bias f4 [32]
0	0x3d856a3f	0.065144055
1	0x3a5d2083	0.00084353256
2	0xbd48582a	-0.048912205
3	0x3e06559f	0.131186
4	0xbdcc6082	-0.09979345
5	0xbe296a62	-0.16544488
6	0xbe0fab3d	-0.14030166
7	0xbdabe217	-0.083927326
8	0x3cae1977	0.021252377
9	0xbd04e4d2	-0.032444783
10	0xbcbd630a	-0.023118515
11	0x3d37d3dc	0.04487978
12	0xbd7022f8	-0.0586271
13	0x3c64659c	0.013940241
14	0xbbb2ba0a	-0.0054543065
15	0x3c9a2aad	0.018819178
16	0xbd141679	-0.036154244
17	0x3c880f70	0.016608924
18	0xbd138bdf	-0.036022063
19	0xbdd2127c	-0.10257432
20	0xbce7167a	-0.02820896
21	0x3cf03eab	0.029326757
22	0x3bb264bb	0.005444137
23	0x3d5e2f91	0.05424458
24	0x3c589d81	0.013221146
25	0x3ca6bd34	0.020353891
26	0xbdd4b9d2	-0.10387005
27	0x3d1d22a9	0.038363133
28	0x3bdfa4f5	0.0068250843
29	0xbd478e5c	-0.04871975
30	0x3ce570b1	0.028007837
31	0xbd7b8502	-0.061406143

tcn.network.0.net.4.weight_g f4 [32, 1, 1]
0	0x3ef6ffcf	0.4824204
1	0x3f0d5047	0.5520062
2	0x3f016a25	0.5055259
3	0x3f062a2f	0.5240812
4	0x3efe69ef	0.49690196
5	0x3f13fe2c	0.5780971
6	0x3f0fc0e0	0.5615368
7	0x3ef55b92	0.47921425
8	0x3f07b411	0.53009135
9	0x3f2670a1	0.6501561
10	0x3f0c6617	0.54843277
11	0x3f0d9b4d	0.55315095
12	0x3f1595d5	0.5843175
13	0x3ef7028c	0.4824413
14	0x3f2042a9	0.62601715
15	0x3f111c3f	0.56683725
16	0x3f124ee7	0.57151645
17	0x3f181be3	0.5941755
18	0x3f1002d0	0.5625429
19	0x3f1bbade	0.6083201
20	0x3f12f027	0.57397693
21	0x3f0501f6	0.5195612
22	0x3f13001a	0.5742203
23	0x3f0e41a3	0.55568904
24	0x3f0a63e1	0.54058653
25	0x3f04899d	0.5177248
26	0x3f192a62	0.59830296
27	0x3f1f0691	0.62119395
28	0x3f136550	0.57576466
29	0x3f126fc8	0.57201815
30	0x3f0d860e	0.55282676
31	0x3f105a86	0.5638813

tcn.network.0.net.4.weight_v f4 [32, 32, 2]
0	0x3e0100b7	0.12597929
1	0x3bc5a855	0.0060320296
2	0xbcaae45f	-0.020860849
3	0x373f673c	1.1408523e-05
4	0xbe02bf14	-0.12768203
5	0xbd387644	-0.045034662
6	0xbe27ea2c	-0.16397923
7	0x3e183d23	0.14867072
8	0xbe01e438	-0.12684715
9	0x3df0a0c6	0.11749415
10	0x3d4ef603	0.050527584
11	0x3d87d64f	0.06632673
12	0xbd8fef9c	-0.07028124
13	0xbdcbcbd4	-0.099509865
14	0x3d8de554	0.069285065
15	0xa46137a2	-4.883622e-17
16	0x3e2f80d7	0.17138992
17	0x3d0f8ff5	0.035049397
18	0xbd85c7d2	-0.06532253
19	0x3dfa0a9a	0.12209053
20	0x3e268d5b	0.1626486
21	0xbdc37d89	-0.09545428
22	0xbcfa5aaa	-0.03056081
23	0x3d82fd1e	0.063959345
24	0x3e36457d	0.17799945
25	0xbdc2533e	-0.094885334
26	0x3cb6299a	0.022236634
27	0xbd9c6bc2	-0.07637741
28	0x3ccd04a2	0.025026623
29	0xbd91fc00	-0.07128143
30	0x3e0850a3	0.1331201
31	0xbd576712	-0.05258853
32	0x3e299744	0.1656161
33	0x3de887c7	0.113540225
34	0x3e00d525	0.12581308
35	0xbdca05b0	-0.09864366
36	0xbdd195c0	-0.10233641
37	0x3d974d24	0.0738776
38	0x3e130f2e	0.1436126
39	0x3e08cbd1	0.13359
40	0x3c05b91b	0.008161808
41	0x3cfa9db2	0.030592773
42	0x3e0cf917	0.13766895
43	0x3dce0d0f	0.100610845
44	0xbdfa6600	-0.12226486
45	0x3ddebec4	0.108762294
46	0x3e19e305	0.15028007
47	0x3ddace35	0.10683862
48	0xbd0e12ee	-0.03468602
49	0x3cfefe5a	0.031127144
50	0x3d41b7ff	0.047294613
51	0xbde8ef29	-0.11373741
52	0x3d5132de	0.0510739
53	0x3e0a24d2	0.13490608
54	0xbd8e2cd6	-0.069421455
55	0xbdfafb29	-0.12254936
56	0xbdf0eaf1	-0.117635615
57	0x3d6fe722	0.058570035
58	0x3d35c09c	0.04437314
59	0xbd8ace4b	-0.067776285
60	0x3dc82d20	0.09774232
61	0x3e21adb6	0.15788922
62	0xbdbe0087	-0.09277444
63	0x3d8aed63	0.06783559
64	0x3c34e064	0.011039827
65	0x3d3b0047	0.04565456
66	0x3b7a20b2	0.003816646
67	0xbd98d50f	-0.07462513
68	0xbdd0ad24	-0.10189274
69	0x3d2cfec2	0.042235143
70	0xbd16a425	-0.036777634
71	0x3ddafde2	0.106929556
72	0xbdb3828d	-0.08765135
73	0xbcd784a2	-0.026308361
74	0xbdca5511	-0.098795064
75	0xbce355b6	-0.027750831
76	0x3d4bf5d4	0.049794987
77	0xbd080668	-0.033209234
78	0x3de6ce7a	0.11269851
79	0x3de5b4ec	0.11216149
80	0xbd4617fc	-0.048362717
81	0xbd4529e3	-0.04813565
82	0xbd436b95	-0.04771002
83	0x3c07a05c	0.008277979
84	0x3d35c0fd	0.0443735
85	0xbdddf460	-0.108376265
86	0xbdb8ce89	-0.090237685
87	0xbca963e6	-0.020677518
88	0xbc90ecb7	-0.017691
89	0x3d9bf61c	0.07615301
90	0xbdcf76aa	-0.10130055
91	0xbdbb019e	-0.09131168
92	0x3d986757	0.074415855
93	0xbc4442a5	-0.01197878
94	0x3d517530	0.05113715
95	0xbe2600f2	-0.16211298
96	0xbdfe249d	-0.12409327
97	0xbdf57f89	-0.11987216
98	0xbe1ade2b	-0.15123813
99	0x3d92b471	0.07163323
100	0xbc25392a	-0.01008443
101	0xbdb2938f	-0.08719551
102	0xbdc0c39e	-0.09412311
103	0x3a015dbe	0.0004934928
104	0xbce983a6	-0.028505158
105	0x3d340523	0.04395021
106	0xbbd1a4f2	-0.006397837
107	0x3d9422d0	0.072332025
108	0x3c81ea1c	0.015858702
109	0xbde97755	-0.11399714
110	0x3d4543c6	0.048160337
111	0xbde9bf47	-0.114134364
112	0x3deeed7f	0.116663925
113	0xbe06bf6b	-0.13158958
114	0xbd24cbd3	-0.040233444
115	0xbbfd3629	-0.0077274037
116	0x3d188ce8	0.037243754
117	0x3d67100b	0.056411784
118	0xbc7a6de5	-0.01528499
119	0x3db11aef	0.08647715
120	0x3ba3746f	0.004988245
121	0xbdd34f77	-0.10317891
122	0x3e03bcdc	0.12865013
123	0x3cf22683	0.02955938
124	0xbdbf927b	-0.09354111
125	0xbd798d01	-0.060925487
126	0xbc72385f	-0.014783948
127	0x3df10c47	0.1176992
128	0x3d514b2b	0.051097076
129	0xbdcccf7a	-0.100005105
130	0x3e05743c	0.13032621
131	0x3e453121	0.19257022
132	0x3d8a57ae	0.06755005
133	0xbd4bb865	-0.0497364
134	0x3e0b1842	0.13583472
135	0xbe044459	-0.12916698
136	0xbdb2f8bd	-0.08738849
137	0xbe0feaea	-0.14054456
138	0x3e12daa1	0.14341213
139	0xbde1e14a	-0.110292986
140	0xbd6e8ee5	-0.058241744
141	0xbd5f98c3	-0.054589044
142	0xbddbbb18	-0.10729045
143	0xbc361efd	-0.011115787
144	0x3d86bf0c	0.06579408
145	0xbc186761	-0.009301991
146	0x3da0a3af	0.0784372
147	0x3b9918e2	0.0046721557
148	0x3aa983ef	0.0012932996
149	0x3d231f8c	0.039825007
150	0xbe295a31	-0.16538312
151	0xbcce4fb8	-0.025184497
152	0x3d9a510b	0.07534989
153	0x3dfb93f7	0.122840814
154	0x3d77349c	0.060352907
155	0xbd77b69d	-0.060476888
156	0xbe187bc0	-0.14890957
157	0xbde4bad4	-0.11168447
158	0x3df82afc	0.121175736
159	0xbd84e413	-0.06488814
160	0x3d892aff	0.06697654
161	0xbc3a2b98	-0.011362933
162	0x3dae639e	0.08515094
163	0xbdd79b5b	-0.105276786
164	0xbda500d6	-0.080568
165	0x3df8b984	0.12144759
166	0xbcafba8b	-0.021451255
167	0xbdadaec2	-0.08480598
168	0x3e109c98	0.14122236
169	0x3e03f843	0.12887673
170	0xbd8d3ffb	-0.06896969
171	0xbd71940b	-0.058979075
172	0xbdf03c7d	-0.11730287
173	0xbdfc965b	-0.123333655
174	0xbe029c2b	-0.12754886
175	0xbdf454e1	-0.11930252
176	0xbe19fa9f	-0.1503701
177	0x3dd3e948	0.10347229
178	0x3dfab62b	0.12241777
179	0x3df0d92b	0.117601715
180	0xbe185697	-0.14876781
181	0xbdc9ce89	-0.098538466
182	0x3e146d81	0.14494897
183	0x3e640af4	0.22269803
184	0x3df316ab	0.11869558
185	0x3d4f7d1f	0.050656434
186	0x3dff0611	0.12452329
187	0xbe00f39a	-0.12592927
188	0xbe030951	-0.12796523
189	0xbdefadac	-0.11703047
190	0x3e05ca21	0.13065387
191	0x3df10e48	0.11770302
192	0xbdfd814e	-0.123781785
193	0x3dc6f553	0.09714761
194	0x3de4a0e9	0.11163504
195	0x3d70dcf5	0.05880447
196	0x3d02f074	0.031967595
197	0x3dde969a	0.10868569
198	0xbd81a9bb	-0.06331202
199	0xbd84b130	-0.06479108
200	0x3e262040	0.1622324
201	0xbe1f3ef6	-0.15551361
202	0xbd3d3a72	-0.046198316
203	0x3c890259	0.016724752
204	0x39eaedc7	0.00044809116
205	0x3e0d35f1	0.13790108
206	0x3df14da1	0.11782385
207	0x3d9545ac	0.072886795
208	0xbe12638f	-0.14295791
209	0xbe0bd7d5	-0.13656552
210	0x3ddbb200	0.1072731
211	0x3dcac320	0.099004984
212	0x3c6d2f70	0.014476642
213	0x3d97dad3	0.07414784
214	0xbd9552ef	-0.07291209
215	0xbda092cf	-0.078405015
216	0x3e514606	0.20436868
217	0x3dcf9fd5	0.101379074
218	0x3d599706	0.053122543
219	0x3df8ddee	0.12151705
220	0x3d804c3b	0.0626454
221	0xbc9c3b67	-0.019071294
222	0x3e1d35f8	0.15352619
223	0xbe15fae2	-0.14646485
224	0x3def8d26	0.11696844
225	0xbd8d0783	-0.06886198
226	0x3e67de95	0.22643502
227	0xbde98b3b	-0.11403509
228	0x3c9b62d3	0.018968021
229	0x3d4f42ef	0.050600942
230	0xbce25dec	-0.027632676
231	0x3dc8ca43	0.09804203
232	0xbd6fbff4	-0.05853267
233	0x3d95c7ad	0.07313476
234	0xbd0aaf80	-0.033858776
235	0x3dc839fc	0.09776685
236	0x3e0ef3f5	0.1396025
237	0xbe1647b6	-0.14675793
238	0xbc58d5f3	-0.013234603
239	0x3ddc04cf	0.10743105
240	0x3c6ee69d	0.01458135
241	0x3d59d9f7	0.053186383
242	0x3dff28ea	0.124589756
243	0xbe1de06c	-0.15417641
244	0xbe024a28	-0.12723601
245	0x3d9208f4	0.07130614
246	0x3e0c7719	0.13717307
247	0x3e03ddbd	0.12877555
248	0xbd594e7c	-0.053053364
249	0xbd16f0a2	-0.03685058
250	0xbd75f623	-0.060049187
251	0xbe083938	-0.13303077
252	0x3dad98e5	0.08476428
253	0x3d4098b5	0.047020633
254	0x3df203cf	0.11817133
255	0x3dbb1f71	0.09136856

tcn.network.0.downsample.weight f4 [32, 32, 1]
0	0xbe6f0d90	-0.23345017
1	0x3e9eba13	0.31001338
2	0x3c996251	0.018723639
3	0x3e87e226	0.26539725
4	0xbcda491b	-0.026646188
5	0x3d237612	0.039907522
6	0x3cbb80c6	0.022888552
7	0x3c2baf35	0.010478784
8	0x3d0407e2	0.03223408
9	0x3e3b955a	0.18318692
10	0x3d746bc9	0.059673104
11	0xbe174fd4	-0.14776546
12	0xbd3e0475	-0.04639097
13	0x3e1e6cbe	0.1547117
14	0x3c7bd2f5	0.01537012
15	0xbc912d13	-0.017721688
16	0xbe0ab030	-0.13543773
17	0xbc9cc89d	-0.019138629
18	0x3e2ce844	0.16885477
19	0xbe0153c1	-0.12629606
20	0x3e28abad	0.16471739
21	0xbe2a34c7	-0.16621695
22	0x3c82a191	0.015946181
23	0xbe763be8	-0.2404629
24	0x3d4073e6	0.04698553
25	0xbdfba0dc	-0.12286541
26	0xbe5562be	-0.20838448
27	0x3d34cf7c	0.044143185
28	0xbe64805b	-0.22314589
29	0x3d02f7f2	0.03197474
30	0xbce0f682	-0.027461294
31	0x3d1e9cb9	0.03872368
32	0xbc918c24	-0.01776702
33	0xbd18d94f	-0.037316617
34	0x3d582325	0.05276789
35	0x3e29238d	0.16517468
36	0x3c60d371	0.013722287
37	0xbded7552	-0.11594643
38	0xbd6effba	-0.05834935
39	0x3e265a95	0.16245492
40	0xbce963ff	-0.028490065
41	0xbcddcec9	-0.027076142
42	0xbcc52caf	-0.024069158
43	0xbe0e62f2	-0.13904932
44	0xbe1825f0	-0.14858222
45	0x3d7796fd	0.060446728
46	0x3e0f6a30	0.14005351
47	0x3dd37697	0.103253536
48	0xbe39dcbe	-0.18150613
49	0xbd2d50a2	-0.042313226
50	0xbddfc1ec	-0.109256595
51	0x3d9876d7	0.07444542
52	0xbd243fe9	-0.040100012
53	0xbdb19b18	-0.0867216
54	0xbe23601d	-0.15954633
55	0xbd982133	-0.07428207
56	0xbcef76c4	-0.029231437
57	0xbe1efc44	-0.15525919
58	0x3e3ca551	0.18422438
59	0x3e13ad17	0.14421497
60	0x3d9feb5e	0.078085646
61	0x3e0ae799	0.1356491
62	0xbe34f770	-0.17672515
63	0xbd677115	-0.056504328
64	0xbd6d51a8	-0.0579392
65	0xbe7307ce	-0.23733446
66	0x3d318ff8	0.04335019
67	0xbe90ec5e	-0.28305334
68	0x3ccaba34	0.024746992
69	0xbd4f8282	-0.05066157
70	0x3c6c0f5d	0.01440796
71	0x3dee55c0	0.11637449
72	0x3e8ad458	0.2711513
73	0x3d4ce886	0.05002644
74	0xbdeda79a	-0.11604233
75	0xbe0ed093	-0.13946752
76	0xbcfff299	-0.03124361
77	0x3dd38092	0.10327257
78	0xbdef21ae	-0.11676346
79	0x3e2559cb	0.16147535
80	0x3e4ed95d	0.20200105
81	0x3e3d33f8	0.18476856
82	0xbdc25cf2	-0.09490384
83	0xbe233f9b	-0.15942232
84	0x3c7b6b0b	0.015345345
85	0x3e844a5c	0.25837982
86	0x3e39e098	0.18152082
87	0x3e1bf0e3	0.1522861
88	0xbd22efe7	-0.03977957
89	0x3c225b8b	0.009909521
90	0x3e38cc6e	0.18046734
91	0x3d9bde26	0.07610731
92	0x3e679c70	0.2261827
93	0x3e4e474c	0.20144385
94	0xbe0bd057	-0.13653694
95	0xbdb19c82	-0.086724296
96	0xbe0f97d0	-0.14022756
97	0xbcfd3abc	-0.030911796
98	0xbd4fdc98	-0.050747484
99	0xbd344bdb	-0.044017654
100	0xbc7d2185	-0.015449886
101	0xbe1bf76f	-0.15231107
102	0x3da50bfd	0.08058927
103	0x3e13c070	0.14428878
104	0xbe066e24	-0.13127953
105	0x3e2e5693	0.17025213
106	0xbdcbc4e5	-0.09949664
107	0x3cb6c8e4	0.022312589
108	0xbe13b3df	-0.14424084
109	0x3ccc40e4	0.024933286
110	0xbd2501d4	-0.040284947
111	0xbd10510c	-0.035233542
112	0x3dd358e3	0.10319688
113	0xbd5866c0	-0.052832365
114	0x3ddf90a9	0.109162636
115	0xbda8f21d	-0.082493044
116	0xbd77e9d8	-0.060525745
117	0xbdc2a65a	-0.09504385
118	0xbcb79a78	-0.022412524
119	0xbe44ad81	-0.19206811
120	0xbc22fcbe	-0.009947954
121	0xbce09245	-0.027413497
122	0xbd139d68	-0.036038786
123	0xbe7442ff	-0.23853682
124	0xbe615fed	-0.22009249
125	0x3d76004a	0.06005887
126	0x3d7e6c91	0.062115256
127	0x3e40629d	0.18787618
128	0x3e2611b3	0.16217689
129	0xbe33ac4f	-0.175462
130	0x3e35d82a	0.17758241
131	0xbdc0ca14	-0.09413543
132	0xbccf87a8	-0.02533324
133	0xbd970aa6	-0.07375078
134	0xbe0affa0	-0.13574076
135	0x3c8bbee4	0.017058797
136	0x3e5064b1	0.2035091
137	0xbda364e5	-0.079782285
138	0x3e434855	0.19070561
139	0x3d2bbf68	0.041930586
140	0x3e223207	0.15839396
141	0xbd0c4f53	-0.034255337
142	0xbe08b095	-0.1334861
143	0x3e21c683	0.15798382
144	0xbb051311	-0.0020305554
145	0x3c4c1e44	0.012458388
146	0xbdde6cff	-0.10860633
147	0x3cbf80e2	0.023376886
148	0xbe668288	-0.22510731
149	0x3de36814	0.11103836
150	0x3e0fd819	0.14047278
151	0x3e0abfe1	0.13549758
152	0xbd4bcff2	-0.04975886
153	0x3e66faaf	0.22556566
154	0x3de78982	0.113055244
155	0xbe1270ab	-0.14300792
156	0x3e8617a6	0.26189917
157	0xbdb2a4f5	-0.08722869
158	0xbda4263e	-0.080151066
159	0xbd84e75c	-0.06489441
160	0x3df95272	0.12173928
161	0xbe17d027	-0.14825498
162	0xbd8edc9b	-0.06975671
163	0xbd647970	-0.055779874
164	0x3e431cfb	0.19054024
165	0x3d6aef4e	0.057357125
166	0x3e21a617	0.15786014
167	0x3d43ec69	0.04783288
168	0x3da7c444	0.081917316
169	0x3e0667fa	0.13125601
170	0x3c806335	0.015672306
171	0xbcfd80ee	-0.030945268
172	0xbcff4b5a	-0.03116386
173	0x3c37dc52	0.011221962
174	0xbe278f0f	-0.16363166
175	0x3e92e6bc	0.2869166
176	0xbd6a5d36	-0.0572178
177	0x3cea393c	0.028591745
178	0xbe95c9bf	-0.29255483
179	0xbe0ec6b9	-0.13942994
180	0xbdf6a5e5	-0.120433606
181	0x3e7c8247	0.24659072
182	0xbe22252b	-0.15834491
183	0x3bf364bd	0.0074277804
184	0x3ddd1d21	0.107965715
185	0xbd78fe58	-0.060789436
186	0x3e4f717a	0.20258132
187	0x3e6a8815	0.22903474
188	0xbcaf5770	-0.021403998
189	0x3e9483fb	0.29006943
190	0xbe9cad27	-0.30600855
191	0xbe19e9ee	-0.15030643
192	0x3d44726b	0.04796068
193	0x3c9be846	0.019031655
194	0x3d4ea3a0	0.050449014
195	0xbe40ff7a	-0.18847457
196	0x3e29c8f7	0.16580568
197	0x3d8968af	0.0670942
198	0x3e4274b0	0.18989825
199	0x3e1dbb1c	0.15403408
200	0xbc7d3c2a	-0.015456239
201	0x3d93d121	0.072176225
202	0xbb009bd7	-0.0019624138
203	0x3e81f427	0.25381586
204	0xbe036957	-0.12833153
205	0xbac1b935	-0.0014779927
206	0xb942cf35	-0.00018578472
207	0x3e5d82ec	0.21631974
208	0xbe2ff473	-0.17183094
209	0xbd3ca5e6	-0.04605665
210	0xbe5e05d6	-0.21681914
211	0x3e4fb8e3	0.20285372
212	0xbdbff088	-0.093720496
213	0x3e09f3f6	0.1347197
214	0x3cbb65c8	0.022875682
215	0x3e1402f6	0.14454255
216	0xbd043790	-0.03227955
217	0xbdff9956	-0.124804184
218	0x3e77aedd	0.24187799
219	0x3e1b36b0	0.1515758
220	0xbdd829d3	-0.10554852
221	0x3e099f67	0.13439713
222	0x3d4428e2	0.04789055
223	0x3dd48932	0.103777304
224	0x3e0a10a1	0.13482906
225	0x3ce2048e	0.027590062
226	0xbe0cfa22	-0.13767293
227	0xbe2c5ce6	-0.16832313
228	0xbdafe2a6	-0.08588152
229	0xbb9a6d3a	-0.004712728
230	0x3dab449d	0.08362696
231	0xbdfe708e	-0.12423812
232	0x3e1ff7f6	0.15621933
233	0xbc975422	-0.018472735
234	0xbc1fdbee	-0.009757025
235	0xbd6e9198	-0.058244318
236	0x3e072a2c	0.13199681
237	0xbdfeec3b	-0.12447401
238	0xbcfef9d3	-0.031124985
239	0xbce9f9b2	-0.028561447
240	0x3e0006ce	0.12502596
241	0x3df1aea6	0.1180089
242	0xbb584630	-0.003300082
243	0x3d437458	0.047718376
244	0xbceeb304	-0.029138096
245	0xbd4cc578	-0.04999301
246	0xbdd3a503	-0.10334208
247	0x3e484942	0.19559196
248	0x3de216b4	0.110394865
249	0xbe137b41	-0.14402486
250	0xbdec2e36	-0.115322515
251	0xbc76a96d	-0.015055043
252	0xbd39e2aa	-0.04538218
253	0x3e1f44fb	0.15553658
254	0x3d828c3b	0.06374403
255	0xbcef1b37	-0.029187782

tcn.network.0.downsample.bias f4 [32]
0	0xbc73a8f2	-0.014871823
1	0x3e0c1db6	0.13683209
2	0xbc8f4aea	-0.017491776
3	0xbe027110	-0.12738442
4	0x3df4b28c	0.119481176
5	0xbc9d8c43	-0.019231921
6	0xbe49a231	-0.19690777
7	0xbd2459c1	-0.04012466
8	0x3de89942	0.113573566
9	0x3d03afc6	0.032150052
10	0xbe4067eb	-0.18789642
11	0x3d933573	0.07187929
12	0xbe079999	-0.13242187
13	0x3d0d3fcd	0.034484673
14	0x3d1752dd	0.03694426
15	0xbc579eb2	-0.0131603945
16	0xbde6dcc3	-0.11272576
17	0xbdc08c77	-0.094017915
18	0x3da8116f	0.0820645
19	0x3cfc7ebe	0.030822154
20	0xbc755607	-0.014974124
21	0xbded6f00	-0.11593437
22	0xbd93ead5	-0.07222525
23	0xbe202e88	-0.1564275
24	0x3bbd1d19	0.005771291
25	0x3d857870	0.06517112
26	0x3d701d53	0.058621716
27	0xbd2c40bc	-0.042053923
28	0x3cd9f8a5	0.02660782
29	0x3c7eabe1	0.015543909
30	0xbe473626	-0.1945425
31	0x3c9ca23e	0.019120332

tcn.network.1.conv1.bias f4 [32]
0	0x3d6e5212	0.058183737
1	0xbd050448	-0.032474786
2	0xbce552cd	-0.027993584
3	0xbd32bd46	-0.043637536
4	0x3d5b6ae1	0.053568725
5	0xbcfaad35	-0.03060017
6	0xbc7a39a0	-0.015272528
7	0x3d939658	0.0720641
8	0xbcc38774	-0.0238683
9	0x3dbc2ce9	0.091882534
10	0x3cbe771a	0.023250151
11	0xbc3424dd	-0.010995117
12	0x3d8c810b	0.068605505
13	0x3d26c5a7	0.04071584
14	0x3da19463	0.07889631
15	0x3d2b250a	0.04178337
16	0xbe14a2d3	-0.14515238
17	0xbbaab58b	-0.00520963
18	0xbde20b64	-0.11037329
19	0x3da84300	0.08215904
20	0xbc6ccbd7	-0.014452896
21	0x3da8f185	0.08249191
22	0x3d61c5ac	0.055120155
23	0xbdc04f06	-0.093900725
24	0xbda74d90	-0.08169091
25	0x3d970ef4	0.07375899
26	0xbd37274d	-0.044715215
27	0xbd14a955	-0.0362943
28	0x3e071e94	0.13195258
29	0x3ddac82e	0.106827125
30	0xbe08d4c3	-0.13362412
31	0xbe08fea4	-0.13378388

tcn.network.1.conv1.weight_g f4 [32, 1, 1]
0	0x3f105b6d	0.56389505
1	0x3f0bf467	0.54669803
2	0x3f040ef6	0.5158533
3	0x3f1c3a19	0.6102615
4	0x3f1b0960	0.6056118
5	0x3f10aa05	0.5650943
6	0x3f30de67	0.6908936
7	0x3f0ca3a9	0.54937226
8	0x3f3d85a5	0.7403205
9	0x3f303739	0.68834263
10	0x3f22fa39	0.6366306
11	0x3f12470a	0.57139647
12	0x3f10d1de	0.5657023
13	0x3ef4dc88	0.47824502
14	0x3f086ff2	0.53295815
15	0x3f827774	1.0192704
16	0x3f282efc	0.6569669
17	0x3f134e71	0.5754157
18	0x3f03b3d0	0.5144625
19	0x3f40b4eb	0.7527606
20	0x3f0c0e7e	0.54709613
21	0x3f0412ab	0.51590985
22	0x3f29cc21	0.663271
23	0x3f08405b	0.532232
24	0x3f164f87	0.587151
25	0x3f0b9011	0.545167
26	0x3ef92e45	0.48668113
27	0x3f14433f	0.5791511
28	0x3f2b495c	0.6690881
29	0x3f0b5de0	0.54440117
30	0x3f07a37d	0.5298384
31	0x3f2ecde3	0.6828291
